GANS/gan_project - Copy/timegan_weights.pth (torch, 232887 bytes, 25 tensors)

fc.weight f4 [64, 11]
00000000: cce8 083e 6822 913e 60d2 6bbc c045 1abd
00000010: e7b1 0fbe 5882 16be e320 0bbe 7410 7d3e
00000020: 906a 41be fc5e 813e b4e8 79be aac0 243e
00000030: 78a6 5fbe 0015 d53d e0a6 543e 6e54 973e
00000040: 307e 893d f96e 20be de0f 2f3e e2d3 39be
00000050: fc5f 6a3e 30d2 2c3d 6e56 13be 1445 59be
00000060: 9053 963c e5c8 79be 3092 6a3e 343d d33d
00000070: bcb0 803e 6a48 413e a804 acbd ae14 80bd
00000080: f08e fcbc 755d 91be 900f 763e 6e4b 55be
00000090: f0eb 003d c039 94bc d2d6 943e 9cb0 b73d
000000a0: e695 b2bd 94f1 78be 4c8c 5b3e 3c47 c93d
000000b0: 36f3 86bd 8020 9c3c f787 93be 9816 0cbd
000000c0: ec1c d1bd 3069 723d ba45 963e 24eb 49be
000000d0: aac4 92be 0863 703d 74b6 91bd f29b 9dbd
000000e0: 7024 8d3e 1c63 fbbd ba90 2b3e 20d2 793e
000000f0: 4e92 20be e04d fd3c b083 4c3e 045d 63be
00000100: 6824 973e 7c68 8c3e 08c5 7a3e 1cac abbd
00000110: 889e 94bd 5662 6cbe f848 29bd e8e5 583e
00000120: 741c bc3d 385a 60bd 8892 4c3e ec08 7bbe
00000130: 00df 8b3e a424 bc3d a464 56be 4bda 39be
00000140: 571c 92be 50f0 89be 8c01 aa3d f03e aebc
00000150: 8890 5e3d 10b8 fcbd 5292 41be a0d0 8d3c
00000160: c4bc 4c3e 8cd4 a4bd 8a04 1cbe 2d09 0abe
00000170: 2854 16be f876 8d3e d4f2 363e cc8c 59bd
00000180: 3068 bf3d 40d6 6fbc 78c0 193e 089c 953d
00000190: d2fd 3cbe e0b5 d83d d8ea c33d 128f 52be
000001a0: 3c21 c83d 14b3 a43d 0cfe adbd 6ee1 1fbe
000001b0: aa91 11be 343e 173e b40b 193e 105c 5d3e
000001c0: aee3 833e e684 e0bd 2022 553d 24b5 9c3d
000001d0: 704e ef3c 84df 473e ec67 f5bd 7c87 8f3d
000001e0: 812d 79be 78a9 aabd 7a8d a6bd 3f39 1bbe
000001f0: 78d3 23bd c040 353e 427a 6dbe 8906 83be
00000200: 5649 cebd dce7 863e d4d7 b7bd 00d6 86bb
00000210: 860b e9bd bc87 943d 8e61 183e ec7f cbbd
00000220: e4af 7d3e 004e 813b f082 743e 91b4 77be
00000230: 6a57 c4bd 740d 8f3e ec65 96be 201d 5cbc
00000240: de7b 803e 179e 6bbe 1002 4abd d82e bebd
00000250: 6443 6e3e 8889 173e e654 d4bd e8f7 46be
00000260: ee79 58be f496 9bbd 125e b6bd 9240 2bbe
00000270: 14ee 8f3e c059 573e dc5a 843e c6a0 263e
00000280: 5c51 91bd de4f 193e 1498 193e 00c0 e0b8
00000290: 8444 da3d b4d1 5bbe 7c35 093e acf5 913e
000002a0: 7031 26bd 24e2 413e 7015 9fbd bc3b 50be
000002b0: d6ca 67be 7278 60be 6094 ecbc 185a e43d
000002c0: 5e18 23be cc97 40be 181a 3bbe fc33 933e
000002d0: 8a57 213e 7ae5 983e 6e34 313e 2c40 e0bd
000002e0: 2018 76bd 32ec a3bd 9cc6 9dbd 243e f13d
000002f0: 105d 4dbd 58b3 3e3e 00fc 3fbb cbd4 5cbe
00000300: 289a 24bd a4d5 643e b0b4 fbbc 4862 50bd
00000310: 2a7a 04be f776 01be e6b3 5cbe 20e5 023e
00000320: d835 513d c0a7 34be 2dbf 95be c8de d93d
00000330: 60af 183e b411 48be d04d 55bd 21e1 0bbe
00000340: b09f 183d 8050 28bd d2e4 853e 5ceb 353e
00000350: 28ae e33d a2b9 84bd 0074 683e 2825 643e
00000360: 8c54 d43d a0ef a93c fc12 ad3d 1741 28be
00000370: 04a2 aa3d e3b1 92be 8014 30bd e5e7 91be
00000380: 94fb f13d 1689 fcbd 23f7 23be d500 10be
00000390: fea4 1dbe ac08 8bbe 6492 48be 9c63 68be
000003a0: e0d5 2f3c 4001 9a3d 0c1b 89be 9847 9cbd
000003b0: 4093 0abe ceec a3bd 64ec 8c3e d4da 7e3e
000003c0: 9899 4c3e 303a 263d 605b 19bc f0fd 22bd
000003d0: 7cd2 ff3d c00f 16bc 8432 e73d 5c02 62be
000003e0: 81c4 85be 803b 6a3b f8c8 d6bd 303f 843e
000003f0: 28f1 87bd 923b fabd f463 35be 382f 203e
0.13370055 0.28346562 -0.014393419 -0.037664175 -0.14032708 -0.1469816 -0.13586764 0.24713308
-0.18888307 0.2526778 -0.24405175 0.1608912 -0.21840847 0.10404396 0.20766783 0.29556602
0.067135215 -0.15667333 0.17095897 -0.18147233 0.22888178 0.042192638 -0.14388439 -0.21217757
0.018350393 -0.24393041 0.22907329 0.10314408 0.25134838 0.1887528 -0.083993256 -0.06253944
-0.030829877 -0.28391615 0.24029374 -0.20829555 0.031475008 -0.018093944 0.29070145 0.089692324
-0.08719997 -0.24310905 0.21440238 0.0982804 -0.065893576 0.019058466 -0.2881467 -0.034201235
-0.102105945 0.059182346 0.29350072 -0.19718605 -0.28665668 0.058688194 -0.07114878 -0.0769576
0.27566862 -0.12274763 0.16754428 0.24396563 -0.15680811 0.030920923 0.1997211 -0.22203451
0.29519963 0.27423465 0.24489224 -0.08382437 -0.072568 -0.23084387 -0.041329354 0.21181452
0.091851145 -0.05477354 0.19977772 -0.24515122 0.27318573 0.09186676 -0.20936829 -0.18149678
-0.28537247 -0.26941156 0.08301076 -0.021270245 0.054337054 -0.12339795 -0.18903473 0.017311394
0.19993883 -0.080483526 -0.15236107 -0.13480063 -0.1468054 0.27629828 0.17866069 -0.05311279
0.09346044 -0.0146384835 0.15014827 0.07305151 -0.184562 0.10581565 0.09566277 -0.2056239
0.09771964 0.08041969 -0.08495721 -0.15613338 -0.14215723 0.14769822 0.1494587 0.2161715
0.25759643 -0.10962848 0.052034497 0.07651737 0.029212207 0.19518858 -0.11982712 0.070082635
-0.24333765 -0.08333105 -0.08132453 -0.15158556 -0.039996594 0.17700481 -0.23191169 -0.25590923
-0.100725815 0.2634877 -0.08976713 -0.0041148663 -0.11379151 0.07252452 0.14880964 -0.099365085
0.24774128 0.003946066 0.23878074 -0.24189974 -0.095869854 0.2793995 -0.29374635 -0.013434678
0.25094503 -0.23009525 -0.049318373 -0.092862785 0.23267895 0.14798558 -0.103677556 -0.19430506
-0.21140262 -0.075971514 -0.08904661 -0.1672385 0.28111327 0.2103033 0.2585057 0.16272268
-0.07095596 0.14971873 0.1499942 -0.00010716915 0.106575996 -0.21466714 0.13399309 0.28507745
-0.04057449 0.18933922 -0.07767761 -0.20335287 -0.2263597 -0.21920946 -0.028879344 0.111499965
-0.15927264 -0.18807906 -0.18271673 0.28750598 0.1575605 0.29862577 0.17305157 -0.1094974
-0.0600816 -0.08004035 -0.07703897 0.117794305 -0.05013758 0.18623102 -0.002929449 -0.21565549
-0.040186077 0.22347122 -0.030725807 -0.05087498 -0.12937227 -0.12643038 -0.21553001 0.12782717
0.05107674 -0.17642117 -0.29247418 0.10638195 0.1491065 -0.19538003 -0.05207616 -0.13660099
0.037261665 -0.041092396 0.2615114 0.17765564 0.11117202 -0.06480719 0.227005 0.22279799
0.103676885 0.020744145 0.084508866 -0.1643108 0.08331683 -0.28651342 -0.0429883 -0.28497234
0.11815563 -0.123308346 -0.16012244 -0.14062817 -0.15394971 -0.27155054 -0.19587094 -0.22694248
0.010732144 0.0751977 -0.26778448 -0.07630843 -0.13532734 -0.08004151 0.27524102 0.24888164
0.19980466 0.040582836 -0.009360164 -0.039792955 0.124913186 -0.0091590285 0.11288932 -0.22071213
-0.26126483 0.0035741031 -0.104875505 0.25829458 -0.06637794 -0.122183934 -0.1771391 0.15643013

fc.bias f4 [64]
00000000: a02d 07bc 9435 2f3e 0c08 693e 258c 98be
00000010: 6aff 8c3e f8c8 3cbe 688d 493d 1cac 6a3e
00000020: 1cdb 323e a0df ecbd b003 10bd 14ae 8abd
00000030: 745d e5bd 7047 923e caf1 043e 6ac8 0bbe
00000040: 2e25 4cbe 30b0 0c3e 782c 4e3d 240c f03d
00000050: 6eb7 f8bd 5e9c 6dbe 3c47 f7bd e8d6 c23d
00000060: f01e cabc 3e5b dabd 809d 35bc 780b 073e
00000070: e742 81be 9df1 64be a8ac a63d 7cf6 0b3e
00000080: 8052 15bd 665b 833e 6019 2cbe 4080 973c
00000090: 31df 33be ea8c 85be 58f3 efbd ec65 87be
000000a0: cc59 723e fe46 8f3e 4a3f 84be bc42 c0bd
000000b0: d0d0 883e 1e99 823e 081c 473d 34cc 68be
000000c0: a87e 3f3e a2c2 1c3e 7050 73be 06f7 d8bd
000000d0: ab3e 90be 4c85 8c3d 0c29 043e 6001 86be
000000e0: 601e de3c 8897 43bd f053 4d3e a053 c7bc
000000f0: e108 7abe 40e0 9ebc a0b9 473d 0aaa 24be
-0.008250624 0.17110282 0.22756976 -0.29794422 0.27538615 -0.18436038 0.04920712 0.22917217
0.17466396 -0.115660906 -0.035159767 -0.06771484 -0.111994654 0.28570127 0.1298286 -0.1365067
-0.19936058 0.13739085 0.050335377 0.11721066 -0.121443614 -0.2320418 -0.12074134 0.09513646
-0.024672955 -0.10661934 -0.011084914 0.13187969 -0.25246355 -0.22357793 0.081384 0.13668245
-0.03645563 0.2565567 -0.16806555 0.018493772 -0.1756561 -0.2608407 -0.11716336 -0.26444948
0.23667067 0.2798385 -0.25829536 -0.093877286 0.2672181 0.25507444 0.048610717 -0.22734147
0.1870066 0.15308622 -0.23761153 -0.10593991 -0.28172812 0.06861362 0.12906283 -0.26172924
0.027114093 -0.047751933 0.20051551 -0.024331868 -0.2441745 -0.01939404 0.04876101 -0.1608049

latent.weight f4 [32, 64]
00000000: 12d8 6fbe 8458 143e 005c 013a b002 b63c
00000010: b6c9 103e 301e 993c e867 4e3d a024 9bbc
00000020: b6f5 2ebe 78d2 e73d f095 2b3d 1656 463e
00000030: f046 a1bc 2cb1 e7bd 128d 21be c04d de3d
00000040: 0032 013d de12 433e 3c64 eb3d 1222 12be
00000050: a440 aa3d a620 44be 4067 40bc f8b2 fa3d
00000060: 647c 26be 54f2 423e a4d8 71be b05c 46be
00000070: c839 58bd 26d9 1fbe dc8d 8a3d 4c78 983d
00000080: 60d4 4ebe be25 24be 88ae 75be 7e26 583e
00000090: 247a 73be 5841 57be e4b0 adbd e852 13be
000000a0: 50bc ab3d 704f 9ebc 66c8 583e 8836 4fbe
000000b0: c071 c7bd 487b 23bd 5863 ca3d 42f1 1fbe
000000c0: 70e1 bf3c c2de 133e 6c3c e33d 389c 623e
000000d0: 0837 dc3d aeac 2ebe c4a8 55be 6c40 103e
000000e0: fa88 2bbe 2453 19be 18fd 113e 366c 18be
000000f0: 809b 193b 688a 5c3d bcbf 733e 1813 23bd
00000100: 486b c4bd 0068 5639 cc2d dfbd e43f ebbd
00000110: 4aae 783e e68a 0abe 685c a93d e03d 12bd
00000120: 50e9 cd3d e0b7 07bd a007 abbd 204a 543e
00000130: e8a2 36be 66a9 64be 7c5b 9ebd 2030 9d3d
00000140: eca9 c03d a0c6 fbbd 207d 72be c299 783e
00000150: 6030 1e3d c857 fdbd 4864 07bd dc60 9c3d
00000160: 8e76 30be 140e ab3d 0029 2f3e c02d 70be
00000170: 80f7 493e a4fa 2fbe 3632 7bbe 288c 56bd
00000180: 50ab 9bbd 82eb 1abe 8ef7 0fbe dc37 c83d
00000190: 84b3 aa3d eae9 0c3e ea8b 6b3e c89e febd
000001a0: e84f 6d3d 10e8 1fbe c4a7 cebd 1ce1 e23d
000001b0: 88c7 713d 2852 923d 80f0 3ebd f64f 513e
000001c0: 84db c0bd 1876 42be 88a2 20be 00a7 1abe
000001d0: 2a81 54be be91 143e 08ed 2dbd c060 403c
000001e0: e235 14be d0c7 bf3d 8842 efbd 8ee8 4c3e
000001f0: c05f f7bd 0899 99bd d445 663e 807f 263c
00000200: ea33 303e 1069 2c3e 6865 03be 7878 5e3e
00000210: 827e 733e 5a38 06be 9e99 1a3e 6a64 663e
00000220: 74d2 a03d 0c9d bc3d 9078 a7bc 3048 d23c
00000230: dcee fe3d 0c43 893d d6b0 753e 4430 a5bd
00000240: 38b2 1b3d e0b0 54bc 0041 7cbb 92f9 433e
00000250: eac0 59be 1aae 71be 9058 8d3d dc2d a23d
00000260: d0be 8b3d b45c d63d a4b5 eabd 9008 1cbd
00000270: e8f0 6abd 0060 2bbd d048 c7bd d07c f0bc
00000280: 08ff a93d 900f 0d3d 5290 6c3e fe3f 49be
00000290: 6e8a 40be 7069 f63d 7035 cd3d 18e2 753d
000002a0: f2c7 3c3e c4de 5f3e 7a93 353e 4426 11be
000002b0: 4029 953c 626f 373e 90ae 3fbe 200c 193c
000002c0: 303a 8cbd d02d a83d 660d 123e 6c75 8fbd
000002d0: 32c8 15be fea1 0b3e 5e0e 4fbe 9a74 2d3e
000002e0: 56df 08be fae7 7b3e b622 413e 506a cdbc
000002f0: 6033 d5bd bee7 733e 84a0 ee3d 941d e1bd
00000300: 4e1c 46be 04ae db3d 5c4c 68be 0092 aa3a
00000310: daad 19be 92e0 63be bef4 183e 008a 84bc
00000320: f47a 31be 840f e1bd aaad 283e 6c25 12be
00000330: 28f6 ebbd d046 063e 3c68 563e 6048 1e3c
00000340: 004c a73c 9cae dabd 4483 37be 8056 0abe
00000350: 1889 51be f82c 163d a00e 503d a85a ecbd
00000360: 9e69 7e3e be20 37be 28d7 12bd 48a6 263e
00000370: 44d7 c3bd ce89 20be 908a 363d 0037 b6bd
00000380: 4819 7ebe aaf4 70be 2229 1cbe ecb1 85bd
00000390: c0a5 903c a8a4 833d ae24 4b3e 8093 9dbb
000003a0: bc2e 8e3d e8a9 0e3e 74d6 a1bd 0001 0b3b
000003b0: 600e 073e e864 3abd 10cc 0d3d 446d 853d
000003c0: 48fe c3bd e497 fabd b8e9 cb3d 6c8b 5a3e
000003d0: 70e1 d1bc a018 563e 9666 273e 807f 33bb
000003e0: 12b5 12be 8e96 40be 4063 303d 00cf fd3b
000003f0: 00d0 54bc 4087 163d a6d9 1ebe b88a 76be
-0.23422268 0.14486891 0.00049346685 0.022218078 0.14139447 0.018691152 0.05039206 -0.018938363
-0.17085919 0.113194406 0.04189104 0.19368777 -0.019687146 -0.1131309 -0.1577647 0.108546734
0.031541824 0.19050166 0.114937276 -0.1427081 0.083131105 -0.1915308 -0.011743367 0.12241167
-0.16258389 0.19037753 -0.23617798 -0.19371295 -0.05278948 -0.1561018 0.06765339 0.0744482
-0.20198202 -0.16030023 -0.2399236 0.21108434 -0.23777062 -0.2102102 -0.08481005 -0.14387095
0.08385527 -0.019324988 0.21170196 -0.20235646 -0.09738493 -0.039912492 0.098822296 -0.15619376
0.023422927 0.14440444 0.11095509 0.22129905 0.10752684 -0.1705806 -0.2086516 0.14087075
-0.16751471 -0.14973122 0.14256704 -0.14885029 0.0023438632 0.053842932 0.2380361 -0.03981313
-0.09590775 0.00020447373 -0.10897407 -0.114867955 0.24285236 -0.13529548 0.08269578 -0.03570354
0.100542665 -0.03313434 -0.08351064 0.20731401 -0.17835581 -0.22330245 -0.07732293 0.07675195
0.0940741 -0.12293744 -0.23680544 0.24277404 0.038620353 -0.123702586 -0.03305462 0.07635662
-0.17232725 0.083522946 0.17105484 -0.23454952 0.1972332 -0.17185456 -0.24530873 -0.052379757
-0.07601035 -0.15128902 -0.14059278 0.09776279 0.08335021 0.13761106 0.23002592 -0.12432629
0.057937533 -0.15615869 -0.100905925 0.110780925 0.05902818 0.07144576 -0.046616077 0.20440659
-0.09416869 -0.18990362 -0.15687001 -0.15102768 -0.20752397 0.14508721 -0.04246238 0.011741817
-0.1447368 0.09364283 -0.11682612 0.20010588 -0.1207881 -0.074998915 0.22487575 0.010162234
0.17207304 0.16836953 -0.12831652 0.21725643 0.23778728 -0.13107434 0.15097663 0.22499242
0.07852641 0.09209642 -0.02044323 0.025669187 0.124479026 0.06702241 0.23993239 -0.080658466
0.03801176 -0.012981623 -0.0038490891 0.19138172 -0.21264997 -0.2360157 0.069016576 0.07918903
0.06823504 0.104669005 -0.114604264 -0.038094103 -0.057358652 -0.0418396 -0.09730685 -0.02935639
0.083005965 0.03443867 0.23101929 -0.19653317 -0.18802807 0.12031829 0.10019958 0.060030073
0.18435648 0.21862322 0.17732039 -0.14174753 0.018208146 0.17913583 -0.18718934 0.00934127
-0.06847036 0.08211863 0.14262924 -0.07004818 -0.1462715 0.13636014 -0.20220324 0.16939011
-0.13366446 0.24600211 0.18860897 -0.025075108 -0.1041019 0.23818871 0.1165171 -0.1099197
-0.19346735 0.1072655 -0.22685379 0.0013013482 -0.15007725 -0.22253636 0.14937112 -0.016179085
-0.17332059 -0.109892875 0.16472498 -0.14272088 -0.1152156 0.1311295 0.209382 0.00966081
0.020421982 -0.10677835 -0.17921168 -0.1350956 -0.20462453 0.03666398 0.050795197 -0.11540729
0.24844977 -0.17883584 -0.03584972 0.16274369 -0.09562543 -0.15677568 0.044565737 -0.08897209
-0.24814332 -0.23530832 -0.15250066 -0.065280765 0.01765716 0.0642789 0.19838211 -0.004808843
0.069425076 0.13932002 -0.07902232 0.0021210313 0.13189077 -0.045506388 0.034618437 0.065149814
-0.09569985 -0.12236002 0.09956688 0.21342248 -0.025620192 0.20907831 0.16347727 -0.0027389228
-0.14326885 -0.18807432 0.043063402 0.0077456236 -0.012989044 0.03675008 -0.15512714 -0.24076355

latent.bias f4 [32]
00000000: 0000 0000 0000 0000 0000 0000 0000 0000
00000010: 0000 0000 0000 0000 0000 0000 0000 0000
00000020: 0000 0000 0000 0000 0000 0000 0000 0000
00000030: 0000 0000 0000 0000 0000 0000 0000 0000
00000040: 0000 0000 0000 0000 0000 0000 0000 0000
00000050: 0000 0000 0000 0000 0000 0000 0000 0000
00000060: 0000 0000 0000 0000 0000 0000 0000 0000
00000070: 0000 0000 0000 0000 0000 0000 0000 0000
0.0 0.0 0.0 0.0 0.0 0.0 0.0 0.0
0.0 0.0 0.0 0.0 0.0 0.0 0.0 0.0
0.0 0.0 0.0 0.0 0.0 0.0 0.0 0.0
0.0 0.0 0.0 0.0 0.0 0.0 0.0 0.0

fc.weight f4 [64, 32]
00000000: 19b4 313e 784f 55bd 6667 bcbd a595 213e
00000010: daa9 11be c08e a93b 0088 dcb9 8861 c1bc
00000020: fcf1 8fbd aa24 13be eda3 263e c41b f2bd
00000030: c7d1 0b3e 1517 333e a048 31be 74d8 933d
00000040: 279a 2abe 9aa2 cabd cdf5 e9bd 7978 2e3e
00000050: ee59 eb3d e4ce 13be e8e3 943d 5460 3dbd
00000060: 0002 d6b9 e640 ed3d 13fd 1f3e 1ccb 093d
00000070: 6cd7 433d 009a 16ba 022d dd3d 604b 343d
00000080: 70d2 e3bc ec02 30bd d957 15be d616 ac3d
00000090: de4c 1cbe 4049 efbb d9e3 23be 90de 63bc
000000a0: 47e1 07be 4ee5 c03d 1a10 7ebd ba40 02be
000000b0: 3034 7bbc 4207 dc3d 1021 0e3c 4035 a2bb
000000c0: 08c9 c6bc a437 07be 686c 94bd 3e95 823d
000000d0: 1823 c7bc 46ad 1cbe 6de7 d4bd 72d6 ef3d
000000e0: 406a 113b 2027 be3b 1234 d53d 9c71 943d
000000f0: 7ace de3d ae08 b93d 60ef 783c 40a4 23bc
00000100: be55 bf3d 0ca0 653d 16d0 78bd d289 bf3d
00000110: 9c52 063d a41f bebd 5186 223e 9814 cebd
00000120: 2f80 31be c9c5 e4bd a2a4 f83d a74b 04be
00000130: c8e1 933d 2124 183e a823 69bd 049d 31bd
00000140: ae82 f53d 903d 31bd e8df 843c 4ef2 bd3d
00000150: de9e f0bd 7071 193d ed20 1d3e 60a2 98bb
00000160: 085a 933c 4849 adbc 7ed1 a53d 20a8 d5bb
00000170: 61d4 0e3e a4c8 33be f27b a83d 60c7 033c
00000180: c220 cb3d 9030 71bc 9a98 63bd 96b2 cd3d
00000190: 4ed7 f2bd 8298 03be a0df 83bb 968a b93d
000001a0: 6e0f b33d 0bec 273e f7e9 2a3e c84f f03c
000001b0: f70f 2a3e ea54 0fbe 4020 c9bc 686b bfbd
000001c0: 91f1 1a3e 394b 1f3e 8c5f 23be 6cd0 3c3d
000001d0: 5833 873c 681f f3bc b80f 02be 12bc e9bd
000001e0: 2834 2cbd 6be2 11be fa3c 61bd c240 e13d
000001f0: 146a 10be b0b9 15bc d698 873d 909e 6dbd
00000200: 26dd db3d 80dd 0fbd 4d7d 22be 809c fbba
00000210: a4b8 d3bd 3cca acbd 00ba 633b 13aa 1bbe
00000220: 368a fa3d 339e 24be 0752 0abe acf1 57bd
00000230: 3862 293d c6e8 ce3d 0e23 d03d fec7 eb3d
00000240: 5cbc 23bd a8f0 eb3c ec2c 36bd ed83 1d3e
00000250: ded5 c63d 4c95 52bd fec3 c73d d69d 2cbe
00000260: 3a57 96bd af61 1dbe d8a8 8fbc 0530 263e
00000270: 4662 e33d 728c e73d 82a1 ad3d 8fb7 21be
00000280: 285d 8bbc eec9 e03d abbf 293e 002b a3ba
00000290: 0775 25be fc57 0bbd a964 173e 4a3c 6abd
000002a0: 60e1 b6bb dc68 003d 8815 06bd 5069 08be
000002b0: b783 24be e2a2 f23d fc61 313d 7170 bfbd
000002c0: 5895 7a3d f1c1 d3bd 06bf 8a3d 05fe 01be
000002d0: c6a0 10be 98af be3c 2a17 cf3d 64c2 1bbe
000002e0: bccd 16bd da03 c83d d2f3 c23d 39e9 1cbe
000002f0: 8848 813d 7e23 a03d 114d 063e 424f ce3d
00000300: a8b2 bb3c 621a e93d c953 b8bd 8c59 41bd
00000310: 52c8 943d 7678 a0bd a870 053d b361 eabd
00000320: f63a cf3d b69a 2cbe 0fea abbd 80b4 f03b
00000330: ce08 ef3d 596c 093e 940c f7bd 6718 0e3e
00000340: 1034 2cbe 6229 03be 4d71 223e 3c5a 7d3d
00000350: 5e44 cd3d 8310 053e efb8 2e3e 3abc f43d
00000360: e805 d9bc 3176 09be 4ca4 e2bd 38b0 07bd
00000370: c1eb 223e 3736 30be 7ada 9b3d 8944 1f3e
00000380: d0e6 afbd 736c 01be b4ee b5bd dc6b 683d
00000390: ea42 993d 8e96 983d 37c0 1e3e e723 babd
000003a0: ee28 0abe cedb 993d 31eb 21be 36ac c93d
000003b0: 0b47 20be 3caa 8f3d dbcb 173e 1b47 0c3e
000003c0: 34e5 2ebe 0bc2 103e 6b53 03be b074 31bd
000003d0: 6443 0cbe 1a85 f33d efcb 023e d222 c23d
000003e0: 3052 7d3c 47c5 1e3e ade3 f0bd e05b d93b
000003f0: 609f d6bb 51e0 8dbd 0a37 f63d 6798 8bbd
0.17353858 -0.05207774 -0.09199409 0.15779741 -0.1422495 0.005174488 -0.00042062998 -0.023606077
-0.07028577 -0.14369455 0.1627347 -0.11821702 0.13654242 0.17489274 -0.1731286 0.072190195
-0.16660367 -0.09894295 -0.11423836 0.17038144 0.11491762 -0.14434391 0.07270032 -0.046234444
-0.0004081875 0.11584644 0.15623884 0.033640966 0.047812864 -0.00057449937 0.107996 0.044017196
-0.027810305 -0.042971537 -0.14584292 0.08402793 -0.15263698 -0.0073024333 -0.16004886 -0.0139080435
-0.1326953 0.094187364 -0.062027074 -0.12720004 -0.015332267 0.10743572 0.008674875 -0.0049501956
-0.024265781 -0.13204819 -0.07247239 0.06376122 -0.024308726 -0.15300474 -0.103957035 0.11710824
0.0022188574 0.005803004 0.10410322 0.07248232 0.10879226 0.09034859 0.01519379 -0.009987891
0.09342526 0.056060836 -0.06074532 0.09352459 0.032793626 -0.09283379 0.1587155 -0.10062522
-0.17334054 -0.11170537 0.12140776 -0.12919484 0.07220799 0.14857532 -0.05691877 -0.043362632
0.11987816 -0.0432716 0.016220048 0.092747316 -0.117490515 0.037461698 0.15344591 -0.0046580285
0.017987266 -0.021153107 0.08096598 -0.006520286 0.13948204 -0.17557007 0.08226766 0.00804314
0.099183574 -0.014721051 -0.055565454 0.10043828 -0.11857472 -0.12851146 -0.004024461 0.09059636
0.08743177 0.16398637 0.16690813 0.029334918 0.16607653 -0.13997236 -0.02455151 -0.09346658
0.15131213 0.15556039 -0.15954417 0.046097204 0.016503975 -0.029678062 -0.12701309 -0.11412825
-0.042041928 -0.14246528 -0.054989792 0.1099868 -0.14102966 -0.00913851 0.06620948 -0.058012545
0.1073554 -0.03512335 -0.15868111 -0.0019196421 -0.10337952 -0.08437011 0.0034748316 -0.15201597
0.12233393 -0.16075973 -0.13507853 -0.05272071 0.041353434 0.10102992 0.10162936 0.11512755
-0.039974555 0.028801277 -0.044476435 0.15382357 0.09708761 -0.05141191 0.097541794 -0.16857085
-0.07340856 -0.15369295 -0.017536566 0.16229255 0.111027285 0.11306085 0.08478071 -0.15792678
-0.017012194 0.10976015 0.16577022 -0.0012448728 -0.16157924 -0.034019455 0.14784493 -0.057186402
-0.005581066 0.03135 -0.032735378 -0.13321424 -0.1606587 0.11847474 0.043306336 -0.09347618
0.06117758 -0.10339726 0.06774716 -0.12694557 -0.1412383 0.023277089 0.1011184 -0.15210873
-0.036817297 0.097663596 0.09519161 -0.15323342 0.06312662 0.078192696 0.13115336 0.10073711
0.022912338 0.11381985 -0.09000356 -0.04720454 0.072647706 -0.07835476 0.03257814 -0.11444416
0.10118668 -0.16855893 -0.083942525 0.007345736 0.11671601 0.13420238 -0.12062946 0.13876496
-0.16816735 -0.12808755 0.15863533 0.061853632 0.10022806 0.1299458 0.17062734 0.11949964
-0.026492074 -0.13423993 -0.110664934 -0.03312704 0.15910245 -0.17208181 0.076100305 0.15553488
-0.08588946 -0.12639026 -0.0888342 0.056743488 0.07483466 0.07450591 0.15503012 -0.09088879
-0.13492176 0.075126275 -0.15812375 0.098473 -0.156521 0.070148915 0.14823858 0.13699
-0.17079622 0.14136522 -0.1282479 -0.043324172 -0.13697582 0.118906215 0.12773107 0.09479298
0.01546149 0.15504943 -0.11762176 0.006633267 -0.0065497607 -0.069275506 0.120222166 -0.06816178

fc.bias f4 [64]
00000000: 20ef 8dbc 0f4b 2e3e caf1 ab3d 5073 bd3c
00000010: 3dae 2b3e 0d7f 023e b65f ff3d cdc1 21be
00000020: 8013 dbbc 8081 ce3c fc92 10be 1087 14be
00000030: af20 043e a247 09be 58ff ddbd 8d29 0a3e
00000040: b4b2 16be e805 8abc c490 343d 8ea4 2abe
00000050: a029 f4bb 4e7f f33d aa20 fa3d 7988 043e
00000060: 6c29 163d 1f19 023e 6907 babd e27f f13d
00000070: d433 91bd 5611 ebbd a946 2e3e 1c0e 93bd
00000080: 48ec b13c 3ed6 b73d a3ad 0e3e 3324 2f3e
00000090: 400d 0bbe 5db9 223e 1fab 333e 6360 07be
000000a0: 9f01 98bd d0ec 02bd 40cf 3fbc b5d1 96bd
000000b0: a233 65bd 7f76 1d3e 3fd3 183e f602 823d
000000c0: 9fbc a8bd 04eb 2f3d 9409 2a3d d520 1e3e
000000d0: 00f1 e53c c6e5 963d 6116 cfbd 46c7 f73d
000000e0: fcb6 183d d0bd 293d 1031 2e3d a61d c83d
000000f0: 00c7 b1ba b4ba 1c3d 5f44 0f3e 69b8 2dbe
-0.017325938 0.1702082 0.08395727 0.023126274 0.16765685 0.12743779 0.12469427 -0.15796585
-0.026742697 0.025208235 -0.1411857 -0.14504647 0.12903093 -0.13406232 -0.108397186 0.13492413
-0.14716607 -0.01684852 0.04408337 -0.16664335 -0.007451251 0.11889516 0.122132614 0.12942685
0.036660597 0.12704895 -0.090834446 0.1179197 -0.070899636 -0.11477916 0.17019142 -0.071804255
0.021719113 0.0897641 0.13933425 0.17103653 -0.13579273 0.15891023 0.17545746 -0.13220362
-0.07422184 -0.031964123 -0.011707127 -0.07364217 -0.055957444 0.15377234 0.14924334 0.06348221
-0.082391016 0.042948738 0.04151304 0.15442212 0.02806902 0.073680446 -0.1011169 0.12098555
0.037283882 0.041440785 0.04252726 0.0977128 -0.0013563335 0.03826399 0.13990925 -0.16964878

rnn.weight_ih_l0 f4 [33, 64]
00000000: 9841 f43d 105d 6f3e 8016 6cbc 1059 723d
00000010: 92a3 90bd 262c bdbd 4ecf a0bd 0083 613e
00000020: 5847 90bd 690c 2cbe 9aeb c4bd 67fd 73be
00000030: 78ec 143e c5b8 8ebe 8afe debd 0890 14bd
00000040: e6ca 01be e0e1 593d 6469 0bbe 7cba 99bd
00000050: 6827 ab3d e27e 8fbe 1c8b 923e e020 123d
00000060: 3d29 5ebe 147e 82be c084 f2bd 80b7 3fbe
00000070: ac87 683e f43b 913d 1c4b 593e 30ba 46bd
00000080: 33b6 44be f433 1b3e 101f 113e 3659 73be
00000090: 0029 933a d80d 46bd ec65 97be 8073 64bc
000000a0: 7a2a 313e f8ab 6a3e 14a0 cb3d 80b2 fc3b
000000b0: 4492 8ebe 6c12 7e3e 2ce4 833e 5a8a 5ebe
000000c0: 7c19 1a3e 6e5c 05be ee5a 083e e84e 733d
000000d0: cc02 783e 26ee c6bd 68c5 823d 9c52 903d
000000e0: 1c25 513e 30cf 37bd 00f9 ea3c 3731 28be
000000f0: 6aee 98be 60cd 16bc fed9 01be 522e 883e
00000100: aced 423e 60ca 343d 8690 8d3e 0a59 833e
00000110: f871 2dbd 8008 363e e0c9 893e c664 8c3e
00000120: 1f81 3ebe 0483 eb3d 91cb 7cbe 02e9 2ebe
00000130: 34c9 34be 382c af3d 9ec4 c7bd e0ba 433d
00000140: a46f 0dbe bac1 3ebe 8057 0fbb 084b 553d
00000150: 0e09 3a3e feee 80bd a0a9 d83d e84d 913d
00000160: e456 6b3e 44cd fcbd 3031 b83d 1c48 853e
00000170: 505a f33d 8caf 943d c8e2 d83d 4042 4f3c
00000180: 98d4 8a3e c04a f13c 8091 713c 48ca 0e3d
00000190: 80a7 c33c 18eb d83d 424d 37be b4d1 85be
000001a0: 70f8 88bc 8075 24be 5622 3abe 5a26 d3bd
000001b0: c477 debd 8c39 8a3e ceb2 353e 4073 30bc
000001c0: 541a 7f3e 38e5 843e 30ff a0bd f397 95be
000001d0: d82b babd c0d3 bbbb 88ae 383d d4a7 22be
000001e0: 324d 42be bb4f 3ebe 000d 163e 762e b9bd
000001f0: 6ec7 923e 285a 0fbd f645 883e c656 0e3e
00000200: da7d 72be a0ef 43bc 7070 2d3d 0086 b7bb
00000210: 5aa5 69be 0868 01bd d2cb e4bd 9a59 823e
00000220: 00cb 6abd 4019 853d 382a fabd b627 89bd
00000230: 8c01 6ebe 29d8 1abe 7832 4b3e 8e28 873e
00000240: a0cd 4b3e c4b9 6b3e 1147 7fbe 162b 05be
00000250: e011 343d 14f6 f23d 5074 cdbc ad0c 79be
00000260: 0092 02ba 8e84 d3bd d0f2 88bc 3cdc 1c3e
00000270: 2c69 853e a07a 00bc 715a 2abe 6e4e 63be
00000280: 73cf 18be 9014 4c3e 840c 7f3e f206 d5bd
00000290: aaf7 45be dc16 6c3e 007e cc3c e0e1 493c
000002a0: 8016 23bd 700b 04be 6883 69bd 36d4 71be
000002b0: 964c 033e f8a0 4b3d 6143 22be b2ac 8c3e
000002c0: ecc0 323e f896 19bd 3cf4 833e d0d7 13bd
000002d0: 2843 003d 33e5 28be d4ff 07be d484 41be
000002e0: faf5 223e fa5e 343e c027 0ebe a094 6c3d
000002f0: becc 483e 3e56 9a3e 948c 6c3e 5478 a33d
00000300: 7894 1fbe 0a82 913e 0d74 33be 41a7 43be
00000310: f67b 453e 9ec7 0e3e 15a0 34be 1a5e 62be
00000320: 55b6 32be cc87 2ebe 5871 5cbe 2522 18be
00000330: 4025 f53d 05e8 21be 98b5 4b3e 9a54 493e
00000340: 8cf5 7c3e c033 17bc e001 703c d0dd 553e
00000350: 8245 e1bd dcca dc3d f7e5 4bbe b0b3 6b3d
00000360: f0cf 503d c055 723e 8e8f 053e f4f6 8cbd
00000370: 88cd 2d3e dc69 673e 4419 d03d 36ad 52be
00000380: a81b 25bd 3252 853e abd2 2ebe a03f 483e
00000390: caf6 0e3e 7241 89be 045f 8e3e c87d 683e
000003a0: 82fc 93be c439 3e3e 103e 8d3e 985f 9ebd
000003b0: 7ced 883e fa0e 2e3e ddfc 13be 8090 2b3b
000003c0: a950 09be 80ca b43b 58ec 51be 3c3e 8abd
000003d0: fcf2 2c3e 6a10 98be 9675 dabd 4a20 973e
000003e0: ee19 833e 5cf3 f9bd 8e5c 8c3e 4268 f2bd
000003f0: 593f 8bbe 8a56 983e 3458 5c3e bc62 eb3d
0.119265735 0.23375344 -0.014409661 0.059166968 -0.070624486 -0.09236936 -0.0785204 0.22022629
-0.07044858 -0.16801609 -0.0961525 -0.23827134 0.1454333 -0.27875343 -0.10888393 -0.03627017
-0.12675056 0.053193927 -0.13614422 -0.07506272 0.083571255 -0.2802649 0.28621757 0.035675883
-0.21695419 -0.25486815 -0.11841726 -0.18722343 0.22708005 0.07091513 0.21220058 -0.048517406
-0.19210128 0.15156537 0.14172006 -0.237645 0.0011227429 -0.048353046 -0.29569948 -0.013943553
0.1730136 0.22917163 0.09942642 0.0077117085 -0.27845967 0.24811715 0.2576002 -0.21732464
0.15048784 -0.1302354 0.13315937 0.059401423 0.24219817 -0.09713392 0.063853085 0.070470065
0.20424312 -0.044875324 0.028683186 -0.16425024 -0.29869395 -0.009204239 -0.12680814 0.2659784
0.19035977 0.044138312 0.27649325 0.2565387 -0.042345017 0.1777668 0.2691183 0.27420634
-0.18603943 0.114995986 -0.2468703 -0.17081073 -0.17654878 0.08553356 -0.097542986 0.04778564
-0.13812119 -0.18628588 -0.0021872222 0.05207351 0.18167517 -0.06295584 0.105792284 0.070949376
0.22982365 -0.12343839 0.08993757 0.26031578 0.1188246 0.072600454 0.1059013 0.012650073
0.2711532 0.029454589 0.014744163 0.03486088 0.023883581 0.105917156 -0.17900565 -0.26136553
-0.016720027 -0.16060448 -0.1817716 -0.10310049 -0.10862687 0.2699703 0.1774399 -0.010769665
0.24912387 0.2595613 -0.07861173 -0.2921749 -0.09090394 -0.0057320297 0.04508832 -0.15884334
-0.1897476 -0.18585102 0.14653397 -0.09042065 0.28667778 -0.03499809 0.26615876 0.13900289
-0.23680821 -0.0119589865 0.042343557 -0.005600691 -0.22816983 -0.031593353 -0.11171688 0.25458986
-0.057322502 0.06498957 -0.12215084 -0.066970274 -0.23242778 -0.15121521 0.19843471 0.26398128
0.19902658 0.23020083 -0.24929453 -0.13004717 0.04396236 0.11863342 -0.025079876 -0.24321242
-0.0004980862 -0.10328017 -0.016717345 0.15318388 0.26056802 -0.007841736 -0.16636063 -0.22197887
-0.14922886 0.19929719 0.24907118 -0.10401715 -0.19332758 0.23055595 0.024962425 0.012321919
-0.03981638 -0.12894988 -0.057010084 -0.23616108 0.12822184 0.04971406 -0.15846016 0.27475506
0.17456406 -0.03749749 0.25772274 -0.036094487 0.031314045 -0.16493683 -0.13281184 -0.18898326
0.15914145 0.17614356 -0.13882351 0.057758927 0.19609353 0.30143923 0.23100501 0.07981935
-0.1558398 0.28419524 -0.17524739 -0.19106771 0.19285569 0.13943335 -0.17639191 -0.2210621
-0.17452367 -0.1704399 -0.21527612 -0.14856775 0.119699955 -0.15811165 0.19893491 0.19661179
0.24703044 -0.009228647 0.014648885 0.20885396 -0.10999586 0.1078088 -0.19911943 0.05754441
0.050979555 0.23665524 0.13043043 -0.0688304 0.16972935 0.22598976 0.10161069 -0.20573887
-0.04030958 0.26039273 -0.17072551 0.19555521 0.1396133 -0.26807743 0.27806866 0.22704232
-0.28903586 0.18576723 0.27586412 -0.07733077 0.26743686 0.169979 -0.14451928 0.0026178658
-0.13409676 0.005517304 -0.20500314 -0.067501515 0.16889566 -0.29700023 -0.10666959 0.29516822
0.2560572 -0.1220462 0.27414364 -0.11836292 -0.27196768 0.29753524 0.21518022 0.114934415

rnn.weight_hh_l0 f4 [33, 11]
00000000: c204 8e3e 0025 e93c 44cc 753e 993c 1abe
00000010: ec9f afbd 388b 793e 60c2 d13d 20f9 5b3c
00000020: ea38 99bd d4fd bcbd ec34 803e cf97 76be
00000030: 8c51 cc3d e23a 31be 98c6 3bbe 34a8 143e
00000040: a047 743e d6f9 8b3e 38ae 333d d60c 8d3e
00000050: 9429 1dbe a8c0 f93d 384c 4b3e a4bb ba3d
00000060: 3869 45bd 3cd4 d73d b41b 503e 88bd 2dbe
00000070: 40a3 723d 98fd 0ebd 39f6 92be 680a 6a3d
00000080: a65b 843e 204d cc3c 8a2e 8ebe 5444 12be
00000090: 9457 8d3e fe7f 3a3e ec04 203e e0b0 513c
000000a0: 88bb ea3d c880 b73d 2dd2 89be 4c0d ca3d
000000b0: 38b0 8f3e ce75 163e 03a0 83be 2605 36be
000000c0: c225 223e e70c 37be 48f8 903e 0c35 d9bd
000000d0: 5069 56be b060 7fbe 2686 8ebe 5c74 bc3d
000000e0: dc0a 6f3e bdec 91be bb39 52be e656 93be
000000f0: 0063 f9ba 4070 88bc 2ae4 8abe 30c2 bc3d
00000100: c47e 7f3e 1ed7 d7bd 4e4a 8d3e 12db 443e
00000110: 7255 f2bd 7096 553d b452 4b3e b07e 023e
00000120: d0cd ec3d 3a10 883e 01b0 20be 6409 0f3e
00000130: 1ecc 07be f48e b53d 4caa 543e 582f 25bd
00000140: beb3 f2bd 1053 37be 6073 503e 0ce1 453e
00000150: 62cf 98bd 84d5 923e 7307 0dbe 4a2d d5bd
00000160: c04a 813e 20ce 773d 9898 ce3d 4c8e 263e
00000170: c023 c73c 9409 b9bd 620a 993e 5022 983e
00000180: e01b 5ebd 92ca 90be 58cc 55bd 2215 91be
00000190: 505a 6fbe 02e2 133e dc85 ef3d c0c0 bb3c
000001a0: e80a 533d 00f8 433b aaf2 9bbd 4818 16bd
000001b0: 78ba f63d 10df babc 1837 64bd 6213 5dbe
000001c0: 94d4 7b3e 5061 44be deeb 81bd 4ca4 903e
000001d0: cc8c d93d 9c6b c83d 54d6 f93d 0894 2abd
000001e0: 176c 93be c041 e1bc 0e7a 36be 7784 72be
000001f0: 3625 943e a00a 633e aa0e 8d3e 5705 09be
00000200: ac93 04be f6fd 84be 1c62 913e 3007 7f3e
00000210: 486d ef3d 2caa 893e 7485 c83d 00ca 613d
00000220: a257 67be ccfb ef3d 22f6 853e 9e65 943e
00000230: 30d1 adbc ea85 8d3e 8099 6dbc 8821 0f3e
00000240: 7079 093e de3a 3f3e 941e c6bd 1462 8ebe
00000250: a02e 14bd 607a 84bc 703f c4bd 26c1 81be
00000260: 761a 963e bc3b 613e 4a72 99be 1ce9 2dbe
00000270: 0de5 09be 0008 8a39 98f0 ae3d 2668 93be
00000280: d812 713e 18c9 f9bd 05a2 86be 63fb 6abe
00000290: a8bf 833e 709a 8ebc 4010 cebc 7837 6c3d
000002a0: d0f2 8ebd f5ee 8ebe 0646 96bd 6882 323d
000002b0: c0a8 ef3d 30d8 603d 38a9 283d 78f4 1abd
000002c0: be19 2f3e e6ee 463e 1261 dbbd 400a 4fbd
000002d0: cc8a 63be fa44 1f3e 5025 933e 0a73 8ebe
000002e0: 30e8 efbd d398 81be dc5c f5bd 9e97 453e
000002f0: 6ab9 843e 48fa 493d e0a2 4b3e e01b 263d
00000300: 02f0 34be 14f7 563e a41c 4bbe 20f9 c1bd
00000310: 8057 623d b8db 3b3e 96fd 6dbe e86a 5d3e
00000320: 9266 253e 88ff 2abd a164 34be 5cbb 0ebe
00000330: 90d1 6c3d 9008 ddbd a534 28be 82d7 a4bd
00000340: 00cb 743e fc82 613e 701b c1bc 6475 a6bd
00000350: 7e36 96be c079 583d 3c90 efbd e4d2 513e
00000360: 44a6 823e 8c29 94be 72bc 93be 84b4 8abe
00000370: 8ca5 eebd 6a13 25be 0030 4c3d fec0 863e
00000380: ecb0 263e 6a61 243e 6406 5e3e 1634 8d3e
00000390: 94f1 9f3d e816 763e d06e d6bd 3091 233e
000003a0: ed13 93be 14ef 8c3e fcaa 873e d217 3c3e
000003b0: 789d 7bbe 47bd 58be 68ab 4d3e e035 923c
000003c0: 9c15 95be e0c0 75bc dc7d 8f3d 9016 f03c
000003d0: b49c a6bd 0a0a 83bd 06e0 61be 00ef f3bb
000003e0: 4487 7abd 4822 ee3d 4d51 33be f4ca 5dbd
000003f0: 702e c3bc c0b5 a83c 3831 7f3d d004 633d
0.27738005 0.028460026 0.24003702 -0.15062179 -0.085754246 0.24369514 0.10242152 0.013426095
-0.074815586 -0.092281014 0.25040376 -0.24081348 0.09976491 -0.17307618 -0.18337476 0.1451729
0.23855448 0.27339047 0.04386732 0.27548856 -0.15347892 0.121949494 0.19853294 0.09117821
-0.048196048 0.10538527 0.20323068 -0.16966832 0.05923772 -0.034909815 -0.28703478 0.05713883
0.25851172 0.02493912 -0.2776988 -0.14283878 0.2760588 0.18212888 0.15626878 0.012798518
0.1146155 0.0896011 -0.26918164 0.098658174 0.28064132 0.14693376 -0.25708017 -0.17775401
0.15834716 -0.17876016 0.28314424 -0.10605821 -0.20938611 -0.24939227 -0.27836722 0.09201881
0.23343986 -0.2850093 -0.20529835 -0.28777236 -0.0019026697 -0.016655087 -0.271272 0.09216726
0.24950701 -0.10539077 0.27595752 0.19224194 -0.11832704 0.05214542 0.19855767 0.1274364
0.11562693 0.2657488 -0.1569214 0.13968426 -0.13261458 0.08865157 0.20768088 -0.040328354
-0.11850689 -0.1790278 0.20356512 0.1932413 -0.0746143 0.28678524 -0.13772373 -0.10409029
0.25252342 0.06049931 0.10087699 0.1626522 0.02430904 -0.0903503 0.29890734 0.29713678
-0.054225802 -0.2827955 -0.05219683 -0.28336436 -0.23374295 0.14441684 0.116954535 0.022919059
0.051524073 0.0029902458 -0.07614644 -0.03664425 0.12047285 -0.022811443 -0.055716604 -0.21589425
0.24592811 -0.19177747 -0.06343816 0.2825035 0.10622558 0.0978615 0.12199083 -0.04164508
-0.28793404 -0.027497172 -0.17819998 -0.23683344 0.2893464 0.22172022 0.2755025 -0.13380943
-0.12946957 -0.25975007 0.28395164 0.24905086 0.116907656 0.26887643 0.09791079 0.055124283
-0.22592023 0.11717948 0.26164347 0.28983778 -0.021217912 0.2764123 -0.014501929 0.13977635
0.13425231 0.186748 -0.09673801 -0.27809203 -0.036177278 -0.016171634 -0.09582412 -0.25342673
0.29317063 0.21995443 -0.29970008 -0.16983455 -0.13466282 0.00026327372 0.08541983 -0.28790396
0.23542345 -0.12196559 -0.26295486 -0.22947459 0.2573216 -0.017407626 -0.025154233 0.057670087
-0.069799066 -0.27916685 -0.07337575 0.043581396 0.117021084 0.054893672 0.041177005 -0.0378308
0.17099664 0.1942707 -0.10711874 -0.050546885 -0.22220916 0.15553656 0.28739405 -0.27822143
-0.11714208 -0.25311908 -0.11980602 0.19296119 0.2592271 0.049310952 0.1988635 0.040553927
-0.1766968 0.2099269 -0.19835144 -0.09471345 0.055259228 0.18345535 -0.23241267 0.21622813
0.16152409 -0.0417476 -0.17616512 -0.1393866 0.057817042 -0.10792649 -0.16426332 -0.08048917
0.23905563 0.22022623 -0.023572654 -0.08127859 -0.2933845 0.052850485 -0.116974324 0.20490605
0.25517476 -0.28937948 -0.2885471 -0.27090847 -0.11652669 -0.16120687 0.049850464 0.26319116
0.16278428 0.16052786 0.21682125 0.275788 0.07809749 0.24032176 -0.104703546 0.15973353
-0.2872614 0.27526152 0.26497638 0.18368462 -0.24571788 -0.21165954 0.20084918 0.017847955
-0.2911805 -0.014999598 0.07006428 0.029307634 -0.081353575 -0.06398399 -0.22058114 -0.0074442625
-0.061164156 0.116276324 -0.17511483 -0.05414863 -0.023825854 0.020594478 0.062302798 0.05542451

rnn.bias_ih_l0 f4 [33]
00000000: 8c7e 953e e0f0 62be e03d 993e 6246 51be
00000010: 8c62 8c3e c051 963d fc4e 60be 400c 3c3e
00000020: c0b2 683e b03f 99bc e1be 10be c865 383d
00000030: c408 9abd 5c48 c53d 0073 3bbc 3560 08be
00000040: d4bf 093e e85f 21be e08c ac3d 605b 8d3e
00000050: e021 cf3d c0d7 efbd 7851 5b3d fd55 19be
00000060: f09f 74be 3c48 d33d 10f2 783e 4cd0 9c3d
00000070: aed3 19be ca03 74be f409 9bbd 7ad9 58be
00000080: b453 aa3d
0.2919811 -0.22162199 0.2993002 -0.20437005 0.27418935 0.07339811 -0.2190513 0.18364048
0.22724438 -0.018707126 -0.14135315 0.04501894 -0.07521203 0.09632942 -0.011440992 -0.1331795
0.13452083 -0.15759242 0.08425307 0.27608776 0.10113883 -0.11711073 0.05354449 -0.14974208
-0.23889136 0.10316512 0.2431109 0.07656917 -0.15022156 -0.2382957 -0.07570258 -0.2117671
0.08316746

rnn.bias_hh_l0 f4 [33]
00000000: 7a4a b8bd 4ab5 0c3e 08ba 403d d041 333d
00000010: 508b bbbc 2c21 e93d 23ab 83be 2a9c 99be
00000020: 18b7 933e ab74 53be cee0 923e c049 7b3d
00000030: 8017 ab3d 0525 3ebe a05e 1b3d 3cc8 e3bd
00000040: 1c38 543e f28e 153e 3c03 863e 504d 913e
00000050: 6830 07be ea66 24be 92ec 173e 1e16 02be
00000060: f08e 7f3e 0087 afba e6b2 17be 6ad7 d4bd
00000070: 7073 593e 7039 5e3e 4fba 85be 4c6b 343e
00000080: 94e8 313e
-0.0899858 0.13741031 0.047052413 0.043763936 -0.022893578 0.1138328 -0.25716504 -0.30001956
0.28850627 -0.20649974 0.28687137 0.06134963 0.08354092 -0.1856881 0.03793204 -0.11122176
0.20724529 0.1460531 0.26174343 0.28379297 -0.1320206 -0.16054884 0.14836338 -0.1270375
0.2495687 -0.0013391674 -0.14814338 -0.103926495 0.21235442 0.21701598 -0.26118705 0.17619056
0.17373878

rnn.weight_ih_l0 f4 [192, 32]
00000000: f51a 3c3c 9b9f f0bd 2afe 98bd 9317 37bd
00000010: 31db 403c 63a0 11be 3be0 553d 5b93 46bd
00000020: 5beb 833d 0cb8 13bd 8e11 c0bd dce3 d73d
00000030: 2b9c 0dbd e8d6 9c3d b238 dc3d 4754 4d3d
00000040: 4ab3 c43c 65d8 c03b 9783 9fbd 21f1 b63d
00000050: 6a82 eabc 2651 61bd c48b 233e 3c07 adbd
00000060: 76f1 93bd 6853 37bd 0e07 78bd f471 6a3d
00000070: d736 cbbb b68e d83d acee 0a3e 5509 d9bd
00000080: 1d73 413c 8fc5 523c 358f 293b 444b 1238
00000090: 92b6 b13b 9729 033b 7b0d 7bbb e100 6a3c
000000a0: 130e 82b6 2236 5d3b 9731 163c 1ba2 17bc
000000b0: 3dc8 04bc 4ce5 e8bb 6263 7bbb d4c6 78bb
000000c0: c96f 00bb 782b bf3b 94c4 a03a 77dd af3a
000000d0: 7654 3fbb 4835 a03b 4246 0fbc 6b26 88bb
000000e0: 7a2d d7bb 9257 2cbc 4a80 b9ba 9c47 fdbb
000000f0: 4118 18bc e44f bb3b a7b5 0cbc 4cb1 a6bb
00000100: 3d5d bd3c 5096 813d d069 34bd be69 bbbd
00000110: afe0 8d3b e3ad 913d bacc 003d 8148 423d
00000120: a9a2 97bc 3590 673d 76ce febb a2a0 c53c
00000130: 88f2 a83d 60ae 603d fea4 6bbc 6128 f1bc
00000140: 2e10 623b e887 48bd 9a47 143d 378f 13bd
00000150: 503d a13d 5730 2cbd cac0 c23d 6d69 3fbd
00000160: 7362 563d 64b6 933c 2040 123d 932a 54bb
00000170: 0789 8c3b 3312 b63d f780 653d c619 083d
00000180: 6c47 da3c 9e2b da3c 0da7 52bd 57ea 623d
00000190: 355f 8a3c 09f5 86bd 93a4 f03d 3b76 373d
000001a0: 311c 953c d325 16bc 427c cebd 6cf1 97bc
000001b0: 85e0 ccbd 11dd 0d3d 5ef3 ce3c 5a4a 01be
000001c0: f00a a5bd 6cb8 083d d21f c63c 90f7 bf3c
000001d0: dd52 f73b c341 b8bc 9204 963d fce1 e1bc
000001e0: d1f8 083d b9bb c3bd a70a 543d 5c2e d5bc
000001f0: 0086 933d c7d8 7a3d f4c4 98bd 9abb 063d
00000200: 388d ab3d 3d3a 2dbd ccde 103e 0b4c a33d
00000210: 8af7 a0bb 0b23 a73c 5319 253c 3461 c6bb
00000220: 7431 903d 9576 76bc 8066 ea3b 9719 393d
00000230: 1623 303d b22b 3cbd e92a 1d3d 1d07 0b3d
00000240: 35c4 4a3d f8a8 b4bd fc9f 02be 9651 2a3d
00000250: 983c 46bd a441 8cbd 4ae2 c2bd 87a2 0f3e
00000260: df37 35bd 9834 a9bd 1845 1c3e b0e6 10be
00000270: a48d 78bb 3ed5 193d fc3c 5f3d 86a5 e83d
00000280: aa15 62bc 09da 4a3d e2b6 ee3d bbbb 1d3d
00000290: ddd7 c1bd e3f2 7fba 7965 d3bd 5fd1 cabd
000002a0: c33c 8cbd ca4d 2eba a49f 6b3d da57 6e3c
000002b0: 2ea9 44bd ca10 233d 411b cabd 7715 783d
000002c0: 015a b03c ff7b 233d 0151 103e a011 873d
000002d0: b697 18be 2598 a7bc 70f6 3abd 4dd2 e7bd
000002e0: fed3 87bd f075 85bd fb2c 733c cbc3 a5bd
000002f0: 9ab3 29bc e017 2c3d b65f a4bc 17b9 10bc
00000300: d247 0cbc b82e 003d 26a0 813c 14b3 a2ba
00000310: d79b 78bc 9ba4 fe3c 6868 38bc f959 37bc
00000320: c342 5fbd e143 41bd 9a2d a8bc dc1f e23c
00000330: b542 17bd 7f1d bd3c 8232 6b3d 66ac 483d
00000340: 631b fabc 676a 82bc 943d 193d d85b 43bd
00000350: b88d aebb 540a 72bc 8117 b7bc ebfb 233c
00000360: cc17 b43a fe69 d039 1eed acbc 1241 b23c
00000370: d3ca f8ba 61ef bebc f483 c33c 191c f73c
00000380: 3ebf 9abd ff6a e33d dc3b c4bb bc11 c43c
00000390: 0021 b13d c6c9 e3bc eeba 253c f659 853c
000003a0: ba2b 03bd 823b b43c cbf5 6c3d fb49 f9bd
000003b0: 1355 34bd 4c85 6cbd 08b4 803c c44c 933d
000003c0: bcb8 753d 175d a53c f93d f2bc fdf5 813d
000003d0: 0870 9a3c 4e00 4a3c c86e 90bd 58a1 c03c
000003e0: c4dd be3d 7f3d 933c 21ca a83d f794 c3bc
000003f0: a3e1 a43c 61e2 983c 1c37 903d 40c2 a0bc
0.011481036 -0.11749192 -0.07470353 -0.044700217 0.011771009 -0.14221339 0.052215796 -0.048480373
0.06441375 -0.036064193 -0.09378348 0.105415076 -0.03457276 0.076581776 0.10753001 0.0501292
0.024011273 0.0058851712 -0.07788771 0.089327104 -0.02862664 -0.05500903 0.15971285 -0.084486455
-0.072237894 -0.044757277 -0.060553603 0.05723758 -0.006201606 0.10574095 0.13567609 -0.10597483
0.01180723 0.012864484 0.0025872712 3.487921e-05 0.0054233754 0.0020013803 -0.0038307596 0.014282436
-3.8759404e-06 0.003375419 0.009167097 -0.009254958 -0.008104381 -0.0071074124 -0.0038358797 -0.0037960308
-0.001959788 0.0058340393 0.0012265616 0.0013417442 -0.002919463 0.004889164 -0.008744778 -0.0041549704
-0.0065667005 -0.010518925 -0.0014152613 -0.007729484 -0.009283126 0.005716311 -0.008588231 -0.0050870534
0.023115749 0.06327498 -0.044046223 -0.09151028 0.004329763 0.071132444 0.031445242 0.047432426
-0.01851018 0.05653401 -0.007776077 0.024124447 0.08249384 0.054853797 -0.014382599 -0.0294382
0.0034494507 -0.048957735 0.036201097 -0.036025252 0.078730226 -0.042038288 0.09509428 -0.0467314
0.052339982 0.018031307 0.035705686 -0.003237401 0.004288796 0.0889019 0.056031194 0.033227704
0.026645385 0.026632126 -0.051428843 0.055399265 0.016891101 -0.065897055 0.1175014 0.044790488
0.01820192 -0.009164291 -0.10082294 -0.018547736 -0.10003761 0.034634653 0.02526253 -0.12626019
-0.08058727 0.033379003 0.024185095 0.023433477 0.00754772 -0.022492295 0.073250905 -0.027573578
0.033440415 -0.0955729 0.05176797 -0.026023082 0.07203293 0.06124189 -0.07459441 0.032893755
0.08376545 -0.04229187 0.1414749 0.079734884 -0.0049123215 0.020402452 0.010076839 -0.006054068
0.070406824 -0.015042921 0.0071533322 0.04519042 0.04300221 -0.04594011 0.038371 0.03394233
0.049503524 -0.08821291 -0.12756342 0.041581713 -0.04839763 -0.068484575 -0.095158175 0.14026843
-0.044242736 -0.082619846 0.15260732 -0.141505 -0.0037926221 0.03755688 0.05450152 0.11359696
-0.01379911 0.04952434 0.11655976 0.03850911 -0.09465001 -0.0009763671 -0.10322089 -0.099032156
-0.06847527 -0.0006649165 0.057525292 0.014547313 -0.048012905 0.039810933 -0.098684795 0.060567345
0.021527292 0.039913174 0.140934 0.065951586 -0.14901623 -0.02045829 -0.045645177 -0.113194086
-0.06632231 -0.065166354 0.014842267 -0.08093985 -0.010357762 0.042014956 -0.02006517 -0.008833191
-0.008562045 0.031294554 0.015823435 -0.0012412989 -0.015173874 0.03108435 -0.011255361 -0.011190885
-0.05450703 -0.047183875 -0.020529557 0.027603082 -0.03692885 0.023085354 0.057421215 0.048992537
-0.030530637 -0.015919877 0.03741224 -0.04769501 -0.005326953 -0.01477297 -0.022350075 0.010008792
0.0013740002 0.00039751822 -0.02110916 0.021759544 -0.0018981345 -0.023307504 0.023866631 0.030164765
-0.07556008 0.11104392 -0.005988581 0.023934238 0.086488724 -0.027806174 0.010115368 0.016278248
-0.032024123 0.022001032 0.057851594 -0.12172314 -0.044026446 -0.05774431 0.015710846 0.07192376
0.05999063 0.02018599 -0.029570566 0.06345747 0.018852249 0.012329174 -0.0705238 0.023514435
0.09319642 0.01797366 0.08241678 -0.023874743 0.020127123 0.018662633 0.07041761 -0.019623876

rnn.weight_hh_l0 f4 [192, 64]
00000000: 35e0 4c3e 2186 05be 249d 443c feca 56bd
00000010: 0e42 f63d d0a7 a0bd 7cd5 3e3e b8d5 24bd
00000020: b638 25bd 219c 843d 67eb 18be 0ab2 e8bc
00000030: 8e28 2fbe 1080 6dbd f0d3 05be b9b8 ca3c
00000040: b477 bcbc dec2 ef3d 84ba cb3d dd8a f23d
00000050: ffa6 21be 0757 5ebd 3e6a 15bc 1ff4 15be
00000060: 2d52 263e dac1 fa3c 8f3c cbbd 3004 103e
00000070: 5f0f d23d 0077 3d3d 2bae adbd b1f8 33be
00000080: a985 cb3c 533a 37be a942 9d3d f90c e6bc
00000090: 92f2 9e3a 1a8d 2bbd 65ff 90ba 6f51 063e
000000a0: be00 593b 4631 e13d c8bf 0a3d 9afc 33be
000000b0: f5bb 633d 0361 03be 08f5 22be ffee bcbb
000000c0: 2a32 d2bd 4258 0b3e 8697 d3bc 3f6b 2d3d
000000d0: d2be 3dbd 3423 11bd 5284 9a3c 0bee a7bb
000000e0: 01ca 75bd b329 cfbd 10f6 aabd 2578 e63d
000000f0: d469 373c 5d94 0cbe 98d5 a43c 9486 72bd
00000100: 926b 0ebd a7ad 9bbf 01a7 f5bd 28a9 48be
00000110: dcc9 353d afa8 d93d 24a5 53be 41e3 023e
00000120: 550a 3abe 184d 13bd cec1 753d cf15 0c3e
00000130: eafe 243e 08cb 863e 3a2f 653e db9a 123d
00000140: 21d5 9abf daff 303f 8a11 403d b912 df3d
00000150: 4655 663d b164 9dbd 27f8 b93c ae68 433d
00000160: 4057 e9bd e620 22be 7689 2abc 8017 4fbe
00000170: cfd1 86bd 6cfe d1bd 3fe0 2c3e 0281 fb3b
00000180: 1d5d 423d 149d 633e 331a fabd 3307 5fbe
00000190: 16ed 573c bf98 98bc 7bea 33be 25e2 fa3d
000001a0: dbf5 803e e6e2 f8bc acd9 2f3d 8823 93bd
000001b0: 9d9b 48bd 2185 c73d 4ee4 b73d 8c38 8cbd
000001c0: 6819 05bd 7ffa 2fbe bee1 293e 016f 973c
000001d0: 768f b93c d5ae 2a3e 8a35 bfbd e3a1 fe3d
000001e0: 7929 d4bd 1673 573e d421 873d fa1d 82bd
000001f0: 175a bf3d 3793 473e d299 30b9 cf4a 903f
00000200: d404 d33d d30e 0ebe a0e3 ed3d 9f7f eabb
00000210: 6835 763e 2350 1ebe 91ee 023e 2c91 f5bd
00000220: 85a9 0abd 1cfe 1f3e 4d31 d13a 6504 943d
00000230: b43a 7ebd 81b1 443d 7324 31be 222f 41bb
00000240: 6382 223e a7e1 d83d e401 863d b02d f83d
00000250: d101 51be 26b5 483e 16ff e33c ddb6 43be
00000260: 93c2 1a3e 9236 6d3d 9c33 7bbe 3986 e13c
00000270: 5b9d 213d f779 703e 3cb1 7f3e 08bb 08bd
00000280: 97f1 89bd bef0 8fbd b188 563e 3fc4 4b3e
00000290: 9024 19be ba77 d8be 357c 6d3e e4a0 2abe
000002a0: 5d51 403d 66cf 173e daef dc3d 4cf4 753e
000002b0: e999 b23c 6cd3 193a f153 003c 2772 323e
000002c0: 1a58 f9bd 49fb ddbc 7fe4 1bbb 13e4 aebd
000002d0: 3ecf 063e a848 74bd d5c2 063e 2aa2 00be
000002e0: 5453 67be 732e 34bd 852d 263e 90ba a73c
000002f0: e0c5 743e c34b dbbd 9836 e4bb 48c6 253d
00000300: c8e3 043e 47cc 17bd 9963 0bbd c4f9 103e
00000310: 1110 80bb 2c88 12be abfc 1c3e f0e1 12be
00000320: dd84 123e 2e93 ba3d 66e1 2a3c 66c4 a63d
00000330: 15ca 3bbb 5368 25bd 83c0 89bc c7da 2fbe
00000340: ee8c 8a3d 9b15 423d f9fa 943d c02f e7bd
00000350: 9b82 d53b 5ed4 273d 229c 97bb 1962 1ebe
00000360: 77ed d83d 762d 483e f9d4 1bbe 37cb 42bc
00000370: 2719 1cbd 76f5 c6bd 8365 da3d 8599 13be
00000380: e62a efbd 7c37 25be 0038 33bb 4408 9d3d
00000390: 83a4 b43c 0b6f 073e 119a e23c 0df1 1739
000003a0: ff52 c03c dc54 2f3e eeda 253d fecc c23c
000003b0: d74a 30bb 5fba e3bd f786 42bc 1b6e a23b
000003c0: 06da debd f8c6 873d 11a6 c4bd 8e8b d3bd
000003d0: ff4c 9ebc 1ace 4bbe 0e3b 73bd d120 e5bc
000003e0: 8a0b dcbb 76a8 3b3d 990e 44bd 361b 093e
000003f0: c5e2 8e3d ed46 453d 76ca f23c 8735 543d
0.20007403 -0.13039447 0.012000356 -0.052439682 0.12024318 -0.07844508 0.18636125 -0.04024288
-0.040337287 0.06475092 -0.14933549 -0.028405208 -0.17105314 -0.057983458 -0.13069129 0.024746286
-0.023006298 0.1170709 0.099476844 0.11842892 -0.1578636 -0.054282214 -0.009119568 -0.14643906
0.16242285 0.030610014 -0.0992366 0.14064097 0.10256838 0.046256065 -0.084804855 -0.17575337
0.024844008 -0.17893343 0.0767873 -0.028082358 0.0012126735 -0.04188261 -0.0011062442 0.13117002
0.0033112015 0.10995726 0.033874303 -0.17576829 0.05559917 -0.12829976 -0.15913785 -0.0057657952
-0.10263474 0.13607886 -0.025829088 0.042338606 -0.04632456 -0.035433963 0.018861923 -0.0051248125
-0.0600071 -0.10115375 -0.08347714 0.112533845 0.011194665 -0.13728471 0.02012138 -0.059210375
-0.034770556 -1.216237 -0.11994744 -0.19595778 0.04438196 0.10627877 -0.20668465 0.12782003
-0.18168004 -0.035962194 0.05999928 0.13680194 0.16112867 0.26326776 0.22381297 0.035792213
-1.2096292 0.691404 0.046891727 0.10892243 0.056233667 -0.07685221 0.022701336 0.047707252
-0.11393595 -0.15832862 -0.01040875 -0.20223808 -0.065829866 -0.10253605 0.16882418 0.007675291
0.04745208 0.2222789 -0.12212028 -0.2178009 0.013179084 -0.018627523 -0.17569916 0.12250165
0.25187573 -0.030381631 0.042932197 -0.071845114 -0.04897653 0.09742189 0.089790925 -0.06846723
-0.032494932 -0.171854 0.1659002 0.018485548 0.022651415 0.16668256 -0.09336384 0.12433221
-0.10359473 0.21039996 0.06598249 -0.06353374 0.09343355 0.19489752 -0.0001684197 1.127283
0.10303655 -0.13872842 0.11615682 -0.007156327 0.2404381 -0.15460257 0.12786318 -0.1199058
-0.033853073 0.15624279 0.0015960127 0.07227401 -0.062067702 0.048020843 -0.1729906 -0.0029477556
0.15870051 0.10589915 0.06543329 0.12118089 -0.20410849 0.19600353 0.027831595 -0.19112726
0.15113287 0.05791337 -0.24531406 0.027529823 0.039456706 0.23484026 0.24969953 -0.033381492
-0.06735533 -0.0702834 0.20950581 0.1989908 -0.14955354 -0.42278844 0.23191912 -0.16662937
0.046952594 0.1482521 0.107879356 0.24018973 0.021801906 0.0005867991 0.007832513 0.17426358
-0.12175007 -0.027097361 -0.0023787317 -0.085395955 0.13164994 -0.059639603 0.1316026 -0.1256186
-0.22590381 -0.04398961 0.16228302 0.020474702 0.23903608 -0.1070781 -0.006964516 0.0404723
0.12977517 -0.03706005 -0.03403053 0.14157778 -0.0039081653 -0.14309758 0.1533076 -0.14344001
0.14308496 0.091101035 0.010429716 0.08142929 -0.0028654386 -0.040382694 -0.01681543 -0.171733
0.067651615 0.047383886 0.07274432 -0.112884045 0.0065158135 0.040974014 -0.004626767 -0.15467109
0.10592168 0.19548592 -0.15217961 -0.0118892705 -0.038109925 -0.09714787 0.10663893 -0.14414032
-0.11678104 -0.16134447 -0.002734661 0.07667592 0.022051102 0.13225953 0.027661355 0.0001449028
0.023477076 0.17122215 0.04049199 0.023779389 -0.0026900077 -0.11119532 -0.011872998 0.0049569733
-0.108814284 0.06629747 -0.09601987 -0.10329352 -0.019323824 -0.1990284 -0.05938249 -0.02796975
-0.0067152428 0.045814954 -0.047865484 0.13389286 0.069768466 0.048163343 0.029637557 0.05180886
