GANS/time_gan/TimeGAN.pth (torch, 46627 bytes, 50 tensors)

weight_ih_l0 f4 [30, 10]
00000000: 77df 93be 77fc 8ebe 5131 2f3e 5bd9 6fbe
00000010: 5f97 d23d c86a 40bd 1b21 633e 93ff e2bd
00000020: aaef 65be 034b 1bbe 3bb9 85bd 7b09 fd3d
00000030: 616f f03c c57b 55be a5d2 053e f456 8a3e
00000040: c767 9a3d 2ca5 803e e27d 60be d298 a6bb
00000050: 02d5 27be 18cc c33e 5700 9e3e cd27 2cbe
00000060: 7177 803e 63c9 aa3e c95e de3e 9543 7b3d
00000070: 94e4 523e 2a5e 013d bd4d 023e d7bb 84be
00000080: 0f08 773e af16 a83d 34e0 eabd 31eb 8cbe
00000090: ce64 14be 9846 b2be 8a79 213e 40ed 7fbe
000000a0: 7230 f7be aec9 8dbf 9e4c 2bbf 68fe 15bf
000000b0: 419a bfbe 0e61 c5bd 41b0 0f3e 7914 ebbe
000000c0: f949 6bbe 6829 5e3e 732f 65be a9c3 a3bb
000000d0: 750a b83e 65ed 283e 3bee a63e ab78 5dbd
000000e0: 1ea5 773e a912 58be 9418 843e 982c 413e
000000f0: ea63 cbbe db87 18bf 7052 a5be 2b9f 9dbd
00000100: ffe2 e1be 1c23 ffbe 490b d7bd 60e9 9abd
00000110: dfdd b9be 289f 223e 5dbc 7cbe 1d15 6e3e
00000120: af53 b3bd 6ad4 0a3e cd08 62be 1b44 d23d
00000130: 8dc2 da3c 9bf8 5f3d 0f67 133e 8e41 f6be
00000140: 121d db3e 99f6 e83f a87f a3bd dff3 adbd
00000150: 637b 9c3d 16ec 633d 965e 1d3e b865 1b3f
00000160: 3069 493f 95d8 493c 36c7 633e 11a0 633e
00000170: 7ba7 c73e 8155 15be 5be2 2e3e 4640 ba3e
00000180: 772a 133e 1459 9b3e cc75 933e 9bc3 c43e
00000190: 798c ad3e e578 933e a856 5dbe 61ec 3d3e
000001a0: f03a 203d 4db1 91be a1e6 8a3e 5231 cc3e
000001b0: 516e af3e 0375 2cbe 78e1 653e b8b1 113e
000001c0: 4f86 82be 98f4 a9be aaeb 4dbd 3402 97be
000001d0: f06b 513d b085 2f3e 1db8 623e 93b6 97be
000001e0: 96b6 6abe 19da 10bf 9898 86be a878 b9be
000001f0: 82fc a4be 9792 0ebe e855 95be a2c9 e13c
00000200: 074f 9cbe 4120 00be 8c62 c5bd fa0e 1bbe
00000210: 04c1 353b 0c6e 123e 57fa b8be 55c1 c1be
00000220: 8a0c 023e 649c 0bbe 155e abbe feb9 72be
00000230: 8905 663e b69c 3c3e 2f26 95bd e4df 013e
00000240: 7b82 48bd e6eb eb3e d50c 7cbe ef79 7ebe
00000250: aed6 86be 3b5a adbe f3e3 cb3c 5af6 463e
00000260: 14c4 1f3e c0f1 9a3c 4101 863e 7cfb a6bd
00000270: d5e8 4d3d ca74 f13c 0a2a 64bc 1e9e 133e
00000280: a0b0 d4be 4ef0 a4bf 7fc4 54be 3052 b9be
00000290: 4795 98bf 399d 3ebf fbcd 5abf c3f5 46bf
000002a0: b444 5cbf f957 54be c2a1 60be 9dd1 383e
000002b0: 5542 88be 2e1c d7bd baba 9fbb 3fa1 27be
000002c0: ab14 143e ff1b a73d 98b8 853d ee3f 6cbe
000002d0: b3ed a53d 1fcf b9be f771 22be ed4d 66bd
000002e0: 4a2b 44be feab 00bd 9e6b c1be 2a70 513d
000002f0: 43c5 88bd d5d9 7cbe a3da 52be 32b8 01be
00000300: 31be 7abd 25e4 e33c c774 d0be b3f7 6ebd
00000310: 3e39 073e 0694 39bd 9a46 433b 9d5e 3c3e
00000320: 2794 47bd 541c 2b3e 39c6 933e 91c1 d13d
00000330: 0564 9e3d d925 f3be e51a c7bd 88fd 133e
00000340: a9ba f1bd 1cef 52bd d113 85be abe6 a6be
00000350: 8215 5bbe cd80 3cbd e870 65be 92d9 9f3d
00000360: 9a8d 2bbe e4ee 7ebe 6a18 24bd cbf9 fabc
00000370: 275c c3be 0f73 0bbe acd3 4bbe 14f2 84be
00000380: fd16 a6be e727 7fbe 8333 b53c 867d d9bd
00000390: c864 b4be 708e a6be 3b64 acbe 37fc 0f3e
000003a0: d834 613c def8 5bbe b21d a43d fbf0 0abf
000003b0: 2c6e 3b3e afa3 8fbe 9801 dbbd 4011 3abe
000003c0: 96e6 0fbe 7207 fdbc 7c30 82be 6354 49be
000003d0: 8e8a f0bd 1b33 77be 7fa0 07be d7e0 67be
000003e0: 3021 acbd 8034 073d 383d 223e 9a71 4a3e
000003f0: 1685 13be 4717 a53e 9082 7f3e 2ad3 b23e
-0.28881428 -0.2792699 0.17108656 -0.23422758 0.10282778 -0.046976835 0.22180597 -0.11083903
-0.22454706 -0.15165333 -0.065294705 0.12355324 0.029349985 -0.20847996 0.13068636 0.27019465
0.07539325 0.25126016 -0.2192302 -0.0050841356 -0.1638985 0.3824165 0.30859634 -0.16812058
0.25091127 0.3335677 0.4343169 0.061343748 0.20595008 0.031583942 0.12724967 -0.2592456
0.24124168 0.082074516 -0.114685446 -0.27523187 -0.14491579 -0.34819484 0.1576902 -0.24992847
-0.48279148 -1.1077173 -0.66913784 -0.5859132 -0.37422374 -0.09637652 0.1403208 -0.45914057
-0.22977437 0.21695483 -0.22381382 -0.0049976897 0.35945478 0.16496809 0.3260363 -0.054070156
0.24184081 -0.21100868 0.25800002 0.18864667 -0.39724666 -0.595823 -0.32289457 -0.076963745
-0.44118497 -0.49831474 -0.10500199 -0.07564044 -0.36302087 0.15881026 -0.2468123 0.23250242
-0.08756196 0.13557592 -0.2207367 0.10266896 0.026704097 0.054680448 0.14394782 -0.4809689
0.42795616 1.8200256 -0.07983333 -0.0849378 0.07640722 0.05564507 0.15368113 0.60702085
0.7867613 0.012319704 0.22243962 0.22229029 0.38994965 -0.14583398 0.17078535 0.36377162
0.14371668 0.303414 0.2880081 0.38430485 0.33896235 0.28803173 -0.21615088 0.18547203
0.039118707 -0.28455582 0.2712908 0.39881378 0.34263852 -0.16841511 0.22449291 0.1422795
-0.25493094 -0.33194423 -0.050273575 -0.29493868 0.051128328 0.17140841 0.22140546 -0.2963148
-0.22921214 -0.5658279 -0.26288295 -0.36224866 -0.32223898 -0.13923107 -0.29167104 0.027561966
-0.30529043 -0.12512304 -0.09637937 -0.15142432 0.0027733454 0.14299792 -0.36128494 -0.37842813
0.12700096 -0.13633877 -0.33470216 -0.23703763 0.22463049 0.18419155 -0.072826736 0.12683064
-0.04895256 0.46078414 -0.2461427 -0.24851201 -0.26335663 -0.33857903 0.024888968 0.19429913
0.15602142 0.018914104 0.26172832 -0.081534356 0.050270874 0.029474635 -0.0139260385 0.14415786
-0.41541004 -1.2885835 -0.20778082 -0.36195517 -1.1920556 -0.7445865 -0.8547055 -0.7771875
-0.8604233 -0.20736684 -0.21936706 0.18048711 -0.26613107 -0.10503422 -0.0048745545 -0.16370104
0.14461009 0.08159637 0.06529349 -0.23071262 0.08101978 -0.36290833 -0.15863787 -0.05622666
-0.19157138 -0.031414025 -0.37777418 0.05113236 -0.0667825 -0.24692471 -0.20591216 -0.12667921
-0.061216537 0.027818749 -0.40714094 -0.058341693 0.1320543 -0.04530718 0.002979672 0.18395467
-0.048725273 0.16710025 0.2886217 0.10241998 0.07733921 -0.47489813 -0.097219266 0.14452183
-0.11803181 -0.051497564 -0.2599168 -0.3259786 -0.21394923 -0.04602127 -0.22406352 0.0780517
-0.16753235 -0.24895817 -0.040062346 -0.030636689 -0.38156244 -0.1361811 -0.19904965 -0.2596594
-0.32439414 -0.24917565 0.02211929 -0.10619645 -0.3523314 -0.32530546 -0.3367022 0.14061056
0.013745509 -0.21481654 0.080134764 -0.54273957 0.18303746 -0.28054568 -0.10693663 -0.18170643
-0.14052805 -0.03088734 -0.25427616 -0.19661097 -0.11745177 -0.24140589 -0.13244818 -0.22644363
-0.084047675 0.033009052 0.15843666 0.19769898 -0.14406237 0.32244322 0.2495215 0.3492673

weight_hh_l0 f4 [30, 10]
00000000: 7915 83be c58f 7fbe 50f5 4bbe 4354 2b3e
00000010: 81d9 a5bd ad57 a53d 4a98 04be 26c9 13be
00000020: ed38 1b3d 7d8b e0ba b562 3d3e 0fca 6a3e
00000030: 8ef5 973e 62ad 2bbe 4fae 7cbe bc0a 9c3d
00000040: 119e b6bd af38 f83d 9613 833d 2435 5a3e
00000050: 05ec 303e 2831 573e cfc9 4a3e b893 bcbc
00000060: fac7 0fbe 3275 673e c870 35be 7be7 23be
00000070: 869f 16be b987 523e 9b67 573e 1861 963e
00000080: a355 373c 5a09 35bd 4ba2 b13d 0b4c c33d
00000090: 37e7 16be e5b6 9abe ee1e a33e fa13 cbbd
000000a0: 6488 a1be 7ede 773e b998 323d 6cc1 0a3e
000000b0: f53a 903e a1ad 663d 4d4c 203d dbfb d4be
000000c0: 440e 4bbe 2529 a33e b533 b03d 79c6 843e
000000d0: 90b0 c9bd efcf 8d3e 87ad 96be 17ff 6c3e
000000e0: b6ef b9be fdae a53d d852 553e 159a 1c3e
000000f0: 694b 34be e486 31be 6667 9d3e 7c75 863e
00000100: b497 643d 9812 273d 9fbe 7abe fdb7 c0be
00000110: 8787 be3e e452 373e e684 f53c 9228 693d
00000120: a0f1 b7bb 887a 943e 2383 24bc ea91 89be
00000130: 4068 37bd 68d1 f93d afac a9bd 2d28 983e
00000140: 4766 9dbe 9146 46be 386d 93bd 083b b93a
00000150: 001f 19bb 1af9 273e 222d 313f 5c98 3bbe
00000160: 828f 893e 37d8 513c dc64 203e e3e3 7fbe
00000170: 9a42 2abe ae43 43be 859f de3d f277 2dbe
00000180: a86e 143e 20d4 12be 660e a4bd 4b5c 4c3d
00000190: 3e1f 4bbe 76d8 6dbd a4ac 223e d451 4cbe
000001a0: c283 92be bb37 69bd 8bf7 8e3c 9c3c 2f3e
000001b0: 2e25 74be 46a5 2ebe 08aa a33d 95a4 b23e
000001c0: 2ecf d43c 210b fc3d 6e6e a53e 1c9a bfbc
000001d0: 4120 4dbe 10bb 30be 3435 e63d 0bf6 e4bc
000001e0: 4dae 19be 43e8 243e 5947 c63e 10c5 1c3e
000001f0: 3694 71bd 38d7 f6bc 2816 d7be a31b 213d
00000200: c47f 9ebe df0d 62be 2652 5f3e ee7d 1abd
00000210: 13ea 3f3e f641 98bd f9d6 3cbe 921b d5bc
00000220: d0bc 7e3e 3e29 123e 4b31 d53d 04d7 60be
00000230: 3fd3 8bbe 087c e6bd 4800 df3d c6a8 8b3e
00000240: e9f3 7bbe a91d a03e 4a66 77be d94f 14be
00000250: 4352 013e e8b4 983e 3ba9 863e 7dff 91be
00000260: 58d9 2d3d 2674 8abe 3bd1 90bd 3497 823e
00000270: 4ee9 45bd 73ce 98be 1283 45be 1aaf 8e3c
00000280: 39e7 0bbf 4241 a93d 75fb 0cbe ddfb 12be
00000290: 67c2 5a3e e68b abbd e19d 5c3e 10b5 9cbd
000002a0: b5c2 e83d c08c 9b3d fff5 9bbe 0ac1 4e3c
000002b0: 3fdb 303e 572c 8abe b55f 633c 7c7e 48be
000002c0: f864 58bd 94df 85be 54d8 af3b f96f c7bb
000002d0: a8b8 c83c 75ed 323c 9ba3 d83e d5fb b43e
000002e0: 9b6b c83e c38d b7bd 001b 0abe 210b fabe
000002f0: 51e0 0c3e 8143 863e 8d0e 1dbd 1634 36be
00000300: 48c5 2fbd 1b77 473e 647f ac3e a89b bdbd
00000310: 1fda d83c dc12 a2be 85a6 6c3e ce1f 0f3d
00000320: 9d8b a93d 2c24 08bd 9b67 bf3d 1e56 a23e
00000330: 8c61 443e 4a33 4f3e 845e e4bc f86c 813e
00000340: 7065 5bbe 19e7 ffbd 0a1f 96bd af73 5cbd
00000350: b5e4 07bd 1997 4f3e fd07 3dbe cc8f 75be
00000360: fa21 0a3d 0ebf 16bd 3900 9a3e 2dd2 a7bd
00000370: 48e4 1b3e c0fd a1bb fa97 bb3e 7064 ca3d
00000380: 7a71 903e f658 d7bd aea7 60bd a8d3 4e3e
00000390: 66e6 b03d 0c05 973a 6175 1abe 20a9 9a3d
000003a0: f17a 50be d3b0 65be 6f5f c63c bb47 1e3c
000003b0: f1f6 af3c 19f4 90bd 7766 aabd 36b1 123e
000003c0: 02db dbbd 6b19 3fbd 38ca 013e f09a b7bb
000003d0: 23fd d03a d9fb e73c 1326 8f3e 762a 6bbe
000003e0: f5d3 dd3d 2c39 8f3d 4d0d d3bd 24db f2bc
000003f0: 6ab0 f13d 54c8 303e 1bf3 8a3c 6fff 603d
-0.2560232 -0.24957187 -0.19917798 0.16731362 -0.08098126 0.080733635 -0.12948719 -0.14432201
0.037896086 -0.0017131414 0.18494685 0.22928642 0.2967953 -0.16765359 -0.24675868 0.07619235
-0.089168675 0.121201865 0.0640022 0.21309334 0.17277534 0.21014845 0.19803546 -0.023019657
-0.14041129 0.226033 -0.17718804 -0.16006272 -0.14709291 0.20559587 0.21035616 0.29370952
0.011189851 -0.04419837 0.08673533 0.095359884 -0.14736639 -0.30217662 0.31859535 -0.099159196
-0.3154937 0.24205968 0.04360268 0.13550347 0.2816998 0.05631793 0.039135266 -0.415984
-0.1982966 0.31867328 0.08603612 0.25932673 -0.0984813 0.27697703 -0.29429266 0.23144184
-0.36315697 0.08090017 0.20832384 0.15293153 -0.17606892 -0.17336613 0.3074295 0.26261508
0.055808738 0.040789217 -0.24486779 -0.37640372 0.37212774 0.17902714 0.029970597 0.056923456
-0.0056135207 0.28999734 -0.010041031 -0.26869136 -0.044777155 0.12198144 -0.0828489 0.29718152
-0.30742094 -0.19362856 -0.07198566 0.0014131973 -0.0023364425 0.16403618 0.6920949 -0.18319839
0.268673 0.012807897 0.15663475 -0.24989276 -0.16626969 -0.19068787 0.1087027 -0.16940287
0.14495337 -0.14338732 -0.08010559 0.049892705 -0.19836137 -0.05806776 0.1588617 -0.1995309
-0.28616148 -0.056937914 0.017452022 0.17112964 -0.23842308 -0.17055234 0.07991415 0.3489119
0.025977697 0.1230681 0.32310814 -0.023388915 -0.20031835 -0.17258859 0.112406164 -0.027949354
-0.15007897 0.16104226 0.3872631 0.15309548 -0.058979236 -0.030131921 -0.4200909 0.039332997
-0.30956852 -0.22075604 0.21808681 -0.037717752 0.18741636 -0.07434456 -0.1844138 -0.026014123
0.24876714 0.14273545 0.104097925 -0.21957022 -0.27309605 -0.11254126 0.108887255 0.272772
-0.24604763 0.3127263 -0.24160114 -0.14483584 0.12629037 0.2982552 0.26300988 -0.28515235
0.042443603 -0.2704174 -0.070711575 0.25505984 -0.0483182 -0.29845008 -0.1928828 0.01741748
-0.5464969 0.082644 -0.13767798 -0.1435389 0.21363221 -0.08376293 0.21544601 -0.076517224
0.113652624 0.07595205 -0.30461118 0.012619266 0.17271136 -0.26986954 0.013877799 -0.195795
-0.052830666 -0.2614714 0.0053663645 -0.006086346 0.024502113 0.010920872 0.4231232 0.35348383
0.39144596 -0.08962586 -0.13486862 -0.48836616 0.13757445 0.26223376 -0.038343955 -0.17793307
-0.04291275 0.19479029 0.3369094 -0.09258205 0.026471196 -0.31655014 0.23110397 0.03494244
0.08278582 -0.03323762 0.09345933 0.31706327 0.19177836 0.20234409 -0.0278771 0.2527845
-0.21425414 -0.1249525 -0.07330139 -0.053821262 -0.033177096 0.20272483 -0.18460079 -0.23980635
0.03372381 -0.036803298 0.30078295 -0.08194385 0.15223801 -0.0049435794 0.36639386 0.09882438
0.28211576 -0.10515015 -0.05484741 0.20197928 0.08637695 0.001152189 -0.15083839 0.07551789
-0.20359398 -0.22430734 0.024215428 0.009660657 0.021480056 -0.07077808 -0.08320325 0.14325413
-0.10735132 -0.0466551 0.12674797 -0.005603187 0.0015944581 0.028318333 0.27958736 -0.22965416
0.10831443 0.069933265 -0.10305271 -0.02964551 0.118012264 0.17263919 0.016961625 0.0549311

bias_ih_l0 f4 [30]
00000000: 90ec 55bd f911 5a3e 0194 9aba 727a 46bd
00000010: 72f6 9d3e a0c2 3c3e 0d5f 60bd cfa9 e6bd
00000020: 7ff2 893d cb89 4bbe a66b 25be 943b 95bb
00000030: 2fde f33d f58d 75bc 1e5c 5fbe ea0a 04bd
00000040: 32c6 c1bd 064d 6dbc c238 a8be a175 b1be
00000050: 95aa 78bd 3061 babe adaa 5f3e 883f 933b
00000060: 1267 adbe bbfd 9e3d f9c0 a5bd 02eb 8e3e
00000070: ec8e 85be 2a81 82be
-0.052227557 0.21295919 -0.0011793376 -0.048456617 0.30852085 0.18433619 -0.054778147 -0.11262857
0.067357056 -0.19876783 -0.16154346 -0.0045542214 0.119076125 -0.0149874585 -0.21812484 -0.03223697
-0.09461631 -0.014483696 -0.32855803 -0.34660056 -0.060709555 -0.36402273 0.21842451 0.0044936575
-0.338677 0.07763239 -0.08093447 0.27913672 -0.26085603 -0.2548917

bias_hh_l0 f4 [30]
00000000: 2ed1 cf3d 5194 66bd 9613 18be d6a8 5b3e
00000010: d1d3 c73c c080 b03e 525c 6a3e b726 b0bd
00000020: 3c1c 4bbe 200a ab3d a133 f6bb 5349 3fbe
00000030: ce74 8e3e 7b77 8f3e 9183 ed3d 4e35 723e
00000040: 871e 2fbd 2e54 65be 8484 bbbe b2e8 8f3d
00000050: e7f2 b63e 1ea9 a1be a054 b3be 46f0 903d
00000060: 0cad c7bd 312a a83e fe6e 96be 7ce1 babd
00000070: 45e4 193e a5cf 9bbe
0.1014732 -0.05629379 -0.14851221 0.21451125 0.024392994 0.34473228 0.2288678 -0.08601134
-0.1983499 0.083515406 -0.007513479 -0.18680315 0.2782349 0.28020844 0.1159736 0.23653147
-0.042753723 -0.22395393 -0.3662454 0.07026805 0.35732195 -0.3157434 -0.350255 0.070770785
-0.09749803 0.3284469 -0.29381555 -0.09125039 0.15028484 -0.30431858

weight_ih_l0 f4 [30, 10]
00000000: cd6e 14be 4346 143f 4a25 a43d 513f 273d
00000010: c647 083d 798f 51be 0cb6 65bc d82a ebbe
00000020: 613f ba3d 5bfe 823d b43c 873e 440d 603e
00000030: eee2 19be c657 673e b906 22be 015a 70be
00000040: 25f6 df3e 4aeb 2ebd 2262 d4bc 0116 9ebe
00000050: 4344 4d3e ded5 26bc 262e 8abe 051a 18be
00000060: 6aab 0abe 4883 713e 515c 15bd 15bd a63d
00000070: a1e7 3cbd 1005 8cbe 5889 8ebe 033d 903e
00000080: fb98 56be 7180 88be 14ff 4a3e b671 cbbe
00000090: 1da3 17be f6e7 a8be badb 1abe 7b25 5f3e
000000a0: 722a 22bd 6f4e 603e c49c 01bc a34f 88be
000000b0: 790f d7bd 25e6 683d f932 0d3e 31b3 933e
000000c0: 96a3 7bbd cd0c 86be bc5c b3bd c988 d1bd
000000d0: 54df f83b 7ba4 653e bc37 6fbe e046 a5be
000000e0: 13ae a43e ae49 0c3e 0846 4d3e 58c7 a33e
000000f0: 3713 7a3e 611f 89bd f8ba 7b3c 94a6 5ebe
00000100: 8ba2 743e 783e 32be 303e 723e d4ff 4cbe
00000110: 3320 223e 7c1f 9c3d 0876 533e 74bc 813e
00000120: 85b7 76be 310d a6be 89a8 0d3c 9f5a 013d
00000130: ce57 22be 18fa 3e3e fbc2 c6bd 6a15 713e
00000140: 41ad 04bc 3ae2 823c 3d31 36bd f156 8fbe
00000150: bab1 f23d d62f 583e 8d06 233e daf9 98bd
00000160: 0a53 213e b428 6cbe e1d5 27be a956 713e
00000170: 64b1 cf3c 95d0 e0bd bc67 99bd 0d0a 2d3e
00000180: 67fc 413e cb93 9e3d 70e7 6e3e 10eb 883e
00000190: 4431 0d3e 3377 8cbe b9f8 863e a342 023e
000001a0: 59be 1dbf 9581 dd3e ff45 98bd 4893 113f
000001b0: c9fc adbe f574 0ebf b166 b4be bc4e ad3e
000001c0: 3147 9fbd 4453 24be cb6f 70be f318 8b3b
000001d0: f353 58bf cba3 9abd b394 8e3e 4286 b93d
000001e0: 3f8d 4e3d 70a8 01bc c73f d7bd 07c1 41be
000001f0: 1959 f83d 4e78 5cbe 136b d2be 5068 a3bc
00000200: 7e38 b7be 9057 08be adbf a4be 1d7e 40be
00000210: c69e b8bc 20ab 4fbe 297a a33e 674e 4c3e
00000220: 3113 693e a6ec 84bd bed9 ffbd 7ba1 863e
00000230: aa4a 6b3e e3f6 0abe 04d9 26bd a239 4c3e
00000240: d6bc ba3e da60 8b3c f685 68be dc01 9ebe
00000250: 194c 80be 57b3 4d3b ab29 c1bd e7b0 bc3c
00000260: d1a0 6e3d edcc 7abe 6f9e 2e3d 0d44 41bd
00000270: 5b0e 59bd e36b 9cbc 9fd5 f83b 5cb7 a53e
00000280: 982f 43be f158 b03d 4570 58bb 3432 613d
00000290: 8685 a5bc a7ff 133e d81c 03be 7947 53be
000002a0: 60d9 a43e 1dfc 48be 2cd7 4ebe 4627 073e
000002b0: b787 5e3e 76b0 a33e fa4a 203e 9018 9cbe
000002c0: f198 8fbe 3c1b d43b ca3f fdbd d824 17be
000002d0: 7b50 593e 2fc2 86be 8aca 843e 6166 b63e
000002e0: ef88 9bbe fcf4 e93c 6a06 92be bbec f43e
000002f0: 5fcc 94be 0270 b9bd a1ec 0abe d056 71be
00000300: 7599 d9be 8b56 103d 5e8e 853e abac f7bd
00000310: 15de 91bc 1285 81be e670 53bd 5e9f 283e
00000320: 1ef2 863d 8c80 55be 1df3 363d 25e2 8dbe
00000330: 5dba be3c 36c1 bb3c 122d 8c3e bd09 9e3d
00000340: 7259 a13e 6fce 40be e388 2dbe b0a4 17be
00000350: a93e 333e d2f4 ee3d 0b80 143e 618e 513e
00000360: 99a7 ad3e 8ea8 abbd df03 963e 596c 87be
00000370: c31e 2abc f26e 013e 8130 8cbe 9717 363e
00000380: 4e9c 913d d3ee f4bd 693f 293e e488 323e
00000390: 1616 303d 6b7a 98be e479 c3bd 3bb2 ebbd
000003a0: 1bbf f9bd c481 c9be 522c 783e c9ab 803e
000003b0: 16bd a93e 9922 403e b833 4b3e b0d8 513e
000003c0: a354 debc 5ab9 27be 4442 9f3e d2db 2ebe
000003d0: 7c81 5fbe d6c3 5b3e 7453 653e 7408 893e
000003e0: f935 d1bd e005 68bc 92a4 e5bd 8f41 233e
000003f0: 1413 82bd 2d37 37be 6bcb b8be 19f5 27be
-0.14495392 0.5791971 0.08014925 0.040831868 0.033271573 -0.20464887 -0.014020454 -0.45931125
0.0909412 0.06396171 0.264135 0.2188006 -0.15027973 0.22592077 -0.15822877 -0.23471834
0.4374248 -0.042704858 -0.0259257 -0.30876163 0.20045571 -0.010182826 -0.26988333 -0.14853676
-0.13541952 0.23585236 -0.036464993 0.08141533 -0.046119336 -0.27347612 -0.2783916 0.28171548
-0.20956795 -0.26660493 0.19823867 -0.39735192 -0.14808317 -0.32989472 -0.15122882 0.21791641
-0.03959126 0.2190492 -0.007910911 -0.26623258 -0.10500998 0.056860108 0.13788976 0.2884765
-0.061435305 -0.2618164 -0.08757922 -0.10231168 0.007594982 0.22426026 -0.23361105 -0.32280636
0.32164058 0.13699982 0.20046246 0.31988025 0.24421392 -0.06695438 0.015364401 -0.21743232
0.2389013 -0.17406642 0.23656535 -0.20019466 0.15832596 0.07623193 0.20650494 0.2533909
-0.24093445 -0.3243194 0.008646139 0.031580564 -0.15853807 0.1865009 -0.09705158 0.23543325
-0.008097948 0.015977014 -0.04448055 -0.2799602 0.11850305 0.21111998 0.15920468 -0.074695304
0.15754333 -0.23062402 -0.16390182 0.23568214 0.025353141 -0.10977284 -0.07490489 0.16898365
0.1894394 0.07743033 0.23330474 0.26741838 0.13788325 -0.27434692 0.26361635 0.12720732
-0.6161857 0.43262926 -0.07435226 0.5686536 -0.33981922 -0.5564721 -0.35234597 0.33849132
-0.077772506 -0.16047388 -0.23480146 0.0042449175 -0.84503096 -0.07550772 0.27847824 0.09058811
0.05042767 -0.007913694 -0.105102114 -0.1892129 0.12126369 -0.21530268 -0.41097316 -0.019947201
-0.35785288 -0.13314652 -0.32177487 -0.18798108 -0.022536647 -0.20280123 0.31929138 0.19951783
0.22761227 -0.064904496 -0.12492703 0.26295075 0.22977701 -0.13570742 -0.040734306 0.1994386
0.36472195 0.017013956 -0.22707352 -0.30860794 -0.25058058 0.0031387412 -0.09431776 0.023033572
0.058258835 -0.24492235 0.042631563 -0.04718404 -0.052992206 -0.019094413 0.007593825 0.32366455
-0.19061124 0.08610714 -0.0033025902 0.054979518 -0.02020527 0.14452992 -0.12803972 -0.20632733
0.32197094 -0.19627424 -0.20199269 0.13198575 0.21731459 0.31970567 0.15653601 -0.3048749
-0.28046373 0.006472973 -0.123656824 -0.14760149 0.21222107 -0.26320025 0.25935775 0.35624984
-0.3037791 0.0285592 -0.2852052 0.4783686 -0.29062173 -0.09054567 -0.1356683 -0.23568273
-0.4249989 0.035238784 0.2608518 -0.12093481 -0.017806092 -0.25296837 -0.05162134 0.16467044
0.06589149 -0.20849818 0.044665445 -0.27711597 0.023282224 0.022919279 0.27378136 0.07716701
0.31513554 -0.18828748 -0.1694675 -0.14808917 0.17504372 0.116677895 0.1450197 0.2046447
0.3391693 -0.08381759 0.29299828 -0.2644985 -0.010383311 0.12639979 -0.27380756 0.17782436
0.07109891 -0.119596146 0.16528095 0.17435032 0.042989813 -0.29780897 -0.09544733 -0.11508604
-0.121946536 -0.39356816 0.24235657 0.25131062 0.33152074 0.18763198 0.19843948 0.20492816
-0.027139967 -0.163793 0.31105244 -0.17076042 -0.21826738 0.21461424 0.22395116 0.26764262
-0.102153726 -0.014161557 -0.1121303 0.15942977 -0.06351295 -0.17892142 -0.36092696 -0.16402091

weight_hh_l0 f4 [30, 10]
00000000: c392 7abe 5c40 a33e 0a57 99be 178a 98bd
00000010: baba 3fbe ea36 7cbd f065 a83e 13ea 5fbd
00000020: fa57 1a3e e178 473d 20c2 f83d 1e01 a23e
00000030: c115 53bd e194 5abe fd04 8b3e 6516 833e
00000040: e985 7fbe d00d 363e a468 57be b04c 2c3e
00000050: 9a07 54be 109d 963e ce96 6b3e 6f2a abbe
00000060: 3c54 90bb bfcb 323e d047 6fbe 2cc3 b8be
00000070: 811c 543e b8cc ec3e 97f4 7abe 69bd 923e
00000080: d5ca c7be 70a4 d13d 5d59 66bd acad 513e
00000090: 96de be3d 8ff4 633e 199f be3e f7c8 bcbc
000000a0: aa02 33be 8b90 c33d a5cb f73d eeb8 32bd
000000b0: 4dea c1be 2528 85be 8b63 c7bc 5aa4 80be
000000c0: f711 6c3e b89e 94bd 7b59 4abe 0bf0 563e
000000d0: 1286 9a3e 2104 353d bf69 d23b 92c7 b13e
000000e0: be91 2bbe d740 b83e 9990 043e 74ac 813d
000000f0: 0125 96be ef91 49bd e332 87be 87c0 5b3e
00000100: f9dc 683e 9fb2 d03d 5898 dc3c a3c9 10bd
00000110: c92d 1f3e d418 3d3d 890f 913e 70bb 283e
00000120: 7a6f 2ebe 6c51 0bbd c5a3 9bbd bd02 1a3e
00000130: e3c9 653c eab9 933e 7db0 2f3e 52dd 74be
00000140: ac76 1fbd 39e4 29bd 2b2c 2ebd 4b5c 993c
00000150: 87e2 6a3e c56e 9b3e b20c 623e 1cea 56be
00000160: eaca 19be f3eb 523e 55ab 6d3e 7ac4 aa3d
00000170: fb68 103d df7d 403e 902d babe 4d0e 943e
00000180: 03ce e13e 2c57 29be d672 1ebe 6103 02be
00000190: 8080 d33e 7d99 ebbe 9050 873e 4f6a ffbe
000001a0: 5e19 e63d 828d 08bd 1429 c4be 6bed 6abe
000001b0: 8652 8bb9 c1a0 163d e1a6 22be 7631 babe
000001c0: 74c6 c6be ab52 8cbd 6d98 aabd d837 033e
000001d0: f326 173d 6142 9b3d 7e98 873e 2c29 c43d
000001e0: 86c7 843e f9ce 203d b22e 1abe dc85 03be
000001f0: 0964 c13c 2ea0 c33d 2580 a2bc 3e7c b43d
00000200: d5ee 6ebe 7178 9abc de43 aabe dd65 75bd
00000210: 4064 0fbd 27d9 083f 2782 debe 7cf7 e53d
00000220: 54b0 003d 42ee 763e 8589 14bc ec6a b1be
00000230: 8f05 cd3d 498a fa3d ccbb 933e dc58 343e
00000240: a4ec 5fbe a88d 953e 4313 37bd 8bae 52be
00000250: 4e6b 75bd 3658 63be 8a7d 1abe b103 c63e
00000260: e76f 8a3e 8f36 6dbe 58bb 243d ec20 84be
00000270: f60b 9cbd a402 2cbe 972e 64bc c0c1 1cbe
00000280: 3b10 863e 8c54 913e 2d68 96bd e0ff fc3d
00000290: 5339 1bbd 4667 a93e d5d4 b83d d72f 1dbe
000002a0: 7a9c ab3e add5 343d c219 883c 4b1f 4f3d
000002b0: 7139 87be 4312 21bd f34e 983c caa6 973d
000002c0: bdd2 793e abfb abbe 2e17 e5bd 33f8 fb3d
000002d0: e7b7 0f3e 41b0 94be 1257 493e 5fb6 dcbc
000002e0: 8e07 373e 33a6 aebe 4c24 e73d 81f0 163e
000002f0: e760 96be ed77 5a3d 0c72 86be 16a0 403e
00000300: 17b0 433e a9ee d9bd cfb4 4a3e 86fc 633e
00000310: b0ee 973d fd49 0fbe 7245 b73d 5688 72be
00000320: 75cc 53be cca3 743e b21c 9dbd 8077 72be
00000330: e7c8 ad3e 89f9 a63e 3d87 863e d960 8038
00000340: ed83 a2bc 6d2a 20bd 0121 89be c5cb 78be
00000350: 4279 ca3e e20f b8be 6825 17bd 18f1 1e3e
00000360: a1ce e8bd af6f 1abe 95d5 ae3d 4c73 fabc
00000370: e484 0fbe a94b 70be 4912 a93d f4e0 3ebe
00000380: f513 143d 391d 70be e3e7 adbe b3f9 5abd
00000390: 48c4 2c3e 5db8 463e 1046 523e e0bb dd3c
000003a0: 3146 17be c7bc b43e 9ea4 41be dd84 613e
000003b0: 99c2 67be 11e6 eebd cfa0 5abe cc05 b23d
000003c0: d962 3abe 37bf bbbe b5ed 51be 7408 5bbe
000003d0: bba9 583e 0455 df3c 117c 90bd a1f5 353e
000003e0: 0462 7dbe d955 a13e 1c10 ed3c b4af be3c
000003f0: ed78 d03d 0d93 7fbe 4d7c 80be 48b6 62be
-0.24470048 0.3188504 -0.29949218 -0.074482135 -0.18723574 -0.061575808 0.32890272 -0.05466659
0.15072623 0.048699263 0.121464014 0.31641477 -0.051534418 -0.21345855 0.27152243 0.25603023
-0.24953426 0.17778707 -0.21036011 0.16826129 -0.20706025 0.29416704 0.23006746 -0.33430812
-0.004404573 0.17460535 -0.23367238 -0.36086404 0.20713998 0.46249938 -0.24507366 0.28660133
-0.39021936 0.10236442 -0.056237567 0.20476407 0.09319799 0.2226126 0.37230757 -0.023045046
-0.17481485 0.09549054 0.12099389 -0.043633394 -0.3787407 -0.2600719 -0.024339458 -0.2512539
0.23053728 -0.07256836 -0.19760697 0.20990007 0.30180413 0.04419339 0.0064212973 0.34722573
-0.16754815 0.3598697 0.12945785 0.06331721 -0.29325107 -0.04921144 -0.2640601 0.21460162
0.22740544 0.10190319 0.026928112 -0.035348546 0.1554481 0.046166256 0.28332165 0.16477752
-0.17034712 -0.034013197 -0.07599596 0.15040107 0.014025184 0.2885278 0.17157169 -0.23912552
-0.038931534 -0.041477416 -0.04252259 0.018720767 0.22937976 0.30357948 0.22075155 -0.20987743
-0.15018812 0.2059782 0.23209889 0.08338256 0.035256367 0.18798016 -0.36362886 0.2891716
0.44102487 -0.1653716 -0.15473494 -0.12696601 0.41308975 -0.4601554 0.26428652 -0.49885795
0.11235307 -0.033338077 -0.3831259 -0.2294213 -0.0002657363 0.0367744 -0.15883972 -0.3636586
-0.38823283 -0.06851705 -0.08329854 0.12814271 0.03690238 0.0758102 0.2648353 0.095781654
0.25933474 0.039259885 -0.15056875 -0.12844032 0.02360727 0.09552036 -0.019836495 0.0881276
-0.23333295 -0.018856259 -0.33254904 -0.059911598 -0.035007715 0.5345635 -0.43458673 0.112288445
0.03141816 0.24114326 -0.00906599 -0.34651887 0.10010826 0.12233407 0.28854215 0.17612022
-0.21867615 0.29209638 -0.044696104 -0.20574395 -0.059916787 -0.22201619 -0.15086952 0.3867469
0.270385 -0.23165344 0.040217727 -0.25806367 -0.07619469 -0.16797882 -0.0139271235 -0.15308285
0.26184258 0.28384817 -0.07344089 0.12353492 -0.037896466 0.33086604 0.090249695 -0.1535028
0.3351782 0.04414909 0.016613845 0.050566953 -0.26411012 -0.039324056 0.018592333 0.07404859
0.24396797 -0.33590445 -0.11186062 0.123031996 0.14034997 -0.2904072 0.19662121 -0.02694243
0.17873976 -0.34111175 0.1128622 0.14740182 -0.29370806 0.053337026 -0.26258886 0.18811068
0.19110142 -0.10641224 0.19795536 0.22264299 0.07418573 -0.13993068 0.089487925 -0.2368482
-0.20683463 0.23890609 -0.07671489 -0.23678398 0.3394234 0.32612255 0.26275054 6.121555e-05
-0.019838298 -0.03910296 -0.26782992 -0.24296482 0.39545637 -0.35949618 -0.036900908 0.15521657
-0.11367536 -0.15081666 0.08536831 -0.030572556 -0.14015538 -0.23466362 0.08255441 -0.186405
0.036151845 -0.23448648 -0.33965978 -0.053460788 0.1687175 0.19406267 0.20534539 0.027067125
-0.1477287 0.35300276 -0.18910453 0.2202334 -0.22632827 -0.116649754 -0.21350406 0.08692512
-0.1820177 -0.36669323 -0.20500834 -0.21389943 0.21158497 0.027262218 -0.07054914 0.17769481
-0.24744421 0.3151081 0.028938346 0.023277141 0.10179315 -0.24958439 -0.25094834 -0.22139847

bias_ih_l0 f4 [30]
00000000: eb5a 1bbe 54a1 6d3e b21e 433d 5ed1 64be
00000010: fb1b b63e bf6c a1bc 4511 263d 2fcb 4abe
00000020: 28c7 74be 1e14 62be 078e ec3e 2586 ec3d
00000030: bf86 56bd 6d3f 4f3e 0b36 ce3d f1f2 2cbe
00000040: 0b42 71be e88f 0dbe f219 5ebd 1de0 58be
00000050: 59df 35bc 8e73 a2be 8845 c6bd 5d29 bcbe
00000060: ddb1 813c 04d2 9fbe a04f a23d f757 16be
00000070: 53a1 09be 299b ba3d
-0.15171401 0.23206073 0.047636695 -0.22345492 0.35568222 -0.019705174 0.040543813 -0.19804071
-0.23904097 -0.22077987 0.46202108 0.115490235 -0.052374598 0.20239039 0.10068902 -0.1688955
-0.2356035 -0.13824427 -0.054223962 -0.21179242 -0.0111006135 -0.31728786 -0.09681231 -0.36750308
0.015831882 -0.31214917 0.079253435 -0.14681993 -0.13440447 0.09111626

bias_hh_l0 f4 [30]
00000000: 9f94 f0be 935c 123e 5cfe 833e 54c7 f7bd
00000010: e186 4ebe 7e34 cbbe 16c8 92bd d716 893e
00000020: b120 39be 7f75 cabe a96a e73e 4c27 6abd
00000030: 43d7 e33c f1e1 e83d 3a43 273e 5293 afbe
00000040: 81c0 183e 3842 8ebd f6a3 b93e 82d4 f03d
00000050: c31e c13d c09e 1d3d 2a0a 9c3e 074d c23d
00000060: 16fa 8b3e b551 c93d 09ab ebbb 6d2d 4cbe
00000070: 8cb5 c13d 3dae 8dbd
-0.4698839 0.14293127 0.25779998 -0.12098566 -0.2016864 -0.39688486 -0.071670696 0.26775238
-0.18078877 -0.39542767 0.45198563 -0.057166383 0.027812606 0.1137122 0.16334239 -0.34292084
0.14917184 -0.06946224 0.36257905 0.11759283 0.094296955 0.038481474 0.30476505 0.09487348
0.27339238 0.098300375 -0.00719202 -0.19939204 0.094584554 -0.06917999

weight_ih_l0 f4 [30, 10]
00000000: 6b95 863d 91b1 14be dca3 623e fb43 56be
00000010: e894 8d3d fd14 363d d499 713d 353e c3be
00000020: 1acf 93bd 6c0f 433e 4d6d a23d b47a 09be
00000030: 4194 a33e ca6e 38bf f319 313f 68e7 98be
00000040: 2931 32bf 7f76 25be 7131 78be b122 553e
00000050: 45f5 303e b35c a7be 0ec1 383e 97d6 053c
00000060: 9e1e e23e d977 903c b2a6 5bbe be3e babe
00000070: 08ec 04be 0785 693e 7985 6cbd 0cec 6bbe
00000080: cb84 863e 87df 513e fa7b 613e d95b a0be
00000090: 77cd a5be 812b 643d 46e9 dcbd e5db 4ebe
000000a0: 83db 253e f2e6 933d dd5b 58be ce6a 2e3b
000000b0: e408 533e e191 a2be 7b32 cd3d 820b b23e
000000c0: 0ccb 50be c1b2 fabd c320 3cbd d8fb 03bd
000000d0: f2d1 123f be6c 30bf b1b0 2b3e b01a 16bf
000000e0: a01a 87be 0404 c7bd 7bb9 6dbe 4db4 073f
000000f0: 75fa 233e b9aa 96bd e60b 03be fb1c abbe
00000100: 38b5 183d 8a8c 0d39 3429 9dbd 3890 7cbe
00000110: a3f0 aebe dd47 ecbd 7265 15bc 8a8d 63be
00000120: c943 8f3e 70a5 a6bd f677 653e 0efd 713e
00000130: 8e1f 54bd 7128 5b3e bed2 58be 3a5d 3fbe
00000140: 633b 82be 33db d7bd 6510 bd3d 3018 6dbd
00000150: cc61 aebd 2565 2dbe f1c8 3fbe ecb2 613e
00000160: e785 5a3e ce47 423c 6bcb 2abe 222c d3be
00000170: d7f8 2b3b 1987 f9bd 513d 6c3e d24d 15be
00000180: aced 61be dfe0 0cbd 4119 863d c861 5ebd
00000190: 19b8 3dbe 16f7 883e 8392 f23d 4f9d 153e
000001a0: 5fc7 03be 838f 9d3e e0f5 683e bae1 2bbd
000001b0: 6fd6 653e c136 0e3d f3b3 c7be 5e75 bf3e
000001c0: a4fa 1fbf 089c bc3d 82ce 91be b7d9 023d
000001d0: 2667 de3d 4d35 9f3d cce1 153e 91a4 c6be
000001e0: b30f 763e 8f66 ce3e 41ee 613e f654 0fbe
000001f0: 69c2 13be c00f 5f3e 309c 8d3e 746e 833e
00000200: 2b65 193e 4d4e 68be 0d04 ee3d e322 893e
00000210: 074b c2bd 385c c33d 94e9 93be df9f 8cbd
00000220: 5bda dcbc 3cad f13d 9d26 0fbd 163e ef3d
00000230: aff2 7ebe 610a 293e 5c3f 93bd 93f4 94bd
00000240: 81e8 50be 553d a53e 5f54 393e 8f11 7fbd
00000250: a6f5 813d 3930 88be 0de4 76be eab0 c43d
00000260: ac7f 41be 72b0 f8bd 41b7 bdbd a2a3 553e
00000270: 7743 893e 33fc a53e 0f73 d1bb 456f 3abe
00000280: 8c6c f73d 889f b33e 9274 9bbe ecc9 a23e
00000290: d2c9 62be 1caa 64be eeb1 8bbd d821 0bbd
000002a0: 3ce1 de3d acc7 6c3c 7622 2a3e 09e5 033e
000002b0: 2cc3 dbbb 5bb7 b13e a2bc 423e 4f28 59be
000002c0: 20cf 40be d5bd 8cbe 2b0a 86be d5bd 29be
000002d0: 48c1 b8bd ff2b 1b3d b30c 753a 9c38 e6bd
000002e0: 780f 50be 3a15 d9bc bb1b 0ebe 9376 5d3d
000002f0: 9279 d7bd daf5 03be cec1 933e ef12 abbd
00000300: 6619 c43d 43ff ff3c ab23 743e cc4f febd
00000310: 6c64 9f3e b2ef 7dbe b270 a7bc b4b2 6fbe
00000320: 08eb 90be b2b6 223e 7276 833d bbb7 3cbe
00000330: a214 a03c 4512 9dbe 84b5 bbbe 83a6 b8be
00000340: 5be2 b53d 85e7 123e 86ee 8ebe 0c11 d83e
00000350: 4c98 4e3e ea77 873e 868a 5abd 0c36 ad3e
00000360: 9a13 2ebe 1fbb f1bd c554 3e3e e25a 25ba
00000370: eda0 373e 3f81 f53d 4d9b 523e a40c 633e
00000380: 122b 353e 9306 23be 5a24 8a3c 0eb6 6e3d
00000390: 3aca 1ebe 844e a93e aa17 523e 3c8e 92be
000003a0: 113b 26be 4e11 8abe 32d0 313e c80d 74be
000003b0: e82c df3d 1ab7 92be 2610 15bd ac37 a93b
000003c0: 0d1b 55be 8722 043e 5e1d 483d 89d7 b83b
000003d0: 8d49 ae3e 3c97 83be bcd9 bcbe 797f 623e
000003e0: a301 90be 1f2e c43e e356 293e 5f30 523e
000003f0: 3f10 b2bd 03b7 89bd 6880 67be b36a d93d
0.06571468 -0.14520861 0.2213282 -0.2092437 0.06913167 0.04445361 0.058984593 -0.38133398
-0.07217236 0.19048852 0.07931004 -0.13425714 0.31949046 -0.7204405 0.6918022 -0.2986405
-0.6960626 -0.16158484 -0.2423761 0.20814015 0.17281063 -0.3268791 0.18042395 0.008168838
0.44163984 0.017635273 -0.21450308 -0.36375993 -0.12980664 0.22804652 -0.057744477 -0.23039263
0.26273188 0.20495425 0.2201995 -0.31320074 -0.3238332 0.05570555 -0.10786681 -0.2020107
0.16197018 0.07221784 -0.21128793 0.0026613954 0.2060886 -0.31751922 0.10019394 0.34774405
-0.20389956 -0.12241126 -0.04592968 -0.0322226 0.573516 -0.6891593 0.16766621 -0.5863447
-0.263875 -0.09717563 -0.23215286 0.5300949 0.1601351 -0.073567815 -0.12797508 -0.33420548
0.0372822 0.00013499163 -0.076738745 -0.2466439 -0.34167966 -0.11537144 -0.009118425 -0.22221962
0.27981403 -0.081370234 0.22409043 0.23631689 -0.051787905 0.21402146 -0.21174142 -0.18687907
-0.25435933 -0.10539856 0.09231643 -0.057884395 -0.08514747 -0.16933115 -0.18728997 0.2204091
0.21340142 0.01185794 -0.1667916 -0.41244608 0.002624085 -0.12183971 0.23070265 -0.14580467
-0.22063321 -0.03439414 0.065477856 -0.05429247 -0.18527259 0.26751012 0.11844351 0.1461079
-0.12869023 0.30773553 0.22750044 -0.041963317 0.22445081 0.034720186 -0.39004478 0.37394232
-0.6249182 0.09209448 -0.28477865 0.03194591 0.10859518 0.07773838 0.14636916 -0.3879743
0.24029426 0.4031262 0.22063543 -0.13997254 -0.1442963 0.21783352 0.27658224 0.25670207
0.14979999 -0.2268612 0.116218664 0.2678443 -0.094869666 0.09539074 -0.28889143 -0.068664305
-0.026959589 0.1180062 -0.034948934 0.11681764 -0.24897264 0.16507865 -0.07189819 -0.07273211
-0.20401193 0.32273355 0.18098591 -0.062272605 0.06345682 -0.2659929 -0.24110432 0.09604056
-0.18896359 -0.12143029 -0.092634685 0.20863202 0.26809284 0.32418975 -0.00639189 -0.18206508
0.120812505 0.3508265 -0.30362374 0.3179468 -0.22147301 -0.22330517 -0.06821047 -0.033967823
0.10882804 0.014451902 0.16614708 0.12880339 -0.006706616 0.34710202 0.1901727 -0.21206783
-0.18829012 -0.2748858 -0.26179633 -0.16576321 -0.090212405 0.037883755 0.00093479006 -0.11241266
-0.20318401 -0.02649938 -0.13877766 0.05406816 -0.105212346 -0.12886754 0.288588 -0.08353221
0.09575157 0.031249648 0.23841731 -0.12417564 0.31131303 -0.24798468 -0.02043948 -0.23408014
-0.28304315 0.15890005 0.06419076 -0.18429463 0.019541088 -0.30678 -0.36661923 -0.36064538
0.088810645 0.1434613 -0.27916354 0.42200506 0.20175284 0.26458675 -0.053354762 0.33830297
-0.16999665 -0.11803269 0.18587025 -0.0006307793 0.17932482 0.11987542 0.20567055 0.22172791
0.17692211 -0.15920477 0.016863037 0.05827909 -0.15506831 0.33067715 0.2051684 -0.2862414
-0.1623347 -0.26966327 0.17364576 -0.23833382 0.10897237 -0.2865532 -0.036392353 0.0051641073
-0.208111 0.12903796 0.04885613 0.005640928 0.3404049 -0.2570132 -0.36884868 0.2211894
-0.2812625 0.38316438 0.16537051 0.20526265 -0.08694505 -0.0672436 -0.22607577 0.106160544

weight_hh_l0 f4 [30, 10]
00000000: 8dd2 4c3e 878b dbbe 2d0c 203c 627a 8e3e
00000010: 1dfb edbc 892f 66bd c0cc 9dbd b2f7 e43d
00000020: 1d43 c43d 6f30 893e 1ea7 4e3e f9b8 6fbf
00000030: 642c af3c 8f30 253f a91d 463f 5df3 043e
00000040: 2538 12bf f518 3cbf b037 113f 35ef f2be
00000050: 5554 ca3e 149c 883d 154d e53e 45c8 2bbd
00000060: 218c 903e 3543 233f 60e7 debe 2100 8bbe
00000070: 7cf7 8c3e d1bc cfbd df12 9c3e 0931 4ebd
00000080: b61a ae3d 59b8 0a3e 3166 6dbe 4bdf d53b
00000090: c1c5 753e 7f0d 5a3e 3172 043d e4ad d4bd
000000a0: 5758 5abe c249 38bc 6a5e 93be b2c0 993d
000000b0: 801b 4fbe 671e 223e 7759 a33c d3ff 7bbe
000000c0: afa2 0bbc 2d5c 9dbe d10f f33e 2e8d bbbe
000000d0: a1d2 ff3e 0ab1 dd3e 8da3 e53e 4a09 3c3f
000000e0: 1200 74bd 08f3 49be 1e36 a33e b579 8ebe
000000f0: 5e57 babc 9bfb e9bc 6d1f 61be b46c 8e3e
00000100: 9db8 38be e98b 8bbe d4b9 eb3d 7478 94bd
00000110: 1d11 293d acd9 8cbd 4ae0 07be 9e3f 92be
00000120: 05d6 d13d dd22 483e 2590 c3bd df73 483e
00000130: 9f78 a1bc 8a0a 9fbe a098 e33d e73f 86bd
00000140: 3ef5 253d 8176 a33b e1c3 c53d 3714 55be
00000150: ab59 a93e c2bc 433e dcae d2be e74a 343e
00000160: 4872 0b3e d215 4ebd 55a9 443c c34d 14bf
00000170: 8dac 2cbe 1743 f8bd 0731 193e 7806 bc3d
00000180: 8cfa 91be a658 e8be 5f9d cb3e 8c84 89be
00000190: a92d c0bd 01e0 643e 9d82 883d 0235 5e3d
000001a0: 78db 313e 9bb6 613e c261 d83b ba60 60bd
000001b0: da91 d2be 9fcb 0dbe ce5e c7be 574f 5c3e
000001c0: 728e fbbb b2d7 d3be 7740 8bbe 4e78 b7be
000001d0: f4ba 943e be61 4f3d 6da8 00bf 02c0 e23d
000001e0: 06e2 15bd 27d4 b13d 96da edbe 4985 a8be
000001f0: 451f 9fbe 438c 12bf a2f8 733d 0e1d ea3d
00000200: af80 aabc cabb 663e 0f79 79be 0fee f13c
00000210: ee7d 8a3b 5e04 0ebe bbad f4bc 16ef 853e
00000220: 7086 273e b778 8a3e 41a3 3b3d b854 e73d
00000230: d372 113e 69dc ed3e f342 a8bd 81bb 9cbe
00000240: 21c2 4b3e d691 803e eb5d b73d afa7 823e
00000250: bcfc 36bd 8122 83be 9e67 e2be 26b8 7c3e
00000260: 163a 953c 5fb8 acbd fc06 cbbe 7cd5 3dbf
00000270: 765a b93e fe6c 0a3e 368f a2bd 6c10 0e3f
00000280: 6d48 29be 7ecd 943e f630 683d dc87 1dbe
00000290: 4d9b 38be 060c 823e 75a5 813e 82a0 1e3e
000002a0: ed4a 9fbe f71d 3e3e a8d3 403d f325 1bbe
000002b0: 8f0c 943e 5610 b5be 937a 593d 1578 34be
000002c0: 2383 30be 05c1 a83d 01dc 60be 2fbb e63e
000002d0: a9d8 95be 9061 a13e 318d 80bd b1fe 0abe
000002e0: 086f 08be 0e84 d73d a38f 803e d171 ddbd
000002f0: 8ce4 2a3e 8e7d 8bbe a91d c93c c15e fe3e
00000300: af53 e3bd d56c 043e c874 143e 0c94 9a3e
00000310: b99c 7cbd e26a 343e 1bdf c3be c65f f9bc
00000320: cabb a1bd 7744 01bf f1a2 9bbe 0ca5 743e
00000330: b644 0cbe f407 bcbe 80fd 293d 3d9c 86be
00000340: 05be e13d 5f80 50be c48e cd3d f560 173f
00000350: cea9 533f 69dc ec3d 8fd9 0cbe df6e 133f
00000360: b822 ef3d 769e 1cbe c161 d23d ca94 fd3d
00000370: 56ac b63e ddd0 99be e179 f93e f919 a7bd
00000380: dd29 e93e 53af 1f3f 2273 803c a37a b6be
00000390: b8da c0bc 7cd4 babe 72bd a33e 0d2f cdbc
000003a0: 841f 1f3e 4cb6 0b3e 89de 263e 3099 79be
000003b0: f844 c6be 28dd 2dbe 8701 68bc f1d4 863d
000003c0: 8872 fb3d f70f c2be 846d 9ebe 40b8 5c3d
000003d0: 9bfa a83e 35bb b9be b4fd 9abe 5381 3d3e
000003e0: 6a5b 953d d26a 1bbe f633 bf3e 1e6c 63bd
000003f0: 2622 df3e 522b 813d 30eb 853e ec6a f93e
0.20002194 -0.42879888 0.009768528 0.27827746 -0.029050404 -0.056197677 -0.077050686 0.11180057
0.09583113 0.26794764 0.20180938 -0.9364162 0.021383472 0.6452722 0.7738901 0.1298346
-0.5711692 -0.7347558 0.567256 -0.47448125 0.39517465 0.066703945 0.4478537 -0.04193904
0.2823191 0.63774425 -0.435359 -0.27148536 0.27532566 -0.10143436 0.30483148 -0.050339732
0.085011885 0.13546886 -0.23183514 0.0065268627 0.24001218 0.21294211 0.032335464 -0.103847295
-0.21322761 -0.011248054 -0.2878297 0.07507457 -0.20225334 0.1583191 0.019940121 -0.24609308
-0.0085226735 -0.30734387 0.47473004 -0.3663115 0.49965385 0.43299133 0.44851342 0.73451674
-0.05957038 -0.19721615 0.31877226 -0.2782723 -0.022746738 -0.028562358 -0.21984644 0.2781731
-0.18039174 -0.2725518 0.11510053 -0.07249537 0.041276086 -0.06877455 -0.13269153 -0.2856416
0.10245899 0.1954455 -0.09548978 0.19575451 -0.019710837 -0.31062728 0.11113095 -0.06555157
0.040517084 0.004988492 0.096565016 -0.20808493 0.33076224 0.19114974 -0.41149032 0.17606698
0.13617814 -0.05031378 0.0120032625 -0.57931155 -0.16862698 -0.12122171 0.14960109 0.09180921
-0.28511465 -0.45380133 0.39768502 -0.26858938 -0.09383709 0.22351076 0.066655375 0.05424977
0.17368877 0.22042315 0.0066034505 -0.054779746 -0.411269 -0.13847207 -0.38939518 0.21514641
-0.007676893 -0.413755 -0.2719762 -0.35833973 0.29048884 0.050630324 -0.50257 0.11071779
-0.036592506 0.08683043 -0.4645583 -0.32914189 -0.31078544 -0.5724527 0.059563287 0.11431323
-0.020813314 0.22532573 -0.24362586 0.02953246 0.004226438 -0.13868853 -0.029867997 0.2615897
0.16359878 0.27045223 0.045809988 0.11295456 0.14203958 0.46457222 -0.082158946 -0.30611804
0.19898273 0.25111264 0.0895346 0.25518557 -0.04467462 -0.25612262 -0.4421968 0.24679622
0.018216174 -0.084336035 -0.39653766 -0.74153876 0.3620183 0.1351814 -0.079374716 0.5549381
-0.16531534 0.29063028 0.056687318 -0.15383857 -0.18027993 0.25399798 0.25321546 0.15490916
-0.3111185 0.18566118 0.04707685 -0.15151195 0.2891583 -0.35364026 0.05309541 -0.17623933
-0.17237525 0.082399406 -0.21958925 0.45064685 -0.2926686 0.31519747 -0.0627693 -0.1357372
-0.13323605 0.10523234 0.25109586 -0.108127244 0.16688746 -0.27244228 0.024550276 0.49681666
-0.11099946 0.12932141 0.14497674 0.30191076 -0.0616729 0.17618898 -0.38256153 -0.030441176
-0.07897146 -0.50495094 -0.30397752 0.23891085 -0.13698086 -0.36724818 0.041501522 -0.26291075
0.110225715 -0.2036147 0.10036996 0.5913232 0.82680976 0.115654774 -0.13754867 0.5759105
0.11676544 -0.15294823 0.10272551 0.12381895 0.35678357 -0.30042163 0.487258 -0.08159251
0.45539752 0.623769 0.0156799 -0.3564044 -0.023541793 -0.36490238 0.31980473 -0.02504685
0.15539366 0.1364376 0.16295828 -0.24374843 -0.38724494 -0.16978896 -0.01416052 0.06583584
0.122777045 -0.37902805 -0.3094293 0.053886652 0.33003697 -0.3627564 -0.30271685 0.18506365
0.072928265 -0.15177467 0.3734433 -0.05552303 0.4358074 0.06307091 0.26155996 0.48714387

bias_ih_l0 f4 [30]
00000000: a1a7 52be 5f08 013c 6181 063f ad2d a63c
00000010: fad3 05bd 997d 923e f573 61bd 2413 7d3d
00000020: cc4e 773e 0d11 82bd adbb 1f3e 03d5 dcbe
00000030: 8871 ba3d 6635 193e 8a2d d23d ba3e 703d
00000040: 5c10 dbbd bb3f 1fbe e5ac 3b3e 779e 603e
00000050: 0c65 d7bc 8182 7cbe 7807 a7be 5010 8a3e
00000060: d671 883e 8c29 993d 335d 78be c36c 2bbe
00000070: 833b 8f3e 3517 f73d
-0.20571758 0.007875531 0.52541167 0.020285452 -0.03267286 0.28611448 -0.055042226 0.061785832
0.24151152 -0.063509084 0.15598936 -0.43131265 0.091036856 0.14961776 0.10262592 0.05865357
-0.1069648 -0.15551655 0.18327673 0.2193545 -0.0262933 -0.24659158 -0.32622886 0.2696557
0.2664935 0.074786276 -0.24254303 -0.16740708 0.2797509 0.12064973

bias_hh_l0 f4 [30]
00000000: 280c 013e 5071 ab3e 4ecc 033f 9a00 0ebe
00000010: ef7f 39be 45be f13c 1a26 63bd 69a0 50be
00000020: 673b 2dbe 0823 053e 9e9e 5d3e 3c69 37be
00000030: 3fb9 0b3e c3e6 ec3d 187d 323c 383e f0bd
00000040: 0c41 443e 290e 523e 7fc6 2fbe 0a3e a8be
00000050: 003d 573e 80da 09bf 88a7 a6be 82b1 063e
00000060: c4e7 9abd de84 a5be d7ac c5be 4099 89be
00000070: 9997 ca3d f2f7 dcbd
0.12602293 0.33484888 0.5148362 -0.13867417 -0.18115209 0.029509673 -0.05545626 -0.20373692
-0.16917191 0.13001645 0.21642539 -0.17911237 0.13644885 0.11567452 0.0108940825 -0.11730617
0.19165438 0.20513214 -0.17165564 -0.32859832 0.21019363 -0.5384903 -0.3254969 0.13153651
-0.07563737 -0.32327932 -0.3860843 -0.26874733 0.09892196 -0.10789479

weight_ih_l0 f4 [30, 10]
00000000: ae8a 3f3d 2da0 babe 9734 253e a27c 953c
00000010: c20f a8be b035 61be f56f a63a b55e ccbd
00000020: ad3d 41be c953 7abd d4e0 6f3e 999a 6cbd
00000030: ff84 7d3e 33a1 613e 161a 64be a302 843e
00000040: cd18 323e aa8d ce3d 318b b73e 8e58 a53e
00000050: cdec 8d3e 715d a03e 4a22 0d3f bbb1 8a3e
00000060: d61e 4b3e 2916 273e deb6 3c3e 84bd b03d
00000070: 9155 c63e 7bbe 49be 6a38 ec3d 403e 343f
00000080: 6155 1b3e e84b 0bbe b347 5bbe f164 763e
00000090: 0224 56bc b052 7bbd fba7 d53d 9617 a33e
000000a0: 7766 7dbc c732 f93e 688e 8f3e 1e9d b43d
000000b0: 3c23 023e bf0e 2b3e 2d28 7cbe 9cb6 e13d
000000c0: 2541 46bc 8be8 aa3d c4cc a63d 77dc 0f3f
000000d0: 7f20 6b3e 3b28 673e 72a9 c7be d43c 19be
000000e0: 6a91 19be 82c7 15bd be45 8cbe 2f0e fdbd
000000f0: 7188 49bd 7c79 163d 847e 6a3e 460f 2e3a
00000100: 8d16 1abe 96a7 e13e 5058 1ebe cd36 9abd
00000110: 9d07 c93e 0382 98be f21c 633e 69c8 933d
00000120: 3463 913e 46a9 cf3e 1e66 ad3e ef15 423e
00000130: 3ada 2dbc 4ff7 94be 1929 8ebd 41d2 3d3e
00000140: 23ae d7bd 0aeb 3d3e e226 b43d c727 ae3d
00000150: 3b72 b9be 5a68 62bc 21cf c63e 9c71 f03e
00000160: 99dd 89bd 74bc 0e3d 4741 d83d fab9 53bf
00000170: 5d1d 34be b41b 143e 7727 4c3e 922e ca3c
00000180: 4425 40bd 4ceb abbe 1725 623e 2984 4f3e
00000190: a492 95be 0380 853e 083b bb3d fefd c4bd
000001a0: f505 3c3e 7523 013e b745 6f3e a0cb 993d
000001b0: 5918 39be aec7 8e3e 0532 223d 7b1a 9f3d
000001c0: d1a2 40be 5b2d 8cbe 1bd0 21be 3453 c2bd
000001d0: b817 0a3d 73f6 b0bc 4f93 2dbe eb88 5f3e
000001e0: a794 9c3d 8105 ac3e 536e 4cbe 6e72 513d
000001f0: 1338 6b3c 4b27 89bd f9dd bb3c f1f7 db3e
00000200: 78fd d2be fb8b f43d 130d 1cbe f557 81bf
00000210: eef6 143d 9990 643e 46b8 a73e a30e c5bd
00000220: 7006 45be 2a93 8fbe 7fb6 90bd 66bf 24be
00000230: 442b cebc dfdf bc3d 67e7 4e3e 3c6c 8ebe
00000240: 290e 113d d313 b23e c76f 8e3d d531 de3e
00000250: ee18 1dbd 5e98 68be 38ff f23d 1b17 9d3e
00000260: fbe0 8bbe 82e8 1b3e e75b 5abd 327d 9bbe
00000270: 298f e83d 66e4 42bd b169 233e 2754 49be
00000280: 797d c83d f8a1 d13d c72c 56bd 9584 95be
00000290: a6f2 6c3e 9a51 02bf 54dc 28be 8198 73be
000002a0: bfbe 17be 1de8 883e 1052 d4bd db9b 10bf
000002b0: 7a1a a03c e6b2 a13e e10b 173d 2386 743d
000002c0: 2f2d c6bc da48 d4bd 5022 7fbe 4124 56bd
000002d0: 5a36 83be 30ab e73e 1149 a03e 430a e4be
000002e0: 54fc 6abe e15f 883e 1757 ed3e 7101 183e
000002f0: 3983 bfbe 5ad2 be3e a526 0abf 7e23 243f
00000300: b923 fb3e 2541 57bf d6a3 27bf 0f07 b23e
00000310: d91d ca3e 0f26 3f3f 64df 10bf f621 163f
00000320: 5ddd 40be b66e 0a3f 8575 3cbe 7942 99be
00000330: 8ff5 acbe 42e9 783e eee1 b13e bc8a e93c
00000340: 98b8 94be ba27 9b3e e3f4 e13d 7d14 babe
00000350: 29e4 2bbd 0904 3e3d ea7d 623e 14ae 40be
00000360: d582 923d 72cc a8be 162c e33d e164 883e
00000370: 55ae 313d 02f8 78bd c905 a43e 3737 843e
00000380: f9b3 11be a22d ac3e bcbc f73d ee25 363d
00000390: 4cfb 4b3e 8713 903d 0d69 32bd 6089 e0be
000003a0: 7a9f 4cbe 58b4 853e cabf be3d f320 30bd
000003b0: 9c55 1f3e 70a6 273e cfb4 a43e f73b bf3e
000003c0: d7e0 87be 2198 32bd ac5d a33e 1c03 b2be
000003d0: 0504 07be 4726 ba3e 1063 133e 9a80 0f3d
000003e0: b069 46be 8a45 b23d b909 ab3e 9d96 87be
000003f0: 5d02 9e3d 054e af3c b670 dcbd 2231 03be
0.046763115 -0.3645033 0.16133343 0.018247906 -0.32824522 -0.21993136 0.0012698161 -0.099790014
-0.18871184 -0.06111506 0.23425609 -0.057764623 0.24757765 0.22034149 -0.22275576 0.25783262
0.17392273 0.10085614 0.35848382 0.32294124 0.27719727 0.3132129 0.55130446 0.27088723
0.19835982 0.16317047 0.18429133 0.08629897 0.38737157 -0.19701569 0.11534198 0.70407486
0.15169288 -0.13603175 -0.2141407 0.24061944 -0.013070108 -0.061358154 0.1043243 0.31853932
-0.015466324 0.48671553 0.28038335 0.0881903 0.12708753 0.16704844 -0.24624701 0.11021158
-0.012100493 0.08345135 0.08144525 0.5619578 0.22961615 0.2257394 -0.38996464 -0.1496461
-0.14996877 -0.03656722 -0.2739696 -0.12356221 -0.049202386 0.03673695 0.22899824 0.0006639849
-0.15047665 0.4407317 -0.15463376 -0.07529984 0.3926362 -0.2978669 0.2217901 0.072159596
0.28395998 0.40558833 0.33866972 0.1895368 -0.010611111 -0.2909493 -0.069414325 0.18537237
-0.10531261 0.18546692 0.08796479 0.08503681 -0.36219963 -0.013818825 0.38829902 0.46961677
-0.067317195 0.03484769 0.10559326 -0.8270565 -0.17589326 0.14463693 0.1993693 0.02468041
-0.04691054 -0.33577955 0.22084461 0.20265259 -0.2921344 0.26074228 0.09142119 -0.09618758
0.18361647 0.12611182 0.23366438 0.075095415 -0.18075694 0.2788672 0.039598484 0.077687226
-0.1881211 -0.27378353 -0.15802042 -0.09488526 0.033714026 -0.021601891 -0.16950725 0.21829574
0.07645541 0.3359795 -0.1996396 0.05113452 0.014356631 -0.06696948 0.022932993 0.42962602
-0.41209006 0.11940762 -0.15239362 -1.0104967 0.036368303 0.22320785 0.32757777 -0.09621932
-0.19240737 -0.28041965 -0.07066058 -0.16088638 -0.025167115 0.092223875 0.2020546 -0.2781695
0.035413895 0.3478075 0.069549136 0.43397394 -0.038353853 -0.22714373 0.11865085 0.3068169
-0.27320084 0.15225413 -0.0533103 -0.30368954 0.11355431 -0.0475811 0.15958287 -0.19661008
0.09789557 0.10235971 -0.052288797 -0.29202715 0.23139438 -0.50905764 -0.16490299 -0.23788644
-0.14818858 0.26739588 -0.10367215 -0.56487817 0.019543875 0.315818 0.036876563 0.059698235
-0.024191467 -0.10365458 -0.24915433 -0.05228067 -0.25627404 0.45247793 0.31305745 -0.4453908
-0.22947818 0.2663565 0.46355507 0.148443 -0.37404802 0.3726986 -0.53965217 0.64116657
0.49050692 -0.8408378 -0.6548437 0.3477101 0.39475897 0.7466745 -0.5659087 0.5864557
-0.18834443 0.5407518 -0.18404205 -0.29933527 -0.33781096 0.24307731 0.34742683 0.028508537
-0.29047084 0.30303746 0.110330366 -0.36343756 -0.041965637 0.046390567 0.22118345 -0.18816406
0.071538605 -0.3296848 0.11092393 0.26639464 0.043379147 -0.060783394 0.32035664 0.25823376
-0.1422881 0.33628565 0.12096545 0.044469766 0.19920081 0.070349745 -0.043557215 -0.4385481
-0.1998271 0.26114154 0.093139246 -0.043000173 0.15560001 0.16372085 0.32169196 0.37350437
-0.26538727 -0.043602113 0.31907403 -0.34767997 -0.13185127 0.36357328 0.14393258 0.035034753
-0.19376254 0.0870467 0.33405855 -0.26482096 0.077152945 0.021399507 -0.107636854 -0.12811711
