GANS/time_gan/TimeGAN.pth (torch, 46627 bytes, 50 tensors)

weight_ih_l0 f4 [30, 10]
00000000: 5a97 0dbf f57c 3cbe b5b7 72be 1a37 a7bd
00000010: 1bcb 17bf f65d 73bd 50d7 0cbf 7c73 d2bd
00000020: 3034 20bf 906a 10bf b3f2 24be b04e 76be
00000030: f7e8 83be 104a 05bd 5d8f 4e3e f330 253e
00000040: 6e9c abbe 70d7 903e 7d11 60be 8769 c43d
00000050: 7beb cabd 3bc4 c2bd a1db 943e 4b96 793e
00000060: 35d9 943f a598 853e 249b e23e 967e f43d
00000070: c2d6 bc3d 32e5 43be f483 fc3e 0246 863e
00000080: af84 b83e 4379 f33e 8a54 933e 00cd a33e
00000090: b06c e23e fbf1 e43d f9fc 573e 2ed8 7d3b
000000a0: 8f82 b7bd 8390 733e b1a6 26be 37b2 38bd
000000b0: 9059 d7bd 5f1d 81be f441 1c3e 02fd 1e3d
000000c0: 116c 873e 2041 39be ce21 693e 1fc3 cf3e
000000d0: 08e3 7e3e 2d45 f73e 6051 403e 0240 2a3e
000000e0: 0339 bd3e 73a2 ba3e 01e8 223f 769e a53e
000000f0: bf89 12bd cbb7 8ebe eaea 39be a9de 933e
00000100: 0d9f f93e a25e 8fbd afa3 b6be a506 3f3f
00000110: 6deb fdbe 744b 753e e7e6 373e 225d ac3e
00000120: ea32 d2bd 5a51 063e 36d8 dc3c b72b 923e
00000130: 7d67 ec3e 561e 543e 1806 86bd 1282 433e
00000140: e402 893b a72c df3e 9ddd c03d a894 d53e
00000150: 0882 ef3e a5ec 01be 6fe6 cd3e cfaa dc3e
00000160: c078 e3bd f334 91bd f7a5 56be 8b79 7cbe
00000170: 2d98 72be 7178 bcbd 1512 393e 30c0 063e
00000180: 7311 92bd 66a4 7dbe cf16 8e3c 75a2 6f3e
00000190: fd91 b13e a3a8 663e f216 4fbe 265f a4bd
000001a0: 11f1 64bd daf5 e43d c801 a53d e599 d33e
000001b0: 5480 35be 62ed 923e 4e04 573e 2396 e7bc
000001c0: bb4c 023e 5e82 46be a28e 6c3e a358 dabe
000001d0: d0a9 a9be 7af5 1bbe c438 aebe 74ac a2be
000001e0: 0ab4 f3be 530c 92be 46a3 5dbd 3e34 a3be
000001f0: 3472 b8be 88f7 27be e0f5 283e 2678 d03d
00000200: 36dc f93c 712a 403e 9acd dabe 2c9e 50be
00000210: a68f 09bf f0f7 3e3d 3498 2ebc cf5f 303e
00000220: 5fb7 053c 2b17 453e 5f2c 053d 8484 5bbe
00000230: e246 efbe a509 1abf f3ec 85bd 4689 153c
00000240: 15c5 0ebe 8deb 003d 866a bfbe 1c07 62bd
00000250: d234 133e 8059 05bf 9e09 56be 96af 56be
00000260: ecbf a7be d67c 96be 83c2 02bf 1cba 05bf
00000270: e71d afbe c772 83be d309 f6be 51fe e4bc
00000280: d692 d0bd 0125 bebd e034 49be e02a bcbe
00000290: f543 e3be e367 69be 37b6 c7be 90a9 923d
000002a0: 8c2a bb3d cfaa 91be 49ed 8d3d 67e7 9fbf
000002b0: 7c22 15be 5026 12be 051f 25bf dd83 273e
000002c0: 201c 233e c627 a5be 9f8f 05bd b106 abbe
000002d0: 9f03 8fbe 3af6 30be d445 71bd 4386 8dbc
000002e0: 4a4b 84be f061 193e 1e1b bbbe 0445 82be
000002f0: f890 e6bd 07b1 8f3e 091d 17bd ea4d 8bbc
00000300: e12c 8bbe ad6d 0b3e 4fcb 45bd 681a 51be
00000310: 2127 b9be aba5 26be c75a a7be 0853 a1be
00000320: 3e31 683e 6229 a6bd 30c5 29be 2ce8 933e
00000330: 8c5f 61be 872c eebd 668b 1bbe 3c98 94be
00000340: 41ed 3c3e a40d 2abe 1ce2 9c3e bff7 bb3e
00000350: 5f4d 3ebe 0729 4dbe 4e0f 04be e4b9 d4bd
00000360: 3dea 3bbd b891 2e3e eb73 6abc 2338 8fbe
00000370: c8ff 96be 7a4a 93bd a3cc e4be 4d3c b23d
00000380: 1f4d 25be 6a3b b4bd 5361 663c fe09 74be
00000390: 6008 4abe 17e4 3fbe 78dc 93be afef 833d
000003a0: 18e5 48bd ef65 acbe dd38 86be 3ef2 41be
000003b0: c9b9 1e3e c101 f6bd 3b7e 733e 0f23 053d
000003c0: 4ecb 41be 9256 e9be 221b aabc a894 553e
000003d0: a21b ecbd 54af 123d 8454 9bbd 9e38 663e
000003e0: 7a7c 88bd 5d1d 5a3e ffd8 0ebe 0fd3 a73e
000003f0: 055b 8b3e 85c2 0fbe 4618 98bd 3f4d 603e
-0.5530907 -0.18407042 -0.23702891 -0.08164807 -0.5929429 -0.05941578 -0.5501604 -0.10275933
-0.6257963 -0.564126 -0.16108207 -0.24053454 -0.25763676 -0.032541335 0.20171876 0.16131954
-0.33517784 0.28289366 -0.21881671 0.0959044 -0.099081956 -0.09510084 0.29073814 0.24373738
1.1628786 0.2609302 0.44258988 0.11938207 0.09220649 -0.191304 0.49319422 0.26225287
0.3603873 0.47553453 0.28775436 0.3199234 0.44223547 0.111789666 0.21092595 0.003873359
-0.08960449 0.23785596 -0.16274525 -0.045091834 -0.105151296 -0.2521772 0.15259534 0.038815506
0.26449636 -0.1809125 0.22766802 0.40578553 0.24891293 0.48294964 0.18781042 0.1662598
0.3695756 0.36452064 0.6363526 0.3234746 -0.035775896 -0.27874598 -0.18156019 0.28880814
0.4875416 -0.07000472 -0.35671756 0.74619514 -0.49593678 0.23954564 0.17959176 0.33664805
-0.10263617 0.1311697 0.026958566 0.28548977 0.46172705 0.20714697 -0.06544131 0.19092587
0.004181253 0.43588755 0.094172694 0.41714978 0.46778893 -0.12687929 0.4021487 0.43099067
-0.111070156 -0.070901774 -0.20961748 -0.2465574 -0.23690863 -0.0920266 0.18073304 0.13159251
-0.071322344 -0.24769744 0.01734486 0.23401816 0.34681693 0.22525267 -0.20223597 -0.080259606
-0.05589396 0.11179705 0.0805698 0.4132835 -0.17724735 0.28696734 0.20997736 -0.028269833
0.12724583 -0.19385669 0.23101285 -0.4264575 -0.3313737 -0.1523036 -0.34027684 -0.31772196
-0.47598296 -0.28525028 -0.054110788 -0.31875795 -0.3602463 -0.1640302 0.16500044 0.101791665
0.030500513 0.1876619 -0.42734987 -0.20372838 -0.53734815 0.04662317 -0.010656405 0.17224048
0.008161395 0.19247119 0.03251302 -0.2143727 -0.46733767 -0.60170966 -0.06539335 0.009126967
-0.13942368 0.03147464 -0.37385958 -0.05518256 0.14375618 -0.5208969 -0.20902106 -0.20965418
-0.32763612 -0.29392117 -0.5107805 -0.52237105 -0.342025 -0.25673506 -0.4805437 -0.027953299
-0.10184257 -0.09284402 -0.19649076 -0.3675146 -0.44387785 -0.22793536 -0.39006206 0.07161248
0.091389745 -0.2845063 0.06930024 -1.2492493 -0.14563936 -0.14272428 -0.6450046 0.16358896
0.15928698 -0.32256907 -0.03260767 -0.33403543 -0.2793245 -0.17281428 -0.058904484 -0.017275935
-0.2583869 0.14978766 -0.36544126 -0.2544328 -0.11258119 0.2806475 -0.036892924 -0.017004926
-0.27182677 0.13616057 -0.048289593 -0.2042023 -0.36162665 -0.16274135 -0.32686445 -0.3150866
0.22675034 -0.08113362 -0.16579127 0.2888807 -0.22009104 -0.11629587 -0.15189895 -0.29022396
0.1844988 -0.16606766 0.30641258 0.36712453 -0.18584202 -0.20035182 -0.12896463 -0.10387018
-0.045877684 0.17047775 -0.014309864 -0.27972516 -0.2949202 -0.0719194 -0.44687375 0.08702908
-0.161427 -0.08800395 0.01406129 -0.23831937 -0.19729757 -0.18739353 -0.28879142 0.064422004
-0.049046606 -0.3367152 -0.26215258 -0.18940064 0.15500559 -0.12012053 0.23778622 0.032504138
-0.18925211 -0.4557386 -0.020764891 0.20857489 -0.11528708 0.035811737 -0.075844795 0.22482535
-0.06664367 0.21300264 -0.13949965 0.32778212 0.2721788 -0.14039047 -0.07426505 0.21904467

weight_hh_l0 f4 [30, 10]
00000000: 5137 4c3e 043f 2b3e bd79 ca3e 8336 0c3f
00000010: c40d ad3e ec54 3a3e fc2c e8be 95ac 963e
00000020: a912 e43e f193 533d 2f4a 90be 0f5e 453e
00000030: f9f6 86be e79c 27be abe2 793e 1031 30ba
00000040: 07b2 0bbd 806c 81be c174 81be 3d62 38bc
00000050: 420a 753e 0775 f5bd c473 2ebe 33a6 eabe
00000060: a662 33be 7725 2bbe 2169 a83e 275a 99bd
00000070: 1042 f9bd ff12 f8be 25b4 cdbc ecb5 4c3d
00000080: 25d4 9fbe 3a44 d4be fdbb a33d b388 eb3c
00000090: 3949 203e 4743 17bd b000 f7be 3ca3 3dbc
000000a0: 8367 0e3d 6c1b e6bd ffcd d8be ef35 a4be
000000b0: 75e0 88be 30fb 273e 68c6 de3e 756c c9be
000000c0: 1496 aebe 3e0c 3cbe 578f a93d 868d 98bd
000000d0: aaf1 6ebe 328a 95be ce8d a7be 81b2 47bd
000000e0: 8f03 e33d f5d3 9bbd 7828 00bf 4f24 72be
000000f0: f945 85bc 9528 d2be dd51 313d 7857 08bd
00000100: 3209 4a3e 4d82 83be ebd6 023e de5a dd3d
00000110: 4e56 4dbe fdee 26be 0064 ea3d dbf5 afbe
00000120: 88e2 4ebd 7ff2 a03c b330 f9bd deba 203c
00000130: a0aa 02be e436 b1be fea4 793d 4175 aabe
00000140: c6a0 423e 6e53 eabc 7372 49be 1c48 e0be
00000150: 5f50 61be cee6 d13d 97ef e03e 020b 93be
00000160: 1690 93bd 96d4 cd3d 4f17 6a3d 91bb 713e
00000170: 742e da3e 2ea0 f73e ec1d 8fbf df05 fe3e
00000180: 874f 56bd e4e0 243f 0f81 083e b349 593e
00000190: 1e2f 35be e01d a0be 2d1f 21be 9be4 223e
000001a0: 61a1 61be 6f49 42be d601 c03e c8b6 2f3e
000001b0: b3db 7abe 7215 4d3e d33e c93e dd4f ca3d
000001c0: 6293 4c3e 600b 0fbd d65b 8dbe 4f99 433d
000001d0: c00a 24be aa46 773e bbd7 c33d 9cb9 123e
000001e0: f7a6 a43e 0d6f 013f 09f1 0f3e a905 163e
000001f0: 1d22 be3e 5b58 53bd e7fc 42bd d32f 313e
00000200: 38a1 6c3e 1ecb 043d 7640 a83e 9b25 e83e
00000210: 4aef 89bd c511 b63e ad9b 27be ff7f b23e
00000220: f846 f5be 3d66 e63e 8202 fb3e e6aa 953c
00000230: 41e6 7e3e d8d2 423e a557 473e 4594 b63e
00000240: d89f d33e 70c6 86be f707 493b 5df8 54bd
00000250: 6980 d13e 4881 ba3e 222a 6bbd a902 e33e
00000260: a180 373e 6127 7b3d 85ba c43d 1823 49be
00000270: a125 a7be 10c5 e9bd 1063 4ebd aa00 ee3e
00000280: 7b8a d8bd ff1a dd3e 40e7 dd3e 9a56 4e3e
00000290: 8557 0a3e 3a3c 93bd e36e 94bd 3c6a b13e
000002a0: 6bba 3cbd 0296 d53e a4e7 213e 90fa 343d
000002b0: b5e1 0fbe 8205 733e a45b 303e 64eb 443e
000002c0: a424 e03d c6f9 63be d370 403e 5266 8c3e
000002d0: 4a26 133e 73b7 923e 7736 02be ac33 663e
000002e0: 6f6a 333f 6125 4fbe 6350 93be e7f3 46bd
000002f0: 285b d5bc 57a3 9b3e 933d aa3d eae8 743d
00000300: ffb6 0c3f 215d d33e 0eb1 f53e 12ae 293e
00000310: 8bd8 13be 8f37 e23e 699a df3e fcc9 3d3e
00000320: eab4 a23d d810 24be efa0 9ebe f3d0 19bd
00000330: 61dd 8b3e d010 1b3e de9b 963d c35d 913e
00000340: 4dd1 413e deeb 5cbe ad86 933d ad51 00bb
00000350: bc8a e4bc 4c40 35be f5d5 48be 4303 cd3e
00000360: 4ee3 02bd 2cd7 283e 7806 c43e d5c7 e43e
00000370: b861 323e 6bee 913e f97e 613d 8799 073f
00000380: 55fa 033f 8ddb 07bc 9ec4 80be cc35 11be
00000390: f3b7 ad3d 76e9 eb3d a798 a8bd d995 903e
000003a0: 5c67 ea3e 60e5 063f 0b80 11be d982 b73d
000003b0: fa4c f2be 1c14 063d 30fc 543e 5d78 bebc
000003c0: 0cfe 0dbd adc4 203e 1634 dc3e a963 133d
000003d0: 9e50 c83e 421e 043e fb3e 91be b349 893e
000003e0: 4ed1 583e 76fd aa3e 521d 4fbe ebd8 45bd
000003f0: 2041 153d 1950 b0be b7f1 41be 5ec8 34be
0.19942977 0.16723257 0.39546004 0.5477068 0.33799565 0.18196458 -0.4534682 0.29428545
0.44545487 0.05165476 -0.28181598 0.19274162 -0.263603 -0.16368447 0.24402873 -0.0006721178
-0.034105327 -0.2527809 -0.2528439 -0.011253891 0.23929694 -0.11985212 -0.17036349 -0.45829925
-0.175181 -0.1671351 0.32892707 -0.07487898 -0.121708035 -0.48451993 -0.025110314 0.04997818
-0.3121654 -0.41458303 0.0799484 0.028751707 0.15652932 -0.036929395 -0.48242712 -0.011574563
0.034766685 -0.11235699 -0.42344663 -0.32072398 -0.26733747 0.16404414 0.43510747 -0.3934056
-0.34098876 -0.18364045 0.08279293 -0.074488685 -0.23334375 -0.29206997 -0.32725376 -0.04875422
0.11084663 -0.07608787 -0.5006175 -0.23646663 -0.016268717 -0.41046587 0.04329096 -0.03328654
0.1973007 -0.2568535 0.12777297 0.10808347 -0.20052454 -0.16302104 0.11444855 -0.3436726
-0.050509006 0.019646881 -0.12167492 0.009810178 -0.12760401 -0.3461219 0.060948364 -0.33292583
0.19006643 -0.028604236 -0.19672565 -0.43805015 -0.22003315 0.102491006 0.43932793 -0.28719336
-0.072052166 0.10050313 0.057151135 0.23606707 0.42613566 0.48364395 -1.1181006 0.49613854
-0.052321937 0.64405656 0.13330482 0.2121952 -0.17693755 -0.31272793 -0.15734549 0.15907519
-0.22034217 -0.18973325 0.375014 0.1715957 -0.24497871 0.20027712 0.39305744 0.09878514
0.19978097 -0.034922957 -0.27609128 0.04775363 -0.16019726 0.2414805 0.09562632 0.14328617
0.32158634 0.50560075 0.14056791 0.14650597 0.371354 -0.051597934 -0.047604468 0.173034
0.23108375 0.03242027 0.3286168 0.4534119 -0.06735094 0.35560432 -0.1636798 0.34863278
-0.47905707 0.44999877 0.4902535 0.018269967 0.24892522 0.19025743 0.19467027 0.35659996
0.4133289 -0.2632327 0.0030674913 -0.05199467 0.40918282 0.3642676 -0.057413228 0.44337967
0.17920162 0.06131685 0.09605888 -0.19642293 -0.32645896 -0.1141454 -0.050387442 0.46484882
-0.10573288 0.4318466 0.43340492 0.20150223 0.13509949 -0.07189222 -0.072477125 0.34651363
-0.04607622 0.4171601 0.1581102 0.044184268 -0.14050944 0.2373257 0.17222458 0.1923042
0.10944489 -0.2226325 0.18793039 0.27421814 0.14370075 0.28655586 -0.12716089 0.22480649
0.7008428 -0.20229103 -0.28772268 -0.048572447 -0.026044443 0.30398056 0.083125256 0.059792437
0.5496673 0.4128199 0.47986645 0.16570309 -0.14438073 0.44183013 0.43672493 0.18534082
0.07944663 -0.1602205 -0.30982158 -0.037552785 0.27317336 0.15143132 0.07353948 0.28391847
0.18927498 -0.21574351 0.07203422 -0.0019579933 -0.027898185 -0.17700309 -0.19612868 0.4004155
-0.031955056 0.16488332 0.38286185 0.4468371 0.17420089 0.2850221 0.05505273 0.5296864
0.5155385 -0.008292091 -0.25150007 -0.14180678 0.08482351 0.115191385 -0.08232241 0.28239325
0.45781982 0.5269375 -0.14209001 0.08960504 -0.47324353 0.03273402 0.20799327 -0.023250753
-0.034666106 0.15700026 0.43008488 0.035983715 0.39124006 0.12902167 -0.28368363 0.2681404
0.21173593 0.333965 -0.20226029 -0.048302572 0.03643906 -0.3443611 -0.18939863 -0.17654559

bias_ih_l0 f4 [30]
00000000: c59b 9dbe 6d62 0dbe dd49 e33d 0376 18bd
00000010: 1bbe ecbd ce4a 8d3d db34 8cbe 67fa 163e
00000020: cf8b 9f3e e612 473d 56f9 923e f739 adbd
00000030: 384b 8abe 4063 5bbe 229d 9ebd d170 babe
00000040: 52e6 2e3e 4253 033d 398f 01bd f435 6d3e
00000050: 771d 5dbe f9aa 15be 7800 78be 5121 6a3c
00000060: 6dde 3d3e 561c f8bd 49ef a73e 8937 7bbe
00000070: 33ba ecbd 1157 54be
-0.30782905 -0.13807078 0.11098073 -0.03722192 -0.11559697 0.068990335 -0.27384076 0.14743958
0.31161353 0.048602007 0.28705853 -0.084583215 -0.27010512 -0.2142458 -0.077448145 -0.36414197
0.17080048 0.032061823 -0.03163073 0.23165113 -0.21593271 -0.14616002 -0.24218929 0.01429017
0.1854188 -0.1211478 0.32799748 -0.24532904 -0.11558952 -0.20736338

bias_hh_l0 f4 [30]
00000000: 6f2d 4cbd 42a8 db3d c3a1 6b3e e2c2 f93d
00000010: 7c9d 783e 272e 603e 7578 de3c 31cd 3a3e
00000020: 636e 2c3e d698 aabe 62aa 923e b03a 9e3d
00000030: 8c80 7fbc 94a7 e83d 052c 11be e953 56be
00000040: 121c 5a3d d9ca 86be 9eba a53d f1b0 64be
00000050: 68c6 8cbc 69cb 85be f9e7 203e 5fff a8be
00000060: 78aa 8dbe e380 91bd b1c8 acbd 9a19 573e
00000070: d00f a2be a184 073e
-0.049848016 0.10725452 0.23010926 0.12195374 0.24278826 0.21892606 0.027157048 0.18242337
0.16838984 -0.3331973 0.28645617 0.077260375 -0.015594613 0.11360088 -0.14176948 -0.20930447
0.053249426 -0.26326635 0.08092235 -0.22333123 -0.017184451 -0.26131752 0.1571349 -0.33007333
-0.2766912 -0.07104661 -0.08436716 0.2100586 -0.3165269 0.13234188

weight_ih_l0 f4 [30, 10]
00000000: da56 dbbe 773f 8d3c bf53 00be f30d 0e3e
00000010: 61c7 363d b764 10bf 9816 453c 6f80 c4be
00000020: 078f d6be 6cfd 50be 7906 333e c1e3 f2bd
00000030: 1d3e 04bc e25d 4e3e bae9 cdbe 437e 573e
00000040: 30b0 713d c613 473e e0a9 81bd 0e7c 22be
00000050: 33ab e9bd 0b04 28be 3960 59be f832 c6be
00000060: 6424 5fbc 3f75 eb3d ade2 313e f48b 41be
00000070: 3f4c 113e cd4a cfbe 1291 adbe 5885 dabd
00000080: 46bc 69bd 486f bebe def7 d23e 9607 d2be
00000090: 7d72 213e d3cb 6a3d fec1 99be 7396 efbe
000000a0: a531 b23e 7c8f f23c 09bc 4ebd 9451 4fbe
000000b0: da25 cb3e d8b4 7a3e 4873 183e 0cd5 5ebd
000000c0: bfaf a73e 8785 3cbd 6059 92be 3c83 1bbe
000000d0: 8cae eb3c 84cf 0b3b e923 d7bb a9c9 4b3e
000000e0: 5c2d c7be 3409 a5bd d50e 5e3e 5a6b 013e
000000f0: 718a 11be 7743 51be dea3 7d3e a474 18be
00000100: d0c9 353d 9265 36be 3a03 913d 9da9 34be
00000110: f284 bbbd 238d 963d 91c6 9bbd c16b febc
00000120: b797 0b3f b00d 3a3e 49c8 673e fb71 d23e
00000130: 8ac3 ddbe 075f acbd 6c83 d03e 9b14 cc3e
00000140: acc6 49be 2871 c2be 3951 2d3d d55a c7be
00000150: ace8 1e3b 41b4 00bc 4896 833c 1275 cbbd
00000160: 5e72 9cbe ae1b debd d7fc 94be f453 bfbd
00000170: 5d84 e3be f6fb 0cbf a5df 01bf 0aa9 ec3e
00000180: 6cb3 303e a1aa 63be 2ca5 90bd 117e c4be
00000190: 0fae 8b3e ede2 cf3e 9852 bb3e 3f30 073f
000001a0: 1562 753e a03f 88bd d5d9 2dbe e34a 2dbe
000001b0: 42e1 d43e 033f 423e 1219 e7bd 5cee 9f3e
000001c0: 7a60 663e 5f75 84be 1c39 b43e 1624 00be
000001d0: c73a 933e d46d 22be 0536 0e3e 6122 77bd
000001e0: 0754 9f3c 4dd6 b83d b3d0 9d3d 94e6 47bd
000001f0: f3b0 a43e 7972 1d3e 8c1c 30be 9d29 da3d
00000200: 46a1 813e 527c 803e 4d03 953e 08f8 9dbc
00000210: 9d89 013f 451a 113f 52d1 753e f564 aabe
00000220: f1e6 5bbe dbc5 c23e 623a a53d 6d73 e33e
00000230: 6727 a0be ed80 40be 775a 0d3e 5241 8a3e
00000240: 5bfc 883e 3f54 ac3e a466 0cbe c50c 943d
00000250: 2a5e 60be 0db0 a2bc c667 80be 9b59 633c
00000260: fe78 6abd 0e12 46be 8b4e d2bc dd43 31bc
00000270: 4322 c13d bf5e 28be f143 d2bd 565e f5bb
00000280: f5c7 d0bd f045 8c3e af75 8fbc 3c39 a33e
00000290: 5fdd 383f 24c5 debd 5f21 31be 0c54 2cbe
000002a0: 0f17 55be 5d11 d13c 760a 5fbe 13dd 933c
000002b0: 09b4 8c3e b3c8 b5bc 0557 6bbd 3597 8dbe
000002c0: a50d 273e f47c 55be 279a 13be fbd3 4ebe
000002d0: b399 903e e414 973e 038d 9cbd 0137 fa3d
000002e0: 72ec 063e 98ea 1abe 8c58 b4be e371 0b3e
000002f0: 45b1 3ebc a84d b63e e02f f53e 9cb4 183e
00000300: f12d 0f3f 7422 063f 7967 453e 5cf5 333e
00000310: d2e8 bfbe 5864 5d3d c1d6 8d3e 92c4 b73e
00000320: 6503 863c dbe4 9abe 59da 463e a1fb 353d
00000330: 96e1 ad3e b221 723d 6dbf cf3e cc06 06bd
00000340: fcdd 223e 2351 f03d 6eca 9fbe e811 863e
00000350: 7d30 adbe 25bb b3be fa78 8dbe 0783 263e
00000360: 3128 6a3e c19d 923e 1e6e 603e e461 69be
00000370: d254 943c 73df 1e3e 317c c4bd c2b3 223e
00000380: 11b2 133e c15f 28be 8f13 3b3e 6cbc 00be
00000390: f01f 503e c490 353e f64b 823e 8355 cbbb
000003a0: 795c 9d3e 1938 ac3e a53d f5be c309 f73e
000003b0: f1ff a7be 7fe2 993e 6df8 b4bd 7066 af3d
000003c0: 0d9c 57bd 633f 8b3e 5f0d e93c 2909 573e
000003d0: 024e ba3e 9695 fe3c f17c 363c d5f7 23be
000003e0: df4a 3ebe 63ee cdbd 725f 943e 8efd dfbc
000003f0: 2fa8 fdbd 59a4 9fbe 9e45 86bd cba7 a23b
-0.428397 0.017242176 -0.12531947 0.13872509 0.044623736 -0.5640368 0.012029313 -0.38379237
-0.41905996 -0.20409173 0.17482938 -0.11859847 -0.00807145 0.20153001 -0.40217382 0.21044259
0.059005916 0.19441137 -0.06331229 -0.15867636 -0.11409607 -0.16407792 -0.21228112 -0.3871076
-0.013619516 0.11496972 0.17371626 -0.18901044 0.14189242 -0.40486756 -0.33899742 -0.106699646
-0.057064317 -0.37194276 0.41204733 -0.41021413 0.1576633 0.05732329 -0.30030817 -0.4679447
0.348035 0.029609434 -0.050472293 -0.20245963 0.39677316 0.24483049 0.14887726 -0.054402396
0.3275127 -0.04602578 -0.28583813 -0.1518678 0.028769754 0.0021333406 -0.00656556 0.19901146
-0.38901794 -0.08058396 0.21685345 0.12638608 -0.14212967 -0.20435892 0.24769542 -0.14888245
0.044381917 -0.17812183 0.070806935 -0.17642827 -0.09156217 0.073511384 -0.07606233 -0.03105724
0.54528373 0.18169284 0.22634996 0.41102585 -0.43313247 -0.084165625 0.40725267 0.3985947
-0.19704694 -0.37976956 0.042313788 -0.38936487 0.002424757 -0.007855476 0.01606287 -0.09934439
-0.30556005 -0.10845123 -0.29099151 -0.09342185 -0.44436923 -0.5507196 -0.5073188 0.46222717
0.17255944 -0.22233059 -0.07062754 -0.3837743 0.27281234 0.40602818 0.36586452 0.5280799
0.23963197 -0.066527605 -0.16977628 -0.16923098 0.41578108 0.1896935 -0.11284079 0.3123654
0.2249774 -0.25870797 0.3519982 -0.12513766 0.2875578 -0.15862209 0.13887794 -0.06033552
0.019449247 0.0902525 0.07705822 -0.04880388 0.32166252 0.15375699 -0.1719839 0.10652468
0.25318354 0.2509485 0.2910408 -0.01928331 0.50600606 0.5668071 0.2400563 -0.3328015
-0.21474816 0.38041577 0.08067776 0.44424 -0.31280062 -0.18799181 0.13804041 0.2700296
0.26755032 0.33658025 -0.1371103 0.07228998 -0.2191092 -0.019859338 -0.25079173 0.013876344
-0.057244293 -0.19342825 -0.025672218 -0.0108194025 0.09430363 -0.16442393 -0.10266865 -0.0074880524
-0.10194389 0.27397108 -0.01751217 0.31879604 0.72212785 -0.10877445 -0.17297886 -0.16828936
-0.20809577 0.025520975 -0.21781334 0.018049752 0.27481106 -0.022190427 -0.057456035 -0.27654424
0.16313799 -0.20848447 -0.14414273 -0.20198052 0.28242263 0.29508126 -0.07644083 0.122175224
0.13176134 -0.15128553 -0.35223806 0.13617663 -0.011638944 0.35606122 0.47888088 0.14912647
0.55929476 0.5239632 0.19277753 0.17574066 -0.37482315 0.054050773 0.27702907 0.3589216
0.01635904 -0.30252728 0.1941923 0.044429425 0.3396117 0.059114166 0.40575734 -0.032721326
0.15904993 0.117342256 -0.3120913 0.26185536 -0.33826056 -0.35103717 -0.2763136 0.1626092
0.22866894 0.28635982 0.21917006 -0.22791249 0.018106852 0.15514927 -0.09594 0.15888885
0.14423396 -0.16442777 0.1826918 -0.12571877 0.20324683 0.17731005 0.2544858 -0.006205262
0.30734614 0.3363655 -0.47898594 0.48249635 -0.32812455 0.30055615 -0.08836446 0.0856446
-0.052639056 0.27196798 0.028448759 0.20999588 0.3638764 0.031077188 0.011138187 -0.16012509
-0.18583249 -0.10055234 0.2897907 -0.027342584 -0.12385594 -0.31180075 -0.06556247 0.00496385

weight_hh_l0 f4 [30, 10]
00000000: e340 a43e c69b 2bbe 377b 933e 3fd3 57be
00000010: 892c d13e 5c1c b83e 010b 70be e95b 0ebe
00000020: 1a95 adbe 9f59 5b3f 1e7a 4bbe 959c 553e
00000030: 0b10 e5be 2f92 86bd a5e2 083e e445 a53e
00000040: 4d5d ad3e 4871 5e3d 0db4 133e 42b0 91bd
00000050: 54a4 2b3d ef13 3c3e 22fe 03bf 618b fdbe
00000060: 8aca 53bd 614c 9f3e 5277 98bd b5df 0cbd
00000070: 0ddb 113e 582d 673e b85c c23d bec9 233e
00000080: b210 883e 6f8f e3bd d7c6 10bc 26d0 e53d
00000090: 7cad ab3e 1026 8c3d ec38 21bf 0700 523e
000000a0: 9ef5 3fbe 1102 9ebe ee3e 28be cf55 763c
000000b0: 4b1a 99be 1801 9dbe 8f58 dabe 11a7 bc3e
000000c0: 6195 953d b6b8 e83d 5434 9a3e a28c b83e
000000d0: 309f aabd 6375 2fbd 7493 403e 60c4 d73e
000000e0: 5cb2 973d 5b3d f43d 45b6 8e3e cdb4 da3d
000000f0: 8cc9 1bbe a94a b63d 7e18 b63e 8fe4 4f3e
00000100: ee38 d93d 6041 9cbe 65b9 d0be 43ee 16be
00000110: 2162 acbd a92f c0be afae b8be 8788 13bd
00000120: 8ec5 263f 198b 0b3f 06bf 88bd c950 bdbe
00000130: 1513 eebe 966b e93d 3042 013f ed9d e7be
00000140: 5ee4 ac3e e76b 063f c3a5 6dbe 18ea f73d
00000150: f53b 0fbe d16b e2bb 5026 0b3f 4abd 5cbe
00000160: 527a db3e 4178 7dbe 9429 35bd c51f 7bbb
00000170: 1b5c babe 6184 07be a50d 9b3e 9b37 ee3e
00000180: d16b 0b3f 012f 62be 20df 8d3d 67a5 12be
00000190: 02b6 9ebe c916 00bf e6d6 163d ab8e 483e
000001a0: 37bd 14bf 9bda a0be 3242 4dbf 5223 723e
000001b0: 06ce d63e fcdd 41bf b499 7abe 7ffb ab3c
000001c0: 4d9f 6d3e c6fa 663e f3d1 97bd 46a7 f33c
000001d0: e376 ebbd 12f5 81be 380d f5be c9b6 83be
000001e0: fafa d4be cad3 e43b bfe6 18bc b4c3 36be
000001f0: 64f1 a0be bef7 c13c 1d72 bcbe 03d3 58bd
00000200: e615 86be 289b 633d 0f7f 60bf 661b 58bf
00000210: 7aaf dd3e 80bd 213f 4816 30bf 0a9a 32bf
00000220: 2b39 2dbf cc8f d13e 4434 fb3e a5aa 05bf
00000230: be7f 713d a658 84be 9744 5ebe 5687 8ebe
00000240: fa18 5d3e 7b7a 273e 055d 1abb a063 8fbd
00000250: f26b 14bd 2653 cfbe 39f1 6ebd 3c54 313e
00000260: 8a87 a13e 33f2 9f3d 8852 87bd 357f 19be
00000270: 4cf2 45be 6e68 c23c 2c1e 0bbe c8fe 823d
00000280: e7c9 e2bd d1fa ee3c 4e90 823e 995d d93b
00000290: 8990 8b3d 55f0 71be 3a6f 01be ad87 9abd
000002a0: aec8 88be a7d6 77be c7fa 0b3e ed56 873d
000002b0: e407 af3e ada8 843e b9c0 dfbd 8bf4 58be
000002c0: 6a3f 1d3e 7323 00be 1753 0bbe 82f5 b53e
000002d0: 8e27 db3d 5aaa a23b ba51 033f ddd2 813e
000002e0: 3fac 8ebd 2be7 19bd ef26 1bbe fe53 4d3c
000002f0: 2e62 42bf 9961 81bc c7b5 03bf 42b3 8ebe
00000300: a2bc fa3d 1959 c63e 6b3c c5be d2fe 97be
00000310: 530c 15bf b43e 973e add5 cebd 74ee 93be
00000320: b587 8e3e d0d5 b93e 5c21 6c3c a777 b6bd
00000330: d71e 623e d297 05bd db3b cf3e 3493 a7be
00000340: 19a5 62be 9ad9 013f fa82 3c3e b469 c43e
00000350: 631c e4bd 9b69 e5ba 7783 0a3e 8a32 bc3e
00000360: d717 0cbe 2ee7 acbe 8dc0 92bd cf2d ee3a
00000370: fdb8 bfbe eb0f 8dbe e64d d63c 5a99 b03e
00000380: e3d6 0b3e 5a22 b4be c7dc 2ebe 4934 acbd
00000390: 14d6 053e c850 14be f624 923c 2f47 673e
000003a0: 90b9 ac3b 3ff3 c0bc 5617 87be b5da 9cbe
000003b0: d7e0 22be 7a03 2e3e 6fa9 c93e 40be 03bf
000003c0: e0b2 77be 5c9a e43d bf25 15bd 8010 35be
000003d0: 2e5d 54bd 08ad 96be 2529 963c 5dc8 85bd
000003e0: 1137 ccbe e058 0cbe a3fa f3bc 4638 843d
000003f0: 6c2a bd3b 935c d7bc 045b 963e 0aea 293e
0.32080755 -0.16758642 0.28804943 -0.21076678 0.4085429 0.35959136 -0.23441698 -0.13902248
-0.33902818 0.85683626 -0.19870803 0.20860513 -0.44738802 -0.06570851 0.13367708 0.32279885
0.33860245 0.054307252 0.14424153 -0.07113697 0.041904762 0.18366979 -0.5155965 -0.495204
-0.05170683 0.3111296 -0.074446335 -0.03439303 0.14243717 0.22575891 0.09490341 0.15994927
0.26575238 -0.11111342 -0.00883647 0.11221342 0.33530796 0.06843197 -0.6297748 0.20507823
-0.1874604 -0.30860952 -0.16430256 0.015035107 -0.29902872 -0.30664897 -0.4264569 0.36846212
0.073038824 0.11363356 0.30118048 0.36044794 -0.08331144 -0.042836558 0.18806249 0.4214201
0.07407066 0.11925765 0.27873436 0.10679016 -0.15213603 0.08900959 0.3556556 0.20302032
0.106065616 -0.30518627 -0.40766445 -0.14739327 -0.08417154 -0.37536362 -0.36070773 -0.036018874
0.65145195 0.5450912 -0.0667706 -0.36975697 -0.46498933 0.113974735 0.5049162 -0.45237675
0.3376798 0.52508396 -0.23207764 0.12105197 -0.13987716 -0.0069098254 0.54355335 -0.21556583
0.4286676 -0.24752904 -0.044229105 -0.0038318497 -0.36398396 -0.13234092 0.30283847 0.465268
0.5446139 -0.22088243 0.06927323 -0.14320908 -0.30998236 -0.5003477 0.036826037 0.19585674
-0.5810122 -0.31416783 -0.8017913 0.23646286 0.41954058 -0.75729346 -0.24472696 0.020993946
0.232053 0.225566 -0.074130915 0.029742848 -0.11497285 -0.25382286 -0.47861648 -0.25725392
-0.4159773 0.006983255 -0.009332358 -0.17848092 -0.31434166 0.023677703 -0.36805812 -0.05293561
-0.26188582 0.05556789 -0.87693876 -0.84416807 0.4329794 0.6317978 -0.68784 -0.69766295
-0.67665356 0.4093002 0.49063313 -0.5221351 0.058959715 -0.25848883 -0.21705852 -0.27837628
0.21591559 0.16355316 -0.002355398 -0.07001424 -0.036235757 -0.40493125 -0.058335517 0.17317289
0.3154872 0.07809868 -0.066075385 -0.14989932 -0.1933071 0.023731437 -0.13585728 0.06396252
-0.11073666 0.029172333 0.2550072 0.006633472 0.06814677 -0.23626836 -0.12640086 -0.07545409
-0.26715606 -0.24202977 0.13669883 0.06608377 0.34185708 0.2590994 -0.10925431 -0.21187036
0.15356222 -0.12513523 -0.13605915 0.3553887 0.10700904 0.004964155 0.5129658 0.25356188
-0.06966447 -0.037573975 -0.1515157 0.012532232 -0.7593106 -0.015793609 -0.51449245 -0.27871138
0.1224301 0.3873985 -0.38522658 -0.296866 -0.5822193 0.29540026 -0.10099349 -0.28892863
0.2783791 0.36295938 0.01441225 -0.089095406 0.22082077 -0.03261549 0.40475354 -0.32729495
-0.22133292 0.5072266 0.18409339 0.38361895 -0.11138227 -0.0017502786 0.13526712 0.36757308
-0.13680969 -0.33770126 -0.071656324 0.0018171611 -0.37445822 -0.27551207 0.026160192 0.34491998
0.13656192 -0.35182458 -0.17076407 -0.0840841 0.13069946 -0.1448394 0.01783989 0.22585748
0.005271144 -0.023553489 -0.2638499 -0.3063561 -0.15906082 0.16993514 0.3938708 -0.51462173
-0.24189329 0.11162254 -0.03641295 -0.17682076 -0.051846676 -0.29428887 0.018330166 -0.06532357
-0.39885762 -0.13705778 -0.029782599 0.06456046 0.0057728793 -0.02628926 0.29366314 0.16593185

bias_ih_l0 f4 [30]
00000000: 1e92 d13e 271c 023e 6362 0dbe 0450 133f
00000010: 4745 c23d 9dde 643e 1766 0cbe 9de9 84be
00000020: d261 b33b 4a50 b7bd 7f2f 3abe b363 3b3e
00000030: fe33 313e 4703 e8bd c53e 8f3d 0adf 7b3d
00000040: 77e4 663e c6ee 17be 86c6 a6bb 3d73 cfbe
00000050: dc9d 963e 0dad 3c3d da36 9ebd b268 95bd
00000060: f895 4a3e bd9c 8b3e ebfb 613e 3c85 54bd
00000070: c2c9 49be 6243 153e
0.4093179 0.12706052 -0.13807063 0.5754397 0.0948587 0.22350545 -0.13710819 -0.25959483
0.0054743076 -0.08950861 -0.18182181 0.18299751 0.1730499 -0.1132875 0.06994394 0.061492004
0.2254809 -0.14837179 -0.005089584 -0.40517607 0.29417312 0.04606347 -0.07725306 -0.0729536
0.19783771 0.2726802 0.22068755 -0.051884875 -0.19705871 0.14576486

bias_hh_l0 f4 [30]
00000000: 9052 ee3e 4bab 1abc bd53 cc3e 94ee 1c3e
00000010: e2b3 563e 56ba 51be a6b3 65be 770c 4c3c
00000020: abb4 75be c8c1 ab3e 576a 95be 2324 f9bd
00000030: 3441 c93c fcb3 5c3e 1aec 78be 1600 353d
00000040: 164e 03be 0432 45bd ad1b 2bbe 3b2f 8ebe
00000050: a617 cc3d ffc6 533e 9eed a03d 814d 51be
00000060: 8745 e63d 0c02 7cbd 7d7c 6dbe 5901 40bd
00000070: db29 613d f8df 013d
0.46547365 -0.0094402535 0.39907637 0.15325385 0.20967057 -0.20481238 -0.22431812 0.012454144
-0.239947 0.3354628 -0.29182693 -0.12165096 0.024567224 0.21553034 -0.24308816 0.044189535
-0.12822756 -0.0481434 -0.16709776 -0.2777041 0.09965448 0.2068138 0.07857822 -0.20439722
0.1124373 -0.06152539 -0.2319202 -0.046876285 0.054971557 0.031707734

weight_ih_l0 f4 [30, 10]
00000000: c22c 373e 133c 913d 5758 d63d b338 9a3e
00000010: ead0 443e 3c17 9f3e eba7 8c3e dcc3 a8bd
00000020: b4ce ec3e e684 67bd 932c 89bd 03d8 aa3e
00000030: 47fe 44be 0c95 3fbe 7e91 47be 569d 343e
00000040: fb85 a2be 935c df3d 9d63 a03e c780 cfbe
00000050: 76af 8a3e 2c34 323e e83d 0abb d00e 043d
00000060: fb96 683e 127a 923e 9bee 87bd 3ba6 8a3d
00000070: b04d 253e 4351 c8bb 8209 b93d b136 313e
00000080: 534a 80bd 1c8e 153e e4fe fd3d 5fa2 263e
00000090: fb2e db3e 55b1 023e daa1 5e3e e087 813e
000000a0: 101e bb3d 58a1 313d e0f4 4c3e b49f 4bbc
000000b0: 16cc 1bbe 8ac2 883e 06b7 07bd 4a3f 033e
000000c0: f24c 9dbd 97a1 a13d 505d 14be a216 a53e
000000d0: 5255 40be 4bd5 0b3e bf80 2cbe 32a2 4b3d
000000e0: 81e7 fe3d f977 77be 16b6 a53e e932 86be
000000f0: d4ae 2b3e 6684 a7bd f889 75be 1dd5 bebe
00000100: b73e 893d 809d 243f 8398 703e 5b42 babe
00000110: 957a daba 93a2 24be be12 513e 7d33 09be
00000120: c92c dd3e a350 8fbe 64f2 37be e728 973d
00000130: 37e2 0cbe 1e24 333e ba64 893e 505d 153e
00000140: bc2f 313e 5e2f 933e 33d8 21be dcf8 023d
00000150: 0f5b b53d 80aa ecbd 40c0 b63e 323b 8f3e
00000160: a8f8 ee3d cf17 203b 47b4 f43e ca76 e0bd
00000170: 34f7 f53d f7a7 b7be 701a a03e 0e3b 03bc
00000180: 56b2 be3e 74ff 91be ff3e 863e 1cab b9be
00000190: a401 03be a940 833e fc2c 783e 4d0b 02be
000001a0: af5b 773e 035d a23c 1b6c 92bd 0f81 293e
000001b0: a203 7dbe 8d47 3abe fed7 263e 5fc2 64bc
000001c0: ef6e 5b3e 2b0a 133e 9090 a4be 6a25 d9be
000001d0: 62f3 c9be 68fe ee3e 2f10 ebbe 3b91 c5be
000001e0: 81b1 bfbe 840d 6dbe 56a5 31be 9159 3d3e
000001f0: 9721 8ebe d01c 07bd 0ff5 49be cef6 7cbe
00000200: 245f acbe afe5 a3be 0b5d cdbe 0b4b c3be
00000210: 8ab0 153e 3c74 c53e 68e7 2abe efa4 4fbc
00000220: ab56 0bbe f4c1 17bc a318 42be be31 7a3d
00000230: f2d0 6fbe eb0a 833d a017 423d 9405 09be
00000240: d8d5 83be 3b98 8bbe 640f d93d 3266 913d
00000250: bc9f 86bd 0490 f53d c8ae 533e 7efe ba3d
00000260: 6357 9c3e 2f84 1bbe 9723 573e c873 37be
00000270: f029 febd 318d 4abe 28a1 15be d079 d23e
00000280: d6c2 87be fb5d 52be 5516 32be e6ba 313c
00000290: ba2e 473b 8782 113e 31bd 58be 5d29 7b3e
000002a0: fe3b a3be 4a72 51bb 2bbc debe 36c0 7b3c
000002b0: 60e6 22bd 7cc7 b8bd bc7a 17be f4db 5cbb
000002c0: 9506 533d 99d5 bd3e aad1 163f 4609 aebe
000002d0: bc62 46bb 331e 36be 5189 2fbe 4c3d 92be
000002e0: e27f 0f3d 1b4e 0e3e 862c 903e a937 303e
000002f0: 48bb 9bbe 546c 913e 255c 11be 1c66 503d
00000300: c127 8d3e 6952 a7be 792f 583e 26ab a7bd
00000310: 858e 7ebd 1d60 5bbe 6afa 8dbe d6b3 d63e
00000320: e744 90be 829f 233e 0016 a93e 3593 aabd
00000330: 6888 89be 6266 81be 4338 703e 72f7 a5be
00000340: 74ae babe db3c afbd 08fb 29be c846 d33c
00000350: af05 f13d 6165 a03e ba18 ce3d a9ed 6bbe
00000360: 9f7c 59be 2a8d f5bd 3be7 db3e 6f64 1dbe
00000370: 0177 81be 274e 5c3e 5ec1 99be b05a b23e
00000380: 3254 5cbe bfd3 4a3e 7bee 45be 7a3b a73d
00000390: 21d6 27bd 7973 f7be 1dbb 30bd c3ee 3e3e
000003a0: ec7d 863e 6b99 153e d024 1abe 9e4b 89be
000003b0: 0079 5a3e 7dd4 3e3d 4d9d 103e 2ab1 91be
000003c0: 46fe 6a3e fb17 dc3b f7b3 943e c2bd 1a3e
000003d0: f72a f33d 6a84 42be bb06 a0be bec1 513d
000003e0: 9bfa 2cbe 5ca6 b93e a0bf 903e b18f 94be
000003f0: 2b8d 6a3e b768 6bbe 35f2 de3d 34b2 2bbd
0.17888168 0.070915364 0.10466068 0.30121383 0.1922032 0.31072414 0.2747186 -0.08240482
0.46251452 -0.056523226 -0.06697955 0.3336793 -0.19237624 -0.187092 -0.19489095 0.17638144
-0.31742844 0.10906329 0.31326 -0.40527937 0.2708699 0.17402714 -0.0021094028 0.03224069
0.22713844 0.28608757 -0.06637307 0.06769987 0.16142917 -0.006113203 0.090350166 0.1730602
-0.06264176 0.14604992 0.12402132 0.16272877 0.4280928 0.1276296 0.21741429 0.25298977
0.09136593 0.04336676 0.20015287 -0.012428213 -0.15214571 0.26710922 -0.03313353 0.12817112
-0.07680692 0.07892149 -0.14488721 0.3224383 -0.18782547 0.13655584 -0.16845988 0.04971523
0.124464996 -0.2416686 0.32365483 -0.26210716 0.1676591 -0.0817955 -0.23978412 -0.37271968
0.06701415 0.64302826 0.23495679 -0.3637875 -0.0016668612 -0.16077642 0.20417306 -0.13398547
0.4319823 -0.27991208 -0.17963558 0.073808484 -0.13758169 0.17494246 0.2683466 0.14586377
0.17303365 0.28747076 -0.1580513 0.031975612 0.08855259 -0.11555958 0.3569355 0.2797485
0.11668521 0.0024428254 0.4779379 -0.10960157 0.12010041 -0.35870335 0.3127017 -0.008009685
0.37245435 -0.28515208 0.26219937 -0.3626336 -0.12793595 0.2563527 0.2423591 -0.12699623
0.24156068 0.019819742 -0.07149526 0.16553138 -0.24708417 -0.18191357 0.16293332 -0.013962357
0.21429037 0.14359348 -0.32141542 -0.42411357 -0.394435 0.46678472 -0.45910785 -0.38587365
-0.37440112 -0.23149687 -0.17348227 0.18491198 -0.27760002 -0.032986462 -0.19722389 -0.24703524
-0.33666337 -0.32011172 -0.4011005 -0.3814319 0.14618126 0.38565242 -0.16689837 -0.012673601
-0.1360728 -0.009262551 -0.1895471 0.061082594 -0.2341955 0.06398567 0.04738581 -0.13381034
-0.25749087 -0.2726458 0.10598639 0.0709957 -0.06573436 0.119903594 0.20672143 0.09130572
0.3053542 -0.15187143 0.2100967 -0.17915261 -0.12410343 -0.19780423 -0.14612257 0.4110856
-0.26515836 -0.20543663 -0.17391331 0.010847783 0.0030392841 0.14209948 -0.21165921 0.24527498
-0.31881708 -0.003195899 -0.43502936 0.015365651 -0.039770484 -0.090224236 -0.14792913 -0.0033700438
0.05151995 0.37077025 0.5891367 -0.3399145 -0.0030271253 -0.17784958 -0.17142226 -0.2856239
0.035034068 0.13896982 0.2815897 0.17208733 -0.30416322 0.2840296 -0.14195307 0.05087863
0.27569392 -0.3268006 0.2111186 -0.08186941 -0.062147636 -0.21423383 -0.27730113 0.4193408
-0.28177568 0.15978816 0.33024597 -0.08328859 -0.26861882 -0.25273424 0.23458962 -0.32415348
-0.36461222 -0.08556529 -0.16599667 0.025790587 0.11768662 0.31327346 0.1006331 -0.23039879
-0.21238945 -0.119898155 0.42949852 -0.15370344 -0.25286105 0.21514188 -0.3003034 0.34834814
-0.21516493 0.19807337 -0.19329254 0.08165641 -0.040975694 -0.48330286 -0.043147195 0.18645768
0.26267946 0.14609306 -0.15053105 -0.26815504 0.2133522 0.046589363 0.14122505 -0.28455478
0.2294856 0.006716726 0.29043552 0.1511145 0.11873429 -0.18995824 -0.31255135 0.051210158
-0.16892473 0.36259735 0.28271198 -0.29015878 0.22905414 -0.22989164 0.10886041 -0.041917995

weight_hh_l0 f4 [30, 10]
00000000: a0bd 97be d0b3 db3d 5fbb a2be 306d d6bd
00000010: eb1f 8cbc 1a0d d3be 2db1 143e f3c8 6fbe
00000020: f79f 973d 7f15 883e aa8d 4d3e 45dd e4bc
00000030: ea04 953e 59d8 0d3e 0ecf b5bd 1812 1fbf
00000040: 1cf3 333e fdf2 283e 9ca0 703e 3d4c 203e
00000050: 29fc 303e 13fe d63e 74ef 87bc ead7 4c3e
00000060: 7797 19be 934d b1be 82d3 933e 23d3 373e
00000070: 0698 1ebd 3b40 683e 45cf abb9 6d2f edbd
00000080: 8ad7 463e 9d99 393e 694a ad3c b692 d23e
00000090: cf18 513e 2a2d 553e 3517 893e 8c93 82bd
000000a0: b7f8 e43c 1020 87be a314 24be c86c 703e
000000b0: 3b62 58bc 2358 8fbd 0eff 2a3e dd06 953e
000000c0: c201 b73e e3b7 743d 2bf4 bcbe 247c 9f3c
000000d0: d570 dcbc 15aa 383d c9a0 06bf 27d7 bdbc
000000e0: efb0 c13e 4813 a53e 371d 99bd d3c7 993e
000000f0: 18be 7bbe e032 393e 2927 74be 4229 a8be
00000100: 496a 61be 2df8 9ebe de87 713e 5832 8a3e
00000110: 0354 bc3e e78d d1bd ee4d d43e 6e1a 04be
00000120: 5016 8a3e 0e27 c33c c4be 8ebe 41e8 963d
00000130: 7d75 42be ad85 00bf ef6f 53bf 0c19 26bf
00000140: ed0b 40be e7c7 9cbe 67d4 913e ac0d 0c3e
00000150: 7324 7bbd c93d 6abe 6625 31bd 0c05 0dbd
00000160: 2c4f fd3d ac93 de3d 6194 3bbe 3d07 0d3e
00000170: 40d0 60bd 3d5e 45be 61ab 73bb 33c5 76be
00000180: 927e 4abe 76c6 0dbe b0f9 2f3e 6818 b5bc
00000190: 0b20 583e 0323 213e e4a4 dcbd 84dd 373e
000001a0: ff5e 993c ef39 bc3d 9324 1e3e d675 adbd
000001b0: 2e2c d83d ae46 83be dcab 1c3f 867d 103f
000001c0: ee0a fabe 89ff de3e e196 203f da2a 753e
000001d0: ef82 19bf 7113 46bf b381 11bf 6a89 54bf
000001e0: eacc c0bd 8e42 e13d 7249 2dbe aa88 363e
000001f0: 33d6 bc3e 0741 cdbe 1e61 3cbe 0338 ffbd
00000200: c64d 4cbe 403a 543c fe84 87bb f5bf eb3e
00000210: 8215 d7bd 9b8c d13e 39aa a43e 6d48 e33c
00000220: 2c1b 90be a4dd 9cbe b389 c2be 437e 67be
00000230: 4e0d 54be 5e02 773e 9a50 22bd a39c 7ebc
00000240: 5026 9d3e 9787 e13e 40fd b1be a59b abbe
00000250: 20e5 34be 15c0 e3bc e489 293e d16e 9d3d
00000260: af07 a8bc 381f a03c 994c d43e 8274 a43e
00000270: a1ca b9be 679a 763c 63e1 f93c 022b d8be
00000280: 79f3 9c3c d2d8 133e d6da 03bd 7e1f 89bd
00000290: 35b1 863e 1036 a63e fe7e b5be 0048 373e
000002a0: 46a1 0cbe 71b9 6b3e 7d78 34bd ece6 d83e
000002b0: 30bd 5bbf 99b9 c83c 2511 bfbe 7509 c93b
000002c0: 204c d0be b7fb 00bf 9b7a c5bd bbb7 93bd
000002d0: 1bbf 923c b895 2f3e 05e2 d4be 1ab2 a93d
000002e0: 297d d8be 219b 783e ef62 c8bd 02bc 083e
000002f0: ef03 c3be 133b c4be f794 a1bc 0fa1 38bd
00000300: 6647 f93e a2b4 8fbd f717 4bbc 810a 2fbd
00000310: 3deb f9bc 0488 4bbe 619d 3c3e 7338 22be
00000320: d5be 41be 40b2 a53e 63f4 8dbd a5ec 37be
00000330: 0ceb b43e 5fec 243e 58f2 82bd 4465 2a3e
00000340: 358d 76be 71e2 dbbd 72bb 843d 37fa 46be
00000350: 48d2 8f3e b145 923e 7714 cabd 1478 05bf
00000360: 8ff2 bc3d a3be aa3e 23bb 9f3e 363e 68be
00000370: 6c93 14bd 0198 ca3e 9cdb 963c f1e5 d83e
00000380: 12b4 52be 0d0e 01bd 8742 82bd ae73 8d3e
00000390: 589b 01be 3743 1b3e 1fb6 1b3e e3bc 71be
000003a0: 359d d8be 4030 86be 3db2 753e 36ca 0e3e
000003b0: 5dc7 a7be 3828 703d 8c3a 81bd cd19 193e
000003c0: 133f 663c 9717 b43d bac7 5b3e 605c a33d
000003d0: cfae bf3e e958 383e 1f92 4f3d d311 adbe
000003e0: bfcf c1be feb3 babe 4405 efbd 9849 633e
000003f0: 4c0e d03e d66a 7b3e 9930 ca3e 8f5b cf3e
-0.2963686 0.10727656 -0.31783578 -0.104700446 -0.017105063 -0.41220933 0.14520712 -0.234165
0.07403558 0.265789 0.20073572 -0.02793754 0.29105312 0.13852061 -0.08877383 -0.62136984
0.17573208 0.16498943 0.23498768 0.15654083 0.17283691 0.41990718 -0.016593672 0.2000424
-0.14999186 -0.34629497 0.28872305 0.17951636 -0.0387192 0.22680752 -0.0003277009 -0.115813114
0.19418159 0.18125005 0.021153646 0.41127557 0.2041962 0.2081801 0.26775518 -0.063757986
0.027950628 -0.2639165 -0.16023497 0.23478997 -0.013207014 -0.069992326 0.16698858 0.291068
0.3574353 0.05974568 -0.36905035 0.019468375 -0.026909271 0.045084078 -0.5258909 -0.023173882
0.37830302 0.32241273 -0.074762754 0.30035266 -0.24584234 0.18085814 -0.23843063 -0.32843977
-0.22013201 -0.31048718 0.23586985 0.26991534 0.36782846 -0.10232144 0.41465706 -0.12900707
0.26970148 0.023822334 -0.27879918 0.07368518 -0.1899013 -0.50203973 -0.8259267 -0.6488197
-0.1875455 -0.30621263 0.28482363 0.1367709 -0.061314058 -0.22875132 -0.043248557 -0.03442864
0.123686165 0.1086801 -0.18318321 0.13772292 -0.054886103 -0.1927423 -0.0037181007 -0.24098663
-0.19774845 -0.13845238 0.17185092 -0.022106364 0.21105973 0.15736012 -0.10773638 0.17955595
0.018722055 0.091907375 0.1544364 -0.08469741 0.105553016 -0.25639862 0.61199737 0.56441534
-0.48836464 0.43554333 0.6273022 0.23942128 -0.59965414 -0.77373415 -0.5683853 -0.8302218
-0.09414084 0.109990224 -0.16922548 0.1782557 0.3688217 -0.40088674 -0.18396422 -0.12461855
-0.19951543 0.012953341 -0.004135727 0.4604489 -0.10502149 0.40927586 0.3216112 0.027744496
-0.2814573 -0.30637848 -0.3799568 -0.22606759 -0.207082 0.24121997 -0.03962765 -0.015540275
0.30693293 0.4404876 -0.34763527 -0.33517185 -0.17665529 -0.027801553 0.16556507 0.07687152
-0.020511476 0.019546136 0.4146469 0.32120138 -0.36287406 0.015051461 0.03050298 -0.42220312
0.019159066 0.14438179 -0.03219112 -0.0669546 0.26307073 0.3246312 -0.3544845 0.1789856
-0.13733396 0.23019959 -0.04406022 0.4236368 -0.8583555 0.024502562 -0.37317768 0.0061351606
-0.4068308 -0.50384086 -0.09642526 -0.07212778 0.017913392 0.17146957 -0.4157869 0.08285923
-0.4228299 0.24277927 -0.09784495 0.1335297 -0.3808894 -0.3832632 -0.019724352 -0.045075472
0.48687285 -0.07016875 -0.01239585 -0.042734627 -0.030507678 -0.19876105 0.1841941 -0.15841846
-0.18920453 0.32362556 -0.06931379 -0.17961366 0.35335577 0.16105793 -0.0639388 0.16640192
-0.24077304 -0.1073655 0.06481065 -0.19431387 0.2809012 0.28568795 -0.098671846 -0.5213635
0.09225952 0.3334857 0.3119746 -0.22679982 -0.036273405 0.39569095 0.018415265 0.4236293
-0.20576504 -0.03150754 -0.06360345 0.2762732 -0.12656915 0.15162359 0.15206192 -0.23607211
-0.4230744 -0.26208687 0.23993774 0.13944325 -0.3276929 0.058632106 -0.06309995 0.14951248
0.014053124 0.08793562 0.21462908 0.079766035 0.37438056 0.18002667 0.05067646 -0.3380266
-0.3785381 -0.36465448 -0.11670926 0.22196043 0.40635908 0.24552473 0.39490202 0.4049954

bias_ih_l0 f4 [30]
00000000: 987a 803e 2019 6abe 1ae8 a4bd 87e0 93bd
00000010: 2011 15bd 7fc8 94be 9e8b 243e a1cf bdbd
00000020: a883 4b3d ec43 573d 4d43 c73d 1091 6a3e
00000030: afae e2be 81ed f7bd 6472 fc3d 37c6 3ebb
00000040: 8182 7b3e 61be 7fbe 071d b03d 3689 a93d
00000050: 054f a53d d804 92be 6994 523e 4a79 95be
00000060: e7f5 ba3d 80d2 1e3c d4a7 703e 89e2 dfbd
00000070: 58cd 56bd 3e06 7d3e
0.25093532 -0.22861147 -0.08052082 -0.072205596 -0.036393285 -0.29059216 0.16068885 -0.09268118
0.049686104 0.05255501 0.097296335 0.229069 -0.44273898 -0.12105847 0.12326506 -0.0029109844
0.24561502 -0.24974968 0.085992865 0.08278124 0.080717124 -0.2851932 0.20564426 -0.291941
0.091289334 0.009693742 0.23501521 -0.1093188 -0.052441925 0.24709412

bias_hh_l0 f4 [30]
00000000: b450 933e 82e9 5d3e 909d 343e e5bc 033e
00000010: 97f4 2f3b 3b82 48be ec75 473e 57b1 1a3e
00000020: f162 98be e3a5 08be 6ef7 aa3e f418 38be
00000030: 8f8e a63d 2b10 fc3d 4ce9 573e 336c 9c3d
00000040: 6b90 c03c 6286 4c3e 1f0c c1bd 8bca 15be
00000050: a88b dbbd ecbc 633e 252d ab3d 597a 95be
00000060: ba73 88be 5411 a4bd ab19 7bbe c57d f43d
00000070: 7f35 113e c29b b1bd
0.2877251 0.21671107 0.1763823 0.12865026 0.0026848668 -0.19580929 0.19478577 0.15106712
-0.29762986 -0.13344531 0.333919 -0.17978269 0.0813266 0.12307771 0.2108509 0.07637825
0.023506364 0.19973138 -0.0942614 -0.14628045 -0.10719997 0.22240037 0.0835822 -0.29194906
-0.26650792 -0.080111176 -0.2452151 0.11938051 0.14180563 -0.086722866

weight_ih_l0 f4 [30, 10]
00000000: 7412 b9be d4d8 20be 5ea5 5b3e 6d4a 7fbe
00000010: ead1 ac3d 0681 c03d fca8 813d ad41 b43d
00000020: 830f 75b8 2c2b 713e baa8 713e 9693 823e
00000030: d239 2f3f 9a4d 7abe 026a 723e 8b3e 02be
00000040: 00dd a5bd 321a 8f3e f313 ae3d 5cea 1dbe
00000050: 8e81 f43d f968 80be 8894 3c3d 874d 5d3d
00000060: 17bc f63d 08fc 76bd 7a98 953e 2909 2f3d
00000070: 5cff c33e bb3c b43d 299d b53e 795b 09be
00000080: 3b43 46be df31 b23e f759 c23e 0663 503e
00000090: f0b9 04bf 5b74 a5bd dacd 8bbd 7231 cfbd
000000a0: 8ef3 0ebf 841d 93be 46b5 0ebe 3600 f93c
000000b0: 9fc0 bcbe ac5c 13bf 85a8 e93e bd95 783e
000000c0: b107 b93e 8616 013f 4fad 203e ae17 923e
000000d0: ede4 b9bd 8b53 8d3e b49a debd fa46 adbe
000000e0: a4ff 1b3e 3c33 813e 23e6 143e adcd ab3e
000000f0: ac21 ba3d 86ca 25be b658 0cbe 66d7 abbe
00000100: c66e e5be 950c b7be 576b db3e a36b c13e
00000110: ea34 a23e 07bc 05be 642e a5be 6cc3 913e
00000120: 0cae a63e f970 0f3e 2798 d23d 3bc4 11bf
00000130: bf3f 44be 7c80 993e 245b d7bc 7f9b d73c
00000140: d067 98be ae4d 773e 31d0 213e 2f15 96be
00000150: 4299 013e 46ff efbe c8e8 bdbb 5db8 0f3e
00000160: 89ed 38be ae5d 4a3e c77e 46be 5ae4 8b3e
00000170: 6795 6cbc 9092 18be 40ad 80be aec5 1e3e
00000180: 18d5 77bc d9ab a23d 1782 37bd d4d2 bf3d
00000190: 90cd 49be 37ca b7bd 038d f13d 426d c9bd
000001a0: 0c8d b03e 4c89 383e 83eb 5dbe 7b9a 273d
000001b0: f5da 7a3e df42 e73d a311 a93e a336 1a3e
000001c0: 34d4 893e b058 df3d 7ffe 3a3f f8aa 51be
000001d0: 9156 eebc 2396 4cbe 9541 1dbf f8a1 90be
000001e0: 0bdb 063e 5bf4 6bbe fce3 8f3e 6396 3dbe
000001f0: 4aa8 b63e 6a33 95bd a8ce 273e 69e3 573e
00000200: 46da 2cbe 5e0d 83be b0c7 403d b0cb 96be
00000210: 6a0a 0bbd 6488 a6be f41c a03e 89d2 5c3e
00000220: 0a19 243e 8067 5e3e 5d54 9b3e ba75 4e3e
00000230: 0e35 c8bd 1a47 b6bd 4ea4 ba3d 9229 30be
00000240: ff41 0bbc d77a 403e 3645 d6be 93c1 c3be
00000250: 11a1 143d a056 05bf d580 c5bd 0d56 80be
00000260: aafb 3ebc ff07 5f3e e96e 0d3e a945 8c3e
00000270: 89fc 3cbe b5fb 9c3c 8670 933d 3354 0d3e
00000280: 8f64 4c3e 5599 183e 41e8 b43d 9da5 1bbe
00000290: ef21 1b3e 5d4d 093e afcc 6a3d 028d 88be
000002a0: f80e 13be 6c33 143d aa50 643e 63e8 90bf
000002b0: a52d 433e a25f 03be 4f83 cb3e cc19 953e
000002c0: 5275 4abd 38f5 973e 63e4 0fbd bb4d a33e
000002d0: a42d 653e 6434 b7bd 362b 793e 986f 59be
000002e0: ae83 2fbe 5151 c0be 1b01 c13d 582c bebb
000002f0: ac04 aa3e 664f b73e b8d4 86bb 6e7b 57bd
00000300: 1147 5b3e 9fd1 3e3d f477 ee3d 44ae 99be
00000310: 2a64 c53e 6bf6 a43e 0ee7 2dbd e727 c03e
00000320: 5079 ccbc 22c2 dfbd a54d b2be 368b 7ebd
00000330: a60b a43e c2bf 303e c400 23bd 8e95 0b3e
00000340: ab77 50be 70ff 8abe dbe8 0fbe be7a a6be
00000350: fd9c f1bd 9ed5 b6be 8adb ea3c 9c07 8c3e
00000360: 0e39 4e3e 1d7d 623f 2f12 3f3f 2ba9 133f
00000370: 6e2b ae3e 25ec 6a3e 1f4d da3e b18f 89be
00000380: 9d8d 813e 690e 55bd 1cd0 e43d e77f 843e
00000390: 3a1b 1cbe fc63 80be 5ec6 aebc 37a4 2b3e
000003a0: 4587 e43e 5359 0fbc 8142 a7be 4f2b 9bbd
000003b0: 83e4 013e 7a7c cebd f0e4 b13d 27a6 4a3e
000003c0: aa82 6cbe a104 1e3e a1be 7a3a 6585 3fbe
000003d0: b396 1c3c d29e c7be 3a68 26be eb6d 17be
000003e0: d3e7 6abe 6888 163e 7f1c 81be 9658 683e
000003f0: 1210 093e a059 813e 19ad f8bd 2bda bdbc
-0.3614689 -0.15707713 0.21449801 -0.24930735 0.084384754 0.09399609 0.06331059 0.08801589
-5.8427e-05 0.23551625 0.2359952 0.25503224 0.684476 -0.24443665 0.23673251 -0.12719171
-0.08098793 0.27949673 0.08499899 -0.15421432 0.11938773 -0.25080088 0.046040088 0.054029014
0.12047594 -0.06029895 0.29217893 0.042733345 0.3828076 0.08800646 0.35471466 -0.134138
-0.19361584 0.34803674 0.37959263 0.20350274 -0.5184622 -0.08078834 -0.068263724 -0.10116853
-0.55840385 -0.28733456 -0.13936338 0.030395608 -0.36865708 -0.5756328 0.45636383 0.2427587
0.3613868 0.50424993 0.15691112 0.2853369 -0.09076867 0.276028 -0.10869351 -0.33843213
0.15234238 0.252344 0.14540915 0.33555356 0.09088454 -0.16190538 -0.13705716 -0.33562773
-0.44811076 -0.35751787 0.4285533 0.37777433 0.31680995 -0.13060008 -0.32261956 0.28469408
0.32554662 0.1400794 0.10282927 -0.5694005 -0.19164942 0.29980838 -0.026288576 0.026319264
-0.29766703 0.24150726 0.15802075 -0.29313037 0.1265612 -0.46874446 -0.005795572 0.14035173
-0.18059362 0.19762298 -0.19384299 0.27322656 -0.014439917 -0.14899659 -0.2513218 0.15505096
-0.015126489 0.079429336 -0.044801798 0.09366384 -0.19707322 -0.08974116 0.11794474 -0.098352924
0.3448261 0.18021125 -0.21671872 0.04091881 0.24497588 0.112920515 0.33021268 0.15059905
0.2691971 0.10905588 0.7304458 -0.20475376 -0.029094012 -0.19979148 -0.61428195 -0.28248572
0.13169496 -0.23042433 0.28103626 -0.18514399 0.3567527 -0.07285197 0.16387427 0.21082844
-0.1688014 -0.25596136 0.047065437 -0.29452276 -0.03394548 -0.32525933 0.3127209 0.21564688
0.16025177 0.2171917 0.30337802 0.20162097 -0.097757444 -0.0890028 0.0911337 -0.17203358
-0.008499621 0.1879686 -0.4184968 -0.38233623 0.036286417 -0.52085304 -0.096437134 -0.25065652
-0.011656681 0.21780394 0.1381184 0.27396896 -0.1845571 0.019162992 0.071991965 0.1380165
0.19960235 0.14902242 0.088333614 -0.15199895 0.15149663 0.13408418 0.057324108 -0.2667008
-0.14361179 0.036181852 0.22296396 -1.1320919 0.19060381 -0.1282945 0.39748618 0.29121244
-0.04942829 0.29679275 -0.035129916 0.3189524 0.22380692 -0.089455396 0.2433289 -0.21233976
-0.17140076 -0.3756204 0.09424039 -0.005803626 0.3320669 0.35802764 -0.0041147135 -0.052607946
0.21413828 0.04658663 0.11643973 -0.30015767 0.38552982 0.32219252 -0.04245668 0.37530443
-0.02496019 -0.109257 -0.34824863 -0.06214448 0.32040137 0.1726065 -0.039795652 0.1363127
-0.2035815 -0.27148008 -0.14053671 -0.3251552 -0.11797521 -0.35709852 0.028669138 0.27349555
0.20138952 0.8847216 0.7463712 0.57680005 0.3401751 0.22941644 0.42636964 -0.2686744
0.25303355 -0.052015696 0.11172506 0.25878832 -0.15244761 -0.25076282 -0.021334823 0.16761862
0.44634452 -0.008749324 -0.32667926 -0.0757662 0.12684827 -0.10082336 0.086862445 0.19789945
-0.2309672 0.15431453 0.0009565149 -0.1870323 0.009557414 -0.38988358 -0.16250697 -0.14788024
-0.22939996 0.14700472 -0.25217053 0.22690043 0.13385037 0.2526369 -0.12142391 -0.02317532
