GANS/time_gan/TimeGAN.pth (torch, 22336 bytes, 50 tensors)

weight_ih_l0 f4 [6, 2]
1.0343568 0.42989555 0.57639694 0.44442767 0.055787448 0.6317755 -1.5461068 -1.5287372
-0.58586645 -0.5175063 1.0440744 0.5903826
00000000: ce65 843f 451b dc3e c08e 133f 068c e33e
00000010: 6181 643d 0abc 213f d4e6 c5bf a9ad c3bf
00000020: 58fb 15bf 4b7b 04bf 3ba4 853f 5023 173f

weight_hh_l0 f4 [6, 2]
0.10460725 0.7875586 0.11976848 0.80198157 1.6879952 -2.7333748 -0.088445015 -0.5329407
0.2807559 -1.1182691 -0.7483621 0.46691173
00000000: 533c d63d 719d 493f 2d49 f53d aa4e 4d3f
00000010: 3a10 d83f 9def 2ec0 a922 b5bd cd6e 08bf
00000020: 3dbf 8f3e 7123 8fbf a994 3fbf 0e0f ef3e

bias_ih_l0 f4 [6]
0.8161969 0.9594413 0.69024676 -1.7799691 -0.17651695 0.7938816
00000000: 48f2 503f f29d 753f 03b4 303f 07d6 e3bf
00000010: dcc0 34be d33b 4b3f

bias_hh_l0 f4 [6]
0.54715955 0.15770862 0.5095011 -1.8544499 -0.28389695 0.94816566
00000000: a612 0c3f 5e7e 213e aa6e 023f 9d5e edbf
00000010: f15a 91be fcba 723f

weight_ih_l0 f4 [6, 2]
-0.07483538 1.2020541 0.100702114 0.3768597 0.506494 -2.1291466 1.6321578 -0.532678
1.0534903 0.36980692 1.1126835 -0.37484193
00000000: 4b43 99bd e9dc 993f e93c ce3d c1f3 c03e
00000010: 97a9 013f f043 08c0 8cea d03f 965d 08bf
00000020: c5d8 863f 5557 bd3e 6a6c 8e3f 48eb bfbe

weight_hh_l0 f4 [6, 2]
-0.11337543 0.3905887 -0.35345533 -0.30611157 -0.91482794 -0.013911183 -1.847042 1.1242374
-0.16873088 0.53650385 -0.8145389 0.6178442
00000000: 6131 e8bd 3efb c73e 19f8 b4be a8ba 9cbe
00000010: 2a32 6abf bbeb 63bc df6b ecbf 03e7 8f3f
00000020: cac7 2cbe 5158 093f 9f85 50bf 0a2b 1e3f

bias_ih_l0 f4 [6]
0.6124721 0.39782965 -1.4493362 1.0585749 0.3841129 -0.27025864
00000000: f9ca 1c3f 54b0 cb3e d983 b9bf 627f 873f
00000010: 72aa c43e 575f 8abe

bias_hh_l0 f4 [6]
-0.36904958 0.54367757 -1.3720369 0.6667734 0.53695935 0.08535088
00000000: 11f4 bcbe 742e 0b3f e89e afbf a9b1 2a3f
00000010: 2b76 093f 71cc ae3d

weight_ih_l0 f4 [6, 2]
0.22494966 -0.83678424 -1.4237187 -0.63356006 1.5485888 -0.04405766 -0.4381599 1.6680981
0.7094822 0.47178924 -1.4957007 -1.2144182
00000000: 3459 663e 7e37 56bf 6a3c b6bf fe30 22bf
00000010: 2838 c63f ce75 34bd 7f56 e0be 3d84 d53f
00000020: a0a0 353f 5c8e f13e 1f73 bfbf 0e72 9bbf

weight_hh_l0 f4 [6, 2]
0.0077874237 0.12268099 0.040509436 0.9104199 0.994855 -1.112782 1.6809375 -0.28066882
0.400742 -0.14490621 -0.29915363 0.5471071
00000000: a52d ff3b 2c40 fb3d 39ed 253d 4711 693f
00000010: d1ae 7e3f a46f 8ebf f628 d73f d3b3 8fbe
00000020: 0e2e cd3e 4b62 14be aa2a 99be 360f 0c3f

bias_ih_l0 f4 [6]
0.65087295 -0.69898415 0.8145209 0.028198283 -0.47543648 -0.1844219
00000000: 9c9f 263f a0f0 32bf 7184 503f 1600 e73c
00000010: 696c f3be 18d9 3cbe

bias_hh_l0 f4 [6]
0.21351519 0.053027507 0.60538906 -1.2703251 -0.4487977 -0.03417066
00000000: baa3 5a3e 5f33 593d c7fa 1a3f 039a a2bf
00000010: d0c8 e5be 89f6 0bbd

weight_ih_l0 f4 [6, 2]
-0.024519242 0.7741595 -0.3854389 1.0231221 0.9533807 0.28207478 0.28040883 0.24758862
0.45177522 -0.70981973 1.106606 -0.84499466
00000000: 94dc c8bc 512f 463f 3f58 c5be aaf5 823f
00000010: c210 743f 1b6c 903e bf91 8f3e df87 7d3e
00000020: 154f e73e bfb6 35bf 44a5 8d3f 9251 58bf

weight_hh_l0 f4 [6, 2]
-0.8994869 -0.6001108 -0.78723216 -0.4953509 1.7771388 1.8157151 2.0177073 2.0397387
-0.07339243 1.2004563 0.17856824 -0.06639289
00000000: c644 66bf dda0 19bf 0c88 49bf a29e fdbe
00000010: 4979 e33f 5a69 e83f 1e22 0140 148b 0240
00000020: c54e 96bd 8da8 993f 98da 363e fff8 87bd

bias_ih_l0 f4 [6]
0.5944817 -0.26562136 0.29462036 0.68898314 0.20474969 0.28062594
00000000: f42f 183f 86ff 87be 7bd8 963e 3361 303f
00000010: e7a9 513e 34ae 8f3e

bias_hh_l0 f4 [6]
0.8302692 -0.9966199 0.35871717 -0.65418005 -0.0815545 -0.5209113
00000000: 868c 543f 7b22 7fbf c7a9 b73e 5878 27bf
00000010: 0c06 a7bd 715a 05bf

weight f4 [2, 2]
1.4960014 1.3099416 -0.48980418 -0.17870049
00000000: f97c bf3f 2bac a73f 9dc7 fabe 43fd 36be

bias f4 [2]
-0.90141654 0.55541015
00000000: 3cc3 66bf 5c2f 0e3f

weight_ih_l0 f4 [6, 2]
-0.27190888 0.58265513 -0.08258755 0.14522703 -0.6645622 -1.3124253 0.55091184 0.234062
0.7533545 -0.08761704 -0.701084 -0.6020499
00000000: a437 8bbe e328 153f a923 a9bd 65b6 143e
00000010: c020 2abf 8dfd a7bf 8f08 0d3f f3ad 6f3e
00000020: d7db 403f 9070 b3bd 3e7a 33bf f11f 1abf

weight_hh_l0 f4 [6, 2]
-0.1075007 -0.7392019 0.3221953 0.46710467 0.34306204 0.6833518 -0.47846714 -0.69139177
0.4258014 -0.36234096 0.35279533 0.024276089
00000000: 5429 dcbd 563c 3dbf c8f6 a43e 5828 ef3e
00000010: d4a5 af3e 25f0 2e3f a5f9 f4be 0dff 30bf
00000020: a402 da3e c184 b9be 97a1 b43e a6de c63c

bias_ih_l0 f4 [6]
0.051495176 0.047459077 -1.2578161 0.31601486 0.804378 0.46093988
00000000: 9bec 523d 7364 423d 1e00 a1bf b3cc a13e
00000010: b7eb 4d3f 5000 ec3e

bias_hh_l0 f4 [6]
0.35235238 0.28976542 -0.44375843 0.36622128 0.21151982 0.03144322
00000000: 8867 b43e 225c 943e 4e34 e3be 5b81 bb3e
00000010: a798 583e 9bca 003d

weight_ih_l0 f4 [6, 2]
-0.24143222 0.46991944 -0.7002531 0.67259187 -0.09162551 -0.38624498 0.035200458 0.71967524
0.2686423 0.06759937 0.6749 -0.13440849
00000000: 023a 77be 4899 f03e ca43 33bf fb2e 2c3f
00000010: 28a6 bbbd e7c1 c5be 5b2e 103d a33c 383f
00000020: 7c8b 893e 8a71 8a3d 3fc6 2c3f 61a2 09be

weight_hh_l0 f4 [6, 2]
-0.49189445 0.5127575 0.39457786 -0.15071061 -0.3669431 -0.5895444 -0.05083463 -0.18656413
-0.28869057 0.34081823 -0.30709502 -0.41323933
00000000: 97d9 fbbe 1344 033f 1c06 ca3e e253 1abe
00000010: f7df bbbe 62ec 16bf f937 50bd ab0a 3fbe
00000020: 40cf 93be ba7f ae3e 8f3b 9dbe 1b94 d3be

bias_ih_l0 f4 [6]
0.08961055 -0.6011598 0.13454139 -0.7838221 0.64683914 0.8955667
00000000: bc85 b73d 9ce5 19bf 38c5 093e 91a8 48bf
00000010: 4097 253f dc43 653f

bias_hh_l0 f4 [6]
-0.764268 0.4790214 -0.22387344 -1.2291127 -0.27008796 0.5399554
00000000: 11a7 43bf 4b42 f53e 143f 65be 9153 9dbf
00000010: f848 8abe 843a 0a3f

weight_ih_l0 f4 [6, 2]
0.45037702 0.55984175 -0.08837688 -0.3257337 -0.64101946 -1.2973994 -0.18223244 -1.0165977
0.7858734 -0.054008957 -0.2418646 0.9467402
00000000: d197 e63e ca51 0f3f f0fe b4bd 91c6 a6be
00000010: da19 24bf 2f11 a6bf 249b 3abe e01f 82bf
00000020: 002f 493f 7f38 5dbd 5bab 77be 915d 723f

weight_hh_l0 f4 [6, 2]
-0.07425682 0.736283 0.73991835 -0.28973788 -0.8522586 -0.94320184 -0.19492102 -0.45309973
0.94490993 0.33653265 1.0604701 0.6487882
00000000: f613 98bd 0b7d 3c3f 4a6b 3d3f 8658 94be
00000010: 9f2d 5abf ad75 71bf 6099 47be b0fc e7be
00000020: 9ee5 713f 024e ac3e 7cbd 873f fc16 263f

bias_ih_l0 f4 [6]
0.8668571 0.5944421 0.03576418 -0.87125987 0.36001286 0.23372567
00000000: 59ea 5d3f 5c2d 183f 767d 123d e30a 5fbf
00000010: 9b53 b83e c855 6f3e

bias_hh_l0 f4 [6]
-0.022942588 0.37982997 -0.8441104 -0.6546989 0.8935268 0.75393534
00000000: 18f2 bbbc 1379 c23e 9f17 58bf 599a 27bf
00000010: 2cbe 643f e801 413f

weight f4 [2, 2]
-0.18518293 0.78355926 0.93325937 0.7217265
00000000: 98a0 3dbe 5797 483f 16ea 6e3f 11c3 383f

bias f4 [2]
0.122208014 -0.06928346
00000000: 3248 fa3d 7de4 8dbd

weight_ih_l0 f4 [6, 2]
-0.37132767 0.22500792 0.32621866 0.40770972 -0.84544605 -0.8787456 -0.891193 -0.5311121
-0.164879 -0.46483466 -0.7014402 -0.6465124
00000000: a91e bebe 7a68 663e 2206 a73e 54bf d03e
00000010: 276f 58bf 79f5 60bf 3925 64bf f6f6 07bf
00000020: 0ad6 28be cffe edbe 9691 33bf d681 25bf

weight_hh_l0 f4 [6, 2]
0.04000522 0.4657885 -0.24281743 -0.6531975 -0.481649 -0.4326543 0.19309272 0.06482437
0.1680085 -0.36113325 0.6930893 -0.5101017
00000000: 83dc 233d d57b ee3e 22a5 78be f437 27bf
00000010: b39a f6be dd84 ddbe 19ba 453e a4c2 843d
00000020: 6c0a 2c3e 75e6 b8be 4d6e 313f 0696 02bf

bias_ih_l0 f4 [6]
-0.106498525 0.7751104 -0.92131424 -0.95698375 -0.33972466 0.23924555
00000000: e61b dabd a36d 463f 40db 6bbf e3fc 74bf
00000010: 64f0 adbe c9fc 743e

bias_hh_l0 f4 [6]
-0.071245484 -0.082732484 0.22096613 -0.7892182 -0.7514454 -0.26227096
00000000: 27e9 91bd a66f a9bd f244 623e 340a 4abf
00000010: ba5e 40bf 6148 86be

weight_ih_l0 f4 [6, 2]
0.00060227705 -0.9501177 0.2903116 0.7595973 0.22267531 0.058560193 0.35686526 0.5510056
0.42726234 0.83025223 -0.8121284 -0.32116646
00000000: 21e2 1d3a ea3a 73bf b9a3 943e f874 423f
00000010: ff04 643e d0dc 6f3d 0bb7 b63e b40e 0d3f
00000020: 21c2 da3e 698b 543f a6e7 4fbf ee6f a4be

weight_hh_l0 f4 [6, 2]
-0.25314003 0.846636 0.46481094 -0.36436734 1.0829906 0.111490995 0.56429833 -0.2232073
0.24308696 -0.46092197 -0.55496466 -0.07584122
00000000: 929b 81be 23bd 583f b3fb ed3e 5b8e babe
00000010: 709f 8a3f 6455 e43d db75 103f 7490 64be
00000020: caeb 783e f7fd ebbe 2a12 0ebf a452 9bbd

bias_ih_l0 f4 [6]
-0.26770917 0.20419265 0.39284986 -0.7373598 0.2879499 0.4775226
00000000: 2d11 89be e117 513e 9e23 c93e 9dc3 3cbf
00000010: 2b6e 933e d87d f43e

bias_hh_l0 f4 [6]
-0.47973585 -0.25462097 0.49161193 -1.2874037 -0.02816792 -0.2926986
00000000: f09f f5be ae5d 82be 8fb4 fb3e a5c9 a4bf
00000010: 69c0 e6bc 97dc 95be

weight_ih_l0 f4 [6, 2]
-0.7390923 -0.28597873 -0.15488979 0.34271666 0.9244608 -0.9000505 -0.3182453 -0.16281822
-0.28818986 -0.87282974 -0.45666462 0.74818575
00000000: 2735 3dbf ce6b 92be 6e9b 1ebe 8f78 af3e
00000010: 77a9 6c3f b669 66bf 0cf1 a2be d2b9 26be
00000020: 9f8d 93be c571 5fbf f2cf e9be 1a89 3f3f

weight_hh_l0 f4 [6, 2]
-0.16790819 0.53120524 -0.4945901 0.7220017 0.5150301 -0.25964895 0.31204772 -0.3450363
-0.14104764 -0.7103718 0.21805987 0.36656618
00000000: 20f0 2bbe 11fd 073f ea3a fdbe 1ad5 383f
00000010: 03d9 033f b5f0 84be b8c4 9f3e 99a8 b0be
00000020: cb6e 10be edda 35bf 164b 5f3e 90ae bb3e

bias_ih_l0 f4 [6]
0.54716665 0.51470196 -0.75075513 -0.1383456 -0.20475121 -0.4356447
00000000: 1d13 0c3f 82c3 033f 7d31 40bf 78aa 0dbe
00000010: 4daa 51be d20c dfbe

bias_hh_l0 f4 [6]
0.56936675 0.057872254 -1.0575577 0.39735132 -0.4884686 0.92646646
00000000: 05c2 113f 750b 6d3d 0d5e 87bf a271 cb3e
00000010: 8e18 fabe e82c 6d3f

weight_ih_l0 f4 [6, 2]
-0.34637582 0.5194634 -0.13473918 0.6814225 0.043366797 0.8253597 1.6496215 -0.91146415
0.31268996 0.73586774 0.64397013 -0.08202841
00000000: 2c58 b1be 8efb 043f 11f9 09be b471 2e3f
00000010: 62a1 313d c64a 533f cc26 d33f b755 69bf
00000020: e618 a03e d461 3c3f 3adb 243f 83fe a7bd

weight_hh_l0 f4 [6, 2]
-0.046099473 -0.77900577 0.70496225 0.21482372 -0.5179424 0.12340799 -0.30601078 0.5816822
-0.11361672 0.19910035 0.037874173 -0.09482102
00000000: cdd2 3cbd ec6c 47bf 6878 343f c0fa 5b3e
00000010: e097 04bf 54bd fc3d 72ad 9cbe 20e9 143f
00000020: e2af e8bd f6e0 4b3e f321 1b3d 8631 c2bd

bias_ih_l0 f4 [6]
-0.16580907 0.7555658 0.10548334 -1.3985732 0.7352539 -0.04884489
00000000: dac9 29be c36c 413f a607 d83d 7204 b3bf
00000010: 9939 3c3f 9411 48bd

bias_hh_l0 f4 [6]
0.3715009 -0.028358532 0.65488803 -1.1534795 0.47745514 -0.71591616
00000000: 5e35 be3e 2750 e8bc bea6 273f 37a5 93bf
00000010: 0075 f43e 4846 37bf

weight f4 [2, 2]
0.48271328 -0.29760578 0.46860436 -0.77528745
00000000: 3226 f73e c95f 98be e9ec ef3e 3d79 46bf

bias f4 [2]
0.0013699698 -0.3843567
00000000: 8f90 b33a 67ca c4be
