GANS/time_gan/TimeGAN.pth (torch, 46627 bytes, 50 tensors)

weight_ih_l0 f4 [30, 10]
000000 dd 12 86 bd e5 7a 68 bd d3 40 53 3e ce 41 f9 bd
       -0.06546567 -0.056757826 0.20630197 -0.121707544
000010 ea 28 59 3e 2f 5e f7 bd 43 a0 c6 3e d4 7b 91 be
       0.21207014 -0.12078511 0.38794145 -0.28414786
000020 b5 f9 98 3e 73 5f 48 3e 2d 9f 8b be ea a7 bd be
       0.2987801 0.19567661 -0.2726988 -0.3704217
000030 0a df 2c 3e 11 47 65 3e 51 ce 10 3e 67 ba b7 3e
       0.16881958 0.22390391 0.14141203 0.358844
000040 32 d9 44 bd 94 f5 50 bd 05 98 b6 3e 3f fd 16 3e
       -0.048058696 -0.05101545 0.35662857 0.14745043
000050 43 a4 88 3e ee cc 07 bd 6a f8 f0 bd 46 ba 5f 3e
       0.26687822 -0.03315442 -0.11766131 0.21848401
000060 d2 e0 7c 3e b1 7e 86 be bd fc a8 3d b1 be c2 3e
       0.24695137 -0.26268533 0.08251331 0.3803611
000070 90 44 ee 3d db a0 b2 3e 6a ea 2f 3e 95 f7 45 be
       0.11634171 0.34888348 0.17179266 -0.19332726
000080 24 0f 65 3e 03 2a 89 3e 66 ac f6 3e 8e 63 18 be
       0.22369057 0.26789865 0.48178405 -0.14881727
000090 0e 43 52 be 82 53 fd bd cf 84 30 3e c6 d0 83 be
       -0.20533392 -0.123694435 0.17238162 -0.2574522
0000a0 82 fb 91 3e d9 33 8b be b9 98 3a be c1 45 e0 3d
       0.28512198 -0.27187994 -0.18222322 0.109508045
0000b0 16 92 67 bc 01 65 b6 be 2e 37 11 be 8c 5f 25 be
       -0.014133951 -0.35623935 -0.14181206 -0.1614973
0000c0 08 ff a0 bd 88 4c 4a be 4b f5 5d 3e a2 39 4b 3d
       -0.07861143 -0.19755757 0.21675603 0.04961551
0000d0 6b f5 16 bd e7 58 08 be 1b 39 ba bd 45 d0 4c 3e
       -0.036855143 -0.13315164 -0.09092923 0.20001324
0000e0 78 d3 c5 3d a6 69 cf bd 36 68 b7 3d 22 79 3d 3d
       0.09659475 -0.10127573 0.089554235 0.0462581
0000f0 d5 fb 30 be bc 2d bb be 4c e0 66 be a3 6f 0d 3c
       -0.17283566 -0.3655833 -0.225465 0.008632573
000100 97 29 33 3c 4a f7 fe 3e 72 9e b9 be 27 85 75 3e
       0.010935209 0.49798042 -0.36253697 0.23976575
000110 1f c3 a1 3e 98 0b 75 be 4d c4 7e 3e 50 9b 1c 3e
       0.31594178 -0.23930204 0.2487957 0.15293622
000120 b1 05 85 3e 54 9c 7a 3e 1b 6b 9e 3e 5e d5 fc 3d
       0.25980905 0.24473697 0.3094109 0.12345384
000130 07 96 ad be 69 bc cb bd f6 58 0e 3d ee c7 bd be
       -0.33903524 -0.09948046 0.03475281 -0.37066597
000140 f5 6f dd 3d 1e 96 37 be ef cc 3a 3e c0 5c a7 3e
       0.1081237 -0.17928359 0.18242238 0.3268795
000150 47 14 fd 3d 21 c1 90 bd 41 ef ea bc 3e b1 29 be
       0.12357383 -0.070680864 -0.028678538 -0.16571519
000160 94 de 6c 3d 09 56 77 be a1 83 f0 3d 2e d5 fc 3d
       0.057829455 -0.24153914 0.11743856 0.12345348
000170 2c 21 b0 3c cd 4a 27 be 2c f4 38 3e cc 91 2f be
       0.021500193 -0.16337128 0.18061894 -0.17145461
000180 73 5c 0d bd 9e 77 ed bd bb 93 22 be 0a 7d 16 3e
       -0.034511995 -0.11595081 -0.15876667 0.14696136
000190 f4 d9 e2 3e 66 99 2a 3e df d9 5d be 37 11 60 3e
       0.4430691 0.1666008 -0.21665142 0.21881567
0001a0 1d 70 24 3e 0b d7 e5 3d d3 30 84 3e df e3 8e be
       0.16058393 0.11222657 0.258185 -0.27908227
0001b0 9a 8c 07 be 9b 68 cb bd 80 e1 a8 be d4 98 d2 3e
       -0.13237229 -0.09932061 -0.32984543 0.41132224
0001c0 10 b2 00 bd 89 7b 0f 3e 30 85 2f 3e 40 19 0c 3e
       -0.031419814 0.14011969 0.17140651 0.13681507
0001d0 2a 0e ac be 95 a9 dc bd a7 65 27 be fa ed 5a 3e
       -0.33604556 -0.10774533 -0.16347371 0.21379843
0001e0 91 7a e6 be 25 2b 93 3e 6e 4b d3 bd 2e f3 5e be
       -0.45015386 0.28743854 -0.103171214 -0.21772453
0001f0 69 f7 e5 3d 08 38 c9 bd 1f 7f 97 3e 38 86 73 3d
       0.1122883 -0.0982514 0.29589173 0.059454173
000200 51 b8 1f 3d 4f f5 8a bd b5 c3 00 be 1d c8 c6 bd
       0.038994137 -0.0678507 -0.12574656 -0.09706137
000210 fe c5 9c 3e 15 dd 87 be 2b bf be 3e a3 11 29 be
       0.30619806 -0.2653586 0.37255225 -0.16510634
000220 c3 44 08 be d3 2c c9 bc 7d 1b 51 be 4e 48 1f be
       -0.1330748 -0.024557507 -0.20420642 -0.15554926
000230 de 79 c2 be 6d 87 63 3e 41 14 2a bd 9a bd 20 3e
       -0.37983602 0.2221963 -0.041523222 0.15697327
000240 e2 b4 a2 3e 74 5b d0 be b7 46 cb 3d ce be 1a be
       0.31778628 -0.40694773 0.09925597 -0.15111849
000250 4b 6f 58 3e c4 6d 9a be ab 39 8e 3d fb 29 ec 3d
       0.21136205 -0.3016187 0.06944593 0.11531445
000260 3b a4 20 bf 59 96 a7 be f6 fa 67 be ba de b6 bd
       -0.62750596 -0.32731894 -0.22654328 -0.089292005
000270 e8 27 0c be 8e 82 c1 3c 65 0a 1e be 7b 45 ae be
       -0.13687098 0.023621824 -0.15433653 -0.34037384
000280 30 77 84 be 4f 50 70 3e 38 b0 48 bd 87 66 98 3e
       -0.25872183 0.23468135 -0.04899618 0.29765722
000290 cf f6 d9 3e ae 0c ae 3e 9f 72 00 bd 52 9b 39 3e
       0.42571113 0.3399405 -0.03135931 0.18125656
0002a0 ff 04 33 bd 6e 34 44 be c2 9e 13 3e 2f 74 24 3e
       -0.043705937 -0.19160625 0.1441603 0.16059946
0002b0 14 a4 7a be 7e 96 61 3d 46 22 9f 3e ac b0 76 bd
       -0.24476653 0.05507516 0.31080836 -0.06022708
0002c0 25 3f 53 3d e1 83 18 bd 57 5b 3e 3e 7f 41 c3 3e
       0.05157389 -0.037235145 0.18589531 0.38135907
0002d0 2f 7d e6 bd e9 38 13 3f 4f 2e 8e 3e 05 a3 d4 3d
       -0.112543456 0.57508713 0.27769706 0.10382656
0002e0 45 4a 09 be 41 ad 45 3d 42 c2 2b be 14 26 7f 3e
       -0.13407238 0.04826093 -0.16773322 0.2491687
0002f0 de 84 18 be 26 13 12 3e 8e 1b 59 be 1a 1d 9c bc
       -0.14894435 0.14265117 -0.21201918 -0.019056845
000300 e0 03 3d 3e ef fe 83 3c d7 bd c5 3e bf 74 0b be
       0.1845851 0.016112773 0.386214 -0.13618754
000310 67 05 f9 3e 05 82 4f be 54 44 a6 3d e4 27 8b 3e
       0.48636934 -0.20264442 0.08118501 0.27178872
000320 22 35 b2 be 69 1e d0 be 09 a2 6d bd 74 b6 9a be
       -0.34806162 -0.406482 -0.058015857 -0.30217326
000330 91 c4 49 be a6 a0 28 3d 19 06 57 3e 22 ec 06 3e
       -0.1970389 0.04116883 0.2099842 0.13176015
000340 eb 9b 48 bd 6d 19 3f bd 92 10 b2 3e 3b c4 2e 3e
       -0.04897682 -0.046655107 0.34778267 0.17067043
000350 a1 90 d5 be 30 ee 7a 3e fe 82 d5 bc 42 72 8a be
       -0.41711906 0.24504924 -0.026063439 -0.27040297
000360 c2 25 7e be 69 c3 96 3e ed 1d 68 bd 5f 45 a1 3e
       -0.24819091 0.2944596 -0.056669164 0.31498238
000370 98 1b e0 be 38 6a 8c bc 59 fb d0 3d 22 14 3c 3c
       -0.43771052 -0.017140493 0.10204191 0.011479409
000380 08 97 1e be 59 85 b7 3e db b4 82 3e a5 93 5b be
       -0.15487301 0.35843924 0.25528607 -0.2144304
000390 74 c5 9b 3e 8d bb 20 be 28 ee a7 bd 22 5e 38 be
       0.30424082 -0.15696545 -0.081997216 -0.18004659
0003a0 bf e5 a2 be ec 9d 88 3d 2e 7b 10 bd 17 e5 60 3c
       -0.31815907 0.06670746 -0.035273723 0.013726494
0003b0 c4 fb 0a 3e 71 4c 92 3e 5f 5b 81 be f0 b1 8e be
       0.13572603 0.28573945 -0.25265023 -0.2787013
0003c0 ea 8c 74 be 0a d3 8f be be 11 e3 3e 61 b3 09 3e
       -0.2388188 -0.28090698 0.44349474 0.13447334
0003d0 7d a7 19 be a8 4d 2c be 0d 21 7a 3e 68 3f be be
       -0.15005298 -0.16826499 0.2442667 -0.3715775
0003e0 11 66 98 3e 16 eb 55 be c8 0f ed 3d d3 04 b7 be
       0.2976537 -0.2089046 0.11575276 -0.35745868
0003f0 e0 2b 56 3e e9 85 2f be 23 69 04 3f df 0e 38 3e
       0.20915174 -0.17140926 0.51722926 0.17974423

weight_hh_l0 f4 [30, 10]
000000 2d 4f 32 be 7f 29 c1 bd 05 65 a5 3d 57 95 9b bd
       -0.17413016 -0.09431743 0.080759086 -0.07596844
000010 93 d1 86 be 32 5e 5e 3d 44 76 d6 3d 67 71 25 3d
       -0.26331767 0.05428905 0.10471776 0.040391352
000020 9d 28 cc bd 8e 29 24 be c0 a5 7e 3e bf 5b 64 3e
       -0.09968684 -0.16031477 0.24867916 0.22300623
000030 cc f0 41 be 92 fa ee 3d 5e cd 31 be 52 82 9a bd
       -0.18939513 0.11668886 -0.17363498 -0.07544388
000040 d6 0e f5 3e e1 25 88 bb 7d 61 30 3d 75 4a 41 3e
       0.4786288 -0.004154906 0.043061722 0.1887606
000050 f8 89 44 3e 7e c5 8a bc cc 2b df bd 1f 09 2d 3e
       0.19193256 -0.016939875 -0.108970255 0.1689801
000060 7c b1 08 3d 5d 63 a4 be fb a6 96 3e 6d 31 7f 3e
       0.033372387 -0.32107058 0.2942427 0.24921198
000070 fd f5 9d 3d 37 ac dc bd d6 cd 6d 3e a3 9a 8f 3e
       0.07712934 -0.10775035 0.23223051 0.28047666
000080 1d 28 88 be e9 50 7e bd 03 c2 0e 3c 01 73 9d be
       -0.26593104 -0.06208888 0.008713248 -0.30751804
000090 0e 52 24 3f ff 73 a3 3e 7e 24 0d 3f 41 58 02 3d
       0.64187706 0.31924435 0.5513381 0.031822447
0000a0 cc 25 4a 3c ae b5 a4 bd 3f 67 0d 3e 86 03 4b be
       0.012338113 -0.08042465 0.13808917 -0.19825563
0000b0 2a 61 17 3e 04 bd 94 3e c5 fc 3c be 51 37 20 3e
       0.14783159 0.29050457 -0.18455799 0.15646102
0000c0 52 85 d7 bd 22 a6 9c 3e e3 70 86 3e 49 69 8b 3e
       -0.10523476 0.305955 0.26258 0.27228764
0000d0 5c 07 03 bf a6 b5 06 3e 98 2e 96 be 3f 4b dc 3e
       -0.51183105 0.13155231 -0.29332423 0.43026158
0000e0 86 9e bc 3e 32 e0 e4 3d 77 5c 9c 3e 11 99 04 3f
       0.36839694 0.11175574 0.30539295 0.5179606
0000f0 22 04 50 3e 80 84 44 be a2 a0 84 3e d5 fd 99 be
       0.20314077 -0.1919117 0.25903803 -0.3007647
000100 67 3d bd bd 07 8f c1 bd 37 a1 73 be 04 e7 aa be
       -0.09240227 -0.094511084 -0.23791967 -0.33379376
000110 77 71 87 be b8 68 3d 3e c6 61 76 3e 3c d5 be be
       -0.26453754 0.18496978 0.24060735 -0.3727206
000120 af 06 72 bd 41 b6 9c 3e bf 23 8d 3e e4 cf bb bd
       -0.059088405 0.306078 0.27566335 -0.09170511
000130 e7 65 01 3f 89 e3 18 3c 53 86 16 3e e5 2f b4 be
       0.50546116 0.009331592 0.14699678 -0.3519279
000140 5f e2 44 bd f1 64 87 be bf d6 9f 3d b9 f2 05 be
       -0.048067447 -0.264442 0.078046314 -0.13080873
000150 fb 42 1d 3d 9c 4a 99 be 11 9e ac bd 7f 08 30 3e
       0.038393956 -0.29939735 -0.08428586 0.17190741
000160 50 b7 c7 bd 35 bc 50 3b 69 64 81 be 3e 1c 02 3e
       -0.09751761 0.0031850461 -0.2527192 0.12706086
000170 27 1d 05 3e f1 48 9f 3e 72 54 94 be a3 f4 7e be
       0.12999402 0.31110337 -0.28970677 -0.24898009
000180 2c 7a 8d bd c1 76 bc bd b1 0a 80 bd 47 6c d9 bd
       -0.06908068 -0.09202338 -0.06252039 -0.106163554
000190 c8 83 6f bd 76 52 c9 3c 77 28 a5 be 29 4e e3 3c
       -0.058475286 0.024575453 -0.32257435 0.02774723
0001a0 bd 1d 99 be 90 5c 71 3e 9a 68 99 3e d7 19 83 bc
       -0.299055 0.23570466 0.29962617 -0.016003532
0001b0 81 02 55 3e 86 5c 2b bd 4c 00 e8 be cd 08 87 3e
       0.20801736 -0.041836284 -0.45312726 0.26373902
0001c0 2d fb aa be c4 17 60 3e 44 a6 60 bd f0 c3 56 be
       -0.33394757 0.21884066 -0.054846063 -0.20973182
0001d0 84 98 be be 7d 9e 15 be 80 c9 26 be 6d 53 bf 3e
       -0.37225735 -0.1461124 -0.16287804 0.37368336
0001e0 5b 4d 69 be 84 f6 00 3e a1 68 65 be 87 19 8f 3e
       -0.22783415 0.12594038 -0.22403194 0.27949163
0001f0 97 5b 0e be b2 41 b5 be ab 72 cc be 5c 0c c5 3e
       -0.13902126 -0.35401684 -0.39931235 0.38485992
000200 49 16 86 be f6 b2 50 bd 71 42 0c be 84 a5 4a be
       -0.26188877 -0.05095192 -0.1369722 -0.19789702
000210 13 bd 35 be eb 96 35 3e 2f a8 ee 3d 8b 86 0b bd
       -0.17747907 0.17733352 0.11653172 -0.034063857
000220 6e 71 70 be b6 81 9c bd 3d aa 8f be d8 f9 9c 3e
       -0.2348077 -0.07641928 -0.2805957 0.30659366
000230 c0 de 19 be 23 36 f9 3e e2 18 73 bd 65 09 31 3e
       -0.15026379 0.48674116 -0.059349902 0.1728874
000240 81 47 a9 be 53 17 9e be ee 58 ff be 8b 3a 75 be
       -0.33062366 -0.3087717 -0.49872535 -0.23948114
000250 ad 52 18 3e 9b d4 ed bd 71 2f b5 3e 39 39 4e 3d
       0.14875288 -0.11612817 0.35387757 0.05034754
000260 84 f3 cd 3d c1 2c ee bd a0 4b 29 3f 01 77 73 be
       0.100562125 -0.1162963 0.6613102 -0.23775865
000270 d9 f8 6f be 1d 1b f6 3d 8b 56 2c 3e 0e 90 2c bd
       -0.23434772 0.1201689 0.16829889 -0.04212957
000280 6b 41 a6 3e a6 44 06 3e af dc 2f 3e 08 8b f2 3e
       0.32471785 0.13112125 0.17174028 0.47371697
000290 f7 db b5 be 9d 4a 9f 3c 4f 86 8c bd 71 10 6c 3d
       -0.35519382 0.019444758 -0.06861555 0.057632867
0002a0 4f 5d 64 3e 7e 5c 4b 3e 1b 73 2c 3d cb 64 73 3e
       0.2230122 0.19859502 0.04210196 0.23768918
0002b0 ca 24 f3 3d 3b 8a bf 3d d5 e1 d5 bd 38 a4 b1 bd
       0.11872251 0.09352537 -0.10443465 -0.086739
0002c0 9f 30 a9 be 69 0f 1c 3f 72 e2 86 bd c3 01 c9 3e
       -0.33044907 0.60961014 -0.0658616 0.39259157
0002d0 c9 6e 67 be 5f 9c 17 be df 39 84 3e 02 e8 57 be
       -0.22600855 -0.14805745 0.25825402 -0.21084598
0002e0 e5 7b 9b 3e da e5 9c 3c e1 1a 14 be 26 36 3a be
       0.30367962 0.01915257 -0.14463378 -0.18184718
0002f0 05 f2 42 be d0 60 b7 3e e9 27 a0 bd 84 ee b5 3e
       -0.19037636 0.3581605 -0.07820112 0.35533535
000300 12 a0 ee be d9 0a 90 3e ff cb 80 be 5f 49 b2 3d
       -0.466065 0.28133276 -0.25155637 0.08705401
000310 d5 cd dd 3d 88 d0 86 be 56 96 6d 3e b6 d1 8f 3e
       0.10830275 -0.26330972 0.2320188 0.28089684
000320 02 da 25 3e 16 56 69 3e 1e 2e 46 be 54 59 77 3e
       0.16196445 0.22786745 -0.1935353 0.2415517
000330 a9 3d 0f be c3 53 1b 3d 7e d1 37 bb e8 07 5a bd
       -0.13988365 0.03792168 -0.002804845 -0.053230196
000340 53 81 09 3b 7f 22 e9 3d d4 65 00 be 07 17 4f 3e
       0.0020981624 0.11383533 -0.12538844 0.20223628
000350 f4 85 6b be 08 d9 ac be b8 46 6a 3e 13 42 80 be
       -0.23000318 -0.33759332 0.2287854 -0.2505041
000360 c1 f1 24 be 94 20 12 bd b8 c8 f1 bd f7 91 5e be
       -0.16107847 -0.0356756 -0.11805862 -0.21735369
000370 09 ee d2 bc be 7c c5 3d 1a 39 41 3e 24 16 0e 3e
       -0.02574827 0.09642933 0.18869439 0.13875633
000380 e5 13 5b be 35 42 a4 3c de 0e 49 3c cb 3f 30 3e
       -0.21394308 0.020051101 0.012271611 0.17211835
000390 78 7e 70 bd b1 4c 86 3e b5 2b a6 3e 6c 14 80 bd
       -0.05871436 0.26230386 0.3245522 -0.06253895
0003a0 2e 99 93 bd 67 74 9e be 13 27 90 3e eb 62 02 bf
       -0.07206951 -0.30948183 0.2815481 -0.50932187
0003b0 98 a2 23 bd b9 bb 7a 3d e2 13 99 be ef a4 42 3e
       -0.039949983 0.061214183 -0.29897982 0.1900823
0003c0 13 46 de be ad ad 88 bc 9d d2 12 3e c8 7c 4f 3e
       -0.43412837 -0.016684378 0.14338155 0.20262444
0003d0 43 13 20 be 06 c1 1d bd c7 42 79 3d 33 2a c4 3d
       -0.15632348 -0.03851416 0.0608547 0.09578361
0003e0 95 47 67 be 5a 14 26 bd b3 b8 26 be c1 bf 5d bc
       -0.225859 -0.040546753 -0.16281395 -0.013534487
0003f0 b3 1e 71 3e 08 07 5d 3e 24 47 52 be 3e 3e aa 3e
       0.23546867 0.21584713 -0.2053495 0.33250612

bias_ih_l0 f4 [30]
000000 a5 6a 08 bc 7e dd 60 be 10 d2 37 3e 66 a3 ca 3d
       -0.008326207 -0.21959493 0.17951226 0.09894447
000010 73 15 55 3e d6 6f 9f 3e e7 1c 52 3e c3 cd f5 bd
       0.20808963 0.31140012 0.20518838 -0.120021366
000020 b7 99 6a bd d5 52 67 3e 1f 62 ab 3e da 97 d8 be
       -0.0572755 0.22590192 0.33473298 -0.42303354
000030 a0 36 41 be fa 0c 6a bb 72 1a 8b 3d 78 c9 8b be
       -0.18868494 -0.00357133 0.067921534 -0.27302146
000040 68 6d b3 be a9 1d d1 be f1 5d d5 bd 2b d5 f1 bd
       -0.35044408 -0.4084294 -0.104183085 -0.11808237
000050 4e 09 db bd 54 1a 53 be 83 74 c7 3d fc 58 db bd
       -0.10695134 -0.20615512 0.0973902 -0.10710332
000060 c9 c9 8a ba 21 a7 36 be 58 d6 26 be 63 c7 53 be
       -0.0010588701 -0.17837192 -0.16292703 -0.20681529
000070 2d 37 01 be 48 84 83 3e
       -0.12618704 0.2568686

bias_hh_l0 f4 [30]
000000 d4 97 9b 3d 63 e1 85 be d3 1d 89 be e6 03 c9 3e
       0.07597318 -0.2614852 -0.26780567 0.39260787
000010 79 97 31 be ff cb c4 3e 60 5c 91 3e 64 55 a3 3e
       -0.17342938 0.38436887 0.2839079 0.31901085
000020 3d 77 e6 bd 3f 33 47 bc b4 68 fa bb 83 9e 08 bf
       -0.11253212 -0.012158214 -0.007641876 -0.5336687
000030 18 5b f5 be eb 74 97 be d0 74 3c be 88 87 a4 3c
       -0.47921062 -0.2958139 -0.18403935 0.020084158
000040 af 63 98 be 9e 6d b0 3d ff a2 0a bd f1 96 4e bc
       -0.29763553 0.08614658 -0.03384685 -0.012609229
000050 b9 fe f4 bd bb 9e cf bd 67 fe 55 be 93 5d ab bd
       -0.11962647 -0.10137697 -0.20897828 -0.08367457
000060 f3 95 63 be 76 ed d5 3d 7a 83 81 be 6d 4a 93 be
       -0.2222517 0.10445683 -0.2529562 -0.2876772
000070 bb 45 8e be bf 96 3f be
       -0.27787575 -0.18709849

weight_ih_l0 f4 [30, 10]
000000 89 09 7b 3e 11 e3 aa be b5 04 e8 3d 68 e3 37 be
       0.24515356 -0.33376363 0.11329023 -0.17957842
000010 f7 1b 34 3d 67 14 96 bd 2f fa 56 be 58 20 ef 3c
       0.04397198 -0.0732811 -0.20993875 0.029190227
000020 8d 46 60 be b7 91 4c be bf f9 95 3e 3f 13 cf 3d
       -0.21901913 -0.19977461 0.29292104 0.10111093
000030 39 b5 9e be 71 20 a1 3e 72 4b 08 bd 44 1d 8d be
       -0.30997637 0.31470063 -0.033275075 -0.2756139
000040 f7 87 5f be 89 a6 44 be 69 21 65 be 94 53 25 be
       -0.2182921 -0.19204153 -0.22376026 -0.16145164
000050 fe e3 7b 3e a2 95 7c be d4 53 bc 3e 37 76 3f 3e
       0.24598691 -0.24666455 0.36782706 0.18697439
000060 7a fb 97 3e 23 f9 91 3d 7a 08 28 be 6d 12 27 be
       0.2968405 0.07127597 -0.16409484 -0.16315623
000070 c7 0e fb bd 30 7c 1b be 22 bd f8 3d f7 d8 34 3e
       -0.12258678 -0.15184093 0.12145449 0.1766089
000080 45 9e 1b 3e ff a2 01 bd 24 d9 f0 bd da 24 44 3e
       0.15197094 -0.031649586 -0.11760166 0.19154683
000090 a2 61 0a 3e f0 68 b1 3e ba 2f 88 bc 07 60 63 be
       0.13513806 0.34650373 -0.01662432 -0.222046
0000a0 2a c6 9b 3e 63 ae b7 bc aa b4 e0 bd 35 40 07 bb
       0.30424625 -0.022422021 -0.10971959 -0.0020637636
0000b0 80 63 8a bc bd 36 0b 3e c1 b3 81 bd 80 80 4b 3e
       -0.016893148 0.135951 -0.063331135 0.19873238
0000c0 26 54 d9 3d 88 cf 99 3e 5a 70 88 3e b5 a8 2b 3e
       0.10611753 0.30041146 0.26648217 0.16763575
0000d0 0d a5 3e bc f1 cb 28 3e 8f af a3 be 58 7c 91 3d
       -0.011636031 0.16484047 -0.31969878 0.07103795
0000e0 37 19 af be 27 e1 57 3e 0a 26 df 3d ed 8c 22 3e
       -0.34198925 0.21081983 0.10895927 0.15874071
0000f0 17 0f 93 bd 54 4c 17 3d 89 1b dd be 02 eb 18 bd
       -0.071806125 0.036938027 -0.4318507 -0.037333496
000100 dc 86 9f be 26 1f 27 3e 33 25 63 3e aa bd 4f 3d
       -0.31157577 0.16320476 0.22182159 0.050717987
000110 ac ce 51 bd 18 5f 78 bd c7 c0 8a bf 35 cd e7 be
       -0.05122249 -0.060637563 -1.0840081 -0.45273748
000120 71 84 16 3e 2f 4d 4d bf 4d 2a 03 3f 2b 4d 5f be
       0.1469896 -0.801959 0.5123642 -0.21806781
000130 f9 96 7e be 7a b2 c3 be 9d 9d 7b 3c 17 f5 17 3e
       -0.24862279 -0.38222104 0.015357402 0.14839588
000140 ad e4 97 3e 3c a0 b6 be 85 f0 e2 3e 68 b0 73 be
       0.29666653 -0.35669124 0.44324127 -0.23797762
000150 4e 73 24 3f 64 5b 17 3e 46 03 1d 3e 57 c2 0d 3c
       0.6423844 0.14780957 0.1533328 0.008652291
000160 7c 68 3d be 12 ba 41 bc 6a be 2c 3e 3a 70 fe 3c
       -0.18496889 -0.011824148 0.16869512 0.031059373
000170 33 54 8e 3d 64 68 fb be 88 68 48 3e 57 f5 01 bd
       0.069496535 -0.4910308 0.19571126 -0.031728115
000180 5b 60 81 3e c0 32 cc bd 00 18 6e bc 32 cc 9d be
       0.25268826 -0.09970617 -0.014532089 -0.3081985
000190 da 47 06 3d 99 24 bb 3e 45 56 96 be e9 27 24 be
       0.032783367 0.3655136 -0.29362693 -0.1603085
0001a0 86 9c 55 3e 5e c8 d3 bd ec 2a d6 3d f1 44 dc 3e
       0.2086049 -0.103409514 0.104574054 0.43021348
0001b0 23 01 bd bd 76 57 60 bd d3 a9 fa be 4f d4 a1 3e
       -0.092287324 -0.05477091 -0.4895769 0.3160729
0001c0 ec e2 b1 be bf 44 14 bd 15 83 2f be 56 2a 17 be
       -0.3474344 -0.036198374 -0.17139848 -0.14762244
0001d0 85 e0 4d bd 9e 2f 91 bd ec 2e 01 be c8 ab 18 3e
       -0.050262947 -0.070891604 -0.12615556 0.1490928
0001e0 59 67 af 3e 1d c9 78 be f1 49 3c 3e ba d3 23 3e
       0.34258536 -0.24295469 0.18387581 0.15998736
0001f0 ad f8 99 bc ee 6f ba be 8e 42 b4 3e a6 d4 b0 3e
       -0.018795336 -0.3641352 0.35207027 0.34537238
000200 97 ac 36 bd cd 4f 52 3d ba 30 4e 3e 17 bf d5 3e
       -0.04459819 0.051345635 0.20135775 0.41747352
000210 f9 34 79 3e e7 6d 0d 3f b3 cb 99 3d f4 d2 d7 3d
       0.24336614 0.5524582 0.07509556 0.10538283
000220 ef 14 be 3d 0f 29 11 3f 50 00 0b 3e 16 7a 7b 3d
       0.092813365 0.56703275 0.13574338 0.061395727
000230 46 34 a3 be ee 49 ac 3e ce 0b a0 be b6 90 a9 3e
       -0.3187582 0.33650154 -0.31259006 0.33118218
000240 70 5f 34 bf e2 72 86 bd 70 81 5c 3e 07 5d 0e 3f
       -0.70458126 -0.06564881 0.21533751 0.556107
000250 a5 8a c6 3e 71 7a 80 3d f9 63 65 be fe 39 c0 3e
       0.38777652 0.06273354 -0.22401418 0.37544245
000260 d2 8b 1d bd 61 64 01 3f 2d 29 17 be b8 09 07 bf
       -0.03846342 0.5054379 -0.14761801 -0.52749205
000270 d8 a8 07 3e b2 f5 09 3f e0 33 74 3e e0 fb 3e 3d
       0.13248003 0.53890526 0.23847914 0.046626925
000280 22 79 4c be cc 06 3c be a4 2e 74 3e 4a e7 dd bd
       -0.19968084 -0.18361968 0.23845917 -0.108351305
000290 b3 5a 56 3e 01 af 76 bb a3 b1 50 3e 07 ab 71 3e
       0.20933037 -0.0037640932 0.20380263 0.23600398
0002a0 ef 09 e3 bb 69 b2 73 be 79 8f dd 3b 95 10 cf 3e
       -0.0069286744 -0.23798527 0.006761488 0.4044234
0002b0 eb 87 fb be 91 cb 90 3e ee 06 1c bf ec ab c3 be
       -0.49127135 0.2828031 -0.60948074 -0.38217103
0002c0 ee 4f 2c 3f 80 19 c7 3c 54 2f 0c 3f 8c ad 4f 3e
       0.67309463 0.024304152 0.54759717 0.20281047
0002d0 45 98 c9 3e 5e 2c 9f be 5d 0c 4d be 00 ff 7c bd
       0.39373985 -0.31088537 -0.20024247 -0.061766624
0002e0 c5 8b 15 be 41 b3 a3 be 90 a9 14 3f 3f fa d2 3e
       -0.14604099 -0.31972697 0.5807123 0.41206548
0002f0 7e ee 1c 3e 90 d9 e7 bd 64 de 79 3d 12 3c 89 3e
       0.15325353 -0.11320794 0.061003104 0.26803643
000300 f4 e7 79 3d 77 9d 88 bd e0 79 37 3c 27 bb 78 3d
       0.061012223 -0.06670659 0.011198491 0.060725357
000310 f3 da 23 3d 21 b3 e9 3e 2d bc 8f 3d cb 7b 4b bb
       0.040003728 0.45644477 0.070183136 -0.0031049128
000320 3a 7d 32 3d be a6 d5 be ae 1d 17 3c 7a f0 bf bd
       0.043576457 -0.41728777 0.009223385 -0.09372039
000330 4e 74 f3 3d 25 8f 87 bd 8d e4 40 be 75 70 9d be
       0.11887418 -0.066190995 -0.18837185 -0.3074986
000340 4c 36 19 be a0 c7 03 be e6 5f 84 3e ea f2 81 3e
       -0.14962119 -0.1286912 0.25854415 0.2538064
000350 e9 34 08 3d 02 06 a9 3e 32 0d 3d be 44 f1 8d be
       0.033253584 0.33012396 -0.18462065 -0.27723134
000360 6b e2 7f 3e d3 69 9f 3e cf cb 71 3e a9 44 84 bc
       0.24988715 0.31135425 0.23612903 -0.016146021
000370 9c 10 6a bd ee 05 fd 3e 75 99 ca be 3a 1d 0c bb
       -0.057144746 0.49418586 -0.39570203 -0.0021379725
000380 08 42 e2 be 4c e1 4d be 61 1a d2 bd af 73 13 be
       -0.44191003 -0.20105475 -0.102589376 -0.14399599
000390 34 37 d1 bd 80 7b 08 be 21 8c 98 be b4 d6 3a 3e
       -0.10215607 -0.13328362 -0.2979441 0.18245965
0003a0 53 db b2 bd c6 83 98 3e 7f 87 f6 bc 9a a5 25 3e
       -0.08733239 0.29788035 -0.030093906 0.16176453
0003b0 cd 50 4a 3e 84 3f 00 be be 73 c5 3e 5a 9e 3f be
       0.19757386 -0.1252423 0.38564867 -0.1871275
0003c0 02 c4 10 3e df 15 44 bd f9 30 5d be 15 03 94 3e
       0.14137271 -0.04787242 -0.21600713 0.289086
0003d0 c6 41 af be 7e 34 ae be a8 f7 41 be da 1e ba 3e
       -0.3422987 -0.34024423 -0.1894213 0.36351663
0003e0 17 16 d2 bc c6 2e 8a 3e 23 bf 2f 3e 21 8f 6c be
       -0.025645299 0.2698881 0.17162757 -0.23101474
0003f0 41 50 c7 3e f7 d0 07 be 6b 8b b8 bc 98 19 04 3f
       0.38928416 -0.13263308 -0.022527417 0.5160155

weight_hh_l0 f4 [30, 10]
000000 b2 96 b7 be d0 b4 14 3e e3 99 f2 be a6 a5 19 be
       -0.3585716 0.145221 -0.4738303 -0.15004596
000010 74 b9 c8 bb 16 25 ca 3c 74 25 d7 3e 37 b8 09 bf
       -0.0061256234 0.024675887 0.42020762 -0.53796715
000020 c7 39 e6 bd e0 ae cd 3d d9 50 6f be d0 2a 90 3e
       -0.11241489 0.100431204 -0.23370685 0.28157663
000030 87 49 0f 3e 21 5f 5b bd a5 9b 7e 3e f8 17 86 3e
       0.13992892 -0.05355752 0.24864061 0.26190162
000040 ca 3f 61 be 7e 6d 92 bd 9b 24 61 3e c9 08 65 be
       -0.2199699 -0.0714979 0.2198662 -0.22366633
000050 df 97 a0 bd ee 7d a3 3e 0d 85 8b bd 65 c4 90 3e
       -0.07841467 0.31932014 -0.06812487 0.28274837
000060 0e df 86 3d 89 36 86 3e 85 c9 00 be 30 73 73 be
       0.06585513 0.26213482 -0.12576874 -0.2377441
000070 21 94 49 be bc 7b 8b 3e ef 4f 88 3e b7 5b c6 3d
       -0.19685413 0.2724284 0.26623484 0.09685462
000080 33 9a b4 be 98 0c 6a 3d 9a ad 51 3e ab fa ab 3e
       -0.35273895 0.057140917 0.2047638 0.33589682
000090 c0 02 47 3e 84 da 29 bd 1d 31 3d bc d2 a3 81 3e
       0.19434643 -0.04146816 -0.011547354 0.25320297
0000a0 ab 6b c3 3e bb 90 e3 3d f9 5b 7c 3e 9f 9f 43 be
       0.38168082 0.111115895 0.2464446 -0.1910386
0000b0 32 41 20 be 23 a9 a5 3e 09 a0 15 3d 4f fc 13 3d
       -0.1564987 0.32355604 0.036529575 0.036129292
0000c0 00 97 68 3e f9 51 45 3e 76 ed 81 3e 31 ac 98 be
       0.22713852 0.19269551 0.2537648 -0.29818872
0000d0 bc 9f 43 be f8 f0 68 be 34 36 fc be d8 b1 96 be
       -0.19103903 -0.22748172 -0.49260104 -0.2943256
0000e0 ca f1 f7 bc 9f 71 88 3e 87 23 8b bd 4b f4 91 3e
       -0.030266661 0.26649186 -0.06793886 0.28506693
0000f0 c1 db f1 3e bf 1f f5 be 02 42 f7 be b3 be b7 be
       0.4723797 -0.47875783 -0.48292547 -0.3588768
000100 aa 80 9e be 29 6c 47 3e dd c2 4b bd 20 da 72 3d
       -0.30957538 0.19474854 -0.049746383 0.05929005
000110 5e fb 29 be e2 35 e9 3e c4 e9 8e 3e 6f 8e 87 be
       -0.16599795 0.45548922 0.27912724 -0.26475856
000120 b5 aa e3 be 9a b9 69 be ec ff a0 be 10 48 fa 3d
       -0.44466177 -0.22824708 -0.31445253 0.12220776
000130 3e f6 b0 3e 70 b3 1d 3e de e7 24 bf 2f c0 2b 3f
       0.34562868 0.15400481 -0.644163 0.67090124
000140 5c d2 bd be 5e 46 20 3d 09 28 89 be cc b5 7d 3d
       -0.37074554 0.039129607 -0.26788357 0.061940953
000150 2d 3f 91 3e 43 90 fb 3d 4d f9 08 3e 86 f7 60 3c
       0.28368512 0.12283375 0.1337635 0.013730889
000160 a2 a8 24 3c 82 cf bc 3d dd 76 11 be 7a ac ee bd
       0.010049971 0.092192665 -0.14205499 -0.11653991
000170 21 a9 3c 3e d7 1a 84 be 89 a4 0f be 83 71 21 3e
       0.18423893 -0.25801727 -0.14027609 0.15765958
000180 a9 2b 0f 3e 5c 1b f1 bd 10 ef 57 be 05 29 9e be
       0.13981499 -0.117727965 -0.21087289 -0.3089067
000190 f3 01 f7 bd e8 a5 e5 bd c0 e1 7a 3e 3d 2f d6 bd
       -0.12060919 -0.11213285 0.2450018 -0.10458229
0001a0 e7 c6 b6 3d ff b1 28 be 8f e8 71 be 95 61 7c 3e
       0.08924656 -0.1647415 -0.2362387 0.246466
0001b0 27 f8 98 3e 02 6f 24 bd 33 f0 64 be a8 93 b3 be
       0.29876825 -0.040144928 -0.22357254 -0.3507359
0001c0 cf 41 68 3e 90 4a 18 bd 32 75 9b 3e 89 d7 f5 be
       0.22681354 -0.037180483 0.3036285 -0.48016003
0001d0 a0 4f 84 bd fd 94 17 be 04 95 f4 3d f4 32 1c 3e
       -0.064605 -0.14802928 0.11942485 0.15253812
0001e0 2d 66 61 3e ba de a9 3e 99 7a f3 bc 49 ef 75 be
       0.22011633 0.3317774 -0.029721545 -0.24017061
0001f0 49 7c 90 3e 40 cf a0 be 64 b1 03 3e 6b 1a c6 3c
       0.28219822 -0.3140812 0.12860638 0.024182519
000200 69 57 bc 3e 3e c2 21 3e f8 85 ac 3c 70 eb 13 bd
       0.3678544 0.15796754 0.021059975 -0.036113203
000210 2e 78 d2 be 44 2a 5d be 37 c6 e1 bd 8c 0a 8b 3d
       -0.41107315 -0.21598154 -0.110241346 0.06789121
000220 bf 7a 01 3f e4 e0 a2 3d 0a 5e dc be 05 1d 49 bd
       0.5057792 0.07953051 -0.43040496 -0.04909994
000230 7e 78 34 be f9 4f bd be 5f 63 b2 3e 4a 24 d1 be
       -0.17624089 -0.36975077 0.3484144 -0.40848
000240 d6 3b 18 3d 5a c3 19 bf 64 7c 74 3e b6 36 be bd
       0.03716644 -0.6006371 0.23875576 -0.09287779
000250 d0 f5 f7 3c ca 71 6d 3e 70 31 42 3e b2 66 54 be
       0.03026858 0.23187938 0.18964171 -0.207423
000260 e4 22 62 3e d7 f8 dd be 79 ca 55 be 5b f3 04 bf
       0.22083622 -0.43353912 -0.20878018 -0.5193383
000270 3e bd ac be 24 b2 f0 3d b8 f3 07 be 00 fb d7 bc
       -0.3373813 0.11752728 -0.13276565 -0.026364803
000280 ae 83 db bd f2 59 20 bd ec 82 c1 3e 89 e4 ab 3e
       -0.10718475 -0.03914828 0.37795198 0.33572796
000290 1d 56 e7 3e c2 0f 0f be d4 d7 49 bd 09 7e 0c bf
       0.45182887 -0.13970855 -0.049278095 -0.54879814
0002a0 44 e9 f9 3e bc c4 8e be cc 2f 42 be b6 df a9 be
       0.4881078 -0.2788447 -0.18963546 -0.3317849
0002b0 57 3a 86 3e 82 89 4b be 81 00 af 3e d6 8a a4 be
       0.26216385 -0.19876674 0.34180072 -0.32137173
0002c0 71 fe 67 be d0 77 df 3e 4f 24 75 3d 7c 26 72 be
       -0.22655655 0.43646097 0.05984908 -0.23647493
0002d0 8d 19 b5 be 7c f1 62 bd 21 83 84 3d a8 da c5 3d
       -0.35371056 -0.05540608 0.06470323 0.09660846
0002e0 33 e0 b1 3d 38 46 3f 3e 96 8f 78 be df 8e 43 3e
       0.08685341 0.1867913 -0.24273524 0.1909747
0002f0 01 46 87 3d c8 93 72 bc 79 62 2e 3e 02 41 38 3e
       0.06605149 -0.014805742 0.17029752 0.17993549
000300 87 18 c4 bd a1 30 88 be c5 69 05 be 50 d3 9c bc
       -0.09574991 -0.265996 -0.13028629 -0.01914373
000310 cb 8d 9c be 92 72 d1 3e f8 96 8e 3d e0 18 e7 bd
       -0.3057693 0.40907723 0.06962389 -0.112840414
000320 74 ba 90 bd a7 b8 49 be ff a9 82 3e fe dd a3 3e
       -0.07066813 -0.19699346 0.25520322 0.32005304
000330 7d c7 cb 3d df 20 80 3e 66 54 26 3e 7c 1b 5a be
       0.09950159 0.2502508 0.16243133 -0.21299547
000340 e1 bc db 3c 41 5d 03 3a 80 1a b5 3d 13 09 89 3e
       0.026823463 0.00050111493 0.08842945 0.26764736
000350 30 7f 19 3e 7b c3 8f be f0 de 5c be 9c f4 ef bd
       0.14989924 -0.28078827 -0.21569419 -0.117165774
000360 68 2e 31 3e f3 5e 4c 3e df 4f 8b 3e 2f 1a 28 bd
       0.17302859 0.19958095 0.27209374 -0.041040596
000370 8e 6c bc bd 02 aa d9 bd 9c 65 eb bd bf d5 73 be
       -0.09200393 -0.106281295 -0.1149399 -0.23812006
000380 db 1d 89 be dc dd 18 be 24 64 43 be 66 a1 16 be
       -0.2678059 -0.14928383 -0.1908117 -0.14710006
000390 7c 23 4b be 9e b2 9f 3e 00 51 20 bd 3d 31 bd 3c
       -0.19837755 0.31190962 -0.039139748 0.023094768
0003a0 20 c5 76 be 9f fd ac be c7 fd 90 3e 7a 55 ae 3d
       -0.24098635 -0.33787248 0.28318617 0.08512397
0003b0 44 2a 3f be 0c e9 45 bd a4 d1 12 3e fd 4b 86 bd
       -0.18668467 -0.048317954 0.14337784 -0.06557462
0003c0 99 74 e0 3e c4 19 a8 bd 7d 82 8d be 7a e1 81 be
       0.43838957 -0.082080394 -0.27638617 -0.25367337
0003d0 f0 8f 21 be 61 fb 7d 3d 63 01 5c be 03 1c 3b 3e
       -0.15777564 0.06200731 -0.21484904 0.18272404
0003e0 21 da 05 3e db 5a 90 3d 35 56 5a be fb 9f f4 bd
       0.13071491 0.07048579 -0.21321948 -0.11944576
0003f0 f3 04 fa bd fe 7f 2c 3d 87 65 99 3e 69 30 47 be
       -0.12207975 0.04211425 0.29960272 -0.19452061

bias_ih_l0 f4 [30]
000000 e7 29 71 3e 04 c7 82 3e 25 37 46 bd 6b b1 85 be
       0.2355114 0.25542462 -0.048392434 -0.26111922
000010 5b fd 31 be 4a 3b 84 3e 43 b9 3f bd dd a8 e5 3e
       -0.17381804 0.25826484 -0.04680754 0.44855395
000020 e6 3a 61 3e 61 6b 34 3c ba 2b f2 be 6f b9 c9 be
       0.21995124 0.011011929 -0.47298986 -0.39399287
000030 da fa 89 bc 41 46 2b be b3 13 2a be a6 2a 45 be
       -0.016843248 -0.16726018 -0.16609077 -0.1925455
000040 6c 5d 85 be 56 b9 09 bf a2 b6 be be 89 bb 86 3c
       -0.26047838 -0.53798425 -0.37248713 0.016446846
000050 e7 18 c0 bc c6 b5 b8 3a 3a 24 fa 3d aa e6 63 be
       -0.023449374 0.0014092259 0.12213941 -0.2225596
000060 5b 52 3d be be 74 f9 3d e3 ce 9c be 84 c8 a8 3e
       -0.18488447 0.1218047 -0.30626592 0.3296548
000070 dc 63 0c 3e b9 39 41 3e
       0.13709968 0.18869676

bias_hh_l0 f4 [30]
000000 06 e2 02 be de 98 ab bc bb b9 6b be ed 3c 99 be
       -0.12781534 -0.020946916 -0.2302007 -0.29929295
000010 12 ae 3a be b1 b6 22 3d 9e 89 40 be b3 ba 4e 3d
       -0.18230465 0.03972501 -0.18802497 0.05047102
000020 d2 06 99 3e ca 89 8b 3e 29 e1 85 bd a9 3d d1 3d
       0.29888016 0.27253562 -0.065370865 0.10216839
000030 62 86 11 bd 73 0d 2d be c4 aa 4e be a2 c5 7d be
       -0.035528548 -0.16899662 -0.2018233 -0.24782422
000040 18 18 d8 bd a2 69 4a be 12 95 55 be fd ca f5 bd
       -0.105514705 -0.19766858 -0.20857647 -0.120016076
000050 24 49 a9 3d 9a c3 1a 3e 0e 42 73 be 39 7a 51 3c
       0.082659036 0.15113679 -0.23755667 0.012785488
000060 73 89 31 3e 88 a6 64 be 61 72 5c be 83 ac a1 3e
       0.17337589 -0.22329152 -0.21528007 0.31576928
000070 30 a2 32 be 74 bd a1 3d
       -0.17444682 0.078974634

weight_ih_l0 f4 [30, 10]
000000 88 08 27 be e3 e8 66 bd 7f db 05 bd 4b e8 9c 3e
       -0.16311848 -0.05637444 -0.03268003 0.30645975
000010 53 77 de 3e ce e3 23 be 0b 6f 82 be bb c3 69 be
       0.43450412 -0.1600487 -0.25475344 -0.22828571
000020 f8 44 50 be 4b f1 98 be 67 59 75 be bb bd 9f be
       -0.2033881 -0.29871592 -0.23959886 -0.3119944
000030 e2 6b 2a be 3d c4 9f be 67 2d b7 be 16 5b f1 3e
       -0.16642717 -0.31204405 -0.35776827 0.47139806
000040 51 30 2f 3e 61 32 85 3e cb ad 9f 3e d0 ee 02 3f
       0.17108275 0.26015 0.3118728 0.5114565
000050 07 0a 08 3f 7f d6 0a bf ca 45 90 bb a7 7c 08 bf
       0.531403 -0.54233545 -0.0044028508 -0.53315204
000060 6a 99 3e bf 63 dd 65 3e 06 ea ca be ec c2 61 3f
       -0.7445284 0.22447734 -0.3963167 0.8818805
000070 78 52 32 3d 03 89 28 3f 89 df 89 3e d2 fb 35 be
       0.04353568 0.65834063 0.26928356 -0.17771843
000080 b8 a3 19 bf e5 71 bc be 9a 5a f7 be ff ce 28 3e
       -0.6001544 -0.36805645 -0.4831131 0.16485213
000090 02 56 de 3d 3d 9b 8c 3e eb 00 b0 be 94 f5 1b 3f
       0.108562484 0.27462187 -0.343757 0.609216
0000a0 d8 4c 96 3e 69 2a 17 3d 07 51 17 be 1a 5d 97 3e
       0.29355502 0.03690568 -0.14777003 0.29563218
0000b0 98 79 01 be 15 0b 5c 3d 1b 66 86 be 01 a7 db 3e
       -0.1264404 0.053721506 -0.26249775 0.4290085
0000c0 78 71 aa bc 6e ca 8a be 5a 6e a2 bc d0 dd e6 bd
       -0.02080606 -0.27107567 -0.01982801 -0.11272776
0000d0 f0 0a 0a bd b0 4a 72 be 19 20 0e be ef 80 0f be
       -0.033701837 -0.23661304 -0.13879432 -0.14014028
0000e0 24 98 30 be 9e 8b 79 3e 8d 34 30 3e 8b c0 0c 3e
       -0.17245537 0.24369666 0.17207547 0.13745324
0000f0 f2 0c ec 3e 8f c6 a5 be a4 21 51 3e 2f 28 ae bd
       0.46103626 -0.3237805 0.20422989 -0.08503758
000100 b2 ab e2 bd 28 e3 e1 bd 0c c0 af be 97 a5 c1 3e
       -0.110679045 -0.11029655 -0.34326208 0.37821648
000110 7b 5f 40 3e c8 55 89 bd af e2 a3 bd 4f 88 61 be
       0.18786423 -0.067058146 -0.08002221 -0.22024654
000120 08 a2 1b be 01 fb fc be 8f 35 2b bf cd 30 ba 3d
       -0.15198529 -0.4941025 -0.668786 0.09091339
000130 39 64 07 3e 00 e1 56 3e 57 63 c2 3e cd ad 48 3f
       0.13221826 0.20984268 0.37966415 0.783902
000140 a9 7e a5 3e 56 78 82 be 42 b5 62 be ed 78 7d 3e
       0.32323197 -0.25482434 -0.22139457 0.24753161
000150 dd ba 14 3e b3 04 0d be 45 e8 a4 3e 5b 9d 0b 3e
       0.14524408 -0.13771324 0.32208458 0.13634245
000160 d0 37 68 3e 16 a7 3f 3e c3 e1 5f 3e 5b 88 21 bd
       0.22677541 0.18716082 0.21863465 -0.03943668
000170 25 ba 88 3e b7 24 8c bd a4 01 e4 be 6b ea 83 bd
       0.26704517 -0.0684294 -0.44532502 -0.06441196
000180 a2 86 c1 bd 3a 19 6b bd 7a 67 af 3e 83 36 54 3e
       -0.09449507 -0.057397105 0.34258634 0.2072392
000190 8e ce ad be 47 39 cb 3e 7b 5f 71 3e 69 ec be 3b
       -0.3394665 0.39692137 0.23571579 0.005826522
0001a0 a7 2f ae 3e fa ba e8 bc 3a ed 1d 3e 7a b3 6f 3e
       0.3402073 -0.02840947 0.15422526 0.23408309
0001b0 49 87 d0 3d 1d 90 d5 be 91 1c d6 bd b6 bf b8 bd
       0.101820536 -0.41711512 -0.10454667 -0.09020941
0001c0 c5 48 4d 3d 6a a4 94 be 91 47 ca be 60 ad c4 3e
       0.050118227 -0.29031688 -0.39507726 0.38413525
0001d0 1d 1a a6 3e d3 5f 43 be 7e 1b b4 be 9c 08 10 3e
       0.32441798 -0.19079523 -0.35177225 0.14065784
0001e0 51 af 1b bf 8f 31 22 3f f8 e5 41 3c f0 21 19 3f
       -0.60814387 0.6335687 0.011834614 0.5981741
0001f0 66 ff 45 3f 20 2a e7 be 8e a0 ff 3e ae a7 7d bf
       0.7734283 -0.45149326 0.4992718 -0.99083984
000200 7a 65 35 3f 29 52 70 bf b4 73 b3 be fb ee 88 3e
       0.70857966 -0.93875366 -0.35049212 0.26744828
000210 86 5d 4c 3f 87 dd 41 3e 04 b4 ad 3d 6b 84 87 be
       0.79830205 0.18932162 0.08481601 -0.26468214
000220 46 cd b2 bd 16 b2 b9 be 5e de 33 3f 33 fa a1 be
       -0.08730559 -0.3626868 0.7026118 -0.316362
000230 fe 9a 66 be 30 5a 6f 3e c3 1a db 3e d7 3b fb 3e
       -0.22520062 0.23374248 0.42793855 0.49069092
000240 03 31 84 3e 9e 4b 96 be 35 7e 82 3e b6 dd bf be
       0.25818643 -0.29354566 0.25486913 -0.3747384
000250 a9 7f ba bd 06 6e 93 be 2d c2 30 be 87 d2 56 3e
       -0.091063805 -0.2879488 -0.17261572 0.20978747
000260 ad 86 45 3f a7 5c 21 3e 46 c6 e3 3e 47 60 c5 be
       0.77158624 0.15758 0.44487208 -0.38550016
000270 2c 0a ab 3e f1 18 e5 bd 18 12 41 3f 35 d7 19 bf
       0.33406198 -0.11186398 0.75418234 -0.60094005
000280 e0 48 e7 be 8c bd 0d 3f 77 d1 18 3f 23 28 9f 3d
       -0.45172787 0.5536735 0.5969462 0.07771327
000290 71 3d 0c 3f a9 21 a2 be 6d 62 54 3e 05 6b e5 be
       0.5478125 -0.31666306 0.20740671 -0.44808212
0002a0 0e 22 6f 3f 33 bf 4c be 8e 41 39 bd 2e 8d 27 3f
       0.9341134 -0.19994812 -0.045228533 0.654498
0002b0 c4 85 fd be be ba ae ba 53 3a 86 3d ea d0 51 3e
       -0.49516118 -0.00133308 0.06554093 0.2048985
0002c0 f1 70 97 3e 68 6b c8 bc 0e 54 a3 3e 3e a2 67 bd
       0.29578355 -0.024465278 0.31900066 -0.05655121
0002d0 6d aa 91 3e 09 c4 01 3e af 56 c6 be 2f bc 08 bf
       0.28450337 0.12672438 -0.3873801 -0.53412145
0002e0 29 7b 59 be 25 cd 0b bd cf 1c 61 bd c8 31 d2 bd
       -0.21238388 -0.034131188 -0.054959115 -0.10263401
0002f0 9b d5 01 3e 16 27 06 3e 8d 33 3b be a7 f7 7b 3e
       0.1267914 0.13100848 -0.18281384 0.2460619
000300 9c 74 4c 3e c8 55 5f 3e 90 34 2c 3f 8f 38 9e be
       0.19966358 0.21810067 0.67267704 -0.30902526
000310 ff 20 ce 3c 66 51 bd 3d 19 95 c4 3e 46 0e 0c bf
       0.025162218 0.09244041 0.38395002 -0.5470928
000320 a8 a5 0a 3e 9c aa 44 be 25 c5 e6 bd 76 6b 21 be
       0.13539755 -0.19205707 -0.11268071 -0.1576365
000330 a5 2e 16 be 83 a2 9e 3e f7 d5 23 bd 72 46 ac 3e
       -0.14666231 0.30983362 -0.039998975 0.33647496
000340 89 c8 f7 3d a5 db f4 3e 0b 37 ac 3e 39 25 16 bd
       0.12098796 0.47823825 0.33635744 -0.036656592
000350 ee da 26 bd b4 22 53 3e d7 5b 03 3e b1 9e a2 be
       -0.04073613 0.20618707 0.12828003 -0.31761697
000360 a7 fa 73 3e 1e 1b 7b 3e 9c ec 39 bd cc 52 d3 bd
       0.23826085 0.24522063 -0.045391664 -0.103185266
000370 fa fe 76 be e6 ad 4e 3e 6b 88 ea 3d 6e ef 5a bd
       -0.24120703 0.20183524 0.11451801 -0.053450994
000380 9f 27 c8 3e 00 8d d0 be 2f 42 b4 be 38 77 d5 3d
       0.39092728 -0.40732574 -0.35206744 0.1042313
000390 1b 46 07 3f 11 9d 79 be 22 16 26 be 94 4f d8 3e
       0.5284135 -0.24376322 -0.1621938 0.42248213
0003a0 e7 d6 a1 bd 9a 16 3b be ab 82 cd 3e 87 1c 3d bd
       -0.079023175 -0.1827034 0.40138754 -0.046169784
0003b0 ba 11 bd 3d 6a 40 80 be a9 1d a4 3e d8 41 d5 be
       0.09231897 -0.25049144 0.3205388 -0.41651797
0003c0 7f 0c 5f be 5a e1 ab bd 8d 77 9c bd 5b 6d f0 3d
       -0.2178211 -0.08392592 -0.0763999 0.11739608
0003d0 46 06 5d 3c 66 4f 38 be 88 00 24 3e 94 e5 b6 be
       0.013490265 -0.17999038 0.16015828 -0.3572203
0003e0 40 f4 c7 3e a4 02 1e be 91 cd da be 16 c2 a7 3e
       0.39053535 -0.15430695 -0.4273496 0.32765263
0003f0 98 fe 82 3e a6 aa ac 3e 76 eb e3 3e 27 5c 5e be
       0.25584865 0.33723944 0.4451558 -0.21714841

weight_hh_l0 f4 [30, 10]
000000 47 f3 90 be 09 b1 00 3e bb 8d bc bd 1a c9 94 3e
       -0.28310606 0.12567534 -0.092067204 0.29059678
000010 66 d1 12 be d6 b3 00 be 2b 99 0a be ca 26 9a bd
       -0.14337692 -0.12568602 -0.13534991 -0.0752693
000020 06 c3 7c be 4e 79 30 3d 21 c3 c4 be 7a ec 02 be
       -0.2468377 0.043084435 -0.38430122 -0.12785521
000030 26 bc b4 bd 89 cb 94 be a2 5b b2 3e 5f 1a 06 3e
       -0.08824949 -0.29061535 0.34835535 0.13095997
000040 3a d2 61 3e 8e ac aa be 20 e7 f7 bd ee de b3 3d
       0.22052851 -0.33334774 -0.121046305 0.08782755
000050 0f bc 95 3e 38 28 57 be b3 2c 89 3d 16 8b f8 bd
       0.2924504 -0.21011436 0.06697979 -0.121359035
000060 44 30 52 3e 2f 14 e3 be 0d 44 fd bd 3a 9c bf 3e
       0.20526224 -0.44351336 -0.12366495 0.3742388
000070 38 68 8f 3e f2 60 73 be 5b 7e a6 bc bf 78 31 be
       0.280092 -0.2376745 -0.020323923 -0.17331217
000080 4a 06 9e be e0 6a 11 3e 46 96 9b 3e a7 c4 26 3e
       -0.30864173 0.14200926 0.30388087 0.16285954
000090 8c ee 4c 3e 59 52 ae 3d a4 88 be 3d 0e 01 0c bd
       0.20012873 0.085118 0.09303406 -0.034180693
0000a0 4c d0 7e 3e ff 7a 0c 3e be 5a 3b be 25 7e 99 be
       0.24884146 0.13718794 -0.18296334 -0.29979053
0000b0 99 c0 ce be 30 36 6d bd 4b c4 d5 3e f5 f0 8d 3e
       -0.40381315 -0.057913005 0.41751322 0.27722898
0000c0 d4 4b 53 3e 84 b5 7a 3e 7d b0 14 be 55 f2 16 3d
       0.20634395 0.24483305 -0.1452045 0.0368522
0000d0 27 ed a7 3c 51 9b f3 bd a3 1c 6c be 17 70 4e 3e
       0.020498825 -0.11894859 -0.23057799 0.20159946
0000e0 84 c0 78 3e 06 da 97 3e 5f 87 87 3e 0a c1 7c be
       0.24292189 0.29658526 0.26470467 -0.24683014
0000f0 f9 db 4a be 6f 2a d1 bd 43 1a 98 3e 17 f1 64 be
       -0.19810475 -0.10213172 0.29707536 -0.22357593
000100 f6 cb a7 be 50 ce 0a 3e 73 7a c5 3e 5a ce 92 3e
       -0.32772797 0.13555264 0.38569984 0.2867306
000110 9b 1b 96 be b4 62 1b be fb fc 0c 3f f0 e0 da be
       -0.29317936 -0.15174371 0.5507352 -0.4274974
000120 ac 59 53 bd 10 c0 90 bd 19 cc 8e be 47 a6 13 be
       -0.05159919 -0.07067883 -0.2789009 -0.14418899
000130 d7 4d b4 3c 89 44 12 3e 02 92 6a bd 7e 6e c8 3e
       0.022009773 0.14283957 -0.05726815 0.391468
000140 24 81 74 3d 85 b6 96 be 66 f3 cc 3e 40 b4 85 be
       0.05969347 -0.29436126 0.40029448 -0.26114082
000150 2c af a7 3e fd 07 53 be ae 55 03 3e 4f 28 03 3d
       0.32750833 -0.20608516 0.12825653 0.032020863
000160 50 95 04 3e f7 90 89 be fc c8 67 3d 26 68 d3 be
       0.12947583 -0.26868412 0.056588158 -0.41290396
000170 61 80 86 3e 57 8d 0d be f7 c4 71 be 15 73 3e 3d
       0.2626982 -0.13823448 -0.23610292 0.04649647
000180 14 ee 84 3e 8d be 97 37 30 99 31 be 5b 4f 64 3e
       0.2596289 1.8089335e-05 -0.17343593 0.22295897
000190 3a 1a cf bd dc af 44 bd a1 ce 3c 3d 24 ca 34 be
       -0.10112424 -0.048019275 0.046095494 -0.17655236
0001a0 c9 81 85 be 3e db de be bd b5 a3 3e 66 6b 9d 3e
       -0.2607558 -0.43526644 0.31974593 0.30746
0001b0 d8 69 34 3e 0c 2a fa 3e e7 be f4 be f5 c3 62 3e
       0.17618501 0.48860204 -0.47801897 0.22145064
0001c0 74 57 43 3f 8d 8e 43 3f a2 a9 ba bc fe 9e d1 3d
       0.7630532 0.7638939 -0.022785965 0.102354035
0001d0 4e 0e 5c bf e3 c6 4d be 42 28 3e be 9d 1c 3d 3c
       -0.8595933 -0.200954 -0.18570045 0.0115424665
0001e0 d2 b0 0a 3d 04 1d 05 3f 93 e4 93 bb 1d 83 3e 3f
       0.033860035 0.519974 -0.004513332 0.74418813
0001f0 a5 e7 41 3f 64 58 09 3f 07 5e 50 be 63 c6 0b be
       0.75744087 0.536505 -0.20348369 -0.13649897
000200 ee 00 8c be 3f c0 1b bf d7 cd 90 3c 72 4b cb 3c
       -0.2734446 -0.6084022 0.017676277 0.024816249
000210 d1 be 32 3e ef 9c 7f be e9 4e 82 3e 4d 10 6f b9
       0.17455603 -0.24962209 0.2545083 -0.00022798889
000220 15 01 85 3e 0c bd 64 3e 51 3a 0b 3d df 0b 70 bd
       0.25977388 0.2233774 0.03399116 -0.05860507
000230 d3 e7 e5 be 07 dc 95 be 67 33 84 3e 0c 5f 32 be
       -0.4490343 -0.2926943 0.25820467 -0.1741907
000240 27 1c 91 be 31 a3 bb 3e 41 d0 94 bd 76 a2 22 3e
       -0.2834179 0.36647943 -0.07266284 0.15882286
000250 53 2e 88 3e 78 d9 07 3c 5b 8a d6 bc 92 0a e6 bc
       0.26597843 0.008291595 -0.02618902 -0.028081212
000260 7c 94 1a 3f 78 b9 ae be 49 97 5b be 68 eb c4 be
       0.6038282 -0.34125876 -0.2144443 -0.3846085
000270 c7 b2 07 3e bd d1 15 3f 50 b9 54 be 40 f2 84 3e
       0.13251792 0.5852316 -0.20773816 0.25966072
000280 46 45 3a 3e c0 56 10 be e7 c4 d3 3e 27 79 a9 be
       0.18190488 -0.14095592 0.41361162 -0.33100244
000290 ae 3c ea be a2 4c 0e be d8 78 df bd a9 4f ea 3e
       -0.4574942 -0.1389642 -0.10911721 0.457639
0002a0 fc 88 24 be 65 d1 dd 3d 44 47 2a bf dc 8a 27 3f
       -0.1606788 0.108309545 -0.6651499 0.6544626
0002b0 d1 c1 fa bd 9a 2a df 3e 67 29 4d 3f 5b 16 41 3f
       -0.12243999 0.4358719 0.801413 0.75424737
0002c0 97 32 90 be 00 24 e3 be 61 e1 e6 3e 6b f9 f0 be
       -0.28163597 -0.44363403 0.45093825 -0.4706529
0002d0 1a 0e bb 3e b0 a3 cc 3d e3 69 80 3e 91 de b5 3e
       0.36534196 0.099921584 0.25080785 0.35521367
0002e0 af 58 2d 3e 39 df 29 be d4 3c e8 ba 1c 30 e0 3e
       0.16928361 -0.16589059 -0.0017718324 0.43786705
0002f0 7f ae 6d 3e 14 1f bf bd da 93 b6 3d 74 d5 03 3e
       0.23211096 -0.093320996 0.08914919 0.12874395
000300 ba 92 ae 3d a0 f6 2c 3e bf 55 6a 3e 0b a5 42 be
       0.085240796 0.16890955 0.22884272 -0.19008271
000310 42 f8 8d bd 6f ac 22 be ae 44 0f be 22 e8 c4 be
       -0.06932117 -0.1588609 -0.13991043 -0.38458353
000320 5e ef a1 3e d8 61 73 be c3 0c 93 bb 80 16 f5 3d
       0.31627935 -0.23767793 -0.0044876053 0.11967182
000330 3c ab 60 3e aa 54 57 be 77 ba 80 3e d6 52 20 bd
       0.2194032 -0.2102839 0.2514226 -0.0391415
000340 48 e4 a8 be a6 90 77 bd 0c 06 0d be ff 09 54 3c
       -0.32986665 -0.060440682 -0.13771838 0.012941836
000350 1f 6c c3 3d f6 4b 9c 3e 39 01 b7 bd 89 9e e2 bc
       0.09542107 0.30526704 -0.0893578 -0.027663486
000360 3c 6d ae be 23 92 01 be 17 b3 ae be 5e b3 bc be
       -0.34067714 -0.12653403 -0.3412101 -0.36855596
000370 ef 75 02 3f 37 e1 9c 3d 89 79 03 3e f0 de 31 bf
       0.509612 0.07660144 0.1283933 -0.694808
000380 99 71 93 be de 26 36 bf 91 5a 0a 3f 45 10 e0 3e
       -0.28797606 -0.71153057 0.54044443 0.43762413
000390 9b 6a 98 3c 94 1e 99 3d 54 a2 e0 3d 7c 9a a6 be
       0.018605521 0.074765354 0.10968462 -0.32539737
0003a0 a6 23 f3 bd 00 af a6 3e 50 de bf bd 20 ef 17 bd
       -0.11872034 0.3255539 -0.093685746 -0.03709328
0003b0 cf b1 61 3e 7f 6b d5 3d 05 df 0a bd fd 45 1e 3e
       0.22040485 0.10420894 -0.033904094 0.15456386
0003c0 40 a0 ca be 05 23 0c bc 81 2b 6c be 81 bc 2d 3c
       -0.39575386 -0.008553271 -0.2306347 0.010604025
0003d0 d7 45 54 be 0c 76 7c 3e cb 95 4b 3e 28 c1 18 be
       -0.20729767 0.24654406 0.1988136 -0.14917433
0003e0 e6 9c 93 3e 08 ef 83 bd 3b 93 12 be 66 c5 8c be
       0.28830642 -0.06442076 -0.14313976 -0.27494353
0003f0 90 14 ca be d4 2d 05 3e 35 37 52 3d 8e c6 5d be
       -0.39468813 0.13005763 0.05132218 -0.21657774

bias_ih_l0 f4 [30]
000000 15 64 4c 3e 95 8b 84 3e 31 f9 68 3f db aa 66 bd
       0.19960053 0.25887743 0.91005236 -0.056315284
000010 33 81 5c be 4e 40 5b be 0d b3 b8 3e 69 e5 b0 bd
       -0.2153366 -0.21411249 0.36074105 -0.086375065
000020 94 63 04 3d a2 a2 d6 3d 9f 14 42 be ea 3c 73 bc
       0.032321528 0.104802385 -0.18953179 -0.014846066
000030 98 85 20 bf 84 f8 56 be a4 34 09 3e 85 da 10 be
       -0.6270385 -0.20993239 0.13398987 -0.14145859
000040 98 2a 3a bf 77 4f dc bd 4a 8a bb bd ba 44 ef be
       -0.7272124 -0.10757344 -0.09157236 -0.46732122
000050 df 6a 03 3e 71 af a8 be ec dd 67 3d a1 d0 41 be
       0.12833737 -0.3294635 0.056608126 -0.18927242
000060 15 fc 80 be 55 64 35 be 5e 03 9e 3e 83 7b 9f bd
       -0.25192323 -0.17714055 0.30861944 -0.0778723
000070 63 d2 32 3e 2f b9 35 3e
       0.17463069 0.17746423

bias_hh_l0 f4 [30]
000000 d5 4d dc 3d 36 21 67 3e d5 01 c7 3e 95 74 b0 3e
       0.10757033 0.22571263 0.38868585 0.34463945
000010 cd 3f 0f 3e d0 dc a9 3e d9 d3 09 3d 93 7b 83 bd
       0.13989182 0.3317628 0.0336493 -0.06420054
000020 85 38 89 be 23 c6 b2 3e d8 09 1b 3e 6e ec d8 3d
       -0.26800933 0.3491679 0.15140474 0.105919704
000030 68 34 4f bf 22 ef 3b 3c 89 56 15 be 34 eb 31 be
       -0.8093934 0.011470588 -0.14583792 -0.17374879
000040 7b 09 42 bf 2a e6 08 bf 11 a1 bd be 59 5b 90 bc
       -0.75795716 -0.534762 -0.37036946 -0.017621683
000050 22 99 8c be 60 02 93 bd 96 f5 ab be 9a d9 2e be
       -0.2746058 -0.07178187 -0.33585805 -0.17075196
000060 8f c2 6f 3d e3 db 4b be 6b a0 83 3e 64 60 a3 3e
       0.058535155 -0.19908099 0.25708327 0.31909478
000070 13 e2 1d be 4d 59 9b 3e
       -0.15418272 0.3034157
