GANS/gan_model.pth (torch, 948054 bytes, 71 tensors)

embedding.fc.weight f4 [64, 17]
0.073803335 0.1995916 -0.03918319 -0.093005314 0.20426482 -0.21450928 -0.0033682897 -0.1152767
-0.14000799 -0.05504692 0.13946764 0.19705951 -0.039196953 0.06909844 0.16331041 0.26811412
-0.4293754 -0.21786802 0.124343 -0.027023792 -0.061924055 0.078973524 0.09050263 0.027655082
-0.053461105 -0.11709296 -0.10066699 -0.3263882 0.33744752 0.35786086 -0.077895716 0.1870062
0.0190494 -0.5111243 -0.05820278 -0.14989886 -0.048776206 0.29285187 -0.2932289 0.32301608
0.39341775 -0.034555666 0.21226618 0.12172053 -0.24511625 -0.31383747 -0.2891593 0.03489653
-0.052950997 -0.052587662 0.20229715 0.0040246407 -0.08645646 0.08999366 -0.03841403 0.15732007
-0.31032297 0.105129704 0.05463054 -0.1832506 0.04071738 -0.02905064 -0.23811758 -0.013416206
0.05738537 0.25695986 0.028446538 -0.24411182 -0.03456576 -0.05709854 -0.13182665 -0.07025972
0.077356316 -0.049881004 -0.058596577 -0.0277311 -0.16040346 -0.4092293 -0.4820505 0.26907557
0.48488078 -0.13848452 0.38099295 0.17534569 0.1744746 -0.13415559 0.36610335 0.08063624
-0.2932471 0.029874347 -0.13952696 -0.14494655 -0.13047661 -0.21302854 0.16353337 0.22912227
0.091627486 -0.2982091 0.168711 0.10633612 0.11980748 0.06352267 -0.09580389 -0.2243897
0.24651182 -0.0803686 -0.11896698 0.27387854 0.041751217 0.04830228 0.021864288 0.30570683
0.14542611 0.28889585 -0.39502633 -0.03352258 -0.0012005019 -0.31843057 0.07408461 0.017950024
0.021824295 -0.16124973 -0.11913268 0.028459564 -0.083303735 0.02974485 0.17000124 0.102792665
-0.1545001 -0.09903263 -0.23836392 0.060689736 -0.19342913 0.22326352 0.520018 -0.16571285
0.09942718 -0.12254915 0.18875414 0.1697321 -0.06299724 -0.15947889 -0.22183964 -0.2894303
-0.0055929483 -0.05733355 0.25564513 -0.070462115 0.32616872 -0.029147398 0.032458052 -0.22579736
-0.13877961 -0.011068569 -0.46074378 0.08438773 0.43399817 -0.023586076 0.24002852 0.096825734
-0.0489852 0.040270023 -0.12744252 0.13938622 -0.3675122 -0.3744423 -0.20277922 0.022940286
-0.0554022 0.16021168 -0.020330595 -0.009019123 -0.1261399 -0.1351574 0.11697452 -0.1351332
0.20285757 0.16265191 -0.23372275 -0.11343628 0.072159976 0.0406366 -0.3789359 0.28467855
-0.13347112 -0.11903207 0.1958455 0.027894469 -0.15005666 -0.112310745 0.16628183 -0.24696639
-0.065490276 0.15421955 0.19274683 -0.0833507 -0.046357803 -0.15719897 -0.047073003 0.31092677
0.21696207 -0.050809756 -0.107273206 0.15704344 -0.20862782 -0.08430202 0.09560695 0.15207455
-0.037417788 0.18506068 0.19290563 -0.037265062 -0.105916314 0.0021790513 -0.112504 -0.25353324
0.3766366 -0.1065961 -0.29839766 -0.33021107 0.18522985 -0.36069733 0.23438485 0.28934237
-0.17566386 0.06166198 -0.17636149 -0.12824553 0.04761041 -0.069787756 0.1006344 0.38082504
-0.14635213 -0.2530704 -0.17576833 0.11096028 0.1895336 -0.26697066 0.9543588 0.20690452
0.05553784 -0.19547714 1.5203644 0.124865904 -0.52063054 -0.6829568 -0.35053965 -0.09806425
-0.6900448 -0.036579188 -0.4172218 0.35558197 -0.054295354 -0.25294584 0.12282794 0.3280376
00000000: 3426 973d be61 4c3e 8d7e 20bd 9279 bebd
00000010: cc2a 513e 52a8 5bbe 86be 5cbb 3116 ecbd
00000020: 415e 0fbe e178 61bd 9bd0 0e3e f8c9 493e
00000030: fc8c 20bd 7c83 8d3d d83a 273e 4146 893e
00000040: 18d7 dbbe cb18 5fbe 8ba7 fe3d 0061 ddbc
00000050: 14a4 7dbd dfbc a13d 7159 b93d e98c e23c
00000060: 08fa 5abd 6fce efbd 7f2a cebd 5b1c a7be
00000070: ecc5 ac3e 8a39 b73e ca87 9fbd 8e7e 3f3e
00000080: 7d0d 9c3c 0bd9 02bf 0a66 6ebd 167f 19be
00000090: 8fc9 47bd aef0 953e 1922 96be 5d62 a53e
000000a0: 0d6e c93e 3e8a 0dbd 4e5c 593e 9d48 f93d
000000b0: c1ff 7abe 4eaf a0be b00c 94be aaef 0e3d
000000c0: 25e3 58bd 2966 57bd fc26 4f3e 22e1 833b
000000d0: 1610 b1bd 994e b83d 0858 1dbd 8318 213e
000000e0: a7e2 9ebe 3e4e d73d 46c4 5f3d 0ca6 3bbe
000000f0: 44c7 263d 9cfb edbc 18d5 73be a6cf 5bbc
00000100: ec0c 6b3d 3e90 833e b708 e93c 73f8 79be
00000110: d494 0dbd 29e0 69bd 91fd 06be 54e4 8fbd
00000120: fd6c 9e3d 0650 4cbd f702 70bd 552c e3bc
00000130: ce40 24be 8186 d1be 53cf f6be 46c4 893e
00000140: 4b42 f83e e3ce 0dbe 8211 c33e d28d 333e
00000150: 78a9 323e 1560 09be e671 bb3e 9d24 a53d
00000160: 7c24 96be 0cbb f43c 28e0 0ebe de6c 14be
00000170: a99b 05be 2724 5abe 4b75 273e 079f 6a3e
00000180: 31a7 bb3d ddae 98be 94c2 2c3e c0c6 d93d
00000190: a05d f53d 2c18 823d d434 c4bd 6ac6 65be
000001a0: 986d 7c3e 4b98 a4bd f6a4 f3bd cf39 8c3e
000001b0: 5303 2b3d 9dd8 453d bc1c b33c 9b85 9c3e
000001c0: 95ea 143e 28ea 933e e440 cabe f94e 09bd
000001d0: 295a 9dba 5509 a3be acb9 973d ee0b 933c
000001e0: ddc8 b23c a61e 25be d6fb f3bd 0824 e93c
000001f0: 269b aabd 79ab f33c ce14 2e3e f684 d23d
00000200: 4635 1ebe 9fd1 cabd ac15 74be cd95 783d
00000210: 4912 46be 319f 643e e61f 053f a1b0 29be
00000220: 7aa0 cb3d 0cfb fabd c448 413e 40ce 2d3e
00000230: b204 81bd 6f4e 23be ee29 63be 3530 94be
00000240: 0d45 b7bb 96d6 6abd ebe3 823e 714e 90bd
00000250: 96ff a63e 86c6 eebc bcf2 043d 6c37 67be
00000260: 3e1c 0ebe f158 35bc 9ce6 ebbe 79d3 ac3d
00000270: 0235 de3e 9637 c1bc 09ca 753e 924c c63d
00000280: b4a4 48bd 2ef2 243d 4b80 02be 43bb 0e3e
00000290: 8f2a bcbe e7b6 bfbe 5ba5 4fbe 44ed bb3c
000002a0: 6bed 62bd 880e 243e 598c a6bc f2c4 13bc
000002b0: d12a 01be b466 0abe 5690 ef3d 5c60 0abe
000002c0: e5b9 4f3e 398e 263e 0455 6fbe 4851 e8bd
000002d0: 9cc8 933d 9072 263d e303 c2be 63c1 913e
000002e0: a7ac 08be 16c7 f3bd b98b 483e f182 e43c
000002f0: 74a8 19be 2d03 e6bd c945 2a3e c2e4 7cbe
00000300: c41f 86bd bbeb 1d3e 6d5f 453e c6b3 aabd
00000310: aee1 3dbd c4f8 20be 9fcf 40bd cb31 9f3e
00000320: 4e2b 5e3e e41d 50bd 0eb2 dbbd ffcf 203e
00000330: 88a2 55be 8aa6 acbd 94cd c33d 6eb9 1b3e
00000340: 6543 19bd 8c80 3d3e 0e89 453e 40a3 18bd
00000350: a7ea d8bd 6ace 0e3b 7f68 e6bd 1ccf 81be
00000360: 83d6 c03e 0e4f dabd 94c7 98be 6d11 a9be
00000370: e5ac 3d3e 52ad b8be 9502 703e af24 943e
00000380: 3ae1 33be 4691 7c3d 1b98 34be cc52 03be
00000390: 2203 433d e2ec 8ebd 6919 ce3d 80fb c23e
000003a0: 55dd 15be 7292 81be 9dfc 33be 253f e33d
000003b0: 1915 423e 61b0 88be dc50 743f c7de 533e
000003c0: a57b 633d 292b 48be 4d9b c23f b2b9 ff3d
000003d0: 0b48 05bf 42d6 2ebf ef79 b3be e9d5 c8bd
000003e0: c7a6 30bf 0fd4 15bd 199e d5be d70e b63e
000003f0: ce64 5ebd 1e82 81be 378d fb3d 8bf4 a73e

embedding.fc.bias f4 [64]
0.28608283 0.057489857 -0.21240962 -0.020842405 -0.07020356 0.11693595 0.12888631 0.16061021
-0.014471174 0.28593507 -0.09947923 0.05340629 0.13692622 0.13660851 -0.11317631 0.18477973
0.20741647 0.1807676 0.20343028 0.1630853 -0.005960977 0.1172689 0.14779414 0.50265896
-0.24701357 -0.119839504 -0.18748051 -0.033046067 -0.16301605 -0.10799356 -0.2364638 0.23797825
-0.084917456 0.055065624 0.08985203 -0.02889246 0.05278964 -0.052762855 -0.4075067 -0.10018288
0.2681135 0.17151763 0.30057752 0.25817007 -0.04148266 -0.15918988 -0.18205559 -0.1928576
0.24959469 -0.16598879 -0.19581501 0.034849964 0.01844933 -0.10732489 0.28432375 0.18635711
-0.124220885 -0.2145471 0.2334323 -0.09280287 0.24036959 -0.1199486 -0.08613092 0.10426263
00000000: 7379 923e 7c7a 6b3d e881 59be b1bd aabc
00000010: e2c6 8fbd 1e7c ef3d c6fa 033e 0177 243e
00000020: 8118 6dbc 1566 923e c4bb cbbd 8ec0 5a3d
00000030: 6336 0c3e 1ae3 0b3e fbc8 e7bd e636 3d3e
00000040: fc64 543e 241b 393e 0750 503e d5ff 263e
00000050: 4d54 c3bb ad2a f03d 5957 173e 42ae 003f
00000060: 20f1 7cbe 6a6e f5bd e4fa 3fbe 505b 07bd
00000070: aeed 26be ba2b ddbd 9123 72be 92b0 733e
00000080: 34e9 adbd 7e8c 613d 5704 b83d e1af ecbc
00000090: f339 583d dd1d 58bd b8a4 d0be af2c cdbd
000000a0: 2c46 893e 51a2 2f3e 4ce5 993e de2e 843e
000000b0: b9e9 29bd ac02 23be c86c 3abe 767c 45be
000000c0: c095 7f3e f7f8 29be bb83 48be d6be 0e3d
000000d0: 0d23 973c 27cd dbbd e292 913e 66d4 3e3e
000000e0: 8567 febd 3cb2 5bbe e008 6f3e 6e0f bebd
000000f0: 7223 763e 9da7 f5bd 6865 b0bd a587 d53d

generator.transformer_layer.self_attn.in_proj_weight f4 [192, 64]
-0.10945545 -0.03381937 0.13223071 -0.08378952 -0.07947303 0.081466466 -0.15095419 0.0931517
-0.101001665 0.12126239 0.014569983 0.092417106 -0.0014722347 -0.13054706 -0.08143456 -0.15013573
0.13323416 -0.0046673715 0.13708015 0.10056497 0.009179413 -0.089528434 0.0850613 -0.13635665
0.06884895 -0.07301047 0.108521864 -0.032923423 0.12244721 -0.14319389 0.03666739 -0.10872404
-0.03903296 -0.10058589 -0.13174185 0.0041914433 0.068391174 0.14081897 0.012818575 0.0420762
-0.083567984 0.024052352 -0.14836648 -0.12140046 0.013550431 0.11119823 0.05482158 -0.021120548
0.13630109 -0.069507815 -0.14303723 -0.042900503 -0.07321602 -0.05046255 -0.14280134 -0.018351704
-0.07780191 0.060858667 0.13224383 -0.006690204 0.076923445 -0.09008092 -0.026991367 -0.08582297
0.02027446 -0.11185961 -0.0924982 -0.12488622 0.00665012 -0.047334388 0.059265256 0.13080882
-0.14926907 -0.08118023 -0.09153547 0.061446577 0.115572646 -0.0853967 -0.14784838 0.021401092
-0.058940753 0.059664994 -0.02044858 -0.085433 -0.14359081 -0.11602268 -0.00701268 -0.035083488
-0.021000832 -0.15116861 -0.00022096932 -0.08027679 0.08258489 -0.026355073 0.01611717 -0.14642806
-0.027755499 0.100950256 0.11328553 0.124318376 -0.12765014 0.09324449 -0.07695806 0.036995932
0.07516606 -0.15256588 -0.0045755655 -0.073443234 -0.044081196 -0.07484433 0.0032245815 -0.13263896
0.054433793 0.05558969 -0.12019995 -0.062160335 -0.071816474 -0.0073277354 0.12123631 -0.06936842
0.1366347 0.13895996 0.08793673 -0.033060916 0.11868675 -0.0098299235 -0.130309 0.023400038
-0.030157141 0.15039514 -0.06780201 0.14387815 -0.015009046 0.13823144 0.13732062 0.06905872
0.11578964 0.025862083 -0.015308052 -0.005053073 0.012284249 0.036438793 0.03319858 -0.0332338
0.092463106 -0.066473894 0.14233114 0.14703535 -0.1340734 -0.13837221 -0.042292543 0.08285931
-0.0471647 0.01684244 0.15014862 0.14118119 0.01081574 -0.09353063 0.02563399 -0.04478834
0.011624262 0.07331963 0.021469638 -0.09079505 -0.031861186 -0.11758323 0.021575019 0.044209316
0.1371329 -0.041818254 -0.058228895 -0.058234334 0.014719322 -0.053270154 -0.14241615 0.10337214
-0.038326696 -0.12573983 -0.07820162 0.08713752 0.022823215 0.14905904 0.12762387 -0.092536986
-0.046883903 -0.018593296 0.14070903 0.1006044 -0.063008085 0.08173072 0.14367111 -0.073681146
0.14842655 -0.048224904 0.14247133 -0.032166712 -0.062178835 -0.0009166151 0.049516484 -0.037625
-0.1266381 0.07161285 0.1481589 -0.011199206 -0.089418806 0.0956271 -0.12101192 0.03194417
0.020934567 -0.14236677 0.037111044 0.15040682 -0.13291578 0.045145854 -0.045329504 -0.0879173
-0.11229544 0.09616093 -0.04834669 0.11650853 0.086477235 -0.0026310235 0.0759767 -0.13602793
-0.09296909 0.12228294 -0.038176335 0.04775694 -0.11605482 -0.010550454 -0.11987045 -0.061334625
-0.149533 0.13812758 0.13382868 -0.0018726289 -0.06944071 0.1268697 -0.049679823 0.0026991814
-0.09580797 0.004841253 -0.10630004 -0.1400011 0.09468222 0.007573962 -0.03646239 0.069519326
-0.15108259 0.035306066 0.06472252 -0.06887585 -0.019248277 -0.13499576 0.0871122 0.056434408
00000000: 2e2a e0bd 2e86 0abd 7d67 073e d799 abbd
00000010: c2c2 a2bd e4d7 a63d bc93 1abe 52c6 be3d
00000020: f6d9 cebd 6a58 f83d f0b6 6e3c 2e45 bd3d
00000030: 00f8 c0ba 21ae 05be 2ac7 a6bd 2ebd 19be
00000040: 896e 083e c0f0 98bb bd5e 0c3e 02f5 cd3d
00000050: 4065 163c af5a b7bd 9e34 ae3d 14a1 0bbe
00000060: ae00 8d3d 8386 95bd b640 de3d b6da 06bd
00000070: 9ac5 fa3d 6ba1 12be 8c30 163d b6aa debd
00000080: 06e1 1fbd faff cdbd 56e7 06be 6058 893b
00000090: ac10 8c3d d932 103e 0005 523c 1858 2c3d
000000a0: b125 abbd 7009 c53c 62ed 17be cea0 f8bd
000000b0: a002 5e3c e6bb e33d 988c 603d 0005 adbc
000000c0: 8392 0b3e 1d5a 8ebd 5a78 12be 70b8 2fbd
000000d0: 48f2 95bd d2b1 4ebd 843a 12be 5056 96bc
000000e0: 9c56 9fbd f046 793d ed6a 073e 8039 dbbb
000000f0: 0a8a 9d3d 587c b8bd 001d ddbc f4c3 afbd
00000100: a016 a63c a716 e5bd b26f bdbd 59c4 ffbd
00000110: 40e9 d93b b4e1 41bd 20c0 723d bff2 053e
00000120: fed9 18be d241 a6bd f376 bbbd 68af 7b3d
00000130: 5ab1 ec3d 77e4 aebd 9165 17be 5851 af3c
00000140: dc6b 71bd 4863 743d c883 a7bc 7ff7 aebd
00000150: 7809 13be 4d9d edbd a0ca e5bb b4b3 0fbd
00000160: f009 acbc f2cb 1abe 00b4 67b9 2868 a4bd
00000170: 4422 a93d 98e6 d7bc 2808 843c 3df1 15be
00000180: 805f e3bc 02bf ce3d 3e02 e83d a29a fe3d
00000190: b8b6 02be f8f6 be3d 309c 9dbd 0c89 173d
000001a0: aaf0 993d 3b3a 1cbe a0ee 95bb 6869 96bd
000001b0: 7c8e 34bd fc47 99bd 8053 533b 82d2 07be
000001c0: f8f5 5e3d 04b2 633d 642b f6bd d69b 7ebd
000001d0: 8414 93bd 801d f0bb be4a f83d 0811 8ebd
000001e0: f7e9 0b3e 854b 0e3e 2c18 b43d e26a 07bd
000001f0: 0a12 f33d b00d 21bc b96f 05be 70b1 bf3c
00000200: 1c0c f7bc 2f01 1a3e c8db 8abd cb54 133e
00000210: 80e8 75bc 8b8c 0d3e c79d 0c3e a86e 8d3d
00000220: 1e23 ed3d b8dc d33c a0ce 7abc 4094 a5bb
00000230: e043 493c d840 153d 3cfb 073d 2a20 08bd
00000240: 4c5d bd3d 7723 88bd 41bf 113e 6f90 163e
00000250: 8a4a 09be 72b1 0dbe f23a 2dbd 24b2 a93d
00000260: c62f 41bd 28f9 893c 8fc0 193e cd91 103e
00000270: 8034 313c fd8c bfbd 60fe d13c fa73 37bd
00000280: b073 3e3c 9a28 963d 18e1 af3c c1f2 b9bd
00000290: e080 02bd 7acf f0bd 18be b03c d414 353d
000002a0: 916c 0c3e 9e49 2bbd 6c81 6ebd 2087 6ebd
000002b0: 5029 713c ce31 5abd 8ad5 11be c6b4 d33d
000002c0: 74fc 1cbd f1c1 00be 2c28 a0bd 2875 b23d
000002d0: c0f7 ba3c efa2 183e d5af 023e 0884 bdbd
000002e0: 5609 40bd f850 98bc 0716 103e ae09 ce3d
000002f0: 620a 81bd 7062 a73d 851e 133e 24e6 96bd
00000300: 21fd 173e 7a87 45bd 01e4 113e 3ec1 03bd
00000310: 3caf 7ebd 0049 70ba ccd1 4a3d ac1c 1abd
00000320: 6bad 01be c2a9 923d f7b6 173e e07c 37bc
00000330: 3521 b7bd 24d8 c33d 19d5 f7bd e4d7 023d
00000340: f87e ab3c 98c8 11be c001 183d 3f04 1a3e
00000350: 131b 08be dcea 383d 6eab 39bd fc0d b4bd
00000360: 27fb e5bd 06f0 c43d 2e07 46bd 069c ee3d
00000370: fa1a b13d 406d 2cbb ac99 9b3d e84a 0bbe
00000380: 9466 bebd 7a6f fa3d ca5e 1cbd c89c 433d
00000390: 26ae edbd d0db 2cbc a37e f5bd 043a 7bbd
000003a0: 2e1f 19be 5171 0d3e 630a 093e 0073 f5ba
000003b0: ee36 8ebd 21ea 013e 127d 4bbd c0e4 303b
000003c0: f836 c4bd 60a3 9e3b d6b3 d9bd 735c 0fbe
000003d0: c0e8 c13d 002f f83b 9659 15bd 2660 8e3d
000003e0: 65b5 1abe 189d 103d 3e8d 843d c80e 8dbd
000003f0: 90ae 9dbc 543c 0abe e267 b23d c427 673d

generator.transformer_layer.self_attn.in_proj_bias f4 [192]
0.0 0.0 0.0 0.0 0.0 0.0 0.0 0.0
0.0 0.0 0.0 0.0 0.0 0.0 0.0 0.0
0.0 0.0 0.0 0.0 0.0 0.0 0.0 0.0
0.0 0.0 0.0 0.0 0.0 0.0 0.0 0.0
0.0 0.0 0.0 0.0 0.0 0.0 0.0 0.0
0.0 0.0 0.0 0.0 0.0 0.0 0.0 0.0
0.0 0.0 0.0 0.0 0.0 0.0 0.0 0.0
0.0 0.0 0.0 0.0 0.0 0.0 0.0 0.0
0.0 0.0 0.0 0.0 0.0 0.0 0.0 0.0
0.0 0.0 0.0 0.0 0.0 0.0 0.0 0.0
0.0 0.0 0.0 0.0 0.0 0.0 0.0 0.0
0.0 0.0 0.0 0.0 0.0 0.0 0.0 0.0
0.0 0.0 0.0 0.0 0.0 0.0 0.0 0.0
0.0 0.0 0.0 0.0 0.0 0.0 0.0 0.0
0.0 0.0 0.0 0.0 0.0 0.0 0.0 0.0
0.0 0.0 0.0 0.0 0.0 0.0 0.0 0.0
0.0 0.0 0.0 0.0 0.0 0.0 0.0 0.0
0.0 0.0 0.0 0.0 0.0 0.0 0.0 0.0
0.0 0.0 0.0 0.0 0.0 0.0 0.0 0.0
0.0 0.0 0.0 0.0 0.0 0.0 0.0 0.0
0.0 0.0 0.0 0.0 0.0 0.0 0.0 0.0
0.0 0.0 0.0 0.0 0.0 0.0 0.0 0.0
0.0 0.0 0.0 0.0 0.0 0.0 0.0 0.0
0.0 0.0 0.0 0.0 0.0 0.0 0.0 0.0
00000000: 0000 0000 0000 0000 0000 0000 0000 0000
00000010: 0000 0000 0000 0000 0000 0000 0000 0000
00000020: 0000 0000 0000 0000 0000 0000 0000 0000
00000030: 0000 0000 0000 0000 0000 0000 0000 0000
00000040: 0000 0000 0000 0000 0000 0000 0000 0000
00000050: 0000 0000 0000 0000 0000 0000 0000 0000
00000060: 0000 0000 0000 0000 0000 0000 0000 0000
00000070: 0000 0000 0000 0000 0000 0000 0000 0000
00000080: 0000 0000 0000 0000 0000 0000 0000 0000
00000090: 0000 0000 0000 0000 0000 0000 0000 0000
000000a0: 0000 0000 0000 0000 0000 0000 0000 0000
000000b0: 0000 0000 0000 0000 0000 0000 0000 0000
000000c0: 0000 0000 0000 0000 0000 0000 0000 0000
000000d0: 0000 0000 0000 0000 0000 0000 0000 0000
000000e0: 0000 0000 0000 0000 0000 0000 0000 0000
000000f0: 0000 0000 0000 0000 0000 0000 0000 0000
00000100: 0000 0000 0000 0000 0000 0000 0000 0000
00000110: 0000 0000 0000 0000 0000 0000 0000 0000
00000120: 0000 0000 0000 0000 0000 0000 0000 0000
00000130: 0000 0000 0000 0000 0000 0000 0000 0000
00000140: 0000 0000 0000 0000 0000 0000 0000 0000
00000150: 0000 0000 0000 0000 0000 0000 0000 0000
00000160: 0000 0000 0000 0000 0000 0000 0000 0000
00000170: 0000 0000 0000 0000 0000 0000 0000 0000
00000180: 0000 0000 0000 0000 0000 0000 0000 0000
00000190: 0000 0000 0000 0000 0000 0000 0000 0000
000001a0: 0000 0000 0000 0000 0000 0000 0000 0000
000001b0: 0000 0000 0000 0000 0000 0000 0000 0000
000001c0: 0000 0000 0000 0000 0000 0000 0000 0000
000001d0: 0000 0000 0000 0000 0000 0000 0000 0000
000001e0: 0000 0000 0000 0000 0000 0000 0000 0000
000001f0: 0000 0000 0000 0000 0000 0000 0000 0000
00000200: 0000 0000 0000 0000 0000 0000 0000 0000
00000210: 0000 0000 0000 0000 0000 0000 0000 0000
00000220: 0000 0000 0000 0000 0000 0000 0000 0000
00000230: 0000 0000 0000 0000 0000 0000 0000 0000
00000240: 0000 0000 0000 0000 0000 0000 0000 0000
00000250: 0000 0000 0000 0000 0000 0000 0000 0000
00000260: 0000 0000 0000 0000 0000 0000 0000 0000
00000270: 0000 0000 0000 0000 0000 0000 0000 0000
00000280: 0000 0000 0000 0000 0000 0000 0000 0000
00000290: 0000 0000 0000 0000 0000 0000 0000 0000
000002a0: 0000 0000 0000 0000 0000 0000 0000 0000
000002b0: 0000 0000 0000 0000 0000 0000 0000 0000
000002c0: 0000 0000 0000 0000 0000 0000 0000 0000
000002d0: 0000 0000 0000 0000 0000 0000 0000 0000
000002e0: 0000 0000 0000 0000 0000 0000 0000 0000
000002f0: 0000 0000 0000 0000 0000 0000 0000 0000

generator.transformer_layer.self_attn.out_proj.weight f4 [64, 64]
0.014493361 -0.029760376 -0.047854587 0.07420552 -0.088770464 -0.036558285 -0.098260924 0.09540826
-0.09631854 0.052655578 -0.049712017 -0.095449716 0.11881769 -0.005156532 0.080294445 0.12175545
-0.009090528 0.035877556 -0.098382086 0.07624982 0.059882104 -0.011779323 -0.021568343 0.068796575
-0.068211734 -0.033611372 0.09181334 0.060127288 -0.10138303 -0.0968862 -0.10554999 0.108191356
-0.07873671 -0.03426212 0.059101224 -0.0012291372 -0.06292082 0.017826453 0.05683264 -0.020081222
0.0039113313 0.029147908 -0.12441334 0.07144679 -0.08372331 0.08403055 0.070387304 0.05525452
0.040538326 0.06446457 0.062539294 0.093255505 0.05995795 -0.025833592 -0.092085615 0.10078436
-0.040677354 0.012441382 0.0518582 -0.06093657 -0.10197127 -0.020921499 0.099918336 -0.029719204
0.02952233 0.057074293 -0.051307157 -0.07170279 0.07392046 0.094590575 -0.078602925 0.014134616
-0.036718592 -0.07436137 -0.08166528 0.034166098 -0.09311436 -0.08243431 0.11750466 0.008084521
0.09268041 0.018550396 0.066254735 0.11065379 0.06745575 0.10850452 -0.08021091 -0.12387927
-0.0630829 -0.050541416 -0.06206076 0.03442414 0.07322371 -0.06629166 -0.03600125 -0.07971032
-0.06563923 -0.03382811 -0.009492949 0.108638644 -0.03522651 0.105265215 -0.0012356043 0.08090985
0.008810118 -0.0021138191 0.11512649 -0.002058208 -0.01015304 -0.013837308 -0.0936179 0.04951507
-0.10915384 -0.12281707 0.053776443 -0.034595013 0.025250986 -0.0664538 -0.097446576 -0.012194842
0.12054822 0.025986865 0.043470904 -0.04277201 0.06275393 -0.04122919 -0.12074827 -0.09150948
-0.0063542724 0.074352026 -0.10061315 -0.028974518 0.07928088 -0.07082075 -0.10819757 -0.06188926
-0.10141507 0.1045443 0.008644342 0.030433953 -0.05974382 -0.035292804 -0.07680048 -0.10915007
0.12171729 -0.05248387 0.06531234 -0.028974742 0.11388001 -0.0572121 -0.047683924 -0.09107296
-0.019660175 0.07154319 -0.06459339 -0.044354305 0.1118204 0.055980474 0.031968385 -0.06952073
0.060996443 -0.08283657 0.028108522 -0.06026271 -0.094847485 0.0812207 -0.11173482 0.099574044
0.00069494545 -0.04159513 -0.013938785 -0.004728362 0.019047976 -0.05383426 0.10714127 -0.04701601
0.10619633 -0.09128083 -0.031623185 -0.028369293 0.052009776 -0.026759595 -0.10611059 -0.049225897
0.06218037 -0.041022643 -0.06272073 -0.06776823 0.06648204 0.016464412 0.08124915 0.11372684
-0.1197608 -0.07675779 -0.0009936541 0.024660096 -0.018975556 0.05154915 -0.06425616 0.098911
0.07097961 0.038174808 0.1095573 -0.11904156 0.017068163 -0.030352414 -0.0033346564 -0.022321701
-0.07492137 0.111297786 -0.04427296 0.086695775 -0.11576222 0.007843807 0.047875762 0.054543138
-0.1005723 0.09082146 -0.0496144 0.0722937 0.06385006 0.109583825 0.06454949 0.0679104
0.11255053 0.009059429 0.101104245 -0.058179423 0.07303944 0.008511201 0.0974666 -0.026123255
-0.057821676 0.06260435 0.032794118 -0.10156463 0.10589275 0.038172975 0.029905379 0.010992259
0.087254256 0.0132166 0.0071846396 0.07531592 0.08522405 0.019875944 -0.007080078 0.107273936
-0.049044415 0.03555186 0.025149286 0.123018846 -0.017391205 -0.034396842 -0.02627115 -0.09563582
00000000: 9075 6d3c 08cc f3bc 2c03 44bd 10f9 973d
00000010: 4acd b5bd 24be 15bd 063d c9bd 6865 c33d
00000020: a842 c5bd 60ad 573d d49e 4bbd 247b c3bd
00000030: b056 f33d 20f8 a8bb 6a71 a43d ec5a f93d
00000040: 70f0 14bc 58f4 123d 8c7c c9bd de28 9c3d
00000050: f046 753d 10fe 40bc 18b0 b0bc 38e5 8c3d
00000060: 98b2 8bbd 14ac 09bd a208 bc3d 0848 763d
00000070: e8a1 cfbd 466c c6bd 982a d8bd 6e93 dd3d
00000080: b640 a1bd 7056 0cbd 2014 723d 001b a1ba
00000090: a2dc 80bd c808 923c 58c9 683d 6081 a4bc
000000a0: a02a 803b 98c7 ee3c 6ccc febd b252 923d
000000b0: 2077 abbd 3618 ac3d 3827 903d 9052 623d
000000c0: 840b 263d 0006 843d 9a14 803d befc be3d
000000d0: 7896 753d f8a0 d3bc 6297 bcbd 0868 ce3d
000000e0: 4c9d 26bd f0d6 4b3c 4469 543d a098 79bd
000000f0: 50d6 d0bd 9063 abbc fca1 cc3d b075 f3bc
00000100: d0d8 f13c bcc6 693d 7427 52bd ead8 92bd
00000110: 9c63 973d b4b8 c13d 92fa a0bd e094 673c
00000120: 3c66 16bd c64a 98bd 2040 a7bd c0f1 0b3d
00000130: beb2 bebd 52d3 a8bd 48a6 f03d f074 043c
00000140: 3acf bd3d 00f7 973c 90b0 873d 749e e23d
00000150: 3e26 8a3d 9e37 de3d 9e45 a4bd 6ab4 fdbd
00000160: 9c31 81bd 8404 4fbd 6c33 7ebd 5400 0d3d
00000170: 50f6 953d ecc3 87bd 0c76 13bd 2a3f a3bd
00000180: dc6d 86bd 588f 0abd 5088 1bbc f07d de3d
00000190: ac49 10bd 4a95 d73d 00f4 a1ba 10b4 a53d
000001a0: 5058 103c 0088 0abb 70c7 eb3d 00e3 06bb
000001b0: f058 26bc e0b5 62bc beba bfbd 50d0 4a3d
000001c0: 0c8c dfbd 8487 fbbd b044 5c3d 80b3 0dbd
000001d0: 28db ce3c ee18 88bd 1292 c7bd e0cc 47bc
000001e0: fce1 f63d 68e2 d43c 8c0e 323d b431 2fbd
000001f0: 2285 803d f0df 28bd de4a f7bd 5269 bbbd
00000200: 8037 d0bb e045 983d 440e cebd f85b edbc
00000210: 045e a23d 780a 91bd b096 ddbd 987f 7dbd
00000220: b4b2 cfbd 521b d63d 00a1 0d3c a050 f93c
00000230: f0b5 74bd 308f 10bd 9249 9dbd 128a dfbd
00000240: ea46 f93d 54f9 56bd 7ac2 853d 705c edbc
00000250: ec39 e93d 3c57 6abd 3850 43bd 7684 babd
00000260: 600e a1bc 3c85 923d 8a49 84bd dcac 35bd
00000270: 1802 e53d c84b 653d 48f1 023d e260 8ebd
00000280: 68d7 793d 38a6 a9bd d843 e63c 08d6 76bd
00000290: 663f c2bd 0a57 a63d 3ad5 e4bd 7aed cb3d
000002a0: 002d 363a a85f 2abd 805f 64bc 60f0 9abb
000002b0: 800a 9c3c 5081 5cbd e26c db3d dc93 40bd
000002c0: 767d d93d 72f1 babd 5087 01bd b866 e8bc
000002d0: 3408 553d f036 dbbc 8250 d9bd 18a1 49bd
000002e0: d8b0 7e3d 5c07 28bd ba73 80bd 12ca 8abd
000002f0: bc27 883d 60e0 863c f465 a63d 9ee9 e83d
00000300: 2645 f5bd 3033 9dbd 803d 82ba f803 ca3c
00000310: a072 9bbc 3425 533d bc98 83bd da91 ca3d
00000320: c25d 913d 305d 1c3d 945f e03d 10cc f3bd
00000330: 88d2 8b3c a0a5 f8bc 408a 5abb 00dc b6bc
00000340: 6070 99bd 18f0 e33d 9057 35bd 8e8d b13d
00000350: be14 edbd 5083 003c 6019 443d a068 5f3d
00000360: daf8 cdbd 9a00 ba3d 7838 4bbd b80e 943d
00000370: d2c3 823d 7c6d e03d 8632 843d 9c14 8b3d
00000380: e480 e63d 006e 143c be0f cf3d 8c4d 6ebd
00000390: b495 953d 9072 0b3c 929c c73d 7000 d6bc
000003a0: 6cd6 6cbd b636 803d 2053 063d 1e01 d0bd
000003b0: 4cde d83d 445b 1c3d 20fc f43c e018 343c
000003c0: 5cb2 b23d 708a 583c 206d eb3b 3c3f 9a3d
000003d0: f289 ae3d e0d2 a23c 0000 e8bb 70b2 db3d
000003e0: cce2 48bd d49e 113d e005 ce3c 4ef1 fb3d
000003f0: 0078 8ebc b4e3 0cbd 9836 d7bc b6dc c3bd

generator.transformer_layer.self_attn.out_proj.bias f4 [64]
0.0 0.0 0.0 0.0 0.0 0.0 0.0 0.0
0.0 0.0 0.0 0.0 0.0 0.0 0.0 0.0
0.0 0.0 0.0 0.0 0.0 0.0 0.0 0.0
0.0 0.0 0.0 0.0 0.0 0.0 0.0 0.0
0.0 0.0 0.0 0.0 0.0 0.0 0.0 0.0
0.0 0.0 0.0 0.0 0.0 0.0 0.0 0.0
0.0 0.0 0.0 0.0 0.0 0.0 0.0 0.0
0.0 0.0 0.0 0.0 0.0 0.0 0.0 0.0
00000000: 0000 0000 0000 0000 0000 0000 0000 0000
00000010: 0000 0000 0000 0000 0000 0000 0000 0000
00000020: 0000 0000 0000 0000 0000 0000 0000 0000
00000030: 0000 0000 0000 0000 0000 0000 0000 0000
00000040: 0000 0000 0000 0000 0000 0000 0000 0000
00000050: 0000 0000 0000 0000 0000 0000 0000 0000
00000060: 0000 0000 0000 0000 0000 0000 0000 0000
00000070: 0000 0000 0000 0000 0000 0000 0000 0000
00000080: 0000 0000 0000 0000 0000 0000 0000 0000
00000090: 0000 0000 0000 0000 0000 0000 0000 0000
000000a0: 0000 0000 0000 0000 0000 0000 0000 0000
000000b0: 0000 0000 0000 0000 0000 0000 0000 0000
000000c0: 0000 0000 0000 0000 0000 0000 0000 0000
000000d0: 0000 0000 0000 0000 0000 0000 0000 0000
000000e0: 0000 0000 0000 0000 0000 0000 0000 0000
000000f0: 0000 0000 0000 0000 0000 0000 0000 0000

generator.transformer_layer.linear1.weight f4 [128, 64]
-0.087224245 -0.084218144 0.08562216 -0.04752025 0.03808047 0.0007863492 -0.031616062 -0.09887861
-0.033323646 0.06320654 0.050341487 0.052916065 0.03845595 -0.12296867 0.11692649 0.0977736
-0.11603211 -0.08927363 -0.004749626 -0.0992102 0.10360564 -0.013991371 0.09877868 -0.0023186207
0.048242003 0.018259928 -0.024615541 -0.04596001 -0.0985053 0.018128201 0.0024315268 -0.08921851
0.045915753 -0.07363069 0.029729277 0.061005086 0.03625749 -0.117232904 -0.109728545 -0.02527918
-0.052917197 -0.12388007 0.02352041 -0.045406193 -0.087387025 -0.0178594 0.08666748 0.06354822
0.076282635 -0.10778491 0.08357911 0.07610169 0.09120023 0.119356215 0.030508399 -0.090913266
0.017991632 0.09081708 0.060114756 0.051423863 -0.07978898 -0.039347857 0.07510035 0.07775208
-0.10247809 -0.017418712 -0.04585105 0.061937854 -0.06937358 0.12236233 -0.021570817 -0.049560845
-0.08855578 -0.100398466 0.11521083 -0.002671957 0.034540787 -0.109230444 -0.0045395344 0.06490049
-0.09386738 -0.11984286 -0.086288735 -0.037068665 0.05913663 -0.04563774 0.048863947 0.062325165
0.022764415 -0.061709404 0.038144097 0.08050609 0.07854128 -0.03611803 0.10810457 -0.11763875
0.12282218 -0.10817021 0.03734404 0.007260591 -0.045651555 0.040833354 -0.011651248 -0.08867031
-0.038531795 -0.014624149 0.06832187 -0.047487885 0.014058083 0.04444173 -0.07627575 0.12161587
0.023503095 0.10501775 0.043698013 -0.052643254 -0.09020431 -0.08584632 0.07503162 0.10538067
-0.08839129 0.09931278 0.027984083 0.049364135 -0.11731067 -0.023486689 -0.11337626 0.061702594
0.0011952072 -0.06102176 0.108573124 -0.0013308972 0.007759854 -0.117269486 -0.010083452 0.0020572096
-0.034013763 0.018830493 0.11964993 -0.022046804 0.005262524 0.047314152 -0.09682989 0.045766965
-0.043246657 0.07580607 -0.022755355 0.004382968 0.04092835 -0.044339746 0.04046248 -0.0046952665
-0.114631206 0.013273224 -0.10951504 0.119342 0.020013958 0.05251324 -0.10434036 -0.073335305
-0.10290724 -0.06310798 0.068024635 0.056862235 0.08604959 -0.09125993 -0.049679145 0.08436647
0.023926392 -0.06719814 0.0835405 0.037427068 -0.043122873 0.09897107 0.015786946 0.00031845272
0.02975531 -0.07157855 -0.11602214 -0.0009185374 -0.11052592 -0.10135889 0.043163195 -0.12108478
0.045312107 0.09747635 -0.06393866 0.06875393 -0.07714276 0.079217374 -0.0074537992 -0.0848311
0.064518005 0.11987069 0.09300986 -0.016850874 0.07554293 0.1110197 -0.098655105 0.040197775
0.084325016 0.124050185 0.09150623 0.019789204 0.04287924 0.0032600611 0.09102413 0.09298457
-0.044161215 -0.056517005 0.027986303 0.05224654 0.023999095 0.04325147 0.059447482 -0.01999551
0.06493373 -0.06176749 0.1245016 -0.04204099 0.06651564 0.042951435 0.03749898 -0.00024074316
-0.005133599 -0.026981398 -0.120075405 0.09248489 -0.06632657 -0.011083141 0.062885225 -0.11697185
0.039625555 -0.08506468 0.11631088 0.015857652 -0.0733891 -0.03853494 -0.10375595 -0.086869836
-0.118695185 -0.08748932 0.03907551 -0.017201245 0.05828193 0.01570341 0.068064705 0.026726365
-0.09647654 -0.06005013 -0.08200301 -0.06395157 0.073482946 -0.05657634 -0.0026712418 -0.05956903
00000000: a0a2 b2bd 907a acbd ac5a af3d 98a4 42bd
00000010: 44fa 1b3d 0023 4e3a d87f 01bd de80 cabd
00000020: 607e 08bd 6e72 813d e032 4e3d 84be 583d
00000030: fc83 1d3d 00d7 fbbd 2877 ef3d 863d c83d
00000040: 3ea2 edbd 18d5 b6bd c0a2 9bbb b82e cbbd
00000050: 322f d43d 103c 65bc 7a4c ca3d 00f4 17bb
00000060: 6899 453d d895 953c 88a6 c9bc 9040 3cbd
00000070: 26bd c9bd 9881 943c 405a 1f3b 32b8 b6bd
00000080: 2812 3c3d b0cb 96bd d08a f33c 78e0 793d
00000090: bc82 143d ce17 f0bd 5cb9 e0bd 4816 cfbc
000000a0: b4bf 58bd d6b4 fdbd e0ad c03c d8fb 39bd
000000b0: f8f7 b2bd e04d 92bc b87e b13d 9225 823d
000000c0: 123a 9c3d 56be dcbd 862b ab3d 34db 9b3d
000000d0: 30c7 ba3d 0871 f43d c0ec f93c bc30 babd
000000e0: 3063 933c 4efe b93d e43a 763d d4a1 523d
000000f0: 6868 a3bd 382b 21bd 36ce 993d 7c3c 9f3d
00000100: 08e0 d1bd b0b1 8ebc 50ce 3bbd 8cb2 7d3d
00000110: bc13 8ebd 1a99 fa3d 48b5 b0bc 5000 4bbd
00000120: bc5c b5bd b69d cdbd a8f3 eb3d 001c 2fbb
00000130: a47a 0d3d 36b4 dfbd 60c0 94bb 8cea 843d
00000140: 8a3d c0bd 2c70 f5bd 26b8 b0bd 50d5 17bd
00000150: 4039 723d a4ee 3abd 9025 483d ac48 7f3d
00000160: 707c ba3c 00c3 7cbd fc3c 1c3d 60e0 a43d
00000170: 40da a03d 80f0 13bd ee65 dd3d 96ec f0bd
00000180: 328a fb3d 5888 ddbd 10f6 183d 40ea ed3b
00000190: 20fd 3abd e040 273d e0e4 3ebc c898 b5bd
000001a0: 84d3 1dbd 209a 6fbc 56ec 8b3d a882 42bd
000001b0: e053 663c 8808 363d 7636 9cbd be11 f93d
000001c0: 9089 c03c 8c13 d73d b0fc 323d 74a0 57bd
000001d0: 0abd b8bd 32d0 afbd 2eaa 993d d2d1 d73d
000001e0: 7e06 b5bd 8064 cb3d e03e e53c 0c32 4a3d
000001f0: 9440 f0bd 2867 c0bc d031 e8bd dcbb 7c3d
00000200: 80a8 9c3a f4f1 79bd 965b de3d 8071 aeba
00000210: 6046 fe3b fc2a f0bd 1035 25bc 40d2 063b
00000220: 0452 0bbd 6842 9a3c 060b f53d 809b b4bc
00000230: 4071 ac3b 7ccc 413d c04e c6bd 2476 3b3d
00000240: 6823 31bd 3640 9b3d 7069 babc 009f 8f3b
00000250: 7ca4 273d 989d 35bd fcbb 253d c0da 99bb
00000260: c4c3 eabd f077 593c 6c49 e0bd 9469 f43d
00000270: 50f4 a33c 2018 573d 66b0 d5bd d230 96bd
00000280: 08c1 d2bd c23e 81bd 8050 8b3d 60e8 683d
00000290: c43a b03d 7ce6 babd 5c7c 4bbd 54c8 ac3d
000002a0: 4801 c43c 2e9f 89bd 4817 ab3d 204d 193d
000002b0: 9ca1 30bd 58b1 ca3d a053 813c 00f6 a639
000002c0: 68c1 f33c c697 92bd 049d edbd 00ca 70ba
000002d0: 6a5b e2bd 4095 cfbd e4cb 303d 4cfb f7bd
000002e0: 3099 393d aea1 c73d 46f2 82bd dcce 8c3d
000002f0: 06fd 9dbd b83c a23d 003f f4bb eebb adbd
00000300: 0422 843d c47e f53d f47b be3d d80a 8abc
00000310: 40b6 9a3d 4c5e e33d b00b cabd 6ca6 243d
00000320: 98b2 ac3d 060e fe3d 9e67 bb3d f81c a23c
00000330: 24a2 2f3d c0a6 553b dc6a ba3d b26e be3d
00000340: 64e2 34bd 607e 67bd 8843 e53c 7800 563d
00000350: c099 c43c 7428 313d 347f 733d a0cd a3bc
00000360: fafb 843d e8ff 7cbd b2fa fe3d 2c33 2cbd
00000370: 5a39 883d d8ed 2f3d 8898 193d 0070 7cb9
00000380: c037 a8bb 1808 ddbc 18ea f5bd b868 bd3d
00000390: 3ad6 87bd 1096 35bc f8c9 803d f08e efbd
000003a0: 684e 223d 6436 aebd 6634 ee3d e8e7 813c
000003b0: 064d 96bd d0d6 1dbd 007e d4bd d0e8 b1bd
000003c0: 7616 f3bd 9a2d b3bd a40d 203d a0e9 8cbc
000003d0: 08b9 6e3d 70a4 803c 8265 8b3d 40f1 da3c
000003e0: 7e95 c5bd 20f7 75bd 32f1 a7bd 0af9 82bd
000003f0: 3a7e 963d 98bc 67bd 0010 2fbb a8fe 73bd

generator.transformer_layer.linear1.bias f4 [128]
-0.11643019 0.009881631 -0.066330805 -0.033908874 -0.042324826 -0.07988724 0.049900234 -0.045541123
0.040318727 -0.12071456 -0.11596954 -0.07897197 0.08390829 -0.09487954 0.099690095 -0.014993161
0.010739192 0.10371645 0.08565688 -0.078214675 0.0029062629 0.11540218 -0.040006563 -0.03367336
0.05771917 0.010136411 0.061197013 0.03580451 0.10296734 -0.107115865 -0.031800613 0.057391956
0.06654443 -0.0522296 -0.11320387 -0.06673454 -0.07295504 0.0045158714 0.052536726 -0.0179919
-0.012695909 -0.11490159 0.07227436 0.112707764 0.06941715 0.102546796 0.0107446015 -0.08596058
0.041225806 -0.033575818 0.050331056 -0.089832395 0.029987752 0.05770208 -0.08412482 0.08000007
0.044396996 -0.031002924 -0.07109846 -0.027401328 0.053785697 0.12278566 -0.102328554 0.11294277
-0.11480905 0.03935182 0.028417185 0.08348121 0.039342076 0.06499693 -0.09904213 0.09543562
-0.026284844 0.08686143 -0.024426326 0.11544745 -0.023019508 0.05482234 0.04343684 -0.003180787
-0.11927386 0.015640914 0.03509283 0.09403741 0.100283906 0.07330747 0.013813779 -0.06840663
-0.10425688 -0.05388479 -0.041836813 -0.08828224 0.03193198 0.04580024 0.09510957 -0.09616889
-0.07219933 0.06466709 -0.038409024 0.108579025 -0.010369211 0.069685504 0.024008468 -0.020264
-0.12221752 0.05107069 0.0063770115 -0.12061469 0.010165989 0.0379169 -0.086373106 0.01695776
-0.09358147 -0.08162913 -0.024850726 -0.09402807 -0.05118695 0.047791526 -0.07797174 0.06374055
-0.017590985 0.0850295 -0.09604232 0.1091035 0.068651974 0.006176874 0.089141786 0.08021681
00000000: f472 eebd 90e6 213c 72d8 87bd 08e4 0abd
00000010: cc5c 2dbd ec9b a3bd 3064 4c3d 5489 3abd
00000020: 4025 253d 3239 f7bd 7081 edbd 0ebc a1bd
00000030: 1cd8 ab3d 3450 c2bd 522a cc3d e0a5 75bc
00000040: 70f3 2f3c 4a69 d43d e06c af3d 042f a0bd
00000050: 0077 3e3b fa57 ec3d ecdd 23bd 14ed 09bd
00000060: f06a 6c3d 3013 263c b8a9 7a3d c0a7 123d
00000070: 8ae0 d23d 905f dbbd 5c41 02bd d413 6b3d
00000080: 7248 883d b4ee 55bd 6ed7 e7bd 1eac 88bd
00000090: 7469 95bd e0f9 933b c030 573d c063 93bc
000000a0: 8002 50bc 8651 ebbd 9404 943d 54d3 e63d
000000b0: 942a 8e3d 0e04 d23d 200a 303c 1a0c b0bd
000000c0: 64dc 283d cc86 09bd f027 4e3d 0cfa b7bd
000000d0: e0a8 f53c 0459 6c3d a249 acbd 14d7 a33d
000000e0: a0d9 353d d8f9 fdbc 129c 91bd c078 e0bc
000000f0: 644e 5c3d 0c77 fb3d a291 d1bd 8a4e e73d
00000100: 0221 ebbd 602f 213d 28cb e83c 32f8 aa3d
00000110: 2825 213d 1c1d 853d 9ad6 cabd c073 c33d
00000120: 5053 d7bc 68e4 b13d b819 c8bc b66f ec3d
00000130: 6893 bcbc 648d 603d d4ea 313d c074 50bb
00000140: da45 f4bd 6021 803c 80bd 0f3d b096 c03d
00000150: a661 cd3d 3a22 963d 3053 623c c618 8cbd
00000160: a284 d5bd 4cb6 5cbd 145d 2bbd 52cd b4bd
00000170: 1ccb 023d 0899 3b3d cec8 c23d 32f4 c4bd
00000180: 3edd 93bd 2e70 843d c852 1dbd ae5e de3d
00000190: a0e3 29bc 46b7 8e3d 68ad c43c b000 a6bc
000001a0: 2e4d fabd 802f 513d 40f6 d03b d604 f7bd
000001b0: 408f 263c c04e 1b3d 62e4 b0bd 00eb 8a3c
000001c0: a4a7 bfbd 2c2d a7bd c093 cbbc ca91 c0bd
000001d0: 68a9 51bd 0cc1 433d a6af 9fbd 688a 823d
000001e0: f81a 90bc f223 ae3d d6b1 c4bd a871 df3d
000001f0: 6899 8c3d 6067 ca3b f88f b63d b648 a43d

generator.transformer_layer.linear2.weight f4 [64, 128]
-0.03431273 -0.016106062 0.08086438 0.02866111 0.07983092 0.049228333 0.019810483 0.06783574
-0.047582317 -0.031680584 0.0065119937 0.0601156 0.04874096 -0.036185976 -0.07112174 -0.07229716
0.06542609 -0.0199202 0.06724196 -0.04944273 -0.039602842 -0.026817385 -0.0054075494 -0.028984144
-0.050588734 0.022418812 0.07584355 -0.03510394 -0.0379651 0.024466902 -0.04054119 0.015090555
-0.016408749 -0.06075151 0.029825479 0.07648293 0.057137825 -0.06032255 0.013347127 -0.065686055
0.084553175 -0.039747596 -0.023384452 0.04975391 -0.014159307 -0.02551113 -0.076461345 0.07043295
-0.009830795 0.056912296 0.08691246 0.015191272 0.06632718 0.01725705 -0.0233728 -0.044886444
-0.078610234 0.0836777 0.009214468 0.03814075 0.0073161125 0.044295274 0.065606035 0.0882004
0.084631346 0.033738837 -0.052414548 -0.03879255 -0.0581678 -0.027267072 0.051582836 0.053172134
0.05748015 0.078631856 0.06511677 0.046293087 -0.054450788 0.07735228 -0.035955634 0.054007135
-0.0131003335 -0.08228813 -0.00053516775 0.036070354 0.009602472 0.027698867 0.05122354 -0.08078034
0.0264839 0.06072969 -0.009498358 0.004221514 0.029841378 -0.077822134 -0.0016224459 0.056644745
0.03213864 0.013348371 0.079115234 0.030182377 -0.007533051 -0.013374008 0.01959905 -0.0005400777
-0.055229504 -0.031579517 0.05541078 -0.028425455 -0.08073422 0.07666687 0.03300465 -0.048743293
0.03453265 -0.045338206 -0.07687888 -0.0076753497 0.016294248 -0.006714307 -0.027956385 0.058871396
-0.066591054 -0.0023764372 -0.0002689883 0.016034275 -0.06741772 0.05199442 0.016883247 -0.06410787
0.013089865 0.07994198 0.015047878 -0.022907801 -0.04842852 0.07891046 0.058403544 0.005321473
-0.07391022 0.06793857 -0.07382653 0.020398512 0.028584294 0.07169936 0.0103542805 0.00731273
-0.015162036 -0.010545582 -0.011215508 -0.02179496 -0.086058035 -0.058840826 -0.06936819 -0.066257425
0.087597646 0.041959606 -0.03164774 0.070781656 0.020203874 -0.0529321 -0.03310968 0.045819722
0.037008815 0.027269319 0.028511755 -0.024287015 -0.05611599 0.02703356 0.07294444 -0.057122644
-0.016272709 0.08125376 0.06562186 -0.020307332 0.06356879 0.032714702 0.022088572 -0.08312362
-0.05552111 0.0024754629 -0.037670568 0.0072298422 0.08043776 0.071519054 -0.066281 0.014510445
0.011566304 0.0062920526 -0.06518481 -0.061116725 -0.08708712 -0.00060183555 -0.03417179 0.060911126
0.032172963 -0.0845978 0.045538433 0.06471182 0.004174985 -0.016545966 -0.06050981 -0.01125069
-0.07956404 -0.012689583 0.030017376 0.011295743 -0.02882757 -0.062344648 0.010696113 -0.0037262365
-0.06451983 0.048935212 0.018614598 -0.0031548068 -0.0263508 -0.017555974 0.04708638 0.07096774
-0.05883065 -0.0437593 -0.017390124 0.08425585 -0.041040376 0.054416917 0.0694503 0.031064562
0.061651908 -0.0071754605 -0.008483507 0.052285247 0.08700579 -0.08427937 -0.055854816 0.07834115
-0.019528687 -0.014127895 0.010918371 0.054264896 -0.041386224 0.05053795 0.019912511 -0.06675021
0.073637746 -0.041155912 -0.05022271 -0.0025576055 -0.038166583 0.069078825 0.06771975 0.063059576
0.023354366 0.08608218 0.019323885 -0.07963732 -0.04854381 0.0067133084 -0.010149986 -0.02513086
00000000: 818b 0cbd dcf0 83bc 399c a53d b4ca ea3c
00000010: 657e a33d a6a3 493d 9849 a23c 77ed 8a3d
00000020: ade5 42bd 80c3 01bd 9062 d53b c63b 763d
00000030: 9aa4 473d bf37 14bd 46a8 91bd 8910 94bd
00000040: 1dfe 853d b02f a3bc 27b6 893d 7684 4abd
00000050: 9736 22bd 22b0 dbbc d031 b1bb 2870 edbc
00000060: 2236 4fbd a8a7 b73c dd53 9b3d 26c9 0fbd
00000070: 4b81 1bbd d06e c83c 850e 26bd 603e 773c
00000080: a46b 86bc 93d6 78bd 9054 f43c 15a3 9c3d
00000090: 5a09 6a3d c714 77bd e8ad 5a3c 6986 86bd
000000a0: 372a ad3d 60ce 22bd c090 bfbc c2ca 4b3d
000000b0: 70fc 67bc b8fc d0bc c497 9cbd 273f 903d
000000c0: 5811 21bc de1c 693d 29ff b13d d0e4 783c
000000d0: 8bd6 873d a85e 8d3c 5078 bfbc d9da 37bd
000000e0: 67fe a0bd 375f ab3d 48f8 163c 7a39 1c3d
000000f0: 00bc ef3b f66e 353d 755c 863d 69a2 b43d
00000100: 3353 ad3d bc31 0a3d a3b0 56bd f0e4 1ebd
00000110: 5c41 6ebd 325f dfbc 8648 533d 06cb 593d
00000120: 4e70 6b3d bd09 a13d f15b 853d d29d 3d3d
00000130: ca07 5fbd df6a 9e3d 3746 13bd 9636 5d3d
00000140: c8a2 56bc ae86 a8bd 804a 0cba 82be 133d
00000150: b053 1d3c bce8 e23c c6cf 513d 2a70 a5bd
00000160: c4f4 d83c b2bf 783d 009f 1bbc a054 8a3b
00000170: e875 f43c 3661 9fbd 40a8 d4ba 5204 683d
00000180: cea3 033d 20b3 5a3c 2b07 a23d 0841 f73c
00000190: d0d7 f6bb a81e 5bbc 308e a03c 0094 0dba
000001a0: 5538 62bd 8659 01bd 6af6 623d 80dc e8bc
000001b0: fc57 a5bd 8503 9d3d e22f 073d 0ca7 47bd
000001c0: 1c72 0d3d 8eb4 39bd ad72 9dbd 8081 fbbb
000001d0: 847b 853c b003 dcbb ca04 e5bc 2223 713d
000001e0: e460 88bd 00be 1bbb 0007 8db9 505a 833c
000001f0: 4d12 8abd 1af8 543d bc4e 8a3c fd4a 83bd
00000200: e076 563c 9fb8 a33d 608b 763c 24a9 bbbc
00000210: fc5c 46bd cf9b a13d 8e38 6f3d c05f ae3b
00000220: 3e5e 97bd 6123 8b3d 5d32 97bd c81a a73c
00000230: 9c29 ea3c 1dd7 923d 00a5 293c a09f ef3b
00000240: 306a 78bc 60c7 2cbc 40c1 37bc 588b b2bc
00000250: 323f b0bd 1403 71bd e910 8ebd f9b1 87bd
00000260: 6566 b33d d6dd 2b3d 10a1 01bd f9f5 903d
00000270: 9882 a53c 54cf 58bd 049e 07bd 76ad 3b3d
00000280: 8e96 173d e863 df3c 7c91 e93c 90f5 c6bc
00000290: e1d9 65bd 7c75 dd3c e563 953d 6ff9 69bd
000002a0: 584e 85bc 5f68 a63d c164 863d 905b a6bc
000002b0: 5b30 823d daff 053d 18f3 b43c b73c aabd
000002c0: 1a6a 63bd 603b 223b 744c 1abd 50e8 ec3b
000002d0: 8dbc a43d 9578 923d 55be 87bd 38bd 6d3c
000002e0: 9880 3d3c 902d ce3b 9d7f 85bd 8855 7abd
000002f0: bb5a b2bd 80c4 1dba b8f7 0bbd f27d 793d
00000300: ccc7 033d 9d41 adbd 8286 3a3d a187 843d
00000310: 50ce 883b 688b 87bc 22d9 77bd d054 38bc
00000320: 79f2 a2bd f8e7 4fbc 00e7 f53c c811 393c
00000330: cc27 ecbc 1a5d 7fbd c03e 2f3c e033 74bb
00000340: f922 84bd 4a70 483d a47d 983c e0c0 4ebb
00000350: a2dd d7bc 8cd1 8fbc a6dd 403d 8957 913d
00000360: 68f8 70bd f43c 33bd bc75 8ebc 558e ac3d
00000370: f419 28bd 46e4 5e3d f53b 8e3d 1c7b fe3c
00000380: b686 7c3d 2020 ebbb 68fe 0abc 0e29 563d
00000390: 1730 b23d aa9a acbd 05c8 64bd 5371 a03d
000003a0: a0fa 9fbc b078 67bc f8e2 323c de44 5e3d
000003b0: 9a84 29bd e200 4f3d 901f a33c 56b4 88bd
000003c0: 63cf 963d 1a93 28bd 54b6 4dbd 809d 27bb
000003d0: 9054 1cbd 3379 8d3d a7b0 8a3d 6125 813d
000003e0: a851 bf3c db4b b03d 204d 9e3c e418 a3bd
000003f0: e0d5 46bd 50fb db3b 204c 26bc 3cdf cdbc

generator.transformer_layer.linear2.bias f4 [64]
0.0025713071 -0.018540286 -0.01797545 0.027456544 0.03597442 0.024950102 0.06881247 0.08102708
-0.0678901 -0.013241626 -0.016917288 -0.04618222 0.04686772 0.026700512 -0.054808065 0.019445248
0.03665421 0.06288389 0.039485626 -0.076105975 0.0152143985 -0.016686708 -0.08664096 -0.033336185
-0.06314698 0.06659188 0.05694557 0.03450769 0.067708485 0.08720242 -0.029658243 0.07131038
-0.057503507 0.0034311041 0.0015400574 -0.01718627 -0.08700539 -0.016991585 -0.006569639 0.0519268
0.047152407 -0.07629709 0.034872584 -0.025866777 0.0051260293 0.037816085 -0.077131115 -0.021928318
-0.06281196 0.04863792 0.01335825 0.032580987 -0.024133518 -0.049919665 -0.024520323 0.0098601505
0.012482382 -0.07406868 0.07781265 -0.018784545 -0.0077208206 0.07201933 -0.08796134 0.03955824
00000000: 6083 283b cce1 97bc 4041 93bc 8cec e03c
00000010: ea59 133d 2864 cc3c 8ded 8c3d 87f1 a53d
00000020: f709 8bbd 68f3 58bc 2096 8abc 9129 3dbd
00000030: 5ef8 3f3d 08bb da3c 6c7e 60bd a44b 9f3c
00000040: ba22 163d 45c9 803d aebb 213d 73dd 9bbd
00000050: d045 793c 90b2 88bc d170 b1bd 868b 08bd
00000060: 3453 81bd 5361 883d c23f 693d f057 0d3d
00000070: bfaa 8a3d 2f97 b23d d8f5 f2bc 2d0b 923d
00000080: cc88 6bbd 60dc 603b c0db c93a 38ca 8cbc
00000090: e22f b2bd f031 8bbc 2046 d7bb 32b1 543d
000000a0: e222 413d a641 9cbd 8ed6 0e3d 90e6 d3bc
000000b0: 40f8 a73b 0ae5 1a3d ebf6 9dbd 04a3 b3bc
000000c0: 8fa3 80bd 8e38 473d 90dc 5a3c a473 053d
000000d0: a8b3 c5bc 9078 4cbd d8de c8bc 788c 213c
000000e0: e882 4c3c 52b1 97bd 3d5c 9f3d 0ce2 99bc
000000f0: f0fe fcbb df7e 933d 1325 b4bd d207 223d

generator.transformer_layer.norm1.weight f4 [64]
1.0 1.0 1.0 1.0 1.0 1.0 1.0 1.0
1.0 1.0 1.0 1.0 1.0 1.0 1.0 1.0
1.0 1.0 1.0 1.0 1.0 1.0 1.0 1.0
1.0 1.0 1.0 1.0 1.0 1.0 1.0 1.0
1.0 1.0 1.0 1.0 1.0 1.0 1.0 1.0
1.0 1.0 1.0 1.0 1.0 1.0 1.0 1.0
1.0 1.0 1.0 1.0 1.0 1.0 1.0 1.0
1.0 1.0 1.0 1.0 1.0 1.0 1.0 1.0
00000000: 0000 803f 0000 803f 0000 803f 0000 803f
00000010: 0000 803f 0000 803f 0000 803f 0000 803f
00000020: 0000 803f 0000 803f 0000 803f 0000 803f
00000030: 0000 803f 0000 803f 0000 803f 0000 803f
00000040: 0000 803f 0000 803f 0000 803f 0000 803f
00000050: 0000 803f 0000 803f 0000 803f 0000 803f
00000060: 0000 803f 0000 803f 0000 803f 0000 803f
00000070: 0000 803f 0000 803f 0000 803f 0000 803f
00000080: 0000 803f 0000 803f 0000 803f 0000 803f
00000090: 0000 803f 0000 803f 0000 803f 0000 803f
000000a0: 0000 803f 0000 803f 0000 803f 0000 803f
000000b0: 0000 803f 0000 803f 0000 803f 0000 803f
000000c0: 0000 803f 0000 803f 0000 803f 0000 803f
000000d0: 0000 803f 0000 803f 0000 803f 0000 803f
000000e0: 0000 803f 0000 803f 0000 803f 0000 803f
000000f0: 0000 803f 0000 803f 0000 803f 0000 803f

generator.transformer_layer.norm1.bias f4 [64]
0.0 0.0 0.0 0.0 0.0 0.0 0.0 0.0
0.0 0.0 0.0 0.0 0.0 0.0 0.0 0.0
0.0 0.0 0.0 0.0 0.0 0.0 0.0 0.0
0.0 0.0 0.0 0.0 0.0 0.0 0.0 0.0
0.0 0.0 0.0 0.0 0.0 0.0 0.0 0.0
0.0 0.0 0.0 0.0 0.0 0.0 0.0 0.0
0.0 0.0 0.0 0.0 0.0 0.0 0.0 0.0
0.0 0.0 0.0 0.0 0.0 0.0 0.0 0.0
00000000: 0000 0000 0000 0000 0000 0000 0000 0000
00000010: 0000 0000 0000 0000 0000 0000 0000 0000
00000020: 0000 0000 0000 0000 0000 0000 0000 0000
00000030: 0000 0000 0000 0000 0000 0000 0000 0000
00000040: 0000 0000 0000 0000 0000 0000 0000 0000
00000050: 0000 0000 0000 0000 0000 0000 0000 0000
00000060: 0000 0000 0000 0000 0000 0000 0000 0000
00000070: 0000 0000 0000 0000 0000 0000 0000 0000
00000080: 0000 0000 0000 0000 0000 0000 0000 0000
00000090: 0000 0000 0000 0000 0000 0000 0000 0000
000000a0: 0000 0000 0000 0000 0000 0000 0000 0000
000000b0: 0000 0000 0000 0000 0000 0000 0000 0000
000000c0: 0000 0000 0000 0000 0000 0000 0000 0000
000000d0: 0000 0000 0000 0000 0000 0000 0000 0000
000000e0: 0000 0000 0000 0000 0000 0000 0000 0000
000000f0: 0000 0000 0000 0000 0000 0000 0000 0000

generator.transformer_layer.norm2.weight f4 [64]
1.0 1.0 1.0 1.0 1.0 1.0 1.0 1.0
1.0 1.0 1.0 1.0 1.0 1.0 1.0 1.0
1.0 1.0 1.0 1.0 1.0 1.0 1.0 1.0
1.0 1.0 1.0 1.0 1.0 1.0 1.0 1.0
1.0 1.0 1.0 1.0 1.0 1.0 1.0 1.0
1.0 1.0 1.0 1.0 1.0 1.0 1.0 1.0
1.0 1.0 1.0 1.0 1.0 1.0 1.0 1.0
1.0 1.0 1.0 1.0 1.0 1.0 1.0 1.0
00000000: 0000 803f 0000 803f 0000 803f 0000 803f
00000010: 0000 803f 0000 803f 0000 803f 0000 803f
00000020: 0000 803f 0000 803f 0000 803f 0000 803f
00000030: 0000 803f 0000 803f 0000 803f 0000 803f
00000040: 0000 803f 0000 803f 0000 803f 0000 803f
00000050: 0000 803f 0000 803f 0000 803f 0000 803f
00000060: 0000 803f 0000 803f 0000 803f 0000 803f
00000070: 0000 803f 0000 803f 0000 803f 0000 803f
00000080: 0000 803f 0000 803f 0000 803f 0000 803f
00000090: 0000 803f 0000 803f 0000 803f 0000 803f
000000a0: 0000 803f 0000 803f 0000 803f 0000 803f
000000b0: 0000 803f 0000 803f 0000 803f 0000 803f
000000c0: 0000 803f 0000 803f 0000 803f 0000 803f
000000d0: 0000 803f 0000 803f 0000 803f 0000 803f
000000e0: 0000 803f 0000 803f 0000 803f 0000 803f
000000f0: 0000 803f 0000 803f 0000 803f 0000 803f

generator.transformer_layer.norm2.bias f4 [64]
0.0 0.0 0.0 0.0 0.0 0.0 0.0 0.0
0.0 0.0 0.0 0.0 0.0 0.0 0.0 0.0
0.0 0.0 0.0 0.0 0.0 0.0 0.0 0.0
0.0 0.0 0.0 0.0 0.0 0.0 0.0 0.0
0.0 0.0 0.0 0.0 0.0 0.0 0.0 0.0
0.0 0.0 0.0 0.0 0.0 0.0 0.0 0.0
0.0 0.0 0.0 0.0 0.0 0.0 0.0 0.0
0.0 0.0 0.0 0.0 0.0 0.0 0.0 0.0
00000000: 0000 0000 0000 0000 0000 0000 0000 0000
00000010: 0000 0000 0000 0000 0000 0000 0000 0000
00000020: 0000 0000 0000 0000 0000 0000 0000 0000
00000030: 0000 0000 0000 0000 0000 0000 0000 0000
00000040: 0000 0000 0000 0000 0000 0000 0000 0000
00000050: 0000 0000 0000 0000 0000 0000 0000 0000
00000060: 0000 0000 0000 0000 0000 0000 0000 0000
00000070: 0000 0000 0000 0000 0000 0000 0000 0000
00000080: 0000 0000 0000 0000 0000 0000 0000 0000
00000090: 0000 0000 0000 0000 0000 0000 0000 0000
000000a0: 0000 0000 0000 0000 0000 0000 0000 0000
000000b0: 0000 0000 0000 0000 0000 0000 0000 0000
000000c0: 0000 0000 0000 0000 0000 0000 0000 0000
000000d0: 0000 0000 0000 0000 0000 0000 0000 0000
000000e0: 0000 0000 0000 0000 0000 0000 0000 0000
000000f0: 0000 0000 0000 0000 0000 0000 0000 0000
