GANS/gan_model.pth (torch, 948054 bytes, 71 tensors)

embedding.fc.weight f4 [64, 17]
0	0xbe44b218	-0.19208562
1	0xbd6b6ac2	-0.05747486
2	0x3ec07b41	0.37594035
3	0x3f29f417	0.66388077
4	0xbf349811	-0.70544535
5	0x3dd15eb4	0.10223141
6	0xbd412827	-0.047157433
7	0x3dae56de	0.08512662
8	0x3b37d7f8	0.0028052311
9	0xbd3a630e	-0.045504622
10	0xbda59acd	-0.080861665
11	0xbd4522ee	-0.048129015
12	0x3d4584df	0.04822242
13	0xbdfd75e1	-0.12375999
14	0x3e15444e	0.14576837
15	0x3dbbfe9a	0.09179421
16	0x3e496598	0.19667661
17	0xbf38cfae	-0.72191894
18	0xbed4fa79	-0.41597345
19	0xbe75bd48	-0.23997986
20	0xbcf694ce	-0.030100252
21	0xbf7130e7	-0.94215244
22	0xbd184dcd	-0.03718357
23	0x3ea54365	0.3227798
24	0x3f155d7a	0.5834576
25	0x3e375c12	0.17906216
26	0x3e81f3cf	0.25381324
27	0x3f1450ca	0.57935774
28	0x3e595f7c	0.2122783
29	0x3e6e0ffb	0.23248284
30	0xbe0286ce	-0.12746736
31	0xbd009ed2	-0.031401463
32	0x3df3ce7e	0.1190462
33	0x3c9034f5	0.017603377
34	0x3e53f6bf	0.20699595
35	0x3a5fe3af	0.00085407024
36	0x3cec75dd	0.028864795
37	0xbe50d65f	-0.20394276
38	0x3e58a6a5	0.2115732
39	0xbd2ab04b	-0.041672032
40	0xbd34d81a	-0.044151403
41	0x3e083e9b	0.13305132
42	0xbdb0a1ff	-0.08624648
43	0xbe116f94	-0.1420272
44	0xbeb0d291	-0.3453565
45	0xbe00bd77	-0.12572275
46	0xbe72d038	-0.23712242
47	0x3ea895f0	0.32926893
48	0x3e12557a	0.14290419
49	0xbe48a910	-0.19595742
50	0x3dd1a279	0.10236067
51	0xbec862ec	-0.3913797
52	0xbe9288fb	-0.28620133
53	0x3ea97316	0.33095616
54	0xbd88cf64	-0.066801816
55	0x3eed423a	0.4633959
56	0xbdf16b7e	-0.11788081
57	0x3d871095	0.0659496
58	0x3da4ec99	0.0805294
59	0xbe7fe9b2	-0.24991491
60	0xbeb1a60c	-0.34696996
61	0xbf2bf632	-0.6717254
62	0xbdb5751b	-0.08860227
63	0x3e797c90	0.24363923
64	0x3e907eec	0.28221834
65	0x3d555c2b	0.05208985
66	0x3db2a44b	0.08722743
67	0x3f0fab88	0.5612111
68	0xbe68e4fe	-0.22743604
69	0xbde0f325	-0.10983876
70	0x3e2710b1	0.16314961
71	0x3e5285f1	0.20558907
72	0xbe3137fa	-0.1730651
73	0xbdd0942c	-0.101845115
74	0x3e69a1d7	0.22815643
75	0xbdc39261	-0.09549404
76	0xbda79178	-0.08182043
77	0x3e4df4e2	0.20112947
78	0xbe9468e1	-0.28986266
79	0xbe8dfd12	-0.2773214
80	0xbe389428	-0.18025267
81	0x3ea115f4	0.3146206
82	0xbe3fe77d	-0.1874065
83	0x3e283230	0.16425395
84	0x3daf8417	0.08570116
85	0x3cb713ed	0.022348369
86	0x3ece1103	0.40247354
87	0xbc327e35	-0.010894348
88	0xbe735ada	-0.23765126
89	0x3e5853f2	0.21125773
90	0xbbc3e336	-0.0059780134
91	0xbe00307b	-0.12518494
92	0x3dc955c8	0.098308146
93	0x3e09cb64	0.13456494
94	0x3e35d628	0.17757475
95	0x3f20d860	0.6283016
96	0x3f05e399	0.5230041
97	0xbe17bd61	-0.14818336
98	0xbe467582	-0.19380763
99	0xbf137051	-0.57593256
100	0xbf121f4c	-0.57079005
101	0xbe4354d5	-0.1907533
102	0x3c858ad8	0.016301557
103	0x3e8e8620	0.27836704
104	0xbd58a73e	-0.05289387
105	0x3ed9f486	0.4256937
106	0xbe9b2bad	-0.3030676
107	0xbe33461d	-0.17507215
108	0xbe1bb551	-0.15205885
109	0x3d8863bc	0.06659648
110	0x3dda1cff	0.10650062
111	0xbd313991	-0.04326779
112	0x3e90f9b2	0.28315502
113	0xbc0f69a0	-0.00875321
114	0x3e9b0fa3	0.30285367
115	0xbe9d4ff6	-0.30725068
116	0x3e5346da	0.20632496
117	0xbd1cba06	-0.038263343
118	0xbe864da9	-0.26231125
119	0x3ed592bd	0.41713515
120	0x3c339ad1	0.010962204
121	0x3c994777	0.018710835
122	0xbe13d8d1	-0.14438178
123	0xbc109819	-0.008825325
124	0xbd1b5aec	-0.037928507
125	0xbdcfa62c	-0.10139117
126	0xbe32e3f0	-0.17469764
127	0xbbcaffbf	-0.006195038
128	0x3e15c721	0.14626743
129	0xbeda9fbd	-0.42699996
130	0x3e88c0ae	0.26709503
131	0x3f0d135a	0.55107653
132	0xbecf2b3c	-0.40462673
133	0x3e3532cc	0.17695159
134	0x3ddb2732	0.10700835
135	0xbf229630	-0.6351042
136	0x3e81afee	0.25329536
137	0xbe18a1ae	-0.14905426
138	0xbe84a42e	-0.2590651
139	0xbf101fb6	-0.5629839
140	0x3f16e813	0.5894787
141	0xbd6eeded	-0.058332372
142	0x3de44982	0.11146833
143	0x3da1cc6e	0.0790032
144	0xbe540140	-0.20703602
145	0x3e84b3e1	0.25918487
146	0xbdd4c717	-0.10389536
147	0x3f0c25bd	0.54745084
148	0xbea1c341	-0.3159428
149	0xbb691c5d	-0.0035569884
150	0xbd1eff60	-0.038817763
151	0xbe7c3818	-0.24630773
152	0xbee21eec	-0.44164217
153	0xbea16087	-0.31518957
154	0x3d83a4cf	0.06427919
155	0xbcd31763	-0.025767988
156	0x3c55f3f0	0.0130586475
157	0x3e65a35c	0.22425598
158	0x3dbf30f8	0.09335512
159	0xbc4d4cd3	-0.012530523
160	0x3e0a0308	0.13477719
161	0xbe631771	-0.22176911
162	0xbe91feca	-0.285147
163	0x3e940d8d	0.28916588
164	0x3f18d6b5	0.59702617
165	0x3e72bdfd	0.23705287
166	0xbee09a13	-0.4386755
167	0xbf25be15	-0.6474317
168	0xbda78a57	-0.08180683
169	0x3f28b17e	0.6589583
170	0x3ec45895	0.38348833
171	0x3dac3e76	0.08410351
172	0x3dcbfa0c	0.09959802
173	0xbeb2cdbe	-0.34922594
174	0x3a74ba03	0.0009335579
175	0xbdab001e	-0.08349632
176	0x3d597a34	0.053095058
177	0xbe6eb2b2	-0.23310354
178	0xbe9839fb	-0.29731736
179	0xbe00b89a	-0.1257042
180	0x3e3bfa0e	0.18357107
181	0x3e3d377e	0.184782
182	0xbe93ac5a	-0.2884243
183	0x3e2614c3	0.16218857
184	0x3d1619eb	0.03664581
185	0x3d235b28	0.039881855
186	0x3e9a437a	0.30129606
187	0xbe8a64f9	-0.2703016
188	0x3dbb8cec	0.09157738
189	0xbd9a72f0	-0.07541454
190	0x3d9b6047	0.07586723
191	0xbdede1f2	-0.11615361
192	0xbde17bd5	-0.11009947
193	0xbea4bf58	-0.32177234
194	0xbe8eaa99	-0.2786453
195	0x3ea6b23d	0.3255786
196	0x3eb2c6e4	0.34917367
197	0xbd943287	-0.072362
198	0x3e45a779	0.19302167
199	0x398e9e6c	0.00027202384
200	0x3d8cc87f	0.06874179
201	0x3da52921	0.08064485
202	0xbe7286b1	-0.23684193
203	0x3e4a776d	0.1977212
204	0xbe826201	-0.25465396
205	0xbd19d31d	-0.03755485
206	0xbd86cb3b	-0.06581732
207	0xbde90ed3	-0.113797806
208	0xbdf5711d	-0.11984465
209	0x3e61dd52	0.22057083
210	0x3eb44ebf	0.35216329
211	0xbc2930b0	-0.010326549
212	0x3be7e2fb	0.0070766187
213	0xbb85961e	-0.0040767333
214	0x3dc6c6fc	0.09705922
215	0x3e11cd83	0.14238553
216	0x3f19c5ca	0.6006743
217	0xbdd99c24	-0.106254846
218	0xbd13dce9	-0.03609935
219	0xbe450f21	-0.19244052
220	0xbe43e3fa	-0.19129935
221	0x3dc40c17	0.095726185
222	0xbddd1a65	-0.1079605
223	0x3e638aab	0.22220866
224	0xbd1ef260	-0.038805366
225	0xbdf658c6	-0.12028651
226	0x3e0fd1d0	0.14044881
227	0xbc35ffd8	-0.011108361
228	0xba92f2fa	-0.0011211329
229	0xbd9a5b95	-0.07536999
230	0xbe850c6f	-0.2598605
231	0x3d934c7a	0.07192321
232	0xbc7855fc	-0.015157219
233	0xbe2e507b	-0.17022888
234	0x3e346fd3	0.17620783
235	0xbe538ad5	-0.20658429
236	0x3e0da799	0.13833465
237	0xbe4041a8	-0.18775046
238	0x3e144d9e	0.14482734
239	0x3ded5c75	0.115899004
240	0xbe750603	-0.23928075
241	0xbeb4bc3c	-0.3529986
242	0x3e966ede	0.2938146
243	0x3d7eb3af	0.06218308
244	0xbde18cc0	-0.11013174
245	0x3cb5cd96	0.022192758
246	0x3cfcab50	0.030843407
247	0x3ddfc1f4	0.109256655
248	0x3e3947cd	0.18093796
249	0x3dda6faa	0.106658295
250	0xbe041c93	-0.12901525
251	0x3e2f83ae	0.17140076
252	0x3d15db67	0.03658619
253	0x3d258660	0.040411353
254	0xbd82ce3d	-0.06386993
255	0xbdb7940d	-0.08963785

embedding.fc.bias f4 [64]
0	0xbd5442e8	-0.05182162
1	0x3e2f17c1	0.17098905
2	0x3de3da74	0.11125651
3	0x3da1442d	0.078743316
4	0x3cf36a43	0.029713755
5	0xbcf6f603	-0.030146604
6	0xbe559978	-0.20859325
7	0x3eb8fe83	0.36131677
8	0x3e036bb8	0.1283406
9	0xbe433330	-0.19062495
10	0x3d81940e	0.06327067
11	0xbe02f2e5	-0.1278797
12	0xbea95b9a	-0.330777
13	0x3dca20d5	0.098695435
14	0xbdf47ac8	-0.11937481
15	0x3d92ad71	0.071619876
16	0xbdd54c1d	-0.10414908
17	0xbe1d514e	-0.15363047
18	0xbd2fd042	-0.04292322
19	0x3e97cc6a	0.29648143
20	0x3e40a755	0.18813832
21	0x3d8c73cc	0.06858024
22	0xbd6d1bb8	-0.057887763
23	0x3e84ecae	0.25961822
24	0x3e4ac1af	0.19800447
25	0xbe9208ba	-0.28522283
26	0xbe2409d3	-0.16019373
27	0x3d196398	0.037448496
28	0xbda02844	-0.0782018
29	0x3e3061e8	0.17224848
30	0xbe8e3bf3	-0.27780113
31	0xbe1342b4	-0.14380914
32	0xbe8e78e2	-0.278266
33	0x3e04309f	0.12909172
34	0xbce434d5	-0.027857224
35	0x3cfec38c	0.031099103
36	0xbe27e713	-0.16396742
37	0x3d19b929	0.037530098
38	0x3e9aa36c	0.30202806
39	0xbe191f04	-0.14953238
40	0x3e3c3574	0.18379766
41	0x3e189fb2	0.14904669
42	0x3e96967e	0.2941169
43	0x3e5a3c26	0.21312007
44	0x3e0788cc	0.13235778
45	0x3d00d3e8	0.03145209
46	0x3e888634	0.2666489
47	0xbe873371	-0.26406434
48	0xbe8a1ae3	-0.26973638
49	0xbe15fb30	-0.14646602
50	0x3cae3922	0.021267477
51	0x3daced7e	0.084437355
52	0xbe255dc8	-0.16149056
53	0xbc23f985	-0.010008221
54	0x3dc7d173	0.09756746
55	0xbe4bb652	-0.19893768
56	0x3e2ed813	0.17074613
57	0xbe290ff5	-0.16509993
58	0xbddb407e	-0.1070566
59	0x3e930341	0.2871342
60	0x3e538180	0.20654869
61	0xbe8de28d	-0.27711907
62	0x3dd4dd16	0.10393731
63	0xbd8ce466	-0.06879501

generator.transformer_layer.self_attn.in_proj_weight f4 [192, 64]
0	0x3decffe6	0.11572246
1	0x3d305bfc	0.043056473
2	0xbe1b6a2e	-0.15177223
3	0x3d3e28c4	0.046425596
4	0xbc069df0	-0.008216366
5	0xbd8debb4	-0.069297224
6	0x3def4b76	0.11684315
7	0xbd8ca168	-0.06866723
8	0xbe0851e2	-0.13312486
9	0xbe1a75b3	-0.15083961
10	0xbda4aa7a	-0.08040328
11	0xbcc26a40	-0.023732305
12	0x3d956154	0.072939545
13	0xbe147f40	-0.14501667
14	0x3c491290	0.012272492
15	0x3d3874d8	0.045033306
16	0x3e054581	0.13014795
17	0x3d9e5412	0.07730879
18	0xbd4dc13c	-0.05023311
19	0xbdb93669	-0.09043581
20	0xbdbfe33c	-0.093695134
21	0x3e0bd72d	0.13656302
22	0xbe19588f	-0.14975189
23	0x3d679098	0.05653438
24	0xbc9a9ea8	-0.018874481
25	0xbdd1cc62	-0.10244061
26	0x3e04b441	0.12959386
27	0xbd58ae44	-0.052900568
28	0x3d51e864	0.051247016
29	0x3e19bab1	0.15012623
30	0xbd511b98	-0.051051706
31	0x3d9c7330	0.07639158
32	0x3e15e535	0.14638217
33	0x3ddd1cd6	0.10796516
34	0xbb8dbf00	-0.0043257475
35	0x3ddef0b6	0.10885756
36	0xbe0f0f02	-0.13970569
37	0xbd1eb47c	-0.038746342
38	0xbaa85880	-0.0012843758
39	0x3d175a60	0.036951423
40	0x3da1292e	0.078691825
41	0x3d7c7f84	0.061645046
42	0xbcd4df00	-0.025985241
43	0x3d8e7f3c	0.06957862
44	0xbd59067c	-0.0529847
45	0xbd79c356	-0.060977302
46	0x3d7eb598	0.0621849
47	0x3e12f9a9	0.1435305
48	0xbda3f93c	-0.08006522
49	0x3c8b1ed8	0.01698248
50	0x3d4eb084	0.050461307
51	0x3ce194e8	0.027536824
52	0xbd9c016e	-0.0761746
53	0xbde460c2	-0.111512676
54	0x3dd2ef6e	0.10299574
55	0xbde97623	-0.11399486
56	0xbdae4b2e	-0.08510433
57	0x3e10d8a9	0.1414515
58	0xbd58b366	-0.052905463
59	0xbdda2fb0	-0.10653627
60	0x3e19669b	0.14980547
61	0xbd9f0d05	-0.07766155
62	0xbdffefd6	-0.12496917
63	0xbd3d6784	-0.0462413
64	0x3d56ae2c	0.052412197
65	0xbd95da0b	-0.07316979
66	0x3e07e571	0.13271119
67	0xbdd56fc6	-0.1042171
68	0xbcce9bb0	-0.025220722
69	0x3e0a2489	0.134905
70	0x3e14ac6b	0.14518897
71	0x3ccc1580	0.024912596
72	0x3d3f0e04	0.046644226
73	0xbc4ae640	-0.012383997
74	0x3c42ba00	0.011885166
75	0xbd662d54	-0.056195572
76	0xbc7899d0	-0.0151733905
77	0x3c078df0	0.008273587
78	0x3dc71b9e	0.097220644
79	0xbda6513c	-0.08120963
80	0xbce40018	-0.027832076
81	0xbcd1cce8	-0.025610402
82	0x3d4468fc	0.047951683
83	0xbd66efd6	-0.05638107
84	0x3d214820	0.039375424
85	0x3d53d494	0.051716402
86	0xbde43429	-0.11142761
87	0xbda580ca	-0.08081205
88	0x3dbee19e	0.09320377
89	0xbdcef89e	-0.10106014
90	0x3e089735	0.13338931
91	0xbde2e4d0	-0.11078799
92	0xbbdaa2c0	-0.0066722333
93	0x3d1062c8	0.035250455
94	0x3d034848	0.032051355
95	0x3cb267f8	0.021778092
96	0xbe089d09	-0.13341154
97	0xbd7026fa	-0.05863092
98	0x3cc3a560	0.023882568
99	0x39b0c600	0.00033716857
100	0x3e10e825	0.14151056
101	0xbd90a6da	-0.070630744
102	0xbcd08848	-0.025455609
103	0x3dcc6a52	0.099812165
104	0x3d855670	0.06510627
105	0xbdf3b77e	-0.11900233
106	0x3d5bb6d4	0.053641155
107	0xbdca9b42	-0.09892894
108	0xbdc58aa8	-0.09645587
109	0xbbacf3e0	-0.0052780956
110	0xbdda27dc	-0.10652134
111	0x3d0f835c	0.035037383
112	0xbe183b9f	-0.14866494
113	0x3de6b6ce	0.11265336
114	0xbdbc4bc0	-0.09194136
115	0xbd6456b4	-0.05574675
116	0xbcbcd8a8	-0.023052529
117	0x3e0275dd	0.12740274
118	0x3ca56578	0.020189986
119	0x3cbc3f50	0.022979409
120	0x3d8baa04	0.06819537
121	0xbd4f1ab6	-0.050562583
122	0xbdfe5cdb	-0.124200545
123	0x3d186d64	0.037213698
124	0x3e09561f	0.13411759
125	0x3cb62d18	0.0222383
126	0x3dcb6fb2	0.099334136
127	0xbd8f6c6b	-0.07003101
128	0xbd306c3a	-0.043071963
129	0xbdca06f0	-0.098646045
130	0x3e1b004f	0.15136836
131	0x3c3ea510	0.011636034
132	0x3daf6cd0	0.08565676
133	0x3d812d56	0.06307475
134	0xbccf87c0	-0.025333285
135	0xbda6ff88	-0.081542075
136	0xbcc42640	-0.02394402
137	0x3db5b756	0.08872859
138	0x3e0d5feb	0.13806121
139	0xbcb638a8	-0.022243813
140	0x3d5cd334	0.053912356
141	0xbc0cdaf0	-0.008597121
142	0xbd2ee5c8	-0.042699605
143	0xbd0de4c0	-0.03464198
144	0xbdb28897	-0.08717459
145	0xbdcf03cb	-0.10108145
146	0xbdc82e5e	-0.09774469
147	0x3d8a6ab6	0.06758635
148	0xbdd90d1c	-0.105982035
149	0x3d978596	0.07398526
150	0xbe0cf3f4	-0.13764936
151	0x3d558774	0.05213113
152	0x3da25c9a	0.079278186
153	0x3d463488	0.04838994
154	0x3de183e6	0.11011486
155	0xbd5fdf8a	-0.054656543
156	0xbd68c3dc	-0.05682741
157	0xbd5e89de	-0.0543307
158	0xbd3d9f6a	-0.046294607
159	0x3d64d778	0.05586955
160	0x3898e800	7.291138e-05
161	0xbd321c12	-0.0434838
162	0x3dfe8432	0.12427558
163	0x3de2dd26	0.11077337
164	0xbd0a64e2	-0.033787616
165	0xbb59e100	-0.0033245683
166	0xbced4688	-0.028964296
167	0x3d829fa6	0.06378107
168	0x3b7db740	0.0038713962
169	0xbe1289ec	-0.14310426
170	0xbd8a384a	-0.067490175
171	0xbddcbaf4	-0.10777846
172	0x3e1930cb	0.1496002
173	0x3e1a227d	0.15052219
174	0x3dcd6f3e	0.100309834
175	0xbde0f3ce	-0.10984002
176	0x3bcefd80	0.0063168406
177	0xbafab880	-0.0019128472
178	0xbe00f054	-0.12591678
179	0x3d25cd9c	0.040479288
180	0xbd9212eb	-0.071325146
181	0xbda4d6f3	-0.08048811
182	0x3d8b0b24	0.06789234
183	0xbd0fe3f6	-0.03512951
184	0xba390000	-0.000705719
185	0xbcd0eaf0	-0.025502652
186	0xbe18ac7e	-0.1490955
187	0x3cf9b958	0.030483887
188	0x3db2471a	0.08704968
189	0xbd1b9a46	-0.037988923
190	0xbe0338cb	-0.12814634
191	0x3e01a8b9	0.12662019
192	0xbdaf0e3d	-0.085476376
193	0x3c0d54f0	0.008626208
194	0x3dbefbca	0.09325369
195	0xbc31b3f0	-0.010846123
196	0xbd0b76ac	-0.03404872
197	0xbdc32a8a	-0.09529598
198	0xbdc1244d	-0.09430752
199	0xbc525310	-0.012837186
200	0xbdc5fa28	-0.09666854
201	0xbd3e414a	-0.046448983
202	0x3c83a4b8	0.016069755
203	0xbbc3a6e0	-0.005970821
204	0xbd861ccc	-0.06548461
205	0x3c9c0398	0.019044682
206	0xba4b2100	-0.0007748753
207	0xbe14397c	-0.14475054
208	0x3d367cf4	0.04455276
209	0x3c544670	0.012956247
210	0x3dc10ce4	0.09426287
211	0xbda3ed30	-0.08004224
212	0x3d10e224	0.035371915
213	0xbdfe8e5a	-0.12429495
214	0xbcb6a7f8	-0.02229689
215	0xbd985586	-0.07438187
216	0x3e102d79	0.14079846
217	0x3bcb12c0	0.0061973035
218	0xbdd6a0fe	-0.104799256
219	0xbd5f893a	-0.05457423
220	0xbdee3694	-0.11631504
221	0x3d95fa54	0.07323137
222	0xbd12832a	-0.03576962
223	0xbe07a070	-0.13244796
224	0xbd9b3f36	-0.07580416
225	0xbd976869	-0.073929615
226	0xbdf7a0dd	-0.12091229
227	0xbdedc500	-0.116098404
228	0xbc90f470	-0.017694682
229	0x3e17027b	0.1474704
230	0xbcc216f8	-0.023692593
231	0xbdae5c7d	-0.085137345
232	0xbab1d480	-0.0013567358
233	0xbd64de3a	-0.055875994
234	0xbe012327	-0.12611066
235	0x3c3b7cd0	0.011443332
236	0x3e09932f	0.13435052
237	0xbe12cb30	-0.14335322
238	0xbdaeea7c	-0.08540818
239	0x3e09fec3	0.1347609
240	0xbe19de49	-0.15026201
241	0xbdfcbe74	-0.123410136
242	0x3c7ca490	0.015420094
243	0x3bebd640	0.0071971714
244	0xbd90ef97	-0.07076948
245	0xbc8451e0	-0.016152322
246	0x3d298c50	0.041393578
247	0x3d5095f0	0.05092424
248	0xbe0c53d6	-0.13703856
249	0xbc74f3e0	-0.014950722
250	0xbdc85d32	-0.097834006
251	0xbe027a4a	-0.12741962
252	0xbdf96941	-0.12178279
253	0x3d6f7178	0.05845782
254	0xbdc01d2a	-0.093805626
255	0x3e12e4ed	0.14345141

generator.transformer_layer.self_attn.in_proj_bias f4 [192]
0	0x00000000	0.0
1	0x00000000	0.0
2	0x00000000	0.0
3	0x00000000	0.0
4	0x00000000	0.0
5	0x00000000	0.0
6	0x00000000	0.0
7	0x00000000	0.0
8	0x00000000	0.0
9	0x00000000	0.0
10	0x00000000	0.0
11	0x00000000	0.0
12	0x00000000	0.0
13	0x00000000	0.0
14	0x00000000	0.0
15	0x00000000	0.0
16	0x00000000	0.0
17	0x00000000	0.0
18	0x00000000	0.0
19	0x00000000	0.0
20	0x00000000	0.0
21	0x00000000	0.0
22	0x00000000	0.0
23	0x00000000	0.0
24	0x00000000	0.0
25	0x00000000	0.0
26	0x00000000	0.0
27	0x00000000	0.0
28	0x00000000	0.0
29	0x00000000	0.0
30	0x00000000	0.0
31	0x00000000	0.0
32	0x00000000	0.0
33	0x00000000	0.0
34	0x00000000	0.0
35	0x00000000	0.0
36	0x00000000	0.0
37	0x00000000	0.0
38	0x00000000	0.0
39	0x00000000	0.0
40	0x00000000	0.0
41	0x00000000	0.0
42	0x00000000	0.0
43	0x00000000	0.0
44	0x00000000	0.0
45	0x00000000	0.0
46	0x00000000	0.0
47	0x00000000	0.0
48	0x00000000	0.0
49	0x00000000	0.0
50	0x00000000	0.0
51	0x00000000	0.0
52	0x00000000	0.0
53	0x00000000	0.0
54	0x00000000	0.0
55	0x00000000	0.0
56	0x00000000	0.0
57	0x00000000	0.0
58	0x00000000	0.0
59	0x00000000	0.0
60	0x00000000	0.0
61	0x00000000	0.0
62	0x00000000	0.0
63	0x00000000	0.0
64	0x00000000	0.0
65	0x00000000	0.0
66	0x00000000	0.0
67	0x00000000	0.0
68	0x00000000	0.0
69	0x00000000	0.0
70	0x00000000	0.0
71	0x00000000	0.0
72	0x00000000	0.0
73	0x00000000	0.0
74	0x00000000	0.0
75	0x00000000	0.0
76	0x00000000	0.0
77	0x00000000	0.0
78	0x00000000	0.0
79	0x00000000	0.0
80	0x00000000	0.0
81	0x00000000	0.0
82	0x00000000	0.0
83	0x00000000	0.0
84	0x00000000	0.0
85	0x00000000	0.0
86	0x00000000	0.0
87	0x00000000	0.0
88	0x00000000	0.0
89	0x00000000	0.0
90	0x00000000	0.0
91	0x00000000	0.0
92	0x00000000	0.0
93	0x00000000	0.0
94	0x00000000	0.0
95	0x00000000	0.0
96	0x00000000	0.0
97	0x00000000	0.0
98	0x00000000	0.0
99	0x00000000	0.0
100	0x00000000	0.0
101	0x00000000	0.0
102	0x00000000	0.0
103	0x00000000	0.0
104	0x00000000	0.0
105	0x00000000	0.0
106	0x00000000	0.0
107	0x00000000	0.0
108	0x00000000	0.0
109	0x00000000	0.0
110	0x00000000	0.0
111	0x00000000	0.0
112	0x00000000	0.0
113	0x00000000	0.0
114	0x00000000	0.0
115	0x00000000	0.0
116	0x00000000	0.0
117	0x00000000	0.0
118	0x00000000	0.0
119	0x00000000	0.0
120	0x00000000	0.0
121	0x00000000	0.0
122	0x00000000	0.0
123	0x00000000	0.0
124	0x00000000	0.0
125	0x00000000	0.0
126	0x00000000	0.0
127	0x00000000	0.0
128	0x00000000	0.0
129	0x00000000	0.0
130	0x00000000	0.0
131	0x00000000	0.0
132	0x00000000	0.0
133	0x00000000	0.0
134	0x00000000	0.0
135	0x00000000	0.0
136	0x00000000	0.0
137	0x00000000	0.0
138	0x00000000	0.0
139	0x00000000	0.0
140	0x00000000	0.0
141	0x00000000	0.0
142	0x00000000	0.0
143	0x00000000	0.0
144	0x00000000	0.0
145	0x00000000	0.0
146	0x00000000	0.0
147	0x00000000	0.0
148	0x00000000	0.0
149	0x00000000	0.0
150	0x00000000	0.0
151	0x00000000	0.0
152	0x00000000	0.0
153	0x00000000	0.0
154	0x00000000	0.0
155	0x00000000	0.0
156	0x00000000	0.0
157	0x00000000	0.0
158	0x00000000	0.0
159	0x00000000	0.0
160	0x00000000	0.0
161	0x00000000	0.0
162	0x00000000	0.0
163	0x00000000	0.0
164	0x00000000	0.0
165	0x00000000	0.0
166	0x00000000	0.0
167	0x00000000	0.0
168	0x00000000	0.0
169	0x00000000	0.0
170	0x00000000	0.0
171	0x00000000	0.0
172	0x00000000	0.0
173	0x00000000	0.0
174	0x00000000	0.0
175	0x00000000	0.0
176	0x00000000	0.0
177	0x00000000	0.0
178	0x00000000	0.0
179	0x00000000	0.0
180	0x00000000	0.0
181	0x00000000	0.0
182	0x00000000	0.0
183	0x00000000	0.0
184	0x00000000	0.0
185	0x00000000	0.0
186	0x00000000	0.0
187	0x00000000	0.0
188	0x00000000	0.0
189	0x00000000	0.0
190	0x00000000	0.0
191	0x00000000	0.0

generator.transformer_layer.self_attn.out_proj.weight f4 [64, 64]
0	0x3ddf77fc	0.10911557
1	0xbdbb019e	-0.09131168
2	0x3da138fe	0.078721985
3	0xbd3ba3a0	-0.04581034
4	0x3cba37b8	0.022731647
5	0x3dcb2342	0.09918834
6	0x3dcfd472	0.101479426
7	0x3aae8180	0.001331374
8	0x3cdc8160	0.02691716
9	0xbd9a737c	-0.07541558
10	0x3dc7ec50	0.0976187
11	0x3d3a5e50	0.0455001
12	0x3d8ff716	0.0702955
13	0xbbd9a540	-0.006642014
14	0x3ddd7678	0.10813612
15	0xbd7fc800	-0.062446594
16	0xbd21a37c	-0.03946255
17	0x3d8541b6	0.06506674
18	0x3d073664	0.033010855
19	0x3c275020	0.010211974
20	0xbdca622a	-0.098820046
21	0xbdf8bdd6	-0.12145583
22	0xbccfc740	-0.025363564
23	0x3d94f69a	0.07273598
24	0x3de951a0	0.11392522
25	0xbdc39952	-0.09550728
26	0xbdf24a40	-0.11830568
27	0x3d96ec68	0.0736931
28	0xbc904db0	-0.01761517
29	0xbdc8a0ea	-0.09796317
30	0xbd9260dc	-0.07147381
31	0x3db553b8	0.08853859
32	0x3cc49568	0.023997024
33	0xbdbd0ca6	-0.09230928
34	0xbdb32abc	-0.08748385
35	0xbce004d0	-0.027346045
36	0x3dd2aae6	0.102865025
37	0x3de8a35a	0.11359282
38	0x3dfb8f44	0.12283185
39	0x3d66a048	0.0563052
40	0xbd0c9cfc	-0.0343294
41	0x3c206170	0.009788856
42	0x3dc39d3e	0.09551476
43	0xbd88d5ba	-0.0668139
44	0x3de6b7fc	0.11265561
45	0x3d654654	0.055975273
46	0x3b518ac0	0.003197357
47	0xbda8ae70	-0.08236396
48	0x3dd2a0b8	0.10284561
49	0xbd912358	-0.070868194
50	0xbd7887f8	-0.060676545
51	0xbd9115a0	-0.07084203
52	0x3dafe7d6	0.08589141
53	0x3dd7073e	0.10499428
54	0xbd85de44	-0.065365344
55	0x3d3ea85c	0.04654728
56	0x3d232eb0	0.039839447
57	0xbdc80e1c	-0.09768316
58	0x3cfa28e0	0.030537069
59	0xbdb5f592	-0.088847294
60	0x3d6252bc	0.055254683
61	0x3dac13cc	0.084022135
62	0xbdf120fe	-0.11773871
63	0xbd42ae54	-0.047529534
64	0x3dcc8508	0.09986311
65	0xbde5a95e	-0.11213945
66	0x3d4f160c	0.050558135
67	0x3c3ffdc0	0.011718214
68	0xbde22678	-0.110424936
69	0x3d9fb96e	0.0779904
70	0x3d5fd5ec	0.05464737
71	0x3d28aa14	0.041177824
72	0xbca0c700	-0.01962614
73	0xbd6a1018	-0.057144254
74	0x3db1f752	0.08689751
75	0x3ddb84b6	0.10718672
76	0x3d805d30	0.06267774
77	0x3dec5e80	0.11541462
78	0xbd95567e	-0.07291888
79	0x3ddba3c2	0.10724594
80	0xbda56ac0	-0.080770016
81	0x3d04ffac	0.03247039
82	0xbd591eb8	-0.05300781
83	0xbde04d1c	-0.109522074
84	0x3d56dba8	0.052455574
85	0x3d630cb0	0.05543202
86	0x3df04ace	0.11733018
87	0xbbd1db20	-0.0064042956
88	0xbb98b560	-0.0046602935
89	0x3d2e7f70	0.042602003
90	0x3dd2338a	0.102637365
91	0xbc083fb0	-0.0083159655
92	0xb9d6a200	-0.0004093796
93	0x3dd9ad12	0.10628714
94	0x3dbc9148	0.09207398
95	0xbd80c9a4	-0.0628846
96	0x3dc6332e	0.096777305
97	0x3df18b1c	0.11794111
98	0xbd67bc90	-0.05657631
99	0x3d123820	0.035698056
100	0x3d91dcc6	0.07122187
101	0x3d31d6c4	0.043417707
102	0x3d87f9a2	0.066394106
103	0xbdfc6e8c	-0.12325773
104	0x3d647510	0.055775702
105	0xbdccd10c	-0.1000081
106	0xbb6a1280	-0.0035716593
107	0x3d319ff4	0.043365434
108	0x3d920722	0.07130267
109	0x3daf96f8	0.08573717
110	0x3d90bce6	0.070672795
111	0xbdbc016a	-0.09179957
112	0x3d1d2ce4	0.03837289
113	0x3c769770	0.015050754
114	0x3d93ed4c	0.07222995
115	0xbda8afce	-0.08236657
116	0x3daab24e	0.0833479
117	0x3dc3c9f6	0.09560005
118	0xbb5c8040	-0.003364578
119	0x3df10d84	0.11770156
120	0x3c59d580	0.013295531
121	0x3d2792f4	0.04091163
122	0xbdc21e36	-0.094784185
123	0x3deef6ba	0.11668153
124	0xbd189048	-0.037246972
125	0xbcd63260	-0.026147068
126	0x3d833538	0.06406635
127	0xbd27fe7c	-0.04101418
128	0xbba97400	-0.005171299
129	0xbdaecc98	-0.08535117
130	0xbd455278	-0.04817435
131	0xbd82634a	-0.06366594
132	0xbdf322de	-0.11871885
133	0x3d9c8234	0.07642022
134	0x3d9f3366	0.07773475
135	0xbd0bb108	-0.034104377
136	0xbcdf5520	-0.02726227
137	0x3ddd2ee2	0.10799958
138	0xbdbc2166	-0.09186058
139	0x3d32643c	0.043552622
140	0xbc3039c0	-0.010755956
141	0x3de8fa06	0.11375813
142	0xbda5928c	-0.08084592
143	0x3d6e3184	0.05815269
144	0x3d184150	0.03717166
145	0xbd00005c	-0.031250343
146	0x3d82bfae	0.06384216
147	0xbcf9c958	-0.030491516
148	0x3d1a4ec4	0.037672773
149	0x3ca4e3a0	0.020128071
150	0xbd5c8040	-0.053833246
151	0x3dc266ba	0.0949225
152	0x3cd6cf68	0.026221946
153	0x3dad03dc	0.08448002
154	0x3d1c7114	0.038193777
155	0xbdd3a40a	-0.10334022
156	0xbd8b7aec	-0.06810555
157	0xbdd3a1cc	-0.10333595
158	0x3db19a4c	0.08672008
159	0xbd83fc68	-0.06444627
160	0xbdf18b00	-0.1179409
161	0x3d9cd9ac	0.07658705
162	0x3c3e6ad0	0.011622146
163	0xbdc1bba8	-0.09459621
164	0x3dd72988	0.10505968
165	0xbd0e5dbc	-0.03475736
166	0x3d24fab4	0.04027815
167	0x3c0295f0	0.007970318
168	0x3db48ac0	0.08815527
169	0xbcf80be8	-0.030279115
170	0xbb5e4e80	-0.0033921301
171	0x3df57014	0.11984268
172	0x3ccb1f28	0.02479513
173	0xbda539fa	-0.08067699
174	0xbd7ab394	-0.061206415
175	0x3dccfa3e	0.100086674
176	0xbdffbfe4	-0.12487772
177	0x3cc3f898	0.02392225
178	0x3de15dd0	0.110042214
179	0xbccc39d8	-0.024929926
180	0x3dde2b82	0.10848142
181	0x3d510618	0.051031202
182	0xbdbae58c	-0.09125814
183	0x3d881d34	0.06646195
184	0xbcce74a0	-0.025202096
185	0x3d56b370	0.05241722
186	0xbd52da78	-0.05147788
187	0x3dd4b2ca	0.10385664
188	0xbd9ed920	-0.07756257
189	0x3d138a9c	0.03602086
190	0xbdf0acf6	-0.1175174
191	0x3d12ae00	0.03581047
192	0x3d998068	0.07495195
193	0xbdea763a	-0.11448331
194	0x3c4c2bd0	0.012461618
195	0xbd980f40	-0.07424784
196	0x3d50bcc4	0.05096127
197	0x3dc5f94a	0.09666689
198	0x3c860958	0.016361877
199	0x3d974dfc	0.07387921
200	0x3d3bf350	0.045886338
201	0x3de112d2	0.10989918
202	0x3dd904dc	0.1059663
203	0x3dc058c8	0.09391934
204	0x3d583968	0.052789122
205	0xbd1d89f4	-0.03846164
206	0x3c903ad0	0.017606169
207	0xbdb0e552	-0.086374894
208	0xbda9ba2c	-0.082874626
209	0xbde4fcde	-0.11181043
210	0x3dcf68d0	0.10127413
211	0xbc9fbc98	-0.019499108
212	0x3d8a12ba	0.06741853
213	0xbdeea5fc	-0.11652753
214	0x3dab887a	0.0837564
215	0xbddbd0f2	-0.107332125
216	0x3db4dae8	0.088308156
217	0xbded60a0	-0.115906954
218	0xbdfb1b24	-0.12261036
219	0xbdacc128	-0.08435279
220	0x3dd68c4a	0.10475977
221	0xbdcc9d5c	-0.099909514
222	0xbde00130	-0.109377265
223	0x3cb97f78	0.02264379
224	0xbd93154c	-0.071817964
225	0xbd3ba8a4	-0.045815125
226	0xbdc40482	-0.09571172
227	0x3d430608	0.047613174
228	0xbc8cc008	-0.017181411
229	0xbd83cc1e	-0.06435417
230	0xbccc9988	-0.024975553
231	0x3c86b8c0	0.016445518
232	0x3cd328d0	0.025776297
233	0xbd261178	-0.040544003
234	0xbdb9c6ce	-0.09071122
235	0x3d870020	0.06591821
236	0xbcb3c098	-0.021942422
237	0x3c96ede0	0.018423975
238	0x3c763290	0.0150267035
239	0x3d814906	0.06312756
240	0xbd953ea0	-0.072873354
241	0x3d803b02	0.06261255
242	0x3da0737e	0.078345284
243	0xbd944360	-0.07239413
244	0xbda6b568	-0.08140069
245	0xbd46ebb4	-0.048564628
246	0xbd9ec014	-0.0775148
247	0xba89ef80	-0.0010523647
248	0x3cbb0860	0.022831142
249	0xbde29c80	-0.11065006
250	0x3dbf2024	0.09332302
251	0xbc603f60	-0.013686985
252	0x3dff8c88	0.12477976
253	0x3d8f9b10	0.07011998
254	0x3cbfadb8	0.023398265
255	0x3d8c9f88	0.06866366

generator.transformer_layer.self_attn.out_proj.bias f4 [64]
0	0x00000000	0.0
1	0x00000000	0.0
2	0x00000000	0.0
3	0x00000000	0.0
4	0x00000000	0.0
5	0x00000000	0.0
6	0x00000000	0.0
7	0x00000000	0.0
8	0x00000000	0.0
9	0x00000000	0.0
10	0x00000000	0.0
11	0x00000000	0.0
12	0x00000000	0.0
13	0x00000000	0.0
14	0x00000000	0.0
15	0x00000000	0.0
16	0x00000000	0.0
17	0x00000000	0.0
18	0x00000000	0.0
19	0x00000000	0.0
20	0x00000000	0.0
21	0x00000000	0.0
22	0x00000000	0.0
23	0x00000000	0.0
24	0x00000000	0.0
25	0x00000000	0.0
26	0x00000000	0.0
27	0x00000000	0.0
28	0x00000000	0.0
29	0x00000000	0.0
30	0x00000000	0.0
31	0x00000000	0.0
32	0x00000000	0.0
33	0x00000000	0.0
34	0x00000000	0.0
35	0x00000000	0.0
36	0x00000000	0.0
37	0x00000000	0.0
38	0x00000000	0.0
39	0x00000000	0.0
40	0x00000000	0.0
41	0x00000000	0.0
42	0x00000000	0.0
43	0x00000000	0.0
44	0x00000000	0.0
45	0x00000000	0.0
46	0x00000000	0.0
47	0x00000000	0.0
48	0x00000000	0.0
49	0x00000000	0.0
50	0x00000000	0.0
51	0x00000000	0.0
52	0x00000000	0.0
53	0x00000000	0.0
54	0x00000000	0.0
55	0x00000000	0.0
56	0x00000000	0.0
57	0x00000000	0.0
58	0x00000000	0.0
59	0x00000000	0.0
60	0x00000000	0.0
61	0x00000000	0.0
62	0x00000000	0.0
63	0x00000000	0.0

generator.transformer_layer.linear1.weight f4 [128, 64]
0	0x3de3094a	0.11085756
1	0xbdd797ec	-0.10527024
2	0x3d1bb7e0	0.038017154
3	0x3c99dc58	0.018781826
4	0xbcae7828	-0.02129753
5	0xbcd4b9a0	-0.02596742
6	0x3df4a490	0.1194545
7	0x3d212a88	0.0393472
8	0x3d8acb4a	0.067770556
9	0xbda186a8	-0.07887012
10	0xbdb37828	-0.08763152
11	0x3d5307a8	0.051520973
12	0xbc5c2650	-0.013436869
13	0x3da89ed8	0.08233422
14	0xbd95621e	-0.07294105
15	0xbdc62d10	-0.09676564
16	0xbd9a1058	-0.075226486
17	0x3de07edc	0.109616965
18	0x3d23d468	0.03999749
19	0x3d07a728	0.033118397
20	0xbd8f6048	-0.07000786
21	0x3df77e62	0.120846525
22	0xbd2af590	-0.041738093
23	0xbdea6e20	-0.11446786
24	0xbc7d9730	-0.01547794
25	0x3d821326	0.063513085
26	0xbdf50128	-0.11963111
27	0x3d9a84ea	0.075448826
28	0xbb391b00	-0.0028244853
29	0xbda310ea	-0.079622105
30	0xbcdbeab8	-0.026845321
31	0x3d13947c	0.036030278
32	0x3dbaec14	0.091270596
33	0xbdfe18e4	-0.12407091
34	0xbbbd61e0	-0.00577949
35	0x3c99be60	0.018767536
36	0xbd8d3efe	-0.068967804
37	0x3dc6cd50	0.09707129
38	0x3d9ad504	0.07560161
39	0xbd812bba	-0.06307168
40	0x3d7859d0	0.060632527
41	0xbb2ed640	-0.0026677996
42	0x3c8e4080	0.01736474
43	0xbcf3c198	-0.029755399
44	0x3ddfd5a8	0.109294236
45	0xbde20498	-0.110360324
46	0x3d3987d0	0.045295537
47	0xbdbbefa0	-0.09176564
48	0xbddeec58	-0.10884923
49	0xbdd25f98	-0.10272139
50	0x3db42738	0.08796543
51	0x3c36ada0	0.011149794
52	0x3dd9926c	0.10623631
53	0x3cd07158	0.025444672
54	0xbb3532c0	-0.0027648658
55	0x3da4bfd0	0.08044398
56	0x3d16c174	0.036805585
57	0x3de89dd0	0.11358225
58	0xbdae34a4	-0.08506134
59	0xbdda4a64	-0.1065872
60	0x38b27000	8.508563e-05
61	0x3c81ad70	0.015829772
62	0x3dcad5b4	0.09904042
63	0xbd27d1d4	-0.040971592
64	0x3dc45d2e	0.09588085
65	0x3d4c9aac	0.049952194
66	0x391c6400	0.00014914572
67	0xbd6afb18	-0.057368368
68	0xbda105c0	-0.07862425
69	0x3d5c9d28	0.053860813
70	0x3deeda08	0.1166268
71	0xbd88e1d8	-0.06683701
72	0xbce323d8	-0.027727053
73	0x3cc48850	0.02399078
74	0x3d1c43e4	0.038150683
75	0x3c0de550	0.008660629
76	0xbd1b6c64	-0.037945166
77	0xbd060604	-0.03272058
78	0xbdc2001a	-0.094726756
79	0xbd819ba6	-0.06328516
80	0x3d34fe18	0.044187635
81	0xbdf76364	-0.12079504
82	0xbda9248e	-0.082589254
83	0x3d8f9c7c	0.07012269
84	0xbbb50ca0	-0.0055251867
85	0xbd2cd8f4	-0.04219909
86	0x3d651b78	0.0559344
87	0x3d10f818	0.03539285
88	0x3c0baeb0	0.008525535
89	0xbc727ed0	-0.014800742
90	0xbdb71520	-0.08939576
91	0xbd52db10	-0.051478446
92	0xbd1f9290	-0.038958132
93	0x3c84dd08	0.016218677
94	0x3d9646a6	0.07337694
95	0xbdb80a30	-0.08986318
96	0xbd788198	-0.060670465
97	0xbdb339f2	-0.087512866
98	0xbd58c194	-0.052918985
99	0x3de2c124	0.11071995
100	0xbd705178	-0.058671445
101	0x3dfa8a54	0.12233415
102	0x3d9721be	0.07379483
103	0x3d9d7242	0.076878086
104	0xbdeb11de	-0.11478017
105	0x3d1cbd5c	0.038266525
106	0x3de39272	0.111119166
107	0xbd9b6322	-0.075872675
108	0xbba4a6a0	-0.005024746
109	0xbc429090	-0.011875287
110	0x3dfdec7e	0.12398623
111	0xbccd9878	-0.025097117
112	0x3d81383e	0.063095555
113	0xbd66aa1c	-0.056314573
114	0x3c6b5380	0.01436317
115	0x3df6da40	0.12053347
116	0x3d95244c	0.07282314
117	0x3d03a1cc	0.032136723
118	0x3d046a30	0.03232783
119	0x3b3a9900	0.0028472543
120	0xbdab0fac	-0.083525985
121	0xbdeeb496	-0.11655538
122	0xbd86d584	-0.065836936
123	0xbd8acdba	-0.067775205
124	0xbde48052	-0.11157288
125	0xbc818de0	-0.015814722
126	0x3d48e16c	0.049043104
127	0xbdc4e4f4	-0.09613982
128	0xbc097f90	-0.00839223
129	0x3cc0c390	0.023530751
130	0x3debb9da	0.11510058
131	0x3d1a278c	0.03763537
132	0xbcf5c9a0	-0.030003369
133	0xbc46ed10	-0.012141481
134	0x3df98ba4	0.121848375
135	0xbd8efade	-0.06981443
136	0xbca398a0	-0.019970238
137	0xbde505a8	-0.111827195
138	0x3da155ea	0.07877715
139	0x3ddcba46	0.10777716
140	0xbc88e368	-0.016709998
141	0x3db02176	0.08600132
142	0x3ce10840	0.027469754
143	0x3cac2c28	0.02101715
144	0x3ceb8c90	0.028753549
145	0xbd7cac7c	-0.06168793
146	0xbdd0573a	-0.10172887
147	0x3dabb1a6	0.08383493
148	0xbdca9572	-0.09891786
149	0x3c715c90	0.014731541
150	0xbd83523c	-0.06412169
151	0x3cbb87e0	0.022891939
152	0x3d4204e8	0.04736796
153	0xbd38deb4	-0.04513426
154	0xbdfabb1c	-0.122427195
155	0xbddb934e	-0.107214555
156	0x3dcd0dc8	0.10012394
157	0xbc08b940	-0.008344948
158	0x3dcc264c	0.09968242
159	0xbcaa6160	-0.020798385
160	0xbd374148	-0.04473999
161	0xbdbc4344	-0.091925174
162	0x3d6a88bc	0.057259306
163	0x3dd515e2	0.104045644
164	0x3d95bc5e	0.07311319
165	0xbdffff6c	-0.1249989
166	0x3dff203c	0.1245732
167	0x3dfc39d2	0.12315716
168	0xbd2ce08c	-0.042206332
169	0x3db801ee	0.08984743
170	0xbd330f64	-0.04371585
171	0xbdcd569e	-0.100262865
172	0xbd6bb608	-0.057546645
173	0xbd82ce1c	-0.063869685
174	0x3d95e668	0.07319337
175	0xbd8c16da	-0.06840296
176	0x3d7ac370	0.06122154
177	0xbd4b160c	-0.049581572
178	0xbdf0807a	-0.11743255
179	0xbd16daf4	-0.036829904
180	0x3d65e614	0.056127623
181	0xbdb86d76	-0.09005253
182	0xbdb9f86a	-0.09080584
183	0xbdeda2a6	-0.11603288
184	0xbb8c6c40	-0.0042853653
185	0xbcbb5e48	-0.022872105
186	0xbd00a254	-0.03140481
187	0x3cbe0230	0.023194402
188	0xbd216700	-0.03940487
189	0xbda9df42	-0.08294536
190	0xbd4793f8	-0.0487251
191	0xbc4ee770	-0.012628421
192	0xbc9c9ea0	-0.019118607
193	0x3dbb57c4	0.09147599
194	0xbd237604	-0.03990747
195	0xbd3a7a78	-0.04552695
196	0x3df32e66	0.11874084
197	0x3de09b8e	0.1096717
198	0x3dcef7be	0.10105847
199	0x3de22cec	0.110437244
200	0xbd6cb1f0	-0.057786882
201	0x3df15c04	0.11785129
202	0xbdd38176	-0.10327427
203	0x3d635f34	0.055510715
204	0x3dbbb696	0.09165685
205	0xbd45eb48	-0.048320085
206	0xbc6d1090	-0.014469281
207	0xbdc88eb8	-0.097928464
208	0x3ddac9ec	0.10683045
209	0x3ddf24c8	0.10895687
210	0x3cc6ae18	0.024252936
211	0x3de62f0e	0.11239444
212	0xbd836fd0	-0.06417811
213	0x3ce1e200	0.027573586
214	0xbde726de	-0.1128671
215	0xbdd84da8	-0.10561687
216	0xbdeae81e	-0.11470054
217	0x3cc7c1b0	0.02438435
218	0x3d8f0690	0.069836736
219	0xbc90fc48	-0.017698422
220	0xbd8a48b6	-0.0675215
221	0x3de43f14	0.11144844
222	0xbda21f20	-0.07916093
223	0xbd1a3c60	-0.037655234
224	0x3d12e40c	0.035862014
225	0x3d993e02	0.0748253
226	0xbdd66014	-0.10467544
227	0x3d9a301a	0.07528706
228	0x3de271be	0.11056851
229	0x3d5a9d54	0.053372696
230	0x3d3fea90	0.046854556
231	0xbdfa98a2	-0.12236144
232	0x3d7b4020	0.06134045
233	0xbd09b3c8	-0.03361872
234	0xbdc898a8	-0.09794742
235	0xbd81b426	-0.06333189
236	0x3dfb5368	0.12271768
237	0x3d08b9e8	0.03338042
238	0xbcb044d8	-0.021517202
239	0x3dcf983e	0.1013646
240	0xbd662a78	-0.056192845
241	0x3db3f51c	0.08786985
242	0xbd504e10	-0.050855696
243	0x3b1cfa80	0.002395302
244	0x3db5a522	0.08869387
245	0x3ddccc58	0.10781163
246	0xbd48db54	-0.049037293
247	0x3d84fdf4	0.0649375
248	0x3d89b184	0.067233115
249	0xbdf076e8	-0.117414296
250	0x3d9cbcc0	0.07653189
251	0x3db4f680	0.08836079
252	0xbdab5740	-0.08366251
253	0x3d2e90e4	0.042618647
254	0xbdad6c04	-0.08467868
255	0xbbe94d00	-0.007119775

generator.transformer_layer.linear1.bias f4 [128]
0	0xbd162c94	-0.036663607
1	0x3db618ca	0.08891447
2	0x3d708b4c	0.058726594
3	0xbdeaf408	-0.114723265
4	0x3df0ac9c	0.117516726
5	0x3d937f54	0.0720202
6	0x3d8f9e8e	0.07012664
7	0xbc05e260	-0.008171648
8	0x3d8d3c1c	0.068962306
9	0xbda9e1a0	-0.08294988
10	0x3d462d04	0.048382774
11	0xbcd01dd0	-0.02540484
12	0xbdd08a04	-0.101825744
13	0xbd57bcd8	-0.05267033
14	0x3d201ed4	0.0390919
15	0xbd29fddc	-0.041501865
16	0xbce06f10	-0.027396709
17	0x3dc4ad88	0.09603411
18	0xbd0caf34	-0.034346774
19	0x3c86f818	0.016475722
20	0x3d984dc2	0.07436706
21	0x3d0801a4	0.03320469
22	0xbd9c649c	-0.07636377
23	0xbdf590f4	-0.11990538
24	0xbde0428c	-0.10950193
25	0x3b8d90e0	0.004320249
26	0x3cf350b0	0.02970156
27	0x3df5cba0	0.12001729
28	0x3df21cea	0.11821921
29	0x3cc37ca8	0.023863152
30	0xbc8127c0	-0.015766025
31	0xbdf764b0	-0.120797515
32	0x3dd67ca4	0.10472992
33	0x3da66004	0.08123782
34	0x3d0f4394	0.034976557
35	0xbb9d9ea0	-0.0048101693
36	0xbdabcf02	-0.08389093
37	0x3c944da8	0.018103436
38	0x3c5e9c80	0.013587117
39	0xbd86263c	-0.065502614
40	0xbdfd7da0	-0.12377477
41	0x3db233d2	0.0870129
42	0x3cfa05a0	0.03052026
43	0xbdd8daac	-0.10588583
44	0x3dc1894e	0.09450017
45	0xbc220400	-0.009888649
46	0xbd528a78	-0.051401585
47	0xbda77c86	-0.08178048
48	0xbdf83506	-0.121194884
49	0xbbf7abc0	-0.007558316
50	0xbd5d5608	-0.054037124
51	0xbc409460	-0.011754125
52	0xbc0a1fd0	-0.008430436
53	0xbdf91354	-0.1216189
54	0x3d205d3c	0.039151415
55	0x3d98f750	0.07469046
56	0xbd375f60	-0.04476869
57	0x3d2cac30	0.0421564
58	0xbd5afeac	-0.05346553
59	0x3d62e338	0.055392474
60	0x3dcd8ffc	0.100372285
61	0xbd3ca5ac	-0.046056435
62	0x3d4c1e18	0.049833387
63	0x3da9b992	0.08287348
64	0x3cc8bf70	0.024505347
65	0x3d166cc4	0.03672482
66	0x3dee7fb4	0.11645451
67	0xbdfbae74	-0.12289134
68	0x3da3f490	0.08005631
69	0xbce04fc0	-0.027381778
70	0x3ddac9c4	0.10683015
71	0x3dfab8c8	0.122422755
72	0xbde5a8da	-0.112138465
73	0x3b0dcfc0	0.0021638721
74	0x3ad0fb80	0.0015944093
75	0xbdb9213a	-0.090395406
76	0xbdcf5e2c	-0.10125384
77	0xbdca52b8	-0.098790586
78	0x3d0f05f0	0.03491777
79	0xbcea0b18	-0.028569743
80	0xbc110c60	-0.008853048
81	0xbcfcacd0	-0.030844122
82	0xbdaf86b4	-0.085706145
83	0xbd690a98	-0.05689487
84	0xbd08d28c	-0.03340392
85	0x3cc9df80	0.024642706
86	0x3d36c170	0.04461807
87	0xbd7020ac	-0.05862491
88	0xbc7b33b0	-0.0153321475
89	0xbdc4498a	-0.09584339
90	0xbcce6c50	-0.025198132
91	0x3dad0c82	0.08449651
92	0x3d81e502	0.06342508
93	0x3c4de340	0.012566388
94	0x3c5739a0	0.013136297
95	0x3da8a93a	0.082354024
96	0xbdffcf84	-0.12490752
97	0x3d7e86d8	0.062140316
98	0xbd56a5b8	-0.052404135
99	0xbd5dca68	-0.054148108
100	0x3c6b3e50	0.014358118
101	0xbcc44368	-0.023957923
102	0xbdce8f1c	-0.1008589
103	0x3df4986c	0.11943135
104	0xbd94bd16	-0.07262628
105	0xbda7040a	-0.08155067
106	0xbdf058f2	-0.11735715
107	0x3bdbb200	0.006704569
108	0x3dd6f34a	0.104956225
109	0xbcfda810	-0.030963928
110	0x3d5c6308	0.05380538
111	0x3dee5af4	0.11638442
112	0xbd7c28b0	-0.06156224
113	0x3daf65e4	0.08564356
114	0x3d7111b8	0.05885479
115	0xbd7cf0dc	-0.06175314
116	0xbda243a0	-0.07923055
117	0x3dab5254	0.08365312
118	0xbc97b240	-0.018517613
119	0xbce331e0	-0.027733743
120	0x3d64feb0	0.05590695
121	0xbdbaef34	-0.091276556
122	0x3ca05ac8	0.019574538
123	0xbb39a1c0	-0.002832517
124	0x3d6c414c	0.05767946
125	0x3db469dc	0.088092536
126	0x3ca9d550	0.020731598
127	0xbdef45de	-0.11683248

generator.transformer_layer.linear2.weight f4 [64, 128]
0	0x3d01f4ca	0.03172759
1	0xbda0b20d	-0.078464605
2	0x3d59fe26	0.05322089
3	0x3d9fa5a5	0.07795266
4	0x3d3b6646	0.045751832
5	0xbdadc28e	-0.08484374
6	0x3d8d116d	0.06888089
7	0xbd9552ab	-0.07291158
8	0xbd14783a	-0.03624747
9	0x3caac534	0.020845987
10	0x3d97d2bb	0.074132405
11	0x3dafe2d7	0.08588188
12	0x3c6bbda0	0.014388472
13	0xbc9900b4	-0.018677093
14	0x3cfaec4c	0.030630253
15	0x3d470f5e	0.04859864
16	0xbd4ebf08	-0.05047515
17	0x3c4ed140	0.012623131
18	0xbd948e02	-0.07253648
19	0x3cd82b1c	0.026387744
20	0xbd80c942	-0.06288387
21	0xbc352450	-0.011056021
22	0xbd2adeda	-0.041716434
23	0xbd17911a	-0.037003614
24	0xbd825f75	-0.06365863
25	0xbd5631f4	-0.052293733
26	0xbcbc87b0	-0.02301392
27	0x3d9acbc9	0.075584
28	0x3da3ae73	0.07992258
29	0xbd028860	-0.03186834
30	0xbbb44110	-0.00550092
31	0x3d28b1e2	0.041185267
32	0x3d95c0bd	0.073121525
33	0x3d4592d2	0.048235722
34	0xbc9a2de8	-0.018820718
35	0x3d56c582	0.052434452
36	0x3cbe3404	0.023218162
37	0x3a8bdcc0	0.0010670647
38	0x3d26459a	0.04059372
39	0x3d9d9959	0.07695264
40	0xbd9391a5	-0.07205514
41	0xba499800	-0.0007690191
42	0x3c2eb0f0	0.010662302
43	0xbda3cbb7	-0.0799784
44	0x3d13b762	0.03606356
45	0x3bb54340	0.0055316985
46	0xbbfed150	-0.007776417
47	0x3dad3fe1	0.084594496
48	0xbd4985a3	-0.04919971
49	0x3cea3888	0.02859141
50	0xbc966a3c	-0.018361203
51	0xbd59989d	-0.05312406
52	0xbd821ed4	-0.06353536
53	0x3cb93cd0	0.022612005
54	0x3d9a4a57	0.075337104
55	0xbd50c7fb	-0.050971966
56	0x3d029360	0.03187883
57	0xbc5f7930	-0.013639733
58	0x3cd132c4	0.025536902
59	0xbda97a44	-0.082752734
60	0xbbc3ada0	-0.0059716254
61	0xbd8d8b94	-0.06911388
62	0xbd223558	-0.039601654
63	0x3d4a6966	0.049416922
64	0xbdaf98a5	-0.085740365
65	0xbd8691e5	-0.06570796
66	0xbd73aae8	-0.05948916
67	0x3d890111	0.066896565
68	0x3d0a0938	0.033700198
69	0xbd8a2b70	-0.06746566
70	0x3cf66ad8	0.030080244
71	0x3d4248f2	0.047432847
72	0xbcb973b4	-0.02263818
73	0x3d15f8da	0.036614276
74	0x3d8b15db	0.06791278
75	0x3d9bd2c3	0.07608559
76	0x3c918480	0.017763376
77	0xbd483e8b	-0.04888777
78	0xbb945990	-0.0045272782
79	0xbd16d8ba	-0.03682778
80	0xbdb2927a	-0.087193444
81	0x3cfe3c5c	0.031034641
82	0x3cb0f608	0.021601692
83	0x3c8a0e38	0.016852483
84	0x3d87827b	0.06616684
85	0xbd127d9b	-0.035764318
86	0xbc0611f0	-0.008182988
87	0xbd6584d4	-0.056034878
88	0x3d7c7b9e	0.061641328
89	0xbd8ef1ff	-0.06979751
90	0x3d3710f2	0.044693895
91	0xbd3e9fde	-0.04653918
92	0xbd252381	-0.040317062
93	0x3cfbcb80	0.030736685
94	0xbd6caddc	-0.057782993
95	0xbd884bde	-0.066550955
96	0x3cc18320	0.023622096
97	0xbda44974	-0.080218226
98	0x3d9405c7	0.072276644
99	0xbd941f9a	-0.0723259
100	0x3c335e80	0.0109478235
101	0xbbc49ea0	-0.006000355
102	0x3ceecadc	0.029149465
103	0x3d47b8a2	0.048760064
104	0xbd959649	-0.07304055
105	0x3d7c7df2	0.06164355
106	0x3d0473b4	0.032336906
107	0xbac50980	-0.0015032738
108	0x3d996e7f	0.074917786
109	0xbd0e1190	-0.034684718
110	0xbda869d6	-0.082233116
111	0xbd13b9f3	-0.036066007
112	0xbd0cb098	-0.0343481
113	0x3d1ef1be	0.038804762
114	0xbd5d8092	-0.054077692
115	0x3d2869d2	0.041116543
116	0x3d95b537	0.073099546
117	0xbdb151fc	-0.086582154
118	0xbd311aab	-0.043238323
119	0xbd6f6ed8	-0.05845532
120	0x3d13d35a	0.036090232
121	0x3da7246d	0.081612445
122	0x3d2bcaaa	0.041941322
123	0x3b16c680	0.0023006499
124	0xbd1daed3	-0.038496803
125	0xbd4bf565	-0.049794573
126	0x3d0fc5bc	0.035100684
127	0xbd9180b2	-0.07104625
128	0xbab5f000	-0.001388073
129	0x3c7cf8a0	0.015440136
130	0x3cec38b4	0.028835632
131	0x3d4fdb3a	0.05074618
132	0xbbd0aaa0	-0.0063679963
133	0xbd1979b7	-0.037469592
134	0x3c3756e0	0.011190146
135	0x3d332d02	0.043744095
136	0xbd2a0902	-0.041512497
137	0x3c62da78	0.013846032
138	0x3d882e69	0.06649477
139	0x3d655b52	0.055995293
140	0x3cdefeac	0.027221046
141	0x3d7560b2	0.05990667
142	0xbd0ee54f	-0.034886654
143	0xbdb2d4f1	-0.087320216
144	0xbbad9f60	-0.00529854
145	0xbdaac823	-0.08338954
146	0xbd286633	-0.04111309
147	0x3d6d2536	0.057896815
148	0x3d38394a	0.04497651
149	0xbdb01262	-0.08597256
150	0x3d6fea92	0.058573313
151	0xbca2ee74	-0.019889094
152	0xba0b3400	-0.0005310178
153	0x3ca719bc	0.020398013
154	0xbd603cc6	-0.054745458
155	0xbd056ea9	-0.032576237
156	0xbda20cd7	-0.07912605
157	0xbd14965b	-0.036276203
158	0xbc8e547c	-0.01737427
159	0x3d297cca	0.041378774
160	0x3da4f279	0.080540605
161	0xbbc55940	-0.0060226023
162	0xbc5ae618	-0.013360523
163	0x3bbb16c0	0.005709499
164	0xbd5336be	-0.051565878
165	0x3d9eccad	0.077538826
166	0x3d826f9b	0.06368943
167	0xbd310a43	-0.043222677
168	0x3d3a9996	0.045556627
169	0xbb88a0b0	-0.004169546
170	0xbd01d3c4	-0.031696096
171	0x3d82efc5	0.06393389
172	0xbc4bf730	-0.012449071
173	0xbcfc7a4a	-0.03082003
174	0x3d540572	0.051763006
175	0x3d610656	0.054937683
176	0x3d1c4096	0.03814753
177	0x3d50db36	0.050990306
178	0x3b05d980	0.002042383
179	0xbd0f2aa0	-0.03495276
180	0x3bd443c0	0.006477803
181	0x3d06a0d4	0.03286822
182	0xbd7ba3c8	-0.06143549
183	0x3da5e5bd	0.0810046
184	0x3d23b30e	0.03996568
185	0xbc74bb08	-0.01493717
186	0x3d9bac85	0.07601265
187	0x3daf56ff	0.08561515
188	0xbd18101b	-0.037124734
189	0xbc876644	-0.016528256
190	0x3d0befce	0.034164242
191	0xbd5e1f6b	-0.05422918
192	0x3c4ea870	0.012613401
193	0x3d0d43a6	0.034488343
194	0xbd0bc96d	-0.03412764
195	0xbd98e2d2	-0.074651375
196	0xbbe3d760	-0.006953165
197	0x3d7f6722	0.062354214
198	0xbdb0ef18	-0.086393535
199	0xbd3f4399	-0.046695326
200	0x3d0db0a4	0.034592286
201	0xbd56a498	-0.052403063
202	0x3c2aabb0	0.01041691
203	0xbdac9af5	-0.08427993
204	0x3cac0894	0.021000184
205	0x3d47694e	0.04868441
206	0x3b74c060	0.003734611
207	0x3d86cb81	0.06581784
208	0xbd511ec7	-0.051054742
209	0x3cb33b78	0.021878943
210	0x3c0ec6a0	0.008714348
211	0xbd1ad0ed	-0.037796903
212	0x3c7148d0	0.0147268325
213	0xbd96d59f	-0.07364964
214	0x3c351710	0.011052862
215	0x3d2a247e	0.041538708
216	0x3c3c1ad8	0.011481009
217	0x3d8f3d35	0.06994096
218	0x3c371090	0.011173382
219	0x3da70c21	0.0815661
220	0xbdaa3fdd	-0.08312962
221	0xbda2ea88	-0.079548895
222	0x3d6a909e	0.057266824
223	0xbd25ca4e	-0.040476136
224	0xbd85d222	-0.0653422
225	0x3c8e06ec	0.017337285
226	0x3db2f703	0.0873852
227	0xbcf8e882	-0.030384306
228	0x3d0ae8ec	0.033913538
229	0x3d7ad3b2	0.061237045
230	0xbd55d7b0	-0.05220765
231	0xbdadf4fe	-0.08493994
232	0x3ce139b4	0.027493335
233	0x3d168082	0.03674365
234	0xbda1ca00	-0.078998566
235	0xbc8905e4	-0.016726442
236	0x3c38b448	0.011273451
237	0x3d0be706	0.034155868
238	0xbc29e800	-0.0103702545
239	0x3d06f496	0.0329481
240	0x3d1b8db6	0.037976943
241	0x3d953f5b	0.07287475
242	0xbdaa9902	-0.08329965
243	0x3d4961ee	0.04916566
244	0xba86d780	-0.0010287613
245	0xbd16e415	-0.03683861
246	0x3d1ea802	0.038734443
247	0x3c5d0438	0.013489775
248	0x3bfe1e60	0.007755086
249	0x3cd93390	0.026513845
250	0xbc835b24	-0.01603467
251	0xbc1e0b40	-0.009646237
252	0x3d5822de	0.052767627
253	0x3ca45e2c	0.020064436
254	0x3d8b1dd7	0.06792801
255	0x3c38bf80	0.011276126

generator.transformer_layer.linear2.bias f4 [64]
0	0xbb976eb0	-0.0046213493
1	0x3dabbdf1	0.08385838
2	0xbc3303e8	-0.010926224
3	0x3d0a684e	0.03379088
4	0xbd425cdf	-0.04745185
5	0xbcc2aba0	-0.023763478
6	0x3d8aad97	0.06771391
7	0x3daa7963	0.08323934
8	0x3bb7a4b0	0.005604349
9	0x3c4164b0	0.011803791
10	0xbda31cf2	-0.07964505
11	0x3d9e81bf	0.07739591
12	0x3d100dac	0.03516929
13	0x3d9bd45b	0.07608863
14	0x3b877f60	0.0041350573
15	0x3d3a85c6	0.045537733
16	0xbcdd8530	-0.027041048
17	0x3da1af4f	0.078947656
18	0xbd9dafb6	-0.0769953
19	0xbd9dcb98	-0.07704848
20	0x3dacf967	0.08446007
21	0x3d05447c	0.032536015
22	0x3d0ace72	0.033888288
23	0xbd273c17	-0.04082879
24	0xbd00e5a2	-0.031468995
25	0xbd41c508	-0.047307044
26	0xbc8e94ec	-0.017404996
27	0x3d1e74b2	0.038685508
28	0xbda38619	-0.079845615
29	0x3d10bd28	0.035336643
30	0xbc0d0730	-0.008607671
31	0xbd76de62	-0.060270675
32	0xbbf72680	-0.0075424314
33	0xbd931467	-0.07181626
34	0x3c9e1c50	0.01930061
35	0x3d8a8593	0.067637585
36	0x3ca3f314	0.02001337
37	0xbc0f4378	-0.008744113
38	0x3c92c840	0.017917752
39	0xbd10cae1	-0.03534973
40	0x3d516d66	0.05112972
41	0x3d4b049e	0.04956495
42	0x3d828fd7	0.063750915
43	0xbdaecbe9	-0.085349865
44	0x3d4e0faa	0.050307907
45	0x3d88c509	0.066782065
46	0xbd7c9a73	-0.06167073
47	0x3c551e60	0.01300773
48	0xbbd498e0	-0.0064879507
49	0xbb2f9320	-0.0026790574
50	0xbdaec303	-0.08533289
51	0x3d67b1d2	0.056566067
52	0x3d9d3f01	0.07678033
53	0xbd8e2d6d	-0.06942258
54	0x3d10ea96	0.03537997
55	0x3d0120b4	0.03152533
56	0xbb539580	-0.0032285154
57	0xbb958870	-0.0045633838
58	0x3ccf5198	0.025307462
59	0xbdab366c	-0.083599895
60	0x3cd27bb4	0.025693752
61	0x3d124008	0.035705596
62	0xbce96d42	-0.028494481
63	0x3c6cab40	0.014445126

generator.transformer_layer.norm1.weight f4 [64]
0	0x3f800000	1.0
1	0x3f800000	1.0
2	0x3f800000	1.0
3	0x3f800000	1.0
4	0x3f800000	1.0
5	0x3f800000	1.0
6	0x3f800000	1.0
7	0x3f800000	1.0
8	0x3f800000	1.0
9	0x3f800000	1.0
10	0x3f800000	1.0
11	0x3f800000	1.0
12	0x3f800000	1.0
13	0x3f800000	1.0
14	0x3f800000	1.0
15	0x3f800000	1.0
16	0x3f800000	1.0
17	0x3f800000	1.0
18	0x3f800000	1.0
19	0x3f800000	1.0
20	0x3f800000	1.0
21	0x3f800000	1.0
22	0x3f800000	1.0
23	0x3f800000	1.0
24	0x3f800000	1.0
25	0x3f800000	1.0
26	0x3f800000	1.0
27	0x3f800000	1.0
28	0x3f800000	1.0
29	0x3f800000	1.0
30	0x3f800000	1.0
31	0x3f800000	1.0
32	0x3f800000	1.0
33	0x3f800000	1.0
34	0x3f800000	1.0
35	0x3f800000	1.0
36	0x3f800000	1.0
37	0x3f800000	1.0
38	0x3f800000	1.0
39	0x3f800000	1.0
40	0x3f800000	1.0
41	0x3f800000	1.0
42	0x3f800000	1.0
43	0x3f800000	1.0
44	0x3f800000	1.0
45	0x3f800000	1.0
46	0x3f800000	1.0
47	0x3f800000	1.0
48	0x3f800000	1.0
49	0x3f800000	1.0
50	0x3f800000	1.0
51	0x3f800000	1.0
52	0x3f800000	1.0
53	0x3f800000	1.0
54	0x3f800000	1.0
55	0x3f800000	1.0
56	0x3f800000	1.0
57	0x3f800000	1.0
58	0x3f800000	1.0
59	0x3f800000	1.0
60	0x3f800000	1.0
61	0x3f800000	1.0
62	0x3f800000	1.0
63	0x3f800000	1.0

generator.transformer_layer.norm1.bias f4 [64]
0	0x00000000	0.0
1	0x00000000	0.0
2	0x00000000	0.0
3	0x00000000	0.0
4	0x00000000	0.0
5	0x00000000	0.0
6	0x00000000	0.0
7	0x00000000	0.0
8	0x00000000	0.0
9	0x00000000	0.0
10	0x00000000	0.0
11	0x00000000	0.0
12	0x00000000	0.0
13	0x00000000	0.0
14	0x00000000	0.0
15	0x00000000	0.0
16	0x00000000	0.0
17	0x00000000	0.0
18	0x00000000	0.0
19	0x00000000	0.0
20	0x00000000	0.0
21	0x00000000	0.0
22	0x00000000	0.0
23	0x00000000	0.0
24	0x00000000	0.0
25	0x00000000	0.0
26	0x00000000	0.0
27	0x00000000	0.0
28	0x00000000	0.0
29	0x00000000	0.0
30	0x00000000	0.0
31	0x00000000	0.0
32	0x00000000	0.0
33	0x00000000	0.0
34	0x00000000	0.0
35	0x00000000	0.0
36	0x00000000	0.0
37	0x00000000	0.0
38	0x00000000	0.0
39	0x00000000	0.0
40	0x00000000	0.0
41	0x00000000	0.0
42	0x00000000	0.0
43	0x00000000	0.0
44	0x00000000	0.0
45	0x00000000	0.0
46	0x00000000	0.0
47	0x00000000	0.0
48	0x00000000	0.0
49	0x00000000	0.0
50	0x00000000	0.0
51	0x00000000	0.0
52	0x00000000	0.0
53	0x00000000	0.0
54	0x00000000	0.0
55	0x00000000	0.0
56	0x00000000	0.0
57	0x00000000	0.0
58	0x00000000	0.0
59	0x00000000	0.0
60	0x00000000	0.0
61	0x00000000	0.0
62	0x00000000	0.0
63	0x00000000	0.0

generator.transformer_layer.norm2.weight f4 [64]
0	0x3f800000	1.0
1	0x3f800000	1.0
2	0x3f800000	1.0
3	0x3f800000	1.0
4	0x3f800000	1.0
5	0x3f800000	1.0
6	0x3f800000	1.0
7	0x3f800000	1.0
8	0x3f800000	1.0
9	0x3f800000	1.0
10	0x3f800000	1.0
11	0x3f800000	1.0
12	0x3f800000	1.0
13	0x3f800000	1.0
14	0x3f800000	1.0
15	0x3f800000	1.0
16	0x3f800000	1.0
17	0x3f800000	1.0
18	0x3f800000	1.0
19	0x3f800000	1.0
20	0x3f800000	1.0
21	0x3f800000	1.0
22	0x3f800000	1.0
23	0x3f800000	1.0
24	0x3f800000	1.0
25	0x3f800000	1.0
26	0x3f800000	1.0
27	0x3f800000	1.0
28	0x3f800000	1.0
29	0x3f800000	1.0
30	0x3f800000	1.0
31	0x3f800000	1.0
32	0x3f800000	1.0
33	0x3f800000	1.0
34	0x3f800000	1.0
35	0x3f800000	1.0
36	0x3f800000	1.0
37	0x3f800000	1.0
38	0x3f800000	1.0
39	0x3f800000	1.0
40	0x3f800000	1.0
41	0x3f800000	1.0
42	0x3f800000	1.0
43	0x3f800000	1.0
44	0x3f800000	1.0
45	0x3f800000	1.0
46	0x3f800000	1.0
47	0x3f800000	1.0
48	0x3f800000	1.0
49	0x3f800000	1.0
50	0x3f800000	1.0
51	0x3f800000	1.0
52	0x3f800000	1.0
53	0x3f800000	1.0
54	0x3f800000	1.0
55	0x3f800000	1.0
56	0x3f800000	1.0
57	0x3f800000	1.0
58	0x3f800000	1.0
59	0x3f800000	1.0
60	0x3f800000	1.0
61	0x3f800000	1.0
62	0x3f800000	1.0
63	0x3f800000	1.0

generator.transformer_layer.norm2.bias f4 [64]
0	0x00000000	0.0
1	0x00000000	0.0
2	0x00000000	0.0
3	0x00000000	0.0
4	0x00000000	0.0
5	0x00000000	0.0
6	0x00000000	0.0
7	0x00000000	0.0
8	0x00000000	0.0
9	0x00000000	0.0
10	0x00000000	0.0
11	0x00000000	0.0
12	0x00000000	0.0
13	0x00000000	0.0
14	0x00000000	0.0
15	0x00000000	0.0
16	0x00000000	0.0
17	0x00000000	0.0
18	0x00000000	0.0
19	0x00000000	0.0
20	0x00000000	0.0
21	0x00000000	0.0
22	0x00000000	0.0
23	0x00000000	0.0
24	0x00000000	0.0
25	0x00000000	0.0
26	0x00000000	0.0
27	0x00000000	0.0
28	0x00000000	0.0
29	0x00000000	0.0
30	0x00000000	0.0
31	0x00000000	0.0
32	0x00000000	0.0
33	0x00000000	0.0
34	0x00000000	0.0
35	0x00000000	0.0
36	0x00000000	0.0
37	0x00000000	0.0
38	0x00000000	0.0
39	0x00000000	0.0
40	0x00000000	0.0
41	0x00000000	0.0
42	0x00000000	0.0
43	0x00000000	0.0
44	0x00000000	0.0
45	0x00000000	0.0
46	0x00000000	0.0
47	0x00000000	0.0
48	0x00000000	0.0
49	0x00000000	0.0
50	0x00000000	0.0
51	0x00000000	0.0
52	0x00000000	0.0
53	0x00000000	0.0
54	0x00000000	0.0
55	0x00000000	0.0
56	0x00000000	0.0
57	0x00000000	0.0
58	0x00000000	0.0
59	0x00000000	0.0
60	0x00000000	0.0
61	0x00000000	0.0
62	0x00000000	0.0
63	0x00000000	0.0
