GANS/gan_model.pth (torch, 948054 bytes, 71 tensors)

embedding.fc.weight f4 [64, 17]
0	0x3dc28175	0.09497348
1	0x3e253f0e	0.16137335
2	0xbdd83fe1	-0.10559059
3	0x3dbe5755	0.09294001
4	0x3e59a190	0.21253037
5	0x3dd3f845	0.10350088
6	0x3e59d6de	0.21273372
7	0xbe344d95	-0.1760772
8	0xbdd1b52f	-0.10239636
9	0x3e715eb9	0.2357129
10	0xbd01197b	-0.03151844
11	0xbd2a81f4	-0.04162784
12	0xbe0c7c8c	-0.13719386
13	0x3da566a4	0.08076218
14	0x3e2ff9aa	0.17185083
15	0xbe67ed94	-0.22649223
16	0xbdfff3b2	-0.12497653
17	0xbdf9d18d	-0.12198172
18	0xbe2c8d3a	-0.16850749
19	0x3e3d01d2	0.18457726
20	0x3e2bcec2	0.1677809
21	0x3cbb1e6c	0.022841655
22	0x3e37bbf3	0.1794279
23	0xbe3e108d	-0.18561001
24	0x3d83cec9	0.064359255
25	0xbdc14f9b	-0.09439012
26	0x3ccd82e3	0.025086826
27	0x3c73014c	0.014831852
28	0xbdb233a6	-0.087012574
29	0x3e66c8b1	0.22537495
30	0xbdaf654d	-0.085642435
31	0xbe27645c	-0.16346878
32	0x3cab43d5	0.020906368
33	0x3e2e2b4d	0.17008705
34	0xbd787c65	-0.060665507
35	0x3b9fc6aa	0.0048759775
36	0x3e1d9f8a	0.1539289
37	0x3cba2cad	0.022726381
38	0x3e087ce9	0.133289
39	0xbcb32007	-0.021865858
40	0x3e600cee	0.21879932
41	0xbd155386	-0.036456607
42	0x3c490a6c	0.012270551
43	0x3d154365	0.036441226
44	0x3da3a673	0.07990732
45	0xbe69eaae	-0.2284343
46	0x3dfb8ae4	0.12282351
47	0xbe66b506	-0.22529992
48	0x3e5e8340	0.21729755
49	0x3dc809ca	0.09767492
50	0xbe633b0e	-0.22190496
51	0xbdfddd49	-0.123957224
52	0xbab1874b	-0.0013544349
53	0x3e51fbae	0.20506164
54	0x3ddf2e39	0.10897488
55	0x3d09115b	0.033463817
56	0x3da4c1e6	0.08044796
57	0x3e4f6316	0.20252642
58	0x3e260822	0.1621404
59	0xbe242979	-0.16031446
60	0xbd9ea2aa	-0.077458695
61	0x3d73246f	0.059360918
62	0x3d3d52cd	0.046221543
63	0x3e1bc7c3	0.15212922
64	0x3cfcf7cd	0.03087988
65	0x3e3c77fd	0.18405147
66	0x3e54166b	0.20711677
67	0x3bed7619	0.0072467444
68	0x3e6ab41d	0.2292027
69	0xbd8f63e3	-0.07001474
70	0x3c39f541	0.011349977
71	0x3da3e72e	0.080030784
72	0xbd589321	-0.052874688
73	0xbe6ea710	-0.23305917
74	0xbe41b264	-0.18915707
75	0xbe103659	-0.14083232
76	0xbe10bbdf	-0.14134167
77	0xbdac9875	-0.08427516
78	0x3e16ab27	0.14713727
79	0x3e512cf6	0.20427307
80	0x3e2792e6	0.16364631
81	0x3e1bc21b	0.15210764
82	0x3dfdf011	0.12399305
83	0xbe6a8c83	-0.22905163
84	0xbe0e951e	-0.13924071
85	0x3e02143b	0.1270303
86	0x3ddc57e7	0.107589535
87	0x3c4602ac	0.012085598
88	0xbdb895ea	-0.09012969
89	0x3d3233d4	0.04350646
90	0xbd976c9f	-0.07393765
91	0xbe178539	-0.14796914
92	0xbd18267e	-0.037146084
93	0xba48041f	-0.00076300086
94	0x3e0a2493	0.13490514
95	0x3e3ddd4e	0.18541452
96	0x3e4ee0ef	0.20202993
97	0xbdf431c9	-0.11923558
98	0x3e67f08a	0.22650352
99	0x3e40a98d	0.18814678
100	0x3cf59a06	0.02998067
101	0xbe136930	-0.14395595
102	0x3cb57136	0.02214871
103	0x3e5c4fa1	0.21514751
104	0x3e3cbd63	0.1843162
105	0xbd291007	-0.04127505
106	0xbd8f3820	-0.06993127
107	0x3e733234	0.2374962
108	0xbe3bfe04	-0.18358618
109	0x3e41ab98	0.18913114
110	0x3deffb7c	0.11717889
111	0x3e2a6444	0.16639811
112	0x3e651daa	0.22374597
113	0x3e0dc284	0.13843733
114	0xbe4cc519	-0.19997062
115	0x3d26365c	0.040579185
116	0x3e6ef84c	0.23336905
117	0x3e5bcb11	0.21464182
118	0xbdf6caec	-0.12050423
119	0x3e4160a7	0.18884526
120	0x3e6212bd	0.2207746
121	0x3e1db0d7	0.1539949
122	0x3d92e55c	0.07172653
123	0x3cd4ed18	0.025991961
124	0xbe261e82	-0.16222575
125	0xbe173920	-0.14767885
126	0xbdce1493	-0.10062518
127	0xbd790f95	-0.060805876
128	0xbd0fcb0e	-0.035105757
129	0xbe49840a	-0.19679275
130	0xbda40807	-0.080093436
131	0xbe1fae78	-0.15593898
132	0xbdcda7f3	-0.100417994
133	0x3e59ae3c	0.21257871
134	0xbcee6ef1	-0.029105635
135	0xbd0efa34	-0.03490658
136	0xbe6c35ff	-0.23067473
137	0xbe09ccd6	-0.13457045
138	0x3e0d0233	0.1377037
139	0x3db6aeee	0.08920084
140	0x39fc38ce	0.00048107508
141	0x3df1b938	0.11802906
142	0xbe0204cd	-0.12697144
143	0xbd977c09	-0.07396705
144	0xbc0bf093	-0.008541244
145	0xbd935694	-0.07194248
146	0xbde495dc	-0.11161396
147	0x3e00df6c	0.12585229
148	0xbe2f066f	-0.17092298
149	0x3d8013a6	0.06253748
150	0xbdc67b75	-0.09691516
151	0x3a19beae	0.00058649003
152	0xbe6a6fe7	-0.2289425
153	0xbdc659c6	-0.09685092
154	0x3e2eb43a	0.17060938
155	0x3e3a8e44	0.18218333
156	0x3e55824a	0.20850483
157	0xbdb19bd6	-0.086723015
158	0xbe372269	-0.1788422
159	0xbe4c729c	-0.19965595
160	0x3e086965	0.13321455
161	0xbe46ba95	-0.19407113
162	0x3d67aeb9	0.056563113
163	0x3e205072	0.15655687
164	0xbcd20fd9	-0.025642322
165	0xbe4ff933	-0.20309906
166	0xbe3e0478	-0.18556392
167	0xbcc68020	-0.024231017
168	0xbcec7b61	-0.028867425
169	0x3e626bea	0.22111478
170	0x3e2da6a2	0.16958097
171	0xbe155db2	-0.14586523
172	0x3db1447e	0.08655642
173	0xbcb37b48	-0.021909371
174	0xbd546aab	-0.05185954
175	0xbe112562	-0.14174417
176	0xbd65e5b9	-0.056127284
177	0xbe54e60f	-0.20790885
178	0xbbc5e134	-0.006038809
179	0x3d4ad9ba	0.049524046
180	0xbe1ae228	-0.15125334
181	0x3decff2e	0.11572109
182	0x3da54162	0.080691114
183	0xbd718d94	-0.05897291
184	0xbe4ef247	-0.20209609
185	0x3e5de44c	0.2166912
186	0xbcc7cb7d	-0.024389023
187	0xbe021396	-0.12702784
188	0xbda34468	-0.07972032
189	0xbe2b5617	-0.1673206
190	0x3dd9a9b6	0.10628073
191	0x3da1b0e7	0.078950696
192	0xbe3675b3	-0.17818336
193	0x3e630ced	0.221729
194	0xbccd11bf	-0.025032876
195	0xbd35632c	-0.04428403
196	0xbdbb8451	-0.09156097
197	0xbe709061	-0.23492576
198	0x3d47bf1e	0.048766248
199	0xbd7439cd	-0.059625436
200	0x3d03bed2	0.032164402
201	0x3d3152b2	0.043291755
202	0xbdda8c58	-0.106713
203	0xbe053eb8	-0.13012207
204	0xbe5d58aa	-0.21615854
205	0xbdc239b2	-0.09483661
206	0xbe34a20e	-0.17639944
207	0x3d25d9d5	0.040490944
208	0x3e15c7bb	0.14626972
209	0xbe3f06fd	-0.1865501
210	0x3e29dc25	0.16587885
211	0x3cd984c9	0.026552575
212	0xbb844008	-0.0040359534
213	0xbe5c2282	-0.21497539
214	0xbd323fb6	-0.04351779
215	0x3df59615	0.119915165
216	0x3dc1e5df	0.094676726
217	0x3e4b0048	0.19824326
218	0xbe47eae4	-0.19523197
219	0xbe268261	-0.16260673
220	0x3e485628	0.19564116
221	0xbd9f26c9	-0.077710696
222	0xbdbe71bd	-0.092990376
223	0xbe549a88	-0.20762074
224	0xbe1088b6	-0.14114651
225	0x3d862f4a	0.065519884
226	0x3dc477a1	0.0959313
227	0xbe0d78c8	-0.13815606
228	0xbdb2d64c	-0.0873228
229	0x3d4bb421	0.04973233
230	0xbe3a1f67	-0.18176042
231	0x3d8055e8	0.06266385
232	0xbde3867a	-0.11109634
233	0xbdfbb527	-0.122904114
234	0xbd940cb9	-0.07228989
235	0xbe59444d	-0.21217461
236	0x3e773498	0.24141157
237	0x3e61f039	0.22064294
238	0xbe6005d8	-0.21877229
239	0x3b5be76e	0.003355469
240	0xbe252a2b	-0.16129367
241	0xbe0d54af	-0.13801835
242	0x3d2fdf6f	0.042937692
243	0x3e756e51	0.23967864
244	0xbe33ebd9	-0.17570437
245	0xbe208ed3	-0.15679483
246	0xbe196573	-0.14980106
247	0x3dad86ac	0.08472952
248	0x3e75ba02	0.23996738
249	0xbdf9d3ea	-0.121986225
250	0x3e257626	0.16158351
251	0x3e2ca497	0.16859661
252	0x3e63df0a	0.22253051
253	0x3dc9815f	0.09839129
254	0x3e09dbed	0.13462801
255	0x3e728e00	0.23686981

embedding.fc.bias f4 [64]
0	0x3e6b9abe	0.23008248
1	0xbe1cf328	-0.15327132
2	0xbd5abf91	-0.05340535
3	0xbda753b7	-0.08170264
4	0x3d1f2568	0.038854033
5	0xbdd11dfe	-0.10210799
6	0xbe380018	-0.17968786
7	0x3dce2629	0.10065872
8	0xbce6f536	-0.028193098
9	0x3cc6f3e0	0.02428621
10	0x3dc2bb1f	0.09508347
11	0x3e4bbe87	0.19896899
12	0x3e5fab2c	0.2184264
13	0xbe76fc43	-0.24119668
14	0x3e1e8130	0.15478969
15	0xbdcf22c7	-0.10114055
16	0xbe0b00c8	-0.13574517
17	0x3d9b31ca	0.07577856
18	0xbd8ec177	-0.06970494
19	0xbe30513e	-0.17218491
20	0xbe2a1edd	-0.16613336
21	0x3da32b88	0.07967287
22	0xbd4759dc	-0.04866968
23	0xbde996b0	-0.114056945
24	0xbcbd57f5	-0.02311323
25	0xbdc96f55	-0.09835688
26	0xbe654525	-0.22389658
27	0xbd22d172	-0.039750524
28	0xbe765dd8	-0.24059236
29	0xbdd5720c	-0.10422143
30	0x3dadf577	0.08494084
31	0x3e10fe3a	0.1415948
32	0x3d678428	0.05652252
33	0xbe2e0666	-0.16994628
34	0x3e3b7fc1	0.18310453
35	0x3d1e2288	0.03860715
36	0x3e56a4e3	0.20961337
37	0xbb98e78d	-0.004666275
38	0xbe53ac49	-0.2067119
39	0xbe00eea2	-0.12591031
40	0xbb567e8d	-0.0032729239
41	0xbe3cc3eb	-0.18434112
42	0xbe2e2558	-0.17006433
43	0x3bda52e1	0.006662712
44	0xbd56eda2	-0.052472718
45	0x3e14f0a9	0.1454493
46	0xbe43061c	-0.190453
47	0xbd1f0fab	-0.0388333
48	0xbdd8a8e1	-0.10579086
49	0xbe0e043a	-0.138688
50	0x3ddda9c9	0.108233996
51	0xbe72f07a	-0.23724547
52	0xbcdb4f2d	-0.026771152
53	0xbe757756	-0.23971304
54	0xbe5f5aa1	-0.21811916
55	0x3e204bc1	0.15653898
56	0xbe07d98a	-0.13266578
57	0xbdec7b4d	-0.11546955
58	0x3d754ca8	0.05988756
59	0x3e13b8a7	0.14425908
60	0xbe77d1b4	-0.24201089
61	0x3da44c0b	0.080223165
62	0x3e037799	0.12838592
63	0xbe0d3a11	-0.13791682

generator.transformer_layer.self_attn.in_proj_weight f4 [192, 64]
0	0xbb070114	-0.0020600008
1	0x3d0c5ad2	0.0342663
2	0x3e195ad6	0.14976057
3	0xbcee45ec	-0.029086076
4	0x3df527e9	0.11970503
5	0xbe047c10	-0.12937951
6	0x3d47fdef	0.048826154
7	0x3dc53b29	0.096304245
8	0xbdf28f3d	-0.11843727
9	0xbdd96ca1	-0.106164224
10	0x3d34285a	0.043983795
11	0xbe0c6fb4	-0.13714486
12	0x3d8096fb	0.06278797
13	0x3e1623e6	0.14662132
14	0x3d261e04	0.04055597
15	0x3d640d7c	0.055676922
16	0x3e05b448	0.13057053
17	0xbd818446	-0.06324057
18	0xbd54371a	-0.05181036
19	0xbe12386d	-0.14279337
20	0x3db2598e	0.087084875
21	0xbd5e7e3c	-0.054319605
22	0xbd62aace	-0.055338673
23	0xbdf9174d	-0.121626474
24	0xbd9e8bb6	-0.077414915
25	0xbcc7e4ad	-0.024401033
26	0xbddda487	-0.10822397
27	0xbdf4c7c2	-0.11952163
28	0x3d9eec1d	0.07759879
29	0x3dc3a14b	0.095522486
30	0x3e15d4a1	0.14631893
31	0x3e0ae351	0.13563277
32	0xbc7673bd	-0.015042243
33	0x3cf295c3	0.029612428
34	0x3dc53769	0.09629709
35	0x3e19ebf3	0.15031414
36	0x3d2d187f	0.04225969
37	0x3b77cd32	0.0037811515
38	0xbd8f433c	-0.06995246
39	0xbd44bacb	-0.048029702
40	0x3c01baa4	0.007918034
41	0x3e002c25	0.1251684
42	0x3da473f2	0.08029927
43	0xbd1f5226	-0.038896702
44	0xbda364b4	-0.07978192
45	0x3d94f3f2	0.072730914
46	0x3e11b023	0.14227347
47	0x3dc1c143	0.0946069
48	0x3e080606	0.13283548
49	0x3d6289bd	0.05530714
50	0xbd28d387	-0.041217353
51	0x3ce80f70	0.028327674
52	0xbd92e77c	-0.071730584
53	0xbdd9aada	-0.106282905
54	0x3d9f4987	0.07777696
55	0xbddac086	-0.10681252
56	0xbe1686dd	-0.14699884
57	0x3d070015	0.032959063
58	0x3e128c19	0.14311256
59	0x3d3b1562	0.04567469
60	0xbda3cbe1	-0.07997871
61	0xbdb2144c	-0.086952776
62	0xbcbda51e	-0.023150023
63	0xbe0e76fa	-0.13912573
64	0xbdac6607	-0.08417898
65	0xbd1ed161	-0.038773898
66	0x3de7c8ff	0.11317634
67	0xbde5813e	-0.112062916
68	0xbd6ccb00	-0.057810783
69	0x3dbc83b2	0.092048064
70	0x3dc3be18	0.09557742
71	0x3d90ce92	0.0707065
72	0x3dc016ea	0.093793705
73	0x3de6e796	0.1127464
74	0x3da7510b	0.081697546
75	0xbd563fc5	-0.05230691
76	0x3da1a19b	0.07892152
77	0x3e0b0086	0.13574418
78	0xbdafed2c	-0.08590159
79	0xbdf02913	-0.11726584
80	0xbdbd2eb3	-0.09237423
81	0x3d8eed3a	0.06978841
82	0x3d8d6b42	0.069052234
83	0xbda1734b	-0.078833185
84	0xbd8d19b0	-0.06889665
85	0x3d4112ab	0.047136944
86	0x3dddcecb	0.10830458
87	0xbc7e1bf2	-0.015509592
88	0xbd3ff112	-0.046860762
89	0x3dd31dd5	0.103084244
90	0xbe0aa74c	-0.13540381
91	0x3e1a5c71	0.15074326
92	0xbe02d5c5	-0.12776859
93	0x3da2ce19	0.07949466
94	0xbd4ba587	-0.049718406
95	0x3e071df4	0.1319502
96	0xbc0917e8	-0.008367516
97	0x3b85a00b	0.0040779165
98	0x3d1247ab	0.03571288
99	0x3d8afc44	0.06786397
100	0xbd29862b	-0.04138772
101	0x3de8316f	0.11337554
102	0xbda89028	-0.082306206
103	0x3dd8eb1a	0.10591717
104	0xbcae7139	-0.021294223
105	0xbe07da73	-0.13266926
106	0xbe028e67	-0.12749635
107	0x3e1c7c48	0.15281785
108	0xbb754329	-0.0037424064
109	0xbd840758	-0.06446713
110	0xbdcd24ba	-0.10016771
111	0x3c8ae96d	0.01695701
112	0xbd5e81b3	-0.05432291
113	0xbd2868b0	-0.041115463
114	0x393eb255	0.00018186246
115	0x3d9f1322	0.07767321
116	0x3e03bab5	0.12864192
117	0xbd85e297	-0.06537359
118	0x3db5ed1e	0.08883117
119	0x3de0b9a3	0.109729074
120	0xbe04ef70	-0.12981963
121	0xbdd3401d	-0.10314963
122	0x3a16d488	0.00057537155
123	0xbe0197f6	-0.12655625
124	0x3d8f91dc	0.07010242
125	0xbd8d3be0	-0.06896186
126	0xbdbe8c6a	-0.093041256
127	0x3df24aac	0.11830649
128	0xbdcbc2e2	-0.0994928
129	0x3d60020a	0.054689445
130	0xbdb73eb5	-0.08947507
131	0xbddabd9d	-0.10680697
132	0x3e1ab3ab	0.151076
133	0xbcc75660	-0.024333179
134	0x3c899e35	0.016799072
135	0xbe07b194	-0.13251334
136	0x3d00569b	0.031332593
137	0xbcb83d45	-0.022490153
138	0x3daade0b	0.083431326
139	0xbe0cf5e6	-0.13765678
140	0x3e1b8fc4	0.15191561
141	0x3ca4b598	0.020106122
142	0xbe0b17fd	-0.1358337
143	0xbd16fbb5	-0.03686114
144	0x3cfe497d	0.031040901
145	0x3d44e964	0.04807414
146	0x3dc38f6b	0.09548839
147	0x3daf4634	0.08558312
148	0x3e0f616b	0.14002006
149	0x3d9e37ac	0.07725462
150	0x3d2e8224	0.04260458
151	0x3c5e4b9f	0.013567834
152	0xbca19183	-0.019722706
153	0x3d278adb	0.040903907
154	0xbd41eddc	-0.04734598
155	0xbd89853a	-0.06714864
156	0x3de6911c	0.11258146
157	0xbd9c39e7	-0.076282315
158	0xbb6aa4d7	-0.0035803819
159	0x3d84d76d	0.06486402
160	0x3d99b86c	0.07505879
161	0xbdc218d7	-0.09477394
162	0xbcab1525	-0.020884106
163	0x3c2d15aa	0.010564247
164	0xbdbd2065	-0.092346944
165	0x3d9cfb36	0.07665102
166	0x3c91dbf2	0.017805073
167	0xbcf8fc5b	-0.03039377
168	0xbe11d7c1	-0.1424246
169	0xbdbb9948	-0.091600955
170	0x3c2c4476	0.010514369
171	0xbdd00cf8	-0.101587236
172	0x3dc4df90	0.09612954
173	0xbd9f5a72	-0.07780923
174	0xbdeef310	-0.11667454
175	0x3a4bb46a	0.0007770719
176	0xbc76c61a	-0.0150618795
177	0x3d2e1c0c	0.042507216
178	0xbccac5a0	-0.024752438
179	0xbbed1837	-0.0072355526
180	0x3e121f95	0.1426986
181	0x3e180d1f	0.14848755
182	0x3d492348	0.049105912
183	0x3dfa5138	0.122225225
184	0xbdc42be6	-0.095786855
185	0xbdb9a6ab	-0.090649925
186	0x3d0b090f	0.033944186
187	0x3e15beef	0.14623617
188	0xbb9ca55d	-0.004780455
189	0xbba8536d	-0.0051368983
190	0xbdefaa38	-0.117023885
191	0xbd2bf9e8	-0.041986376
192	0xbe1abfa1	-0.15112163
193	0xbcbdf85d	-0.023189718
194	0xbbb10b5f	-0.005402967
195	0x3cf40e38	0.029791936
196	0x3db2b4c7	0.08725887
197	0x3d3a3cda	0.04546819
198	0xbd7588b4	-0.059944823
199	0xbdeb2533	-0.114817046
200	0x3d2d54d1	0.042317215
201	0xbd1c5f7f	-0.03817701
202	0xbd9a171a	-0.075239375
203	0xbd6ab42b	-0.057300728
204	0xbd7ef4d7	-0.062245216
205	0xbe17ad9c	-0.1481232
206	0xbe133262	-0.14374688
207	0x39d07223	0.0003975789
208	0xbd84a6f1	-0.06477154
209	0x3dbc06fe	0.09181021
210	0xbd16689a	-0.03672085
211	0xbdf28259	-0.11841268
212	0x3d48200e	0.048858695
213	0x3dfa34b0	0.122170806
214	0xbcc94212	-0.024567638
215	0x3e00f66c	0.12594002
216	0xbc0f0af4	-0.008730639
217	0x3daaed09	0.08345992
218	0xbdae8da4	-0.085231096
219	0x3dac072b	0.08399805
220	0xbbc079f0	-0.005873911
221	0xbe136fa7	-0.1439806
222	0x3dd42d21	0.1036017
223	0x3ddb8c3c	0.10720107
224	0x3d8196e3	0.063276075
225	0xbdc80062	-0.09765698
226	0x3d2c67e2	0.042091258
227	0xbd933b0c	-0.07188997
228	0xbc92689a	-0.017872144
229	0x3c28ee34	0.010310698
230	0x3da470c7	0.08029323
231	0x3e047b9e	0.12937781
232	0x3cbd5ce5	0.023115585
233	0xbdd68330	-0.10474241
234	0x3d9757fc	0.073898286
235	0xbcb19f69	-0.021682458
236	0x3dbfe86f	0.09370505
237	0xbd689f80	-0.056792736
238	0xbd4ac5e5	-0.049505133
239	0xbdbbc0c8	-0.091676295
240	0x3de4b5a8	0.11167461
241	0xbd5029e0	-0.050821185
242	0x3dd65ea8	0.10467273
243	0xbd9f5061	-0.07779003
244	0xbdf7fe93	-0.12109103
245	0x3dd4d2fd	0.10391805
246	0xbd15e720	-0.03659737
247	0xbda0d9d2	-0.07854046
248	0x3d9d68d3	0.07686009
249	0xbdbff695	-0.09373204
250	0xbd6c8b10	-0.057749808
251	0x3dc46622	0.09589793
252	0x3db5f229	0.08884079
253	0x3ddf3c41	0.109001644
254	0x3deb438f	0.11487495
255	0xbdef6e12	-0.11690916

generator.transformer_layer.self_attn.in_proj_bias f4 [192]
0	0x00000000	0.0
1	0x00000000	0.0
2	0x00000000	0.0
3	0x00000000	0.0
4	0x00000000	0.0
5	0x00000000	0.0
6	0x00000000	0.0
7	0x00000000	0.0
8	0x00000000	0.0
9	0x00000000	0.0
10	0x00000000	0.0
11	0x00000000	0.0
12	0x00000000	0.0
13	0x00000000	0.0
14	0x00000000	0.0
15	0x00000000	0.0
16	0x00000000	0.0
17	0x00000000	0.0
18	0x00000000	0.0
19	0x00000000	0.0
20	0x00000000	0.0
21	0x00000000	0.0
22	0x00000000	0.0
23	0x00000000	0.0
24	0x00000000	0.0
25	0x00000000	0.0
26	0x00000000	0.0
27	0x00000000	0.0
28	0x00000000	0.0
29	0x00000000	0.0
30	0x00000000	0.0
31	0x00000000	0.0
32	0x00000000	0.0
33	0x00000000	0.0
34	0x00000000	0.0
35	0x00000000	0.0
36	0x00000000	0.0
37	0x00000000	0.0
38	0x00000000	0.0
39	0x00000000	0.0
40	0x00000000	0.0
41	0x00000000	0.0
42	0x00000000	0.0
43	0x00000000	0.0
44	0x00000000	0.0
45	0x00000000	0.0
46	0x00000000	0.0
47	0x00000000	0.0
48	0x00000000	0.0
49	0x00000000	0.0
50	0x00000000	0.0
51	0x00000000	0.0
52	0x00000000	0.0
53	0x00000000	0.0
54	0x00000000	0.0
55	0x00000000	0.0
56	0x00000000	0.0
57	0x00000000	0.0
58	0x00000000	0.0
59	0x00000000	0.0
60	0x00000000	0.0
61	0x00000000	0.0
62	0x00000000	0.0
63	0x00000000	0.0
64	0x00000000	0.0
65	0x00000000	0.0
66	0x00000000	0.0
67	0x00000000	0.0
68	0x00000000	0.0
69	0x00000000	0.0
70	0x00000000	0.0
71	0x00000000	0.0
72	0x00000000	0.0
73	0x00000000	0.0
74	0x00000000	0.0
75	0x00000000	0.0
76	0x00000000	0.0
77	0x00000000	0.0
78	0x00000000	0.0
79	0x00000000	0.0
80	0x00000000	0.0
81	0x00000000	0.0
82	0x00000000	0.0
83	0x00000000	0.0
84	0x00000000	0.0
85	0x00000000	0.0
86	0x00000000	0.0
87	0x00000000	0.0
88	0x00000000	0.0
89	0x00000000	0.0
90	0x00000000	0.0
91	0x00000000	0.0
92	0x00000000	0.0
93	0x00000000	0.0
94	0x00000000	0.0
95	0x00000000	0.0
96	0x00000000	0.0
97	0x00000000	0.0
98	0x00000000	0.0
99	0x00000000	0.0
100	0x00000000	0.0
101	0x00000000	0.0
102	0x00000000	0.0
103	0x00000000	0.0
104	0x00000000	0.0
105	0x00000000	0.0
106	0x00000000	0.0
107	0x00000000	0.0
108	0x00000000	0.0
109	0x00000000	0.0
110	0x00000000	0.0
111	0x00000000	0.0
112	0x00000000	0.0
113	0x00000000	0.0
114	0x00000000	0.0
115	0x00000000	0.0
116	0x00000000	0.0
117	0x00000000	0.0
118	0x00000000	0.0
119	0x00000000	0.0
120	0x00000000	0.0
121	0x00000000	0.0
122	0x00000000	0.0
123	0x00000000	0.0
124	0x00000000	0.0
125	0x00000000	0.0
126	0x00000000	0.0
127	0x00000000	0.0
128	0x00000000	0.0
129	0x00000000	0.0
130	0x00000000	0.0
131	0x00000000	0.0
132	0x00000000	0.0
133	0x00000000	0.0
134	0x00000000	0.0
135	0x00000000	0.0
136	0x00000000	0.0
137	0x00000000	0.0
138	0x00000000	0.0
139	0x00000000	0.0
140	0x00000000	0.0
141	0x00000000	0.0
142	0x00000000	0.0
143	0x00000000	0.0
144	0x00000000	0.0
145	0x00000000	0.0
146	0x00000000	0.0
147	0x00000000	0.0
148	0x00000000	0.0
149	0x00000000	0.0
150	0x00000000	0.0
151	0x00000000	0.0
152	0x00000000	0.0
153	0x00000000	0.0
154	0x00000000	0.0
155	0x00000000	0.0
156	0x00000000	0.0
157	0x00000000	0.0
158	0x00000000	0.0
159	0x00000000	0.0
160	0x00000000	0.0
161	0x00000000	0.0
162	0x00000000	0.0
163	0x00000000	0.0
164	0x00000000	0.0
165	0x00000000	0.0
166	0x00000000	0.0
167	0x00000000	0.0
168	0x00000000	0.0
169	0x00000000	0.0
170	0x00000000	0.0
171	0x00000000	0.0
172	0x00000000	0.0
173	0x00000000	0.0
174	0x00000000	0.0
175	0x00000000	0.0
176	0x00000000	0.0
177	0x00000000	0.0
178	0x00000000	0.0
179	0x00000000	0.0
180	0x00000000	0.0
181	0x00000000	0.0
182	0x00000000	0.0
183	0x00000000	0.0
184	0x00000000	0.0
185	0x00000000	0.0
186	0x00000000	0.0
187	0x00000000	0.0
188	0x00000000	0.0
189	0x00000000	0.0
190	0x00000000	0.0
191	0x00000000	0.0

generator.transformer_layer.self_attn.out_proj.weight f4 [64, 64]
0	0xbc80e6c0	-0.01573503
1	0x3d35a93c	0.044350848
2	0xbd836450	-0.064156175
3	0x3de5b9dc	0.112170905
4	0x3db9537c	0.090491265
5	0x3db4d276	0.08829205
6	0x3de5824e	0.11206494
7	0xbb292f80	-0.0025815666
8	0xbd53cbe4	-0.051708117
9	0x3dbcf808	0.09226996
10	0x3dfe6c70	0.124230266
11	0xbd63de98	-0.055632204
12	0x3dd0860c	0.101818174
13	0x3c305f70	0.010764942
14	0xbd9f91c0	-0.077914715
15	0xbd3724b0	-0.044712722
16	0xbdcc3eba	-0.09972902
17	0xbd670d3c	-0.056409106
18	0x3dc45a10	0.095874906
19	0xbcaed2a0	-0.021340668
20	0xbd1c1584	-0.038106456
21	0x3ddfbf98	0.109252155
22	0xbdc6b0dc	-0.09701702
23	0x3d97282c	0.07380709
24	0xbd9a180c	-0.07524118
25	0xbc5289a0	-0.012850195
26	0x3da4b110	0.080415845
27	0xbbc0f940	-0.005889088
28	0xbd9f2886	-0.07771401
29	0xbde1b1f2	-0.110202685
30	0x3d4f8124	0.050660267
31	0xbd410484	-0.047123447
32	0xbd36afe0	-0.04460132
33	0x3d69f140	0.05711484
34	0xbd2a8e40	-0.041639566
35	0xbdcda33c	-0.100409
36	0x3de4f9b8	0.111804426
37	0xbded252c	-0.115793556
38	0x3c2b8560	0.010468811
39	0xbd313580	-0.043263912
40	0x3cafe870	0.02147314
41	0x3d9951b0	0.07486284
42	0x3de5d5ae	0.11222397
43	0xbde5327e	-0.11191271
44	0x3d669a68	0.056299597
45	0xbdbf96f6	-0.093549654
46	0x3c202d70	0.009776458
47	0xbdb7527e	-0.08951281
48	0xbd9d1378	-0.07669729
49	0xbd02d95c	-0.03194557
50	0xbdb508ee	-0.08839594
51	0xbda265a6	-0.07929544
52	0x3dc59e20	0.096493006
53	0xbd8aea0c	-0.06782922
54	0x3da36a8a	0.07979305
55	0xbda7d6ba	-0.08195253
56	0x3d970eac	0.07375845
57	0x3df74800	0.1207428
58	0xbcd2ab88	-0.025716558
59	0x3d070848	0.032966882
60	0xbdd7138c	-0.10501775
61	0xbcf58b90	-0.029973775
62	0x3d16c4d0	0.03680879
63	0x3ca62c78	0.020284876
64	0x3d8d1878	0.06889433
65	0xbd9939a2	-0.07481696
66	0x3d8dc1d6	0.06921737
67	0xbd24064c	-0.040045068
68	0x3de7cb40	0.11318064
69	0x3d8f5a42	0.06999637
70	0xbd90e938	-0.07075733
71	0x3d601e14	0.054716185
72	0x3d306298	0.043062776
73	0xb97d2c00	-0.00024144351
74	0xbc5fe480	-0.0136653185
75	0x3d4a5200	0.049394608
76	0xbddd2666	-0.107983395
77	0xbc4cda10	-0.012503162
78	0xbd8afef8	-0.06786913
79	0x3dfeed44	0.124475986
80	0x3db87212	0.09006132
81	0xbdbeaa04	-0.09309772
82	0x3ddaefce	0.1069027
83	0x3d63f878	0.05565688
84	0x3d1a34fc	0.037648186
85	0xbdceb91e	-0.10093902
86	0x3dd39450	0.10331023
87	0x3b94aea0	0.0045374185
88	0xbdf5e916	-0.12007348
89	0x3d01d460	0.031696677
90	0xbd05bf58	-0.032653183
91	0x3d69f4ac	0.057118103
92	0xbd1b0a24	-0.037851468
93	0x3d99e8be	0.07515095
94	0xbd6b29cc	-0.057412907
95	0x3dfb1e24	0.12261608
96	0x3db880ba	0.09008928
97	0xbc27daf0	-0.01024507
98	0x3d296f1c	0.041365728
99	0xbd9effb6	-0.07763617
100	0x3df8fa68	0.12157136
101	0x3c8f3548	0.017481461
102	0xbdca5b0c	-0.09880647
103	0xbd88b8dc	-0.06675884
104	0x3d35cfb4	0.044387534
105	0x3d70046c	0.058597967
106	0xbbfe1000	-0.007753372
107	0xbdd51fde	-0.10406469
108	0xbd08007c	-0.033203587
109	0x3dd563ae	0.10419403
110	0xbba4ab80	-0.005025327
111	0xbc429350	-0.011875942
112	0x3ca0c010	0.019622833
113	0x3debc546	0.11512236
114	0xbc932b98	-0.017965123
115	0xbd03cce8	-0.032177836
116	0x3de0fec4	0.10986093
117	0x3dcd234e	0.100164995
118	0xbc61bea0	-0.013778359
119	0xbc9086a0	-0.01764232
120	0xbdadd426	-0.0848773
121	0x3bb24f80	0.005441606
122	0x3d5a24f4	0.053257897
123	0xbdd4d248	-0.103916705
124	0x3d0d35cc	0.034475133
125	0xbdce6604	-0.10078052
126	0xbdca8c40	-0.09890032
127	0x3d7ba544	0.061436906
128	0x3cc786b8	0.024356231
129	0xbdb36bbc	-0.08760783
130	0xbc7d4510	-0.01545836
131	0xbd806bd0	-0.062705636
132	0xbd031580	-0.032002926
133	0x3d81a748	0.063307345
134	0xbc4c7820	-0.012479812
135	0x3dacf248	0.08444649
136	0xbd0b909c	-0.034073457
137	0xbda15496	-0.078774616
138	0x3d1b5128	0.037919194
139	0x3cf96968	0.03044577
140	0xbda9797c	-0.082751244
141	0x3ca03c48	0.019559994
142	0x3be7ecc0	0.0070777833
143	0xbdd0d33a	-0.10196538
144	0xbd916430	-0.070991874
145	0xbd015a00	-0.03157997
146	0x3dc450e8	0.09585744
147	0x3d00cd54	0.031445816
148	0xbd34d258	-0.044145912
149	0xbda6185a	-0.081101134
150	0x3c20eb90	0.0098217875
151	0x3d077c80	0.033077717
152	0xbc112bc0	-0.0088605285
153	0x3d13c08c	0.0360723
154	0x3cf33630	0.029688925
155	0x3cebe238	0.028794393
156	0x3dbc476c	0.0919331
157	0x3ceec4a0	0.029146492
158	0x3dccf02e	0.10006748
159	0xbdedfdb8	-0.11620659
160	0x3dbc3518	0.09189814
161	0xbb89c8e0	-0.0042048544
162	0x3ceb76d8	0.028743193
163	0xbbd3c200	-0.0064623356
164	0xb6b70000	-5.453825e-06
165	0xbd6bfd58	-0.057614654
166	0xbc54e0e0	-0.0129930675
167	0x3d4068b4	0.046974853
168	0x3df4b140	0.1194787
169	0xbc0a6b60	-0.008448452
170	0xbd687498	-0.056751817
171	0xbc763420	-0.015027076
172	0xbd1ed4c8	-0.038777143
173	0xbdb6aa7e	-0.089192376
174	0x3da14ece	0.07876359
175	0xbc980dd8	-0.018561289
176	0xbd6d71a0	-0.05796969
177	0x3bf11e60	0.0073583573
178	0x3dd6fed0	0.104978204
179	0x3c757620	0.0149817765
180	0x3d694adc	0.056956157
181	0x3d79fbe0	0.061031222
182	0x3c73ba80	0.014876008
183	0xbd03583c	-0.03206657
184	0xbde31ace	-0.11089097
185	0x3d20f9fc	0.039300904
186	0xbccef860	-0.025264919
187	0x3db00fe2	0.085967794
188	0x3d0e6050	0.03475982
189	0x3dee652c	0.11640391
190	0x3d0850a0	0.033280015
191	0x3d3a9648	0.045553476
192	0xbd466ad0	-0.048441708
193	0xbc9d91b8	-0.019234523
194	0x3d31f788	0.043448955
195	0x3daa7900	0.0832386
196	0x3de033fa	0.10947414
197	0xbd66d524	-0.05635561
198	0xbdca1884	-0.09867957
199	0xbd5e6394	-0.054294184
200	0xbd8a3244	-0.06747869
201	0xbcf385b0	-0.029726833
202	0xbb775b80	-0.0037743747
203	0x3db756f2	0.089521304
204	0xbdc121ec	-0.09430298
205	0xbdeca844	-0.115555316
206	0x3d6896f8	0.0567846
207	0xbd2861c0	-0.041108847
208	0xbdfae854	-0.12251344
209	0x3ca8f1e8	0.020623162
210	0xbd88dd64	-0.06682852
211	0xbd00d690	-0.031454623
212	0xbd7b5b40	-0.06136632
213	0xbbe7dce0	-0.007075891
214	0x3c5ad540	0.013356507
215	0x3def69b8	0.11690086
216	0x3dd319d0	0.10307658
217	0x3db918e2	0.09037949
218	0x3d84218e	0.064517125
219	0x3dd46cb6	0.103722975
220	0xbc5ab850	-0.013349608
221	0x3ce7b5e0	0.028284967
222	0xbde74152	-0.11291756
223	0xbd6bc588	-0.057561427
224	0xbdc92e8e	-0.09823333
225	0xbd8ed1be	-0.06973599
226	0x3d93918c	0.07205495
227	0xbd8ebe38	-0.06969875
228	0xbc132800	-0.008981705
229	0x3d271bd4	0.040798023
230	0xbde5b8b4	-0.1121687
231	0x3bf11800	0.0073575974
232	0x3c619f00	0.013770819
233	0x3ddbfc7a	0.107415155
234	0xbdcf69c0	-0.10127592
235	0xbdc974cc	-0.0983673
236	0x3c78d8e0	0.015188426
237	0xbcb35f40	-0.021896005
238	0x3dbb84f0	0.09156215
239	0x3d0650a4	0.03279175
240	0xbd7d6f78	-0.061873883
241	0xbd779a3c	-0.060449824
242	0x3db3649e	0.087594256
243	0xbd2e1de8	-0.04250899
244	0x3db20344	0.08692029
245	0xbc83f1c8	-0.016106501
246	0x3dea4c62	0.1144035
247	0xbd9b60b6	-0.075868055
248	0xbdfefb2a	-0.124502495
249	0xbd5a7f6c	-0.053344175
250	0xbd0fd070	-0.03511089
251	0xba9ba300	-0.0011874139
252	0x3d870d90	0.06594384
253	0x3c567820	0.0130901635
254	0x3cf04d90	0.02933386
255	0xbdfd6c2c	-0.12374148

generator.transformer_layer.self_attn.out_proj.bias f4 [64]
0	0x00000000	0.0
1	0x00000000	0.0
2	0x00000000	0.0
3	0x00000000	0.0
4	0x00000000	0.0
5	0x00000000	0.0
6	0x00000000	0.0
7	0x00000000	0.0
8	0x00000000	0.0
9	0x00000000	0.0
10	0x00000000	0.0
11	0x00000000	0.0
12	0x00000000	0.0
13	0x00000000	0.0
14	0x00000000	0.0
15	0x00000000	0.0
16	0x00000000	0.0
17	0x00000000	0.0
18	0x00000000	0.0
19	0x00000000	0.0
20	0x00000000	0.0
21	0x00000000	0.0
22	0x00000000	0.0
23	0x00000000	0.0
24	0x00000000	0.0
25	0x00000000	0.0
26	0x00000000	0.0
27	0x00000000	0.0
28	0x00000000	0.0
29	0x00000000	0.0
30	0x00000000	0.0
31	0x00000000	0.0
32	0x00000000	0.0
33	0x00000000	0.0
34	0x00000000	0.0
35	0x00000000	0.0
36	0x00000000	0.0
37	0x00000000	0.0
38	0x00000000	0.0
39	0x00000000	0.0
40	0x00000000	0.0
41	0x00000000	0.0
42	0x00000000	0.0
43	0x00000000	0.0
44	0x00000000	0.0
45	0x00000000	0.0
46	0x00000000	0.0
47	0x00000000	0.0
48	0x00000000	0.0
49	0x00000000	0.0
50	0x00000000	0.0
51	0x00000000	0.0
52	0x00000000	0.0
53	0x00000000	0.0
54	0x00000000	0.0
55	0x00000000	0.0
56	0x00000000	0.0
57	0x00000000	0.0
58	0x00000000	0.0
59	0x00000000	0.0
60	0x00000000	0.0
61	0x00000000	0.0
62	0x00000000	0.0
63	0x00000000	0.0

generator.transformer_layer.linear1.weight f4 [128, 64]
0	0xbd7386b4	-0.059454635
1	0xbdfd5de0	-0.12371421
2	0x3cdd7f68	0.027038291
3	0x3dea0cfe	0.11428259
4	0x3df91abc	0.12163302
5	0x3d88f08e	0.06686507
6	0x3d0e4f7c	0.03474377
7	0x3dda8ba2	0.10671164
8	0xbd9835ee	-0.07432161
9	0x3c6dd8e0	0.014517039
10	0xbd9b20ee	-0.0757464
11	0x3c708970	0.014681205
12	0xbcea0a50	-0.02856937
13	0xbda75fbc	-0.08172557
14	0xbdf76e6e	-0.1208161
15	0xbd820318	-0.06348246
16	0xbdf5ace4	-0.11995867
17	0xbce3d100	-0.02780962
18	0xbcafac60	-0.0214445
19	0xbd5e7b88	-0.054317027
20	0x3d4c0234	0.04980679
21	0x3cbec440	0.023286939
22	0x3cce6dd0	0.025198847
23	0xbd67836c	-0.056521818
24	0x3d9d8908	0.07692152
25	0x3bbb1de0	0.0057103485
26	0xbd9027d0	-0.07038844
27	0xbdd107ca	-0.10206564
28	0xbde6e556	-0.11274211
29	0xbc6c0310	-0.014405027
30	0x3d78b4b4	0.060719207
31	0xbd80d88e	-0.062913045
32	0xbdcc7872	-0.099839106
33	0x3de9a44e	0.11408292
34	0xbdc0b158	-0.09408826
35	0xbd43761c	-0.04772006
36	0xbd9c14ac	-0.0762113
37	0x3dfdc78c	0.12391576
38	0x3d62e7d8	0.055396885
39	0xbd65cb30	-0.056101978
40	0x3d6d0b40	0.057872057
41	0x3dc15f7c	0.0944204
42	0xbde94eca	-0.11391981
43	0x3dd1b360	0.10239291
44	0xbdb924d0	-0.090402246
45	0xbdd3f248	-0.10348946
46	0xbc821860	-0.015880764
47	0xbdfb2068	-0.122620404
48	0x3cc58ef8	0.024116024
49	0xbd9fe974	-0.078081995
50	0x3c8b83e8	0.017030671
51	0xbd2ba654	-0.04190667
52	0xbdfbf126	-0.12301855
53	0xbd96c5ca	-0.07361944
54	0xbcbed9d0	-0.02329722
55	0x3d108ad0	0.035288632
56	0xbd660794	-0.05615957
57	0xbd6ec070	-0.05828899
58	0x3cd9aed0	0.026572615
59	0x3dbfa1a4	0.093570024
60	0x3de671e4	0.11252192
61	0x3dd0917c	0.10183999
62	0xbc1fd910	-0.009756342
63	0x3df83c94	0.12120929
64	0x3d24a3e4	0.04019536
65	0xbd378d70	-0.04481262
66	0xbd66fc48	-0.056392938
67	0x3d65aa48	0.056070596
68	0x3d952dcc	0.07284126
69	0x3da5ceaa	0.08096059
70	0xbd04a7c8	-0.03238657
71	0xbd030d14	-0.031994894
72	0x3dbcf308	0.09226042
73	0x3d39d3b8	0.045367926
74	0x3d04d938	0.03243372
75	0xbd0a8534	-0.03381844
76	0x3da48096	0.08032338
77	0xbd5dbcbc	-0.05413507
78	0xbcb2c990	-0.021824628
79	0xbc1fcf40	-0.009754002
80	0x3ded332e	0.115820274
81	0x3defd014	0.1170961
82	0x3dbde3d4	0.092719704
83	0xbda826ae	-0.082105026
84	0x3a1d7d00	0.0006007701
85	0xbdec4700	-0.1153698
86	0x3db6b742	0.089216724
87	0xbcc5e4a8	-0.024156883
88	0x3ce98048	0.028503552
89	0xbcfcd780	-0.030864477
90	0x3db0308a	0.08603008
91	0x3d4f6ecc	0.050642774
92	0x3d87f884	0.066391975
93	0xbdfca09c	-0.12335321
94	0xbd648d6c	-0.055798933
95	0xbc760f20	-0.0150182545
96	0xba1a3c00	-0.00058835745
97	0x3dbde62a	0.09272416
98	0xbdcb6dd2	-0.09933056
99	0x3de2f29a	0.11081429
100	0x3dad60f6	0.084657595
101	0x3dfccd6c	0.123438686
102	0x3d8b0e7e	0.067898735
103	0xbc3d4de0	-0.011554211
104	0x3c115460	0.008870214
105	0xbd75adec	-0.059980318
106	0xbd9920b4	-0.07476941
107	0xbd079050	-0.03309661
108	0xbdc97fee	-0.09838854
109	0x3dffee3a	0.1249661
110	0xbb7bdcc0	-0.0038431138
111	0xbdb17936	-0.08665697
112	0xba017a00	-0.0004939139
113	0xbdf45ec6	-0.11932139
114	0x3c91f1c0	0.01781547
115	0x3d6fe810	0.05857092
116	0xbc93f3b0	-0.018060535
117	0xbddea5fc	-0.10871503
118	0xbd08a890	-0.03336388
119	0xbd5b3234	-0.053514674
120	0x3dc95b0a	0.098318174
121	0xbbdac040	-0.00667575
122	0x3ded52e0	0.11588073
123	0xbcb6e958	-0.022328064
124	0xbd15df9c	-0.036590204
125	0x3d1bc224	0.038026944
126	0x3c9da920	0.019245684
127	0x3dd60db2	0.10451831
128	0xbde38806	-0.11109929
129	0x3ce53b70	0.027982444
130	0xbda2dc20	-0.07952142
131	0x3d342b38	0.04398653
132	0x3dec6c8e	0.11544143
133	0xbd31ef64	-0.04344119
134	0xbdc71de6	-0.097224995
135	0xbd80ceea	-0.06289466
136	0xbd3efc48	-0.046627313
137	0x3d6ef6d4	0.058340862
138	0x3cb9d9d8	0.022686884
139	0xbd8f74ce	-0.070047006
140	0xbd77c28c	-0.06048827
141	0xbdf416dc	-0.119184226
142	0xbd9a2c8e	-0.075280294
143	0xba934b80	-0.0011237711
144	0x3d829f6e	0.06378065
145	0x3d7e36b8	0.062063903
146	0x3d93be66	0.0721405
147	0x3c935c78	0.017988428
148	0x3d32823c	0.043581232
149	0x3da797e2	0.08183266
150	0x3a37c200	0.0007009804
151	0x3d1a1bac	0.037624046
152	0xbcf7a928	-0.030232027
153	0xbca62eb8	-0.02028595
154	0x3bf79800	0.0075559616
155	0xbdf376da	-0.118879035
156	0x3d620ed4	0.055189922
157	0x3d49dc74	0.049282506
158	0x3dd79614	0.10526672
159	0xbc973ac0	-0.018460631
160	0xbd15d218	-0.036577314
161	0x3d970dce	0.0737568
162	0x3d7c3870	0.06157726
163	0xbdfbb646	-0.12290625
164	0x3dc12180	0.09430218
165	0x3ddef4be	0.108865246
166	0x3d039618	0.032125562
167	0x3d8fbbb6	0.07018225
168	0x3dc73efe	0.09728812
169	0x3d9cd8b6	0.07658522
170	0xbd8b33b8	-0.06796974
171	0x3b76be00	0.003764987
172	0x3dada75a	0.084791854
173	0x3d1ce508	0.03830436
174	0xbcfc1ec8	-0.030776396
175	0xbdd4511a	-0.103670314
176	0xbda0e99a	-0.07857056
177	0x3de5bdbe	0.11217831
178	0x3dfbebbc	0.12300822
179	0x3c90b7c8	0.017665759
180	0x3da4a2d4	0.080388695
181	0x3d657ba8	0.05602613
182	0xbdde0cfe	-0.10842322
183	0xbdcd90bc	-0.100373715
184	0x3dc81276	0.09769146
185	0xbdf9dacc	-0.12199935
186	0xbcde67e0	-0.02714914
187	0x3dd6808a	0.10473736
188	0xbd2ee4a8	-0.042698532
189	0x3da6e020	0.08148217
190	0x3c391620	0.011296779
191	0xbd2e4028	-0.042541653
192	0xbdbb3a9e	-0.0914204
193	0x3d3c7ad4	0.046015576
194	0x3dc1b950	0.09459174
195	0x3db7d6a2	0.08976485
196	0x3c230320	0.0099494755
197	0x3d4b0e98	0.049574465
198	0xbd57e45c	-0.052708015
199	0xbcbe3a90	-0.023221284
200	0xbd376704	-0.044775978
201	0xbde6956a	-0.11258967
202	0x3d821cc0	0.0635314
203	0xbd9ff55e	-0.07810472
204	0xbdb41a10	-0.087940335
205	0x3dd0cac8	0.101949275
206	0x3d4f7f94	0.050658777
207	0x3d8903b2	0.06690158
208	0xbddce5b4	-0.10786
209	0xbd29fdac	-0.041501686
210	0xbdd5cc12	-0.10439314
211	0xbd4035e8	-0.04692641
212	0xbaa72480	-0.0012751967
213	0xbd65d548	-0.056111604
214	0xbdc168cc	-0.094438165
215	0xbb83cd20	-0.0040222555
216	0xbd50a240	-0.050935984
217	0xbd40fbd0	-0.047115147
218	0xbbfd2be0	-0.0077261776
219	0xbd37c508	-0.044865638
220	0x3dcd966c	0.10038456
221	0x3d70b468	0.0587658
222	0xbda1e56a	-0.079050854
223	0x3da20f20	0.07913041
224	0x3d2c72c8	0.04210165
225	0x3d849952	0.06474556
226	0xbd8cd17a	-0.06875892
227	0x3bbf3280	0.0058348775
228	0x3d8f7542	0.07004787
229	0xbde82010	-0.113342404
230	0xbdb7b280	-0.08969593
231	0xbd33a0f8	-0.043854684
232	0xbcf2a028	-0.029617384
233	0xbde5e956	-0.11226146
234	0xbdf99aa8	-0.121877015
235	0x3d994c56	0.07485263
236	0x3dae08e0	0.084977865
237	0x3dfe6306	0.12421231
238	0x3bd8ebc0	0.0066199005
239	0xbda58e24	-0.08083752
240	0x3db29802	0.087203994
241	0x3dbaa5c0	0.091136456
242	0x3cb1be98	0.021697327
243	0xbd2c7b00	-0.04210949
244	0x3d3e36f0	0.04643911
245	0xbdfddbb4	-0.12395421
246	0x3b8e4d60	0.00434272
247	0x3d659240	0.056047678
248	0xba540300	-0.0008087605
249	0xbdf49590	-0.11942589
250	0x3d9b00f0	0.07568538
251	0xbd0f1140	-0.03492856
252	0xbd81b078	-0.06332487
253	0x3b139640	0.0022519976
254	0xbc51a360	-0.012795299
255	0x3d8e5882	0.06950475

generator.transformer_layer.linear1.bias f4 [128]
0	0xbde3858c	-0.111094564
1	0x3db12752	0.08650078
2	0x3dd0f646	0.10203223
3	0x3d148990	0.036264002
4	0xbde0d138	-0.10977405
5	0x3d23af84	0.039962307
6	0x3cf50ae0	0.029912412
7	0xbd5dbe4c	-0.05413656
8	0xbb3fa580	-0.0029242933
9	0x3da93460	0.08261943
10	0x3df900f2	0.121583834
11	0x3d8d6ccc	0.06905517
12	0xbc6ada30	-0.0143342465
13	0x3d913e98	0.07092017
14	0xbda6aa70	-0.08137977
15	0x3d7f1abc	0.062281355
16	0xbd2620f8	-0.040558785
17	0xbdeff23a	-0.11716123
18	0x3d0efd68	0.034909636
19	0xbd99fb4a	-0.07518633
20	0x3d2696c8	0.04067114
21	0xbd504d9c	-0.050855264
22	0xbdd75c78	-0.10515684
23	0xbd8aedc0	-0.067836285
24	0x3d803ec4	0.062619716
25	0xbd80c0d6	-0.062867805
26	0x3d8d0d36	0.068872854
27	0xbd1da540	-0.038487673
28	0x3d835dac	0.06414351
29	0x3de0d518	0.109781444
30	0x3d88f340	0.06687021
31	0xbdb536b2	-0.08848323
32	0x3dd703f4	0.10498801
33	0xbde7986a	-0.113083676
34	0x3b183d80	0.0023230016
35	0xbd782df0	-0.060590684
36	0xbdcb4a46	-0.09926276
37	0xbdc9d360	-0.0985477
38	0xbc93abb8	-0.018026218
39	0xbdbc8722	-0.09205462
40	0x3ddab6c2	0.106793895
41	0xbdf6dd3e	-0.12053917
42	0x3d295ee0	0.041350245
43	0xbdf345b6	-0.11878531
44	0xbd8c9200	-0.06863785
45	0xbcd54188	-0.026032224
46	0x3d9a5512	0.07535757
47	0xbca80598	-0.02051048
48	0xbd89a022	-0.06719996
49	0x3cc86150	0.024460465
50	0xbd85d58a	-0.0653487
51	0x3b853260	0.004064843
52	0xbda46262	-0.080265775
53	0x3d2ca1b0	0.042146385
54	0x3d989be0	0.07451606
55	0xbdabd1ec	-0.08389649
56	0x3dc322f6	0.09528153
57	0xbde191fc	-0.110141724
58	0x3bd3a820	0.006459251
59	0x3deac136	0.11462633
60	0xbde355d2	-0.11100353
61	0xbd508dd8	-0.050916523
62	0x3cea8998	0.028630063
63	0xbdfaf2d6	-0.122533485
64	0x3dbfe960	0.093706846
65	0x3d37cedc	0.04487501
66	0x3d8afd90	0.067866445
67	0xbc4fcc30	-0.012682959
68	0xbdad1262	-0.08450772
69	0x399fc600	0.00030474365
70	0x3ce393b0	0.027780384
71	0x3db26bba	0.087119535
72	0xbd3621c8	-0.04446581
73	0xbd93daf6	-0.07219498
74	0x3d119f30	0.035552204
75	0xbc566230	-0.013084933
76	0xbc6fa000	-0.014625549
77	0x3d12ce9c	0.03584157
78	0xbcc18118	-0.023621127
79	0x3c8c9930	0.01716289
80	0x3d68aa30	0.05680293
81	0xbd12fd18	-0.0358859
82	0x3d980fa8	0.07424861
83	0xbdf91410	-0.1216203
84	0xbd3dbf20	-0.04632485
85	0xbc839188	-0.016060606
86	0xbdbe9c26	-0.09307127
87	0x3dd179ec	0.10228333
88	0xbd2607e0	-0.040534854
89	0x3d8a6f5c	0.06759521
90	0xbc126190	-0.0089343935
91	0xbceacdb8	-0.028662547
92	0x3da5da78	0.0809831
93	0xbdb8152e	-0.08988415
94	0x3d8fdb02	0.07024194
95	0xbd1b89a4	-0.03797306
96	0x3dde508a	0.10855205
97	0x3bda5aa0	0.0066636354
98	0x3bedcb60	0.00725691
99	0x3de881f6	0.11352913
100	0xbd908332	-0.070562735
101	0x3c4c21c0	0.0124592185
102	0x3bdb7840	0.0066976845
103	0xbda258b0	-0.07927072
104	0xbcf953a8	-0.030435398
105	0xbdb490ec	-0.08816704
106	0xbd1d8368	-0.038455397
107	0xbde7f490	-0.113259435
108	0x3cabaf10	0.0209575
109	0x3dec550c	0.11539659
110	0x3d544db0	0.0518319
111	0xbdbb047a	-0.09131713
112	0xbd69fd28	-0.057126194
113	0xbd8272e0	-0.06369567
114	0x3cd54ae0	0.02603668
115	0xbc227210	-0.00991489
116	0xbdef1fec	-0.116760105
117	0x3c94cdf8	0.01816462
118	0xbd07df08	-0.033171684
119	0xbc8facf8	-0.017538533
120	0x3da06a7e	0.07832812
121	0xbdd67ad0	-0.104726434
122	0x3dd3f22c	0.10348925
123	0x3af5b100	0.0018744767
124	0x3c14e190	0.009086981
125	0xbbe32ec0	-0.0069330633
126	0xbda8fb62	-0.082510725
127	0xbd84019e	-0.06445621

generator.transformer_layer.linear2.weight f4 [64, 128]
0	0xbd811e2e	-0.063045844
1	0x3d4dd245	0.050249357
2	0xbd985790	-0.07438576
3	0x3d97a722	0.07404925
4	0x3d8b3ef8	0.0679912
5	0xbdaece09	-0.08535392
6	0x3daa3b68	0.08312112
7	0xbd68269f	-0.056677457
8	0x3d92e2f6	0.071721956
9	0x3d9f8ed3	0.077909134
10	0x3da9787c	0.08274934
11	0xbd7eab8b	-0.062175315
12	0x3b7ad6d7	0.0038275027
13	0x3db26cec	0.087121814
14	0x3daf213e	0.08551262
15	0x3da98c04	0.08278659
16	0xbd16c6c5	-0.036810655
17	0xbc033d62	-0.00801024
18	0xbd1b1a63	-0.03786696
19	0xbca65bc2	-0.020307425
20	0x3c75838a	0.014984975
21	0x3c1c3940	0.009535134
22	0xbd9d3178	-0.07675451
23	0x3d75dec4	0.0600269
24	0xbda94e27	-0.082668595
25	0x3d476f4f	0.048690137
26	0x3d56c505	0.052433986
27	0x3d959f4b	0.07305773
28	0xbcde0eb9	-0.02710663
29	0xbd0043c0	-0.03131461
30	0xbd779817	-0.06044778
31	0xbd956f9d	-0.07296679
32	0x3d881b06	0.06645779
33	0x3d1ed57d	0.038777817
34	0x3cbac1cf	0.022797493
35	0x3d28e918	0.04123792
36	0x3d2fd5d2	0.042928524
37	0x3daedb0c	0.085378736
38	0x3da92a1d	0.082599856
39	0x3b078303	0.0020677454
40	0xbd9f72d2	-0.07785572
41	0xbd01424c	-0.031557366
42	0x3c2665ec	0.010156136
43	0x3d356eb8	0.044295043
44	0xbda47148	-0.08029419
45	0xbd87356e	-0.06601988
46	0x3cbad306	0.022805702
47	0xbda58189	-0.080813475
48	0x3d8f3d70	0.0699414
49	0x3db4cec7	0.08828502
50	0xbd915b8f	-0.070975415
51	0xbcfd802f	-0.030944912
52	0xbcef206c	-0.029190265
53	0xbc7d0569	-0.015443184
54	0xbd9c2ea7	-0.07626086
55	0xbc2728e9	-0.010202625
56	0x3d37de19	0.044889543
57	0x3d2f68b4	0.042824462
58	0x3c9a00bd	0.01879918
59	0x3d0a0015	0.033691484
60	0x3c24ac9a	0.010050917
61	0xbd0783cc	-0.033084676
62	0x3c1bfcb5	0.009520699
63	0x3d01b038	0.031662196
64	0xbbd295ff	-0.0064265723
65	0xbd2c3dbe	-0.04205107
66	0x3d98bed0	0.074582696
67	0xbd941ac0	-0.07231665
68	0x3d35fdb5	0.044431407
69	0x3d779072	0.06044049
70	0xbcf9146a	-0.030405242
71	0xbda09a7b	-0.07841965
72	0x3c819486	0.015817892
73	0x3d2dfc6c	0.042477056
74	0xbda6c3dc	-0.08142826
75	0xbd95fc54	-0.073235184
76	0xbc40e0b1	-0.011772321
77	0x3d55bf89	0.052184615
78	0x3c36a591	0.011147873
79	0xbd100fb5	-0.03517123
80	0x3bb92ed3	0.005651334
81	0xbbd5bb20	-0.006522551
82	0xbce3dfa0	-0.027816594
83	0x3d939d21	0.07207704
84	0x3d114930	0.035470188
85	0x3d88b4fd	0.06675146
86	0x3d0a44f0	0.03375715
87	0xbd868126	-0.06567602
88	0x3cf87ff1	0.030334445
89	0xbc6c60bd	-0.014427361
90	0x3ce7cc50	0.028295666
91	0xbd9d9a0b	-0.07695397
92	0x3d47efa6	0.04881253
93	0xbd13672f	-0.035987075
94	0xbc9700b0	-0.018432945
95	0x3c753f86	0.014968758
96	0xbd85e00c	-0.06536874
97	0x3d8066b7	0.06269591
98	0xbd670d24	-0.056409016
99	0x3bacdc3f	0.005275279
100	0x3d8ca222	0.06866862
101	0x3d3d3ecd	0.04620247
102	0xbba6b1b7	-0.005087103
103	0xbd459dc1	-0.04824615
104	0xbdabb0dd	-0.08383343
105	0xbd764b98	-0.060130686
106	0xbcfc01bf	-0.030762551
107	0xbc9d1dbc	-0.019179218
108	0xbccf75dd	-0.025324756
109	0x3da0d179	0.07852454
110	0x3b824f5a	0.0039767446
111	0x3d766f83	0.06016494
112	0xbb01a92f	-0.001978468
113	0x3d8ca015	0.06866471
114	0x39b856e4	0.00035159953
115	0x3d2c4e2f	0.04206675
116	0x3d1441de	0.03619563
117	0xbd8ad897	-0.067795925
118	0x3c4be617	0.012444994
119	0xbcdf7a9e	-0.027280148
120	0x3d1aa420	0.037754178
121	0x3d4fab6a	0.050700583
122	0xbc911802	-0.017711643
123	0x3c40dfc3	0.011772099
124	0x3c6a7af5	0.014311542
125	0x3dad92be	0.084752545
126	0x3d0d6adf	0.03452575
127	0xbd8e3aa8	-0.069447815
128	0x3bce0a03	0.0062878146
129	0x3c2cb566	0.010541296
130	0xbd90997d	-0.070605256
131	0x3cfc5e28	0.030806616
132	0xbcdc1321	-0.02686459
133	0x3d8e6790	0.06953347
134	0xbdb2ef81	-0.08737088
135	0x3bb924d6	0.005650143
136	0x3d5d0ef6	0.053969346
137	0x3da82298	0.08209723
138	0x3c011708	0.007879026
139	0xbd9b559e	-0.075846896
140	0x3d0c5632	0.03426189
141	0xbc985bca	-0.018598456
142	0x3d9207c0	0.071303844
143	0x3cff2385	0.031144867
144	0xbd72dd48	-0.05929306
145	0x3c2228bc	0.009897407
146	0x3da6e8f6	0.081499025
147	0x3d9b235f	0.07575106
148	0xbd5ffe54	-0.054685906
149	0x3d6fabeb	0.058513563
150	0x3d6cfc01	0.057857517
151	0x3d1ba808	0.038002044
152	0x3d1576c9	0.036490235
153	0xbcdbf54c	-0.026850365
154	0x3cc0e4b1	0.023546549
155	0x3d199ef2	0.037505098
156	0xbd806ad6	-0.06270377
157	0xbd2d6681	-0.042334083
158	0xbd6e41d3	-0.058168244
159	0xbc98210e	-0.01857045
160	0xbd952780	-0.07282925
161	0x3c08481e	0.008317975
162	0x3ccbba7e	0.0248692
163	0x3c3aff65	0.01141343
164	0xbd949d0e	-0.07256518
165	0xbd1f76ca	-0.038931645
166	0xbd9a35b3	-0.075297736
167	0x3c332d22	0.0109360535
168	0x3d7b5512	0.061360426
169	0xbc4bfd07	-0.012450463
170	0xbd5f20c8	-0.054474622
171	0x3bdefa85	0.0068047666
172	0xbd94e2ca	-0.07269819
173	0xbd704883	-0.058662903
174	0x3d598590	0.05310589
175	0xbd76db37	-0.060267653
176	0xbd7ec4f7	-0.06219956
177	0x3d0ad4a2	0.03389419
178	0x3b5bd865	0.003354573
179	0x3d276fe2	0.040878184
180	0x3d65ad7c	0.05607365
181	0xbda0e8a5	-0.078568734
182	0xbc73b654	-0.014875013
183	0xbda97437	-0.08274119
184	0x3d3055f3	0.043050718
185	0xbcc41dbb	-0.023939958
186	0xbd88ee3a	-0.06686063
187	0x3d83dda0	0.06438756
188	0xbd22ccc3	-0.039746057
189	0x3d91fc2f	0.07128178
190	0xbda33877	-0.07969754
191	0xbda862b3	-0.082219504
192	0x3ba0f08c	0.004911488
193	0xbdb195af	-0.08671128
194	0x3d843149	0.06454713
195	0x3b907226	0.004408139
196	0x3cae2dc7	0.021262063
197	0x3b03ad5f	0.002009235
198	0xbc239bb4	-0.009985853
199	0x3d70b713	0.058768343
200	0xbdb4a83f	-0.08821153
201	0xbd8e14fd	-0.06937597
202	0x3d9c0386	0.076178595
203	0xbdadbd20	-0.08483338
204	0xbcbe473d	-0.023227328
205	0x3cb259cc	0.021771334
206	0xbc3c0122	-0.011474879
207	0xbcc46d7a	-0.023977984
208	0x3ca6591b	0.02030616
209	0x3d9977a6	0.07493524
210	0xbd36ccf2	-0.044629045
211	0xbdadcf34	-0.084867865
212	0xbd881dde	-0.06646322
213	0xbd07ed30	-0.033185184
214	0x3dae05af	0.08497178
215	0xbd25ea7a	-0.040506817
216	0x3da182a7	0.07886248
217	0xbcd01a2d	-0.025403107
218	0x3d17260b	0.036901515
219	0x3da92b8e	0.082602605
220	0x3d8522ac	0.06500754
221	0x3d30eadd	0.043192733
222	0x3d812b92	0.063071385
223	0x3d807321	0.06271959
224	0xbd4ca92d	-0.049966026
225	0xbd7edd84	-0.062222973
226	0x3c62b4b7	0.013837031
227	0xbd450cda	-0.04810796
228	0xbda1192f	-0.078661315
229	0xbb1ce350	-0.00239392
230	0x3d861636	0.06547205
231	0x3d733367	0.059375193
232	0xbcb4591a	-0.022015143
233	0xbccddf85	-0.025130996
234	0x3c44ec56	0.0120192375
235	0x3d8d0c5a	0.068871215
236	0xbd39a8f7	-0.045327153
237	0x3d9f209a	0.0776989
238	0x3ba24b90	0.0049528554
239	0x3ab5651e	0.0013839339
240	0xbd0b96e9	-0.034079466
241	0x3d4c215e	0.04983651
242	0x3ccd6c8c	0.025076173
243	0x3d97ead8	0.0741784
244	0x3d3bb36e	0.045825414
245	0x3d75842e	0.05994051
246	0xbc79cf2e	-0.015247149
247	0x3c3b48d8	0.0114309415
248	0xbd97d1c1	-0.07413054
249	0x3d425e08	0.047452956
250	0xbc3067ba	-0.010766918
251	0xbd92a86d	-0.07161031
252	0xbd0bb5a3	-0.03410877
253	0xbc7c4c48	-0.015399046
254	0x3cd6b25f	0.0262081
255	0xbd3bb982	-0.04583121

generator.transformer_layer.linear2.bias f4 [64]
0	0xbda5eea8	-0.08102161
1	0x3d14adc2	0.03629852
2	0xbd8c66b8	-0.068555295
3	0xbc4b0990	-0.012392417
4	0x3d2e4ea8	0.04255548
5	0xbcaebf77	-0.021331532
6	0xbcb1e196	-0.021714013
7	0xbd734408	-0.05939105
8	0xbc23a10d	-0.009987128
9	0xbccb082c	-0.02478417
10	0x3d878537	0.066172056
11	0xbd523d2d	-0.051327873
12	0x3db19355	0.086706795
13	0xbce3a900	-0.027790546
14	0x3d210ea2	0.039320596
15	0xbd745412	-0.05965049
16	0xbd8ef399	-0.06980056
17	0x3dab3b57	0.083609276
18	0xbd0eac9b	-0.03483258
19	0xbda9872b	-0.08277734
20	0xbd3d0228	-0.046144634
21	0x3d919657	0.07108753
22	0xbd608b0a	-0.054820098
23	0xbbd2ba80	-0.006430924
24	0x3aa8a084	0.001286522
25	0x3a6ab4fc	0.00089533604
26	0x3d0c83f8	0.034305543
27	0x3d83a9a6	0.06428842
28	0xbd06ec99	-0.03294048
29	0xbd963e59	-0.073361106
30	0x3d6aff49	0.057372365
31	0x3d15b86f	0.036552843
32	0xbc09161b	-0.008367087
33	0xbd06f2f0	-0.032946527
34	0xbd6f5939	-0.0584347
35	0x3d4e5e7a	0.05038307
36	0x3c819bbf	0.015821336
37	0x3d6c552f	0.057698425
38	0x3d9f0752	0.07765068
39	0x3da42209	0.08014304
40	0x3d991e97	0.07476538
41	0xbd20faae	-0.039301567
42	0x3d6bd98d	0.05758052
43	0x3cfe51d1	0.031044872
44	0x3d93c801	0.07215882
45	0xbd227e02	-0.03967095
46	0x3d76caf9	0.060252164
47	0x3d8639da	0.06554003
48	0x3db34e6a	0.08755191
49	0xbb9c42e3	-0.0047687157
50	0xbccbde7d	-0.024886364
51	0xbd1e646e	-0.038669996
52	0x3d083112	0.033249922
53	0xbd5317c9	-0.051536355
54	0xbd180103	-0.03711034
55	0xbdb4ed2b	-0.08834299
56	0x3d7985ac	0.060918495
57	0x3d40e256	0.04709085
58	0x3da71ec7	0.08160167
59	0x3d3bfb4d	0.045893956
60	0x3d6d6042	0.057953127
61	0x3d824063	0.06359937
62	0x3c095406	0.008381849
63	0x3c6025e4	0.013680909

generator.transformer_layer.norm1.weight f4 [64]
0	0x3f800000	1.0
1	0x3f800000	1.0
2	0x3f800000	1.0
3	0x3f800000	1.0
4	0x3f800000	1.0
5	0x3f800000	1.0
6	0x3f800000	1.0
7	0x3f800000	1.0
8	0x3f800000	1.0
9	0x3f800000	1.0
10	0x3f800000	1.0
11	0x3f800000	1.0
12	0x3f800000	1.0
13	0x3f800000	1.0
14	0x3f800000	1.0
15	0x3f800000	1.0
16	0x3f800000	1.0
17	0x3f800000	1.0
18	0x3f800000	1.0
19	0x3f800000	1.0
20	0x3f800000	1.0
21	0x3f800000	1.0
22	0x3f800000	1.0
23	0x3f800000	1.0
24	0x3f800000	1.0
25	0x3f800000	1.0
26	0x3f800000	1.0
27	0x3f800000	1.0
28	0x3f800000	1.0
29	0x3f800000	1.0
30	0x3f800000	1.0
31	0x3f800000	1.0
32	0x3f800000	1.0
33	0x3f800000	1.0
34	0x3f800000	1.0
35	0x3f800000	1.0
36	0x3f800000	1.0
37	0x3f800000	1.0
38	0x3f800000	1.0
39	0x3f800000	1.0
40	0x3f800000	1.0
41	0x3f800000	1.0
42	0x3f800000	1.0
43	0x3f800000	1.0
44	0x3f800000	1.0
45	0x3f800000	1.0
46	0x3f800000	1.0
47	0x3f800000	1.0
48	0x3f800000	1.0
49	0x3f800000	1.0
50	0x3f800000	1.0
51	0x3f800000	1.0
52	0x3f800000	1.0
53	0x3f800000	1.0
54	0x3f800000	1.0
55	0x3f800000	1.0
56	0x3f800000	1.0
57	0x3f800000	1.0
58	0x3f800000	1.0
59	0x3f800000	1.0
60	0x3f800000	1.0
61	0x3f800000	1.0
62	0x3f800000	1.0
63	0x3f800000	1.0

generator.transformer_layer.norm1.bias f4 [64]
0	0x00000000	0.0
1	0x00000000	0.0
2	0x00000000	0.0
3	0x00000000	0.0
4	0x00000000	0.0
5	0x00000000	0.0
6	0x00000000	0.0
7	0x00000000	0.0
8	0x00000000	0.0
9	0x00000000	0.0
10	0x00000000	0.0
11	0x00000000	0.0
12	0x00000000	0.0
13	0x00000000	0.0
14	0x00000000	0.0
15	0x00000000	0.0
16	0x00000000	0.0
17	0x00000000	0.0
18	0x00000000	0.0
19	0x00000000	0.0
20	0x00000000	0.0
21	0x00000000	0.0
22	0x00000000	0.0
23	0x00000000	0.0
24	0x00000000	0.0
25	0x00000000	0.0
26	0x00000000	0.0
27	0x00000000	0.0
28	0x00000000	0.0
29	0x00000000	0.0
30	0x00000000	0.0
31	0x00000000	0.0
32	0x00000000	0.0
33	0x00000000	0.0
34	0x00000000	0.0
35	0x00000000	0.0
36	0x00000000	0.0
37	0x00000000	0.0
38	0x00000000	0.0
39	0x00000000	0.0
40	0x00000000	0.0
41	0x00000000	0.0
42	0x00000000	0.0
43	0x00000000	0.0
44	0x00000000	0.0
45	0x00000000	0.0
46	0x00000000	0.0
47	0x00000000	0.0
48	0x00000000	0.0
49	0x00000000	0.0
50	0x00000000	0.0
51	0x00000000	0.0
52	0x00000000	0.0
53	0x00000000	0.0
54	0x00000000	0.0
55	0x00000000	0.0
56	0x00000000	0.0
57	0x00000000	0.0
58	0x00000000	0.0
59	0x00000000	0.0
60	0x00000000	0.0
61	0x00000000	0.0
62	0x00000000	0.0
63	0x00000000	0.0

generator.transformer_layer.norm2.weight f4 [64]
0	0x3f800000	1.0
1	0x3f800000	1.0
2	0x3f800000	1.0
3	0x3f800000	1.0
4	0x3f800000	1.0
5	0x3f800000	1.0
6	0x3f800000	1.0
7	0x3f800000	1.0
8	0x3f800000	1.0
9	0x3f800000	1.0
10	0x3f800000	1.0
11	0x3f800000	1.0
12	0x3f800000	1.0
13	0x3f800000	1.0
14	0x3f800000	1.0
15	0x3f800000	1.0
16	0x3f800000	1.0
17	0x3f800000	1.0
18	0x3f800000	1.0
19	0x3f800000	1.0
20	0x3f800000	1.0
21	0x3f800000	1.0
22	0x3f800000	1.0
23	0x3f800000	1.0
24	0x3f800000	1.0
25	0x3f800000	1.0
26	0x3f800000	1.0
27	0x3f800000	1.0
28	0x3f800000	1.0
29	0x3f800000	1.0
30	0x3f800000	1.0
31	0x3f800000	1.0
32	0x3f800000	1.0
33	0x3f800000	1.0
34	0x3f800000	1.0
35	0x3f800000	1.0
36	0x3f800000	1.0
37	0x3f800000	1.0
38	0x3f800000	1.0
39	0x3f800000	1.0
40	0x3f800000	1.0
41	0x3f800000	1.0
42	0x3f800000	1.0
43	0x3f800000	1.0
44	0x3f800000	1.0
45	0x3f800000	1.0
46	0x3f800000	1.0
47	0x3f800000	1.0
48	0x3f800000	1.0
49	0x3f800000	1.0
50	0x3f800000	1.0
51	0x3f800000	1.0
52	0x3f800000	1.0
53	0x3f800000	1.0
54	0x3f800000	1.0
55	0x3f800000	1.0
56	0x3f800000	1.0
57	0x3f800000	1.0
58	0x3f800000	1.0
59	0x3f800000	1.0
60	0x3f800000	1.0
61	0x3f800000	1.0
62	0x3f800000	1.0
63	0x3f800000	1.0

generator.transformer_layer.norm2.bias f4 [64]
0	0x00000000	0.0
1	0x00000000	0.0
2	0x00000000	0.0
3	0x00000000	0.0
4	0x00000000	0.0
5	0x00000000	0.0
6	0x00000000	0.0
7	0x00000000	0.0
8	0x00000000	0.0
9	0x00000000	0.0
10	0x00000000	0.0
11	0x00000000	0.0
12	0x00000000	0.0
13	0x00000000	0.0
14	0x00000000	0.0
15	0x00000000	0.0
16	0x00000000	0.0
17	0x00000000	0.0
18	0x00000000	0.0
19	0x00000000	0.0
20	0x00000000	0.0
21	0x00000000	0.0
22	0x00000000	0.0
23	0x00000000	0.0
24	0x00000000	0.0
25	0x00000000	0.0
26	0x00000000	0.0
27	0x00000000	0.0
28	0x00000000	0.0
29	0x00000000	0.0
30	0x00000000	0.0
31	0x00000000	0.0
32	0x00000000	0.0
33	0x00000000	0.0
34	0x00000000	0.0
35	0x00000000	0.0
36	0x00000000	0.0
37	0x00000000	0.0
38	0x00000000	0.0
39	0x00000000	0.0
40	0x00000000	0.0
41	0x00000000	0.0
42	0x00000000	0.0
43	0x00000000	0.0
44	0x00000000	0.0
45	0x00000000	0.0
46	0x00000000	0.0
47	0x00000000	0.0
48	0x00000000	0.0
49	0x00000000	0.0
50	0x00000000	0.0
51	0x00000000	0.0
52	0x00000000	0.0
53	0x00000000	0.0
54	0x00000000	0.0
55	0x00000000	0.0
56	0x00000000	0.0
57	0x00000000	0.0
58	0x00000000	0.0
59	0x00000000	0.0
60	0x00000000	0.0
61	0x00000000	0.0
62	0x00000000	0.0
63	0x00000000	0.0
