GANS/gan_model.pth (torch, 948054 bytes, 71 tensors)

embedding.fc.weight f4 [64, 17]
0.020766705 -0.18294497 0.034053445 0.0228014 0.18330553 -0.004516855 0.116159916 0.004053265
0.081254214 -0.23270595 -0.19728109 0.009365469 -0.11261372 -0.23200159 0.11286157 -0.00907658
-0.13875432 -0.07504693 0.19749716 0.06314322 -0.06575616 -0.039217517 0.033970356 -0.09232995
0.16303998 -0.044079527 0.05099535 -0.16228014 0.17121649 -0.021951735 -0.091219634 0.049082905
-0.0012383461 -0.16892226 0.1405051 -0.09892288 -0.09543085 0.06451082 -0.059012055 -0.11895079
-0.08397262 0.007551849 -0.20595954 -0.1733135 -0.20749086 -0.11718257 0.23853359 -0.22321664
0.20734054 0.18433318 0.09339976 0.11353928 -0.20209062 -0.04144509 0.08962822 0.02123639
0.18916985 0.20873564 -0.18885188 0.11558187 -0.23296162 0.027374297 -0.11426745 0.0046370476
0.15117949 0.18225339 0.09481135 0.1883815 0.20728347 -0.17306349 -0.069903255 0.17363495
-0.106842205 0.20385677 0.17834672 -0.09175269 0.1302262 -0.0063110143 0.23500112 -0.17118376
0.032610178 -0.23156345 0.097412914 0.07700184 0.16618851 -0.14006555 0.19013953 -0.20886797
-0.20380805 0.0871779 -0.10710202 0.22985104 -0.20439868 -0.03418088 -0.19180237 0.18580484
0.076518625 0.1310569 0.22409475 0.05590886 0.19066414 -0.1556783 -0.19219275 0.035172105
0.19698709 0.22148404 -0.17312807 0.19676149 0.01888147 0.021072567 0.23726434 0.13916692
-0.18316236 -0.0628902 0.1108641 -0.12943938 0.0817126 -0.104877606 -0.06704979 -0.14911702
-0.09825438 0.036534637 0.012656033 -0.09305942 0.23882851 0.07562724 -0.09168367 -0.191839
0.18952385 -0.22413194 0.13376331 0.041207314 0.22512451 0.16726086 0.15419024 -0.08225472
0.10912296 -0.21529299 -0.08247611 0.019903928 -0.16062889 -0.0671594 0.00049613416 0.08901465
0.012853831 -0.17662019 0.023339242 -0.09952867 0.20768416 0.07286972 0.21159461 -0.21418339
-0.0373701 -0.17278251 0.13811663 0.09735638 -0.19611235 0.15116924 -0.121049754 0.11547956
-0.050271064 0.15793982 -0.0776355 -0.04843971 -0.115643576 0.017255425 0.10377857 -0.031197593
0.235163 0.060896903 0.12088153 -0.03505589 0.064959496 0.023314536 0.16545352 0.01030466
0.21603048 0.23855329 -0.20877409 0.14300284 0.21713701 0.032440037 -0.1526776 0.096220344
0.09562689 0.0021332204 -0.026768804 -0.058579817 0.21858591 -0.19826153 0.07370359 -0.015313685
-0.08702095 -0.09896849 0.03237495 0.057300627 0.2302762 -0.023093134 0.20979398 -0.03352025
0.07883391 -0.17604488 -0.027237073 -0.08402805 0.16330105 0.14274147 0.09723002 -0.037187204
-0.12231071 -0.14415948 -0.22814211 0.05232936 0.1063765 -0.18073848 0.22041607 0.14049637
-0.1175693 -0.22716415 0.2232981 -0.21099532 0.17640519 0.21400353 -0.00644055 -0.020945057
0.06988755 -0.21983954 -0.09935118 -0.050002173 -0.036927104 -0.03331995 -0.1672613 0.13214001
-0.12429674 -0.013033733 -0.17515744 0.016814768 -0.02060628 -0.24194135 0.22995767 0.115237534
-0.073939115 -0.16298741 0.17713612 -0.23957588 -0.10541338 0.17467046 0.16440946 0.06740925
0.13009003 0.14852324 0.11547944 0.15305379 0.0032407194 -0.14529696 0.24037051 0.20066458
00000000: f01e aa3c ed55 3bbe a07b 0b3d 00ca ba3c
00000010: 72b4 3b3e 2002 94bb 40e5 ed3d 40d1 843b
00000020: 9c68 a63d 784a 6ebe 0e04 4abe a071 193c
00000030: 06a2 e6bd d391 6dbe f823 e73d f0b5 14bc
00000040: 9d15 0ebe 34b2 99bd b23c 4a3e 3c51 813d
00000050: 2aab 86bd 8ca2 20bd 8024 0b3d 7c17 bdbd
00000060: f4f3 263e bc8c 34bd 80e0 503d c42c 26be
00000070: 6053 2f3e 20d4 b3bc 5cd1 babd 280b 493d
00000080: 0050 a2ba f5f9 2cbe 92e0 0f3e 1498 cabd
00000090: 4071 c3bd 401e 843d a0b6 71bd 799c f3bd
000000a0: d6f9 abbd 8075 f73b 0fe7 52be 1879 31be
000000b0: 7c78 54be 6afd efbd 2642 743e e792 64be
000000c0: 1451 543e d6c1 3c3e 6048 bf3d 4887 e83d
000000d0: d8f0 4ebe 54c2 29bd 008f b73d f0f7 ad3c
000000e0: beb5 413e ccbe 553e 6362 41be 30b6 ec3d
000000f0: 7e8d 6ebe 1040 e03c 0e05 eabd 60f2 973b
00000100: ccce 1a3e a2a0 3a3e 742c c23d 14e7 403e
00000110: 1e42 543e 8e37 31be 7029 8fbd 5ccd 313e
00000120: 16d0 dabd d4bf 503e 86a0 363e d6e8 bbbd
00000130: 045a 053e a0cc cebb 22a4 703e cc4a 2fbe
00000140: 4092 053d f81e 6dbe 6c80 c73d 24b3 9d3d
00000150: 522d 2a3e 586d 0fbe f0b3 423e 7ce1 55be
00000160: 0fb3 50be 548a b23d 4e58 dbbd 125e 6b3e
00000170: e34d 51be 4001 0cbd d767 44be a043 3e3e
00000180: ccb5 9c3d c833 063e 1879 653e b000 653d
00000190: 763d 433e 226a 1fbe 2dce 44be a010 103d
000001a0: fcb6 493e b6cc 623e 7c48 31be d87b 493e
000001b0: 50ad 9a3c 60a0 ac3c 6cf5 723e c681 0e3e
000001c0: ea8e 3bbe 94cc 80bd b80c e33d c28b 04be
000001d0: f058 a73d 12ca d6bd 6651 89bd 22b2 18be
000001e0: 9839 c9bd 58a5 153d 405b 4f3c f095 bebd
000001f0: 768f 743e 74e2 9a3d a6c4 bbbd 7171 44be
00000200: 8a12 423e d882 65be 40f9 083e 00c9 283d
00000210: 0a87 663e 6e46 2b3e 0ce4 1d3e 2a75 a8bd
00000220: dc7b df3d c475 5cbe 3ce9 a8bd 900d a33c
00000230: e67b 24be de8a 89bd 000f 023a 504d b63d
00000240: e098 523c ecdb 34be f031 bf3c b0d5 cbbd
00000250: 28ab 543e b83c 953d 42ac 583e e452 5bbe
00000260: 6411 19bd e6ed 30be 726e 0d3e c862 c73d
00000270: add1 48be 1ccc 1a3e efe8 f7bd 8c80 ec3d
00000280: 08e9 4dbd faba 213e 5cff 9ebd b868 46bd
00000290: 8ad6 ecbd 405b 8d3c dc89 d43d 1892 ffbc
000002a0: 92ce 703e 086f 793d bc90 f73d c496 0fbd
000002b0: 7c09 853d 20fe be3c a66c 293e e0d4 283c
000002c0: 1837 5d3e 5047 743e e0c8 55be 566f 123e
000002d0: 2a59 5e3e d8df 043d 8457 1cbe 2c0f c53d
000002e0: 08d8 c33d 80cd 0b3b 404a dbbc 64f1 6fbd
000002f0: fcd4 5f3e 1205 4bbe e8f1 963d 40e6 7abc
00000300: 0a38 b2bd feaf cabd 989b 043d 10b4 6a3d
00000310: 86cd 6b3e d02d bdbc 3cd4 563e 884c 09bd
00000320: ac73 a13d 1c45 34be 4820 dfbc e616 acbd
00000330: 6438 273e d22a 123e 8820 c73d 9c51 18bd
00000340: 0a7e fabd 8b9e 13be 169e 69be 5057 563d
00000350: ecdb d93d 8213 39be c0b4 613e 48de 0f3e
00000360: 2cc8 f0bd b89d 68be 42a8 643e 280f 58be
00000370: 90a3 343e be23 5b3e 400b d3bb f894 abbc
00000380: 3421 8f3d 9e1d 61be a278 cbbd 14cf 4cbd
00000390: e040 17bd 807a 08bd 8c46 2bbe b64f 073e
000003a0: 4a8f febd 708b 55bc 795c 33be 20bf 893c
000003b0: 80ce a8bc 79bf 77be 067a 6b3e a801 ec3d
000003c0: 646d 97bd 2ce6 26be 2c63 353e 6153 75be
000003d0: f8e2 d7bd d0dc 323e f45a 283e dc0d 8a3d
000003e0: 5236 053e 7a16 183e 7c80 ec3d 22ba 1c3e
000003f0: 4062 543b bac8 14be b023 763e 047b 4d3e

embedding.fc.bias f4 [64]
-0.12520754 0.16234502 -0.1847585 -0.09808034 0.13147005 0.17489776 0.0723919 -0.13872512
0.0425916 -0.14062499 -0.13948685 -0.24079593 -0.18259275 -0.041767836 -0.17906919 -0.15418003
0.046005875 0.004091963 0.07445833 -0.08077131 -0.17148861 -0.113838136 0.10546222 0.059585005
0.0025875568 -0.22617213 -0.084993035 0.01644069 0.20979723 -0.0780054 0.10737771 -0.011212647
-0.1446329 0.17670983 -0.21448772 0.13453886 -0.22193538 -0.18907632 -0.093525514 -0.116006255
0.15416 0.0997487 0.04231277 0.16522822 -0.062374964 0.22944963 0.21459144 0.13552704
-0.027302593 0.22093475 -0.24143252 0.10651252 0.11108607 0.22233063 0.24045476 0.06387976
0.20230377 -0.008258998 -0.015581608 -0.20792758 -0.08852959 0.08885148 0.08871177 0.085752726
00000000: 6836 00be c63d 263e 5531 3dbe 58de c8bd
00000010: 16a0 063e 6618 333e 3442 943d f50d 0ebe
00000020: 8874 2e3d ffff 0fbe a4d5 0ebe 3593 76be
00000030: 98f9 3abe c014 2bbd ea5d 37be 5fe1 1dbe
00000040: a870 3c3d e015 863b 9c7d 983d 6e6b a5bd
00000050: b69a 2fbe f823 e9bd 94fc d73d 680f 743d
00000060: 0094 293b ab99 67be d410 aebd a0ae 863c
00000070: 16d5 563e 4cc1 9fbd d8e8 db3d 40b5 37bc
00000080: a61a 14be 6cf3 343e aba2 5bbe 8ec4 093e
00000090: 0743 63be 399d 41be 4e8a bfbd b094 edbd
000000a0: 1edc 1d3e 0c49 cc3d 2850 2d3d 9631 293e
000000b0: e47c 7fbd d8f4 6a3e dcbd 5b3e 9ac7 0a3e
000000c0: b0a9 dfbc b83c 623e 163a 77be 3c23 da3d
000000d0: 1881 e33d a4aa 633e c639 763e 64d3 823d
000000e0: b828 4f3e c050 07bc 004a 7fbc f8ea 54be
000000f0: 004f b5bd c4f7 b53d 84ae b53d 209f af3d

generator.transformer_layer.self_attn.in_proj_weight f4 [192, 64]
0.079793826 -0.064834796 0.0065546334 -0.021747276 0.012262106 0.12551762 0.0763737 -0.030069865
-0.14077185 0.06907503 -0.0379541 -0.0039288998 -0.04648921 0.037757635 0.15043564 0.09690775
0.10135563 -0.06282422 0.07159653 -0.096214145 -0.074702546 -0.069438905 0.13031475 -0.15008466
0.008326486 -0.09926062 0.0019005835 0.007804215 -0.046067797 0.00040367246 0.029359043 0.042777643
0.05087161 -0.07048907 0.09838666 0.15143557 -0.03773328 0.004479423 -0.07647334 -0.0022594929
0.07531297 0.059946388 0.13608415 0.04320863 -0.024213761 -0.109752834 0.04873115 -0.13887316
0.034091294 0.12626229 -0.027898207 0.07597987 0.033171803 0.10904087 0.07775329 0.07452461
-0.06369206 -0.15098408 0.0860388 0.12875478 0.054367334 -0.08955037 -0.117632255 0.11383708
-0.055893205 0.03698775 0.029847056 -0.09412018 -0.1021725 -0.10468927 -0.066151544 0.12040429
-0.06016638 -0.039857827 0.11169277 -0.011035085 0.0069566667 -0.12395358 0.056770056 0.0929853
0.012205437 -0.03475909 0.04905562 -0.07903335 -0.14685428 0.048385665 -0.13957113 0.13437696
0.13649578 -0.06309262 0.012090504 0.05496487 0.09899916 0.08363937 -0.00841172 -0.0816563
0.14918573 0.0037844032 0.12893586 -0.1113631 -0.017474443 -0.11698414 -0.021620482 0.118390754
-0.12703906 -0.10780463 -0.020575732 0.028177962 -0.089947656 0.11607127 -0.047157295 -0.02432926
0.060844004 0.004304558 -0.08123372 0.03668058 0.02749601 -0.0786099 0.027268887 0.08536056
0.01537472 -0.11256049 -0.041654184 -0.049539335 -0.1431732 0.11778696 0.10270347 -0.033771433
-0.064465635 -0.03226138 -0.10925366 -0.11021729 -0.12472737 -0.13930276 -0.04646554 0.047950864
-0.11567542 0.09640117 0.10298146 -0.110942125 0.14864393 -0.0074564666 -0.00579156 -0.04842312
0.12166642 -0.1316747 0.15030311 -0.09798144 -0.006998569 0.0155726075 0.08816035 -0.116148576
-0.00023548305 -0.0746651 0.07464263 0.0689771 0.009195656 0.101297334 0.13202189 -0.03436607
-0.114225924 -0.09321165 -0.00431785 -0.11240368 0.018506095 -0.12421644 -0.0850982 0.14452557
0.06880781 0.113151714 -0.103335656 0.026212871 0.12607421 -0.087171376 0.06967303 -0.14433736
0.08693388 0.07447165 0.016584575 0.11369525 0.060894206 -0.1388607 0.12085901 -0.00019674003
0.10010095 -0.004134789 0.07388836 0.008665219 0.056600317 0.121471 0.04966785 0.014051095
0.1183051 -0.021194175 0.036311626 0.1529044 0.07948084 -0.14543025 0.057073534 -0.0016729683
0.06009391 -0.05936323 0.120656654 -0.13400139 -0.11652286 0.0027089566 -0.028531492 -0.028844297
-0.055239595 -0.031194918 0.022767946 0.02484548 -0.059109062 0.0005799383 0.07648748 -0.06799227
0.04276213 -0.092098854 -0.0050995946 -0.0503563 -0.13845958 0.005566776 -0.14179787 0.020342559
-0.044105418 -0.10870566 0.055708602 -0.02783759 0.08547774 -0.10328592 -0.09890438 -0.06220404
-0.14663076 -0.101174444 -0.068927914 0.11060022 -0.07553663 0.029084027 0.08375035 0.11670758
0.15175413 0.08724345 -0.0073096454 -0.059767082 0.103002444 0.10567929 0.05095516 0.034695968
0.117170915 0.0021193177 -0.078454554 -0.064461455 0.054818258 -0.015007094 0.025601432 0.08945894
00000000: f26a a33d 1bc8 84bd 40c8 d63b 5827 b2bc
00000010: 00e7 483c b187 003e d069 9c3d 1455 f6bc
00000020: 7f26 10be 3677 8d3d c275 1bbd 00be 80bb
00000030: 786b 3ebd c0a7 1a3d cd0b 1a3e 9277 c63d
00000040: 8a93 cf3d fca9 80bd 34a1 923d ec0b c5bd
00000050: a6fd 98bd fc35 8ebd 3b71 053e cbaf 19be
00000060: d06b 083c 2749 cbbd 001d f93a 80ba ff3b
00000070: 96b1 3cbd 00a4 d339 6082 f03c 9c37 2f3d
00000080: c05e 503d 935c 90bd f27e c93d ed11 1b3e
00000090: 368e 1abd 20c8 923b 0e9e 9cbd 0014 14bb
000000a0: b03d 9a3d 588a 753d a559 0b3e 88fb 303d
000000b0: f05b c6bc 18c6 e0bd 509a 473d c434 0ebe
000000c0: 50a3 0b3d e74a 013e c88a e4bc 569b 9b3d
000000d0: 28df 073d d250 df3d 1e3d 9f3d 5ca0 983d
000000e0: fc70 82bd 929b 1abe 1c35 b03d 4bd8 033e
000000f0: 48b0 5e3d 2f66 b7bd 2ee9 f0bd 6a23 e93d
00000100: 46f0 64bd 7880 173d d081 f43c 15c2 c0bd
00000110: d13f d1bd 5467 d6bd 767a 87bd 8696 f63d
00000120: 0671 76bd f641 23bd 2ebf e43d 80cc 34bc
00000130: c0f4 e33b 60db fdbd b887 683d 146f be3d
00000140: 50f9 473c 8c5f 0ebd 8cee 483d 3ddc a1bd
00000150: f860 16be 0c30 463d bceb 0ebe 1d9a 093e
00000160: 8dc5 0b3e b436 81bd 4017 463c d822 613d
00000170: 12c0 ca3d 1e4b ab3d 50d1 09bc 6b3b a7bd
00000180: 25c4 183e c003 783b c307 043e 5612 e4bd
00000190: 9026 8fbc 6195 efbd 701d b1bc da76 f23d
000001a0: 8716 02be adc8 dcbd 708e a8bc 78d5 e63c
000001b0: 7a36 b8bd c6b6 ed3d 0228 41bd 284e c7bc
000001c0: 9037 793d 400d 8d3b dd5d a6bd 603e 163d
000001d0: 503f e13c 3afe a0bd 0063 df3c 84d1 ae3d
000001e0: 40e6 7b3c 1d86 e6bd 949d 2abd c2e9 4abd
000001f0: ff9b 12be 4a3a f13d 3256 d23d ea53 0abd
00000200: 8f06 84bd 8224 04bd 62c0 dfbd 9ab9 e1bd
00000210: 1071 ffbd 62a5 0ebe a652 3ebd 2068 443d
00000220: 3ce7 ecbd fa6d c53d f2e7 d23d a035 e3bd
00000230: 1d36 183e 6055 f4bb 20c7 bdbb 5257 46bd
00000240: 3e2c f93d bcd5 06be 0fe9 193e 7eaa c8bd
00000250: 4054 e5bb 4024 7f3c 6a8d b43d 4edf edbd
00000260: 00ec 76b9 04ea 98bd 3cde 983d de43 8d3d
00000270: 60a9 163c fa74 cf3d bf30 073e 70c3 0cbd
00000280: 48ef e9bd c0e5 bebd c07c 8dbb e733 e6bd
00000290: 189a 973c 3065 febd f747 aebd 83fe 133e
000002a0: 1ceb 8c3d 16bc e73d a5a1 d3bd 60bc d63c
000002b0: 9919 013e e886 b2bd bcb0 8e3d 2ccd 13be
000002c0: 640a b23d 9884 983d 60dc 873c 0ed9 e83d
000002d0: 346c 793d 8031 0ebe ee84 f73d 004c 4eb9
000002e0: ba01 cd3d 207d 87bb c852 973d 90f8 0d3c
000002f0: bcd5 673d cac5 f83d 8470 4b3d 9036 663c
00000300: f249 f23d 689f adbc 80bb 143d f992 1c3e
00000310: dac6 a23d abeb 14be f0c5 693d 8047 dbba
00000320: 0825 763d dc26 73bd d61a f73d a937 09be
00000330: 8aa3 eebd c088 313b e0ba e9bc e04a ecbc
00000340: ea42 62bd 7c8c ffbc d883 ba3c c088 cb3c
00000350: 581c 72bd 0007 183a 78a5 9c3d 883f 8bbd
00000360: 5827 2f3d 539e bcbd 801a a7bb 6842 4ebd
00000370: 59c8 0dbe 8069 b63b 7633 11be 70a5 a63c
00000380: e2a7 34bd 13a1 debd b42e 643d a80b e4bc
00000390: f40e af3d 9287 d3bd 618e cabd aac9 7ebd
000003a0: 6026 16be 8c34 cfbd 142a 8dbd 5e82 e23d
000003b0: f3b2 9abd a041 ee3c 4e85 ab3d 6204 ef3d
000003c0: 6f65 1b3e b2ac b23d c085 efbb 54ce 74bd
000003d0: f2f2 d23d 626e d83d 5cb6 503d 5c1d 0e3d
000003e0: 4ef7 ef3d 40e4 0a3b c8ac a0bd 5e04 84bd
000003f0: 1c89 603d 50e0 75bc 18ba d13c 4036 b73d

generator.transformer_layer.self_attn.in_proj_bias f4 [192]
0.0 0.0 0.0 0.0 0.0 0.0 0.0 0.0
0.0 0.0 0.0 0.0 0.0 0.0 0.0 0.0
0.0 0.0 0.0 0.0 0.0 0.0 0.0 0.0
0.0 0.0 0.0 0.0 0.0 0.0 0.0 0.0
0.0 0.0 0.0 0.0 0.0 0.0 0.0 0.0
0.0 0.0 0.0 0.0 0.0 0.0 0.0 0.0
0.0 0.0 0.0 0.0 0.0 0.0 0.0 0.0
0.0 0.0 0.0 0.0 0.0 0.0 0.0 0.0
0.0 0.0 0.0 0.0 0.0 0.0 0.0 0.0
0.0 0.0 0.0 0.0 0.0 0.0 0.0 0.0
0.0 0.0 0.0 0.0 0.0 0.0 0.0 0.0
0.0 0.0 0.0 0.0 0.0 0.0 0.0 0.0
0.0 0.0 0.0 0.0 0.0 0.0 0.0 0.0
0.0 0.0 0.0 0.0 0.0 0.0 0.0 0.0
0.0 0.0 0.0 0.0 0.0 0.0 0.0 0.0
0.0 0.0 0.0 0.0 0.0 0.0 0.0 0.0
0.0 0.0 0.0 0.0 0.0 0.0 0.0 0.0
0.0 0.0 0.0 0.0 0.0 0.0 0.0 0.0
0.0 0.0 0.0 0.0 0.0 0.0 0.0 0.0
0.0 0.0 0.0 0.0 0.0 0.0 0.0 0.0
0.0 0.0 0.0 0.0 0.0 0.0 0.0 0.0
0.0 0.0 0.0 0.0 0.0 0.0 0.0 0.0
0.0 0.0 0.0 0.0 0.0 0.0 0.0 0.0
0.0 0.0 0.0 0.0 0.0 0.0 0.0 0.0
00000000: 0000 0000 0000 0000 0000 0000 0000 0000
00000010: 0000 0000 0000 0000 0000 0000 0000 0000
00000020: 0000 0000 0000 0000 0000 0000 0000 0000
00000030: 0000 0000 0000 0000 0000 0000 0000 0000
00000040: 0000 0000 0000 0000 0000 0000 0000 0000
00000050: 0000 0000 0000 0000 0000 0000 0000 0000
00000060: 0000 0000 0000 0000 0000 0000 0000 0000
00000070: 0000 0000 0000 0000 0000 0000 0000 0000
00000080: 0000 0000 0000 0000 0000 0000 0000 0000
00000090: 0000 0000 0000 0000 0000 0000 0000 0000
000000a0: 0000 0000 0000 0000 0000 0000 0000 0000
000000b0: 0000 0000 0000 0000 0000 0000 0000 0000
000000c0: 0000 0000 0000 0000 0000 0000 0000 0000
000000d0: 0000 0000 0000 0000 0000 0000 0000 0000
000000e0: 0000 0000 0000 0000 0000 0000 0000 0000
000000f0: 0000 0000 0000 0000 0000 0000 0000 0000
00000100: 0000 0000 0000 0000 0000 0000 0000 0000
00000110: 0000 0000 0000 0000 0000 0000 0000 0000
00000120: 0000 0000 0000 0000 0000 0000 0000 0000
00000130: 0000 0000 0000 0000 0000 0000 0000 0000
00000140: 0000 0000 0000 0000 0000 0000 0000 0000
00000150: 0000 0000 0000 0000 0000 0000 0000 0000
00000160: 0000 0000 0000 0000 0000 0000 0000 0000
00000170: 0000 0000 0000 0000 0000 0000 0000 0000
00000180: 0000 0000 0000 0000 0000 0000 0000 0000
00000190: 0000 0000 0000 0000 0000 0000 0000 0000
000001a0: 0000 0000 0000 0000 0000 0000 0000 0000
000001b0: 0000 0000 0000 0000 0000 0000 0000 0000
000001c0: 0000 0000 0000 0000 0000 0000 0000 0000
000001d0: 0000 0000 0000 0000 0000 0000 0000 0000
000001e0: 0000 0000 0000 0000 0000 0000 0000 0000
000001f0: 0000 0000 0000 0000 0000 0000 0000 0000
00000200: 0000 0000 0000 0000 0000 0000 0000 0000
00000210: 0000 0000 0000 0000 0000 0000 0000 0000
00000220: 0000 0000 0000 0000 0000 0000 0000 0000
00000230: 0000 0000 0000 0000 0000 0000 0000 0000
00000240: 0000 0000 0000 0000 0000 0000 0000 0000
00000250: 0000 0000 0000 0000 0000 0000 0000 0000
00000260: 0000 0000 0000 0000 0000 0000 0000 0000
00000270: 0000 0000 0000 0000 0000 0000 0000 0000
00000280: 0000 0000 0000 0000 0000 0000 0000 0000
00000290: 0000 0000 0000 0000 0000 0000 0000 0000
000002a0: 0000 0000 0000 0000 0000 0000 0000 0000
000002b0: 0000 0000 0000 0000 0000 0000 0000 0000
000002c0: 0000 0000 0000 0000 0000 0000 0000 0000
000002d0: 0000 0000 0000 0000 0000 0000 0000 0000
000002e0: 0000 0000 0000 0000 0000 0000 0000 0000
000002f0: 0000 0000 0000 0000 0000 0000 0000 0000

generator.transformer_layer.self_attn.out_proj.weight f4 [64, 64]
-0.0071483403 -0.06804015 -0.0900075 -0.06762716 0.08398962 -0.02922362 -0.106720924 0.04830742
0.054561824 -0.043062508 0.10539986 -0.10088028 -0.04106106 -0.04878594 -0.00696671 -0.08605458
-0.12269093 -0.035888925 0.064983934 0.042211205 -0.012699649 -0.04532142 -0.108172834 0.09852159
-0.09380557 0.057513192 0.05720766 -0.08914828 -0.09593253 0.0149330795 0.022303969 0.049137667
0.016700596 -0.011227965 -0.11380872 0.07730718 0.020916373 0.045621008 0.010188237 -0.103413284
0.025365442 0.009525359 -0.07957238 -0.08558653 0.109799385 -0.045501605 0.06454198 0.107771486
-0.10713424 -0.019378409 0.11549577 -0.020665675 -0.019792035 0.041354835 0.060082138 0.10549505
0.00077450275 -0.010798246 0.01134488 -0.05149199 0.027132094 0.07059975 -0.023306698 -0.08287729
0.05078551 0.03151229 0.064825 -0.027913257 0.07462224 -0.11893584 0.10203378 -0.1107648
0.008071855 -0.09893392 0.03187242 -0.00812231 -0.005311489 -0.0018284917 0.07501139 -0.052544937
-0.109807044 0.012858152 -0.036264986 0.09762959 -0.0056633204 0.0242576 -0.10146074 -0.079467416
-0.09060578 -0.04959774 0.08134468 -0.11944638 -0.12252051 0.06358403 -0.025281757 -0.050826594
-0.0717317 -0.06565885 0.07212676 -0.07969506 -0.005637154 0.018451571 0.04550597 -0.06091705
0.04548183 0.026242375 -0.11639142 0.0530172 -0.11023979 0.061176106 -0.08372581 -0.12044355
0.07816644 0.1240271 -0.067057624 -0.08007462 0.018850774 0.057611212 0.013563633 0.068461835
-0.05105634 0.12144609 0.033974424 -0.060919717 0.06441732 0.10413313 0.060792997 0.12462342
0.0022161454 -0.098211944 0.048644885 -0.069383994 -0.029752687 -0.044107556 0.11760928 -0.081547916
-0.03719452 -0.067368984 0.014402479 0.07875249 0.09544407 -0.046512976 -0.034901425 0.07471044
-0.07699105 -0.066205755 0.012767047 0.051094204 0.0367043 -0.024219647 -0.12153326 0.11625934
-0.032268956 0.056871355 -0.04476969 -0.015330151 0.067419186 -0.1148687 0.0006535053 -0.013103887
0.005576685 0.002158001 0.11755316 0.03996831 0.110993624 0.0029661804 -0.11303741 -0.09831999
0.07301165 0.11113824 -0.0036365092 -0.019366816 0.090415135 -0.11086115 -0.10376783 0.115157425
0.043288335 0.07003686 0.09215556 -0.053465813 0.106985554 0.045742407 0.06939535 0.051297992
0.12435508 -0.034110963 -0.028393 0.076368734 -0.08453065 0.078680515 -0.029965222 -0.022362575
-0.036162153 0.101429954 -0.067585796 0.016255245 -0.11166963 0.12167373 -0.04125184 -0.005832657
0.11854558 0.0088905245 0.00015676022 -0.10492696 -0.057005197 -0.019965723 0.10312821 -0.07786049
0.00010411441 0.097902715 -0.023927122 -0.054395482 0.05013299 0.10333566 0.10393016 -0.07943185
0.056799904 -0.045263827 0.05804871 -0.09659994 -0.033383414 -0.04972005 -0.073341414 0.0015953183
-0.00621818 -0.0638127 -0.001232326 0.091025025 0.044046804 -0.098011285 0.0017752647 0.033908337
-0.086670786 0.051464096 0.01134643 0.055497468 0.09656629 0.12349182 -0.033060938 -0.095188126
-0.10996747 0.0783153 0.037873372 -0.062050566 -0.0498987 -0.016326576 -0.07065293 0.11069517
0.037517548 -0.055273786 -0.11691122 -0.10712615 0.07660419 -0.07523288 -0.01005365 -0.11694305
00000000: a03c eabb a258 8bbd da55 b8bd 1c80 8abd
00000010: c002 ac3d 6066 efbc 8090 dabd 00de 453d
00000020: 387c 5f3d 5062 30bd e2db d73d 529a cebd
00000030: a42f 28bd c4d3 47bd 0049 e4bb 623d b0bd
00000040: 6245 fbbd 4400 13bd 4c16 853d a8e5 2c3d
00000050: 3012 50bc f4a2 39bd b889 ddbd b0c5 c93d
00000060: 221d c0bd f492 6b3d 9452 6a3d 6093 b6bd
00000070: 4678 c4bd e0a9 743c d0b6 b63c 9444 493d
00000080: b0cf 883c 80f5 37bc 8c14 e9bd 3a53 9e3d
00000090: d058 ab3c 18dd 3a3d 90ec 263c 58ca d3bd
000000a0: 30cb cf3c 4010 1c3c d8f6 a2bd fe47 afbd
000000b0: 80de e03d e45f 3abd 962e 843d 4cb7 dc3d
000000c0: 3269 dbbd 78bf 9ebc 0c89 ec3d 104b a9bc
000000d0: e822 a2bc b063 293d b018 763d ca0d d83d
000000e0: 0008 4b3a 20eb 30bc e0df 393c 44e9 52bd
000000f0: 2044 de3c 9a96 903d b0ed bebc 92bb a9bd
00000100: 7804 503d 0813 013d f8c2 843d 58aa e4bc
00000110: 8cd3 983d a294 f3bd 16f7 d03d a8d8 e2bd
00000120: d03f 043c de9d cabd a88c 023d 7013 05bc
00000130: 000c aebb 00aa efba 929f 993d 5c39 57bd
00000140: 84e2 e0bd 00ab 523c 988a 14bd 06f2 c73d
00000150: 6093 b9bb e0b7 c63c a6ca cfbd d0bf a2bd
00000160: 868f b9bd 0027 4bbd 0a98 a63d 4ea0 f4bd
00000170: 08ec fabd 5838 823d b01b cfbc 8c2f 50bd
00000180: 12e8 92bd 2678 86bd 32b7 933d 2a37 a3bd
00000190: e0b7 b8bb c027 973c 7864 3a3d 2884 79bd
000001a0: 284b 3a3d 40fa d63c a05e eebd 9028 593d
000001b0: 66c5 e1bd cc93 7a3d 7078 abbd 1cab f6bd
000001c0: ba15 a03d ec01 fe3d 8255 89bd 2afe a3bd
000001d0: f06c 9a3c bcf9 6b3d 003a 5e3c b835 8c3d
000001e0: 7420 51bd bab8 f83d c428 0b3d f486 79bd
000001f0: 3aed 833d c043 d53d 1402 793d 903a ff3d
00000200: c03c 113b 5823 c9bd dc3f 473d 3219 8ebd
00000210: e8bb f3bc 20aa 34bd 22dd f03d 9802 a7bd
00000220: 4859 18bd c0f8 89bd 60f8 6b3c fc48 a13d
00000230: 2e78 c33d 6484 3ebd ccf4 0ebd ca01 993d
00000240: 7cad 9dbd e296 87bd e02c 513c 2848 513d
00000250: 4057 163d 4868 c6bc 6ee6 f8bd 6019 ee3d
00000260: 742c 04bd f0f1 683d 6c60 37bd 502b 7bbc
00000270: 1213 8a3d 4840 ebbd 0050 2b3a b0b1 56bc
00000280: a0bc b63b 406d 0d3b b6bf f03d d0b5 233d
00000290: a050 e33d 4064 423b 2880 e7bd fe5b c9bd
000002a0: 2287 953d 729c e33d 8052 6ebb 28a7 9ebc
000002b0: 922b b93d 2c0b e3bd 3a84 d4bd a8d7 eb3d
000002c0: 1c4f 313d 7c6f 8f3d 0ebc bc3d f8fe 5abd
000002d0: 3e1b db3d 645c 3b3d 261f 8e3d d81d 523d
000002e0: e0ad fe3d f0b7 0bbd 7098 e8bc 3667 9c3d
000002f0: 681e adbd 4023 a13d a079 f5bc b831 b7bc
00000300: c41e 14bd 82ba cf3d 6c6a 8abd b829 853c
00000310: 0cb3 e4bd 1430 f93d b0f7 28bd e01f bfbb
00000320: 06c8 f23d 90a9 113c 0060 2439 f2e3 d6bd
00000330: 487e 69bd 288f a3bc e234 d33d 5275 9fbd
00000340: 0058 da38 3881 c83d d002 c4bc cccd 5ebd
00000350: 4058 4d3d a6a1 d33d 56d9 d43d 2aad a2bd
00000360: 04a7 683d 9066 39bd 7cc4 6d3d 30d6 c5bd
00000370: 0cbd 08bd 40a7 4bbd 0634 96bd 001a d13a
00000380: e0c1 cbbb 3cb0 82bd 0086 a1ba 546b ba3d
00000390: 6c6a 343d 24ba c8bd 00b0 e83a 78e3 0a3d
000003a0: 7480 b1bd 04cc 523d 60e6 393c 5051 633d
000003b0: 8cc4 c53d 48e9 fc3d e86a 07bd fef1 c2bd
000003c0: a036 e1bd c663 a03d 1c21 1b3d bc28 7ebd
000003d0: 9462 4cbd 50bf 85bc 7cb2 90bd 26b4 e23d
000003e0: 00ac 193d c466 62bd 266f efbd f464 dbbd
000003f0: a8e2 9c3d b213 9abd 10b8 24bc d67f efbd

generator.transformer_layer.self_attn.out_proj.bias f4 [64]
0.0 0.0 0.0 0.0 0.0 0.0 0.0 0.0
0.0 0.0 0.0 0.0 0.0 0.0 0.0 0.0
0.0 0.0 0.0 0.0 0.0 0.0 0.0 0.0
0.0 0.0 0.0 0.0 0.0 0.0 0.0 0.0
0.0 0.0 0.0 0.0 0.0 0.0 0.0 0.0
0.0 0.0 0.0 0.0 0.0 0.0 0.0 0.0
0.0 0.0 0.0 0.0 0.0 0.0 0.0 0.0
0.0 0.0 0.0 0.0 0.0 0.0 0.0 0.0
00000000: 0000 0000 0000 0000 0000 0000 0000 0000
00000010: 0000 0000 0000 0000 0000 0000 0000 0000
00000020: 0000 0000 0000 0000 0000 0000 0000 0000
00000030: 0000 0000 0000 0000 0000 0000 0000 0000
00000040: 0000 0000 0000 0000 0000 0000 0000 0000
00000050: 0000 0000 0000 0000 0000 0000 0000 0000
00000060: 0000 0000 0000 0000 0000 0000 0000 0000
00000070: 0000 0000 0000 0000 0000 0000 0000 0000
00000080: 0000 0000 0000 0000 0000 0000 0000 0000
00000090: 0000 0000 0000 0000 0000 0000 0000 0000
000000a0: 0000 0000 0000 0000 0000 0000 0000 0000
000000b0: 0000 0000 0000 0000 0000 0000 0000 0000
000000c0: 0000 0000 0000 0000 0000 0000 0000 0000
000000d0: 0000 0000 0000 0000 0000 0000 0000 0000
000000e0: 0000 0000 0000 0000 0000 0000 0000 0000
000000f0: 0000 0000 0000 0000 0000 0000 0000 0000

generator.transformer_layer.linear1.weight f4 [128, 64]
-0.09485939 -0.121591866 -0.06260157 0.07019231 -0.101127714 0.04126437 0.11328769 0.030778259
-0.014430478 0.022687376 -0.048439622 0.057050914 -0.074474856 -0.081362575 0.022707328 0.07884599
-0.06074159 -0.11750254 -0.043892488 0.039870232 0.07512879 -0.07435228 0.014062718 0.07320334
0.103685856 -0.044851393 0.10861042 0.03411962 -0.114713624 -0.11734791 0.039215147 0.016193345
0.083798185 -0.051970452 0.060569823 0.0002232045 -0.079404935 -0.10540439 0.104673 -0.026685938
-0.09093778 -0.037500277 -0.12354988 0.032012865 0.049055412 -0.0153185725 0.111704454 -0.069997475
0.10732433 -0.043163463 0.10312076 -0.123363376 0.04692471 0.06425181 -0.068547085 0.09435892
0.11758785 -0.03322944 -0.0045591295 0.11342405 0.01954472 0.11244081 0.00990057 -0.039320752
-0.041027352 0.09865223 0.099328145 -0.12484081 -0.123346 -0.03053023 0.09559123 0.05782096
-0.11458503 0.11150414 0.0466841 -0.110874146 0.09377624 0.06257518 0.06552382 -0.017772362
0.09251118 7.0244074e-05 -0.09520891 0.040636048 -0.119141445 0.12139955 0.0040721744 -0.11869843
0.118121386 -0.008030638 -0.09587802 -0.11928235 0.030068234 0.047056317 -0.087881744 -0.05472882
0.031651005 0.00908415 -0.015819818 -0.01395236 -0.085346386 -0.026509315 -0.08562626 0.11935611
-0.051590398 -0.005188912 0.013892353 0.0006567687 -0.116156414 -0.040259033 -0.08616057 0.0699877
0.071948364 0.069719926 0.09760013 -0.01807253 -0.05445306 -0.049203545 -0.04655455 -0.047496557
0.05971469 -0.05149673 -0.11507775 0.07485184 0.07250063 0.10659742 0.09680261 0.039114863
-0.009783909 0.07206139 0.033957496 -0.021835685 -0.09211725 -0.026504919 0.044673994 0.10633266
0.071949705 0.076747194 0.044848397 -0.026348561 -0.08727002 -0.0322396 -0.027315617 0.011670217
0.10931438 0.04541138 0.010112837 -0.09715927 -0.10483213 -0.024610564 -0.12436037 -0.06834282
0.0984074 -0.017156005 -0.030373856 -0.06643057 0.033597007 0.0024759024 -0.113910094 0.07259458
-0.08700839 0.061136216 0.012557387 -0.02604106 -0.025628984 0.066380784 -0.11258775 0.07577667
0.06705636 -0.11458002 -0.0664811 0.08615284 -0.09409508 -0.06803405 0.084179565 -0.08178274
-0.085889876 0.021123916 0.0006443709 0.06755407 0.025620058 0.10189931 0.07808034 -0.030200705
-0.08190441 0.013778582 -0.08691718 -0.124816746 -0.03804867 0.048095062 0.030638725 0.04819061
0.068733275 -0.11717695 -0.10868603 -0.087602034 -0.061446086 0.07918508 -0.086135805 -0.12055829
-0.016380653 0.060529396 -0.092517614 0.115315065 -0.034855723 0.050921336 -0.12142444 0.057698548
0.02342026 0.1022 0.0564826 0.023509532 0.04835184 0.08192024 -0.08289035 0.088547155
-0.045279488 0.000423342 -0.015762195 0.004925266 0.092342824 -0.00883159 0.098936796 0.08316454
-0.10430914 0.036695823 -0.04696852 0.07111025 0.03201613 -0.100205496 -0.008257955 0.12209454
0.12397498 -0.124909535 -0.020610884 -0.10664441 -0.013617083 0.09349434 -0.06706783 -0.020082891
-0.07764697 0.10244444 -0.061255276 0.042252243 -0.0054869056 0.057649314 0.0651284 -0.06584974
-0.0018231869 -0.039173305 0.057097718 0.032615677 0.12464708 0.037442565 0.113131836 -0.09113881
00000000: a445 c2bd 2805 f9bd 4035 80bd fcc0 8f3d
00000010: 0c1c cfbd d404 293d 6003 e83d b022 fc3c
00000020: d06d 6cbc e0da b93c a068 46bd 38ae 693d
00000030: 4686 98bd 6ca1 a6bd b804 ba3c 027a a13d
00000040: 2ccc 78bd 2ca5 f0bd 9cc8 33bd f84e 233d
00000050: 20dd 993d 0246 98bd 5067 663c a2eb 953d
00000060: 4059 d43d 18b6 37bd 246f de3d 04c1 0b3d
00000070: faee eabd 1a54 f0bd 10a0 203d e8a7 843c
00000080: 629e ab3d f8de 54bd 1018 783d 000c 6a39
00000090: 0e9f a2bd 42de d7bd cc5e d63d 789c dabc
000000a0: 963d babd e499 19bd b807 fdbd ec1f 033d
000000b0: 54ee 483d c0fa 7abc 4ec5 e43d d65a 8fbd
000000c0: dccc db3d 2ccc 30bd fa30 d33d f0a5 fcbd
000000d0: 2034 403d 7496 833d 6a62 8cbd 403f c13d
000000e0: e6d1 f03d 981b 08bd c064 95bb de4a e83d
000000f0: 401c a03c 5e47 e63d 0036 223c cc0e 21bd
00000100: 4c0c 28bd 2e0a ca3d 8e6c cb3d 8aac ffbd
00000110: d49c fcbd 881a fabc 56c5 c33d acd5 6c3d
00000120: 8eab eabd 485c e43d d437 3f3d fc11 e3bd
00000130: c20d c03d 6a27 803d 5a31 863d 5897 91bc
00000140: 8076 bd3d 0050 9338 e4fc c2bd fc71 263d
00000150: 6e00 f4bd 54a0 f83d e06f 853b 2a18 f3bd
00000160: a0e9 f13d f092 03bc b25b c4bd 4e4a f4bd
00000170: a851 f63c 20be 403d 58fb b3bd 542b 60bd
00000180: 7ca4 013d b0d5 143c 9098 81bc 7098 64bc
00000190: 16ca aebd 102a d9bc d25c afbd fa70 f43d
000001a0: 7450 53bd c007 aabb c09c 633c 002b 2c3a
000001b0: 6ae3 edbd a8e6 24bd f474 b0bd b655 8f3d
000001c0: aa59 933d 52c9 8e3d 94e2 c73d d80c 94bc
000001d0: 2c0a 5fbd a889 49bd fcaf 3ebd c08b 42bd
000001e0: 6497 743d 3cee 52bd e2ad ebbd ec4b 993d
000001f0: 367b 943d c04f da3d 7240 c63d e836 203d
00000200: b04c 20bc ec94 933d 0417 0b3d c0e0 b2bc
00000210: f8a7 bcbd d820 d9bc 14fc 363d f0c4 d93d
00000220: 5e5a 933d a22d 9d3d f4b2 373d f0d8 d7bc
00000230: a0ba b2bd ac0d 04bd 00c5 dfbc 7034 3f3c
00000240: 38e0 df3d 4801 3a3d 50b0 253c 70fb c6bd
00000250: 3ab2 d6bd 189c c9bc a6b0 febd 52f7 8bbd
00000260: d289 c93d c08a 8cbc 98d2 f8bc c00c 88bd
00000270: 049d 093d c042 223b b249 e9bd 78ac 943d
00000280: 7431 b2bd f869 7a3d 80bd 4d3c 1054 d5bc
00000290: e0f3 d1bc a6f2 873d 6894 e6bd cc30 9b3d
000002a0: d854 893d eea8 eabd 3e27 88bd e670 b03d
000002b0: ecb4 c0bd 7055 8bbd 5666 ac3d b67d a7bd
000002c0: 08e7 afbd 100c ad3c 00eb 283a ca59 8a3d
000002d0: 28e1 d13c 96b0 d03d 96e8 9f3d 7867 f7bc
000002e0: 80bd a7bd 90bf 613c a201 b2bd ec9f ffbd
000002f0: ecd8 1bbd 54ff 443d 10fe fa3c 8463 453d
00000300: 08c4 8c3d 78fa efbd c896 debd b268 b3bd
00000310: e4ae 7bbd ca2b a23d f867 b0bd 44e7 f6bd
00000320: b830 86bc aced 773d e079 bdbd 4e2a ec3d
00000330: e0c4 0ebd e492 503d 60ad f8bd 5055 6c3d
00000340: d8db bf3c 3c4e d13d 4c5a 673d 1097 c03c
00000350: 940c 463d ccc5 a73d 6ac2 a9bd 3658 b53d
00000360: fc76 39bd 00f4 dd39 b81f 81bc 2064 a13b
00000370: 3c1e bd3d 60b2 10bc 609f ca3d 2c52 aa3d
00000380: 08a0 d5bd 5c4e 163d 1062 40bd 40a2 913d
00000390: 5823 033d 8a38 cdbd 604c 07bc b40c fa3d
000003a0: 98e6 fd3d 92d0 ffbd 28d8 a8bc 6268 dabd
000003b0: 301a 5fbc f679 bf3d dc5a 89bd e084 a4bc
000003c0: 6005 9fbd 64ce d13d d0e6 7abd b010 2d3d
000003d0: 80cb b3bb b021 6c3d 0a62 853d 3adc 86bd
000003e0: 00f8 eeba 3074 20bd 4cdf 693d 0498 053d
000003f0: f846 ff3d 605d 193d aab1 e73d fca6 babd

generator.transformer_layer.linear1.bias f4 [128]
-0.019835666 -0.08284728 -0.04696612 0.12000121 -0.022371039 -0.017418697 0.08233546 0.01696217
0.051255196 -0.0642153 -0.09532927 0.118944824 -0.034218132 -0.035324693 -0.10122357 -0.11945546
-0.07427345 0.049574867 -0.019434288 0.023660362 -0.06564662 0.08850837 -0.055880636 -0.07145652
-0.09403075 0.038168177 0.045457453 -0.052011326 0.0076963007 0.122877106 0.077751175 -0.09607902
0.082227856 -0.095663294 0.003196478 -0.11475615 -0.071186304 0.058368742 0.08564049 -0.053421453
0.1090969 -0.05010219 -0.044739157 -0.07213792 0.054718524 0.00743407 0.10999036 0.001414001
-0.0021842718 -0.0677198 -0.054837376 0.027544051 0.035863653 0.077380374 -0.07482654 -0.072877675
-0.08635777 0.021076575 0.030107886 0.117420495 0.06967409 0.008739382 -0.116575286 -0.04343477
0.009374186 0.101706 0.11666441 -0.12051885 0.019436345 -0.1162768 -0.06987777 -0.050612733
0.0816915 0.04570344 0.05883424 0.003108114 0.088982 -0.008340165 -0.088596836 -0.11159484
-0.046254873 0.008775145 -0.12041883 0.079654574 0.061108097 0.016680747 0.031652004 -0.096830085
-0.10256669 -0.029553607 -0.088024944 0.070026666 -0.1123375 0.07910736 0.054680467 -0.055386424
0.09725438 -0.08708465 0.06599757 0.035564974 0.026081085 -0.10909982 -0.06766762 -0.10927953
0.004653245 0.006561771 0.09210248 -0.084245116 -0.075297624 -0.062145844 -0.08484359 -0.054354995
0.10613133 0.087496966 -0.02286385 0.08340685 0.06397565 -0.023562595 -0.027637944 -0.09081237
0.043819755 0.027589902 0.108966395 -0.017194584 -0.017572239 0.0067922026 -0.12423237 -0.008599833
00000000: 687e a2bc d6ab a9bd 8c5f 40bd 32c3 f53d
00000010: 7843 b7bc a8b1 8ebc 7e9f a83d 40f4 8a3c
00000020: f8f0 513d 5083 83bd fe3b c3bd 5899 f33d
00000030: 5028 0cbd a0b0 10bd 4e4e cfbd 10a5 f4bd
00000040: ae1c 98bd 040f 4b3d a834 9fbc 60d3 c13c
00000050: bc71 86bd e043 b53d 18e3 64bd cc57 92bd
00000060: 3293 c0bd 3c56 1c3d 9831 3a3d d409 55bd
00000070: 4031 fc3b fea6 fb3d 023c 9f3d 14c5 c4bd
00000080: 1467 a83d 1eeb c3bd 007c 513b 4605 ebbd
00000090: 20ca 91bd 1014 6f3d 4864 af3d 74d0 5abd
000000a0: 326e df3d f437 4dbd 6840 37bd 0cbd 93bd
000000b0: 8820 603d 8099 f33b a042 e13d 0056 b93a
000000c0: 0026 0fbb aeb0 8abd 289d 60bd 10a4 e13c
000000d0: c4e5 123d 9a79 9e3d a83e 99bd e440 95bd
000000e0: 58dc b0bd c8a8 ac3c d0a4 f63c 287a f03d
000000f0: 4ab1 8e3d a02f 0f3c 06bf eebd a8e8 31bd
00000100: 3096 193c 3c4b d03d c0ed ee3d 96d2 f6bd
00000110: f838 9f3c 8822 eebd 141c 8fbd 4c4f 4fbd
00000120: e04d a73d 8833 3b3d 2cfc 703d 80b1 4b3b
00000130: 323c b63d 30a5 08bc 4272 b5bd d68b e4bd
00000140: c075 3dbd a0c5 0f3c 269e f6bd f021 a33d
00000150: 7c4c 7a3d 10a6 883c 88a5 013d da4e c6bd
00000160: 7c0e d2bd 681a f2bc 6c46 b4bd 246a 8f3d
00000170: 3411 e6bd 0a03 a23d a0f8 5f3d e0dc 62bd
00000180: 4e2d c73d 7059 b2bd bc29 873d 94ac 113d
00000190: 00a8 d53c ba6f dfbd 5295 8abd f2cd dfbd
000001a0: 407a 983b 2004 d73b 3aa0 bc3d b488 acbd
000001b0: a435 9abd a48c 7ebd 7ac2 adbd 58a3 5ebd
000001c0: 625b d93d 9c31 b33d f84c bbbc 36d1 aa3d
000001d0: aa05 833d 5806 c1bc f868 e2bc d6fb b9bd
000001e0: 587c 333d 3804 e23c c629 df3d a8db 8cbc
000001f0: a8f3 8fbc 2091 de3b 8a6d febd 50e6 0cbc

generator.transformer_layer.linear2.weight f4 [64, 128]
-0.043711096 0.0068714246 0.045913063 -0.0070498586 0.018237352 -0.04605367 0.006526798 -0.0332719
-0.07451657 -0.06592916 -0.04488575 -0.056768168 -0.00524541 -0.012255847 0.054456852 -0.0041157156
-0.028855491 -0.04403099 -0.03206841 -0.039250873 -0.045349535 0.005827844 -0.06666091 -0.05218141
-0.04651504 0.07641552 -0.07910368 -0.07583709 0.04074914 -0.029602397 -0.08093108 -0.032929394
0.012497686 0.07716841 -0.020183116 0.023702584 -0.06850257 -0.084304474 0.020212129 -0.009283803
-0.07687692 0.029136442 -0.044125665 0.06784091 -0.023121625 -0.07206085 -0.06774195 -0.07958843
0.025860168 -0.026830051 0.081727065 -0.058132652 -0.06068319 0.045672096 -0.06588048 -0.009962156
-0.047370803 0.057416804 -0.01612436 -0.03405872 0.056987576 -0.026598379 0.064796306 -0.0798125
-0.077999644 -0.08324542 -0.050425425 -0.046099357 0.003417194 -0.057204977 -0.007289149 0.025247946
-0.07751198 -0.025913745 -0.05865646 0.021922708 -0.08055963 0.07699514 0.07121243 -0.014405906
0.07178732 -0.031493347 -0.08671969 -0.062202647 0.06901579 0.07295636 -0.07270482 0.0040612817
0.0605262 0.025064245 -0.07831039 0.019089058 0.07293131 -0.019167341 -0.071642324 0.042144008
0.032333218 -0.02004607 -0.071789235 0.085373245 0.07290659 -0.050451916 -0.033649705 0.065186806
0.009719022 -0.02971534 0.06180387 0.012240559 0.08673545 0.060050867 0.017314285 0.050383903
-0.053705264 0.08800804 -0.05461823 -0.048029706 -0.037509937 0.06966222 0.01154127 0.037536137
-0.012703173 -0.0070090666 -0.07081601 -0.070200704 -0.040102303 -0.030752555 0.006967023 -0.08625246
0.06007939 -0.015503973 -0.0441166 -0.0131189525 -0.086452626 -0.08007706 -0.07635852 -0.07286552
0.03698259 -0.05051243 0.035544418 -0.0686699 0.08541057 -0.05461532 0.042457305 -0.06635772
0.08712127 -0.043176223 -0.08193615 -0.074567586 -0.03205111 -0.026888952 0.07822647 0.0526366
-0.042645056 -0.032323893 0.04836362 0.03647831 0.07901729 -0.08585563 0.018893473 0.06599031
0.05419215 -0.0068933815 -0.033034764 0.031075649 0.046837963 0.07485101 -0.07431721 0.045160733
-0.018685132 0.08239313 0.0055160746 -0.033779625 0.0118305385 -0.028807316 -0.053624224 0.048390158
-0.0074393377 -0.011573665 -0.043853965 0.0054233745 -0.065751985 0.009533554 0.07780986 0.04881143
-0.0014109313 -0.07148889 -0.018595777 0.0044246316 0.0022212788 0.04865431 0.025217488 0.008957468
-0.06539029 0.0718446 0.035724238 -0.080344275 0.03913667 -0.052033868 0.04374928 -0.07436318
-0.041259382 -0.087595984 -0.055444177 -0.0143261105 0.07264639 -0.06090383 0.038804315 -0.033265855
-0.06831036 -0.06796238 0.07740154 -0.0031442046 -0.068308406 0.02612625 0.088358544 -0.04319189
-0.06478744 0.014049113 0.0041061267 -0.009261347 0.008700311 0.08641457 0.06437995 0.057984985
0.06660057 0.04659938 0.026080683 -0.06550481 -0.034293037 0.047100537 -0.014958516 0.0050792843
0.05331243 -0.052717835 0.040623106 0.08723291 -0.022935621 -0.08351858 0.035253607 0.083542176
0.007557921 0.06471231 -0.013575934 -0.08424189 0.04206208 -0.006487772 -0.033573326 0.033761367
0.01569987 0.0021375418 -0.034699067 -0.07059806 -0.059437465 -0.06140902 0.005900547 0.06353604
00000000: 680a 33bd b029 e13b 560f 3c3d 8002 e7bb
00000010: 8066 953c c6a2 3cbd c0de d53b 1e48 08bd
00000020: 259c 98bd de05 87bd 1fda 37bd bd85 68bd
00000030: b0e1 abbb c0cc 48bc 260e 5f3d 20dd 86bb
00000040: 5a62 ecbc d759 34bd 2a5a 03bd 86c5 20bd
00000050: 6fc0 39bd 80f7 be3b 8485 88bd 2dbc 55bd
00000060: 8e86 3ebd bd7f 9c3d 1c01 a2bd 7a50 9bbd
00000070: 92e8 263d ba80 f2bc 32bf a5bd f9e0 06bd
00000080: 18c3 4c3c 790a 9e3d 1057 a5bc ec2b c23c
00000090: 134b 8cbd d3a7 acbd e893 a53c 181b 18bc
000000a0: a671 9dbd 8caf ee3c 1dbd 34bd 2df0 8a3d
000000b0: 9069 bdbc a494 93bd 4bbc 8abd 42ff a2bd
000000c0: b4d8 d33c b2ca dbbc 8560 a73d 811c 6ebd
000000d0: f08e 78bd aa12 3b3d 58ec 86bd 5038 23bc
000000e0: e307 42bd e22d 6b3d 3c17 84bc 2881 0bbd
000000f0: ce6b 693d d8e4 d9bc edb3 843d bc74 a3bd
00000100: 47be 9fbd 937c aabd e48a 4ebd aed2 3cbd
00000110: 00f3 5f3b c44f 6abd d0d9 eebb c8d4 ce3c
00000120: 9abe 9ebd 1049 d4bc c241 70bd 4097 b33c
00000130: 73fc a4bd a1af 9d3d d3d7 913d c006 6cbc
00000140: 3b05 933d 2bff 00bd 189a b1bd 34c8 7ebd
00000150: 2758 8d3d 256a 953d 44e6 94bd 8014 853b
00000160: 52ea 773d 8853 cd3c 3361 a0bd a860 9c3c
00000170: 035d 953d d404 9dbc 36b9 92bd 329f 2c3d
00000180: d66f 043d a837 a4bc 3c06 93bd 2bd8 ae3d
00000190: 0d50 953d aba6 4ebd 46d4 09bd a980 853d
000001a0: 883c 1f3c 966d f3bc 0e26 7d3d a08c 483c
000001b0: 5ba2 b13d e6f7 753d b0d6 8d3c 5a5f 4e3d
000001c0: 0dfa 5bbd 8f3d b43d 5db7 5fbd ccba 44bd
000001d0: 05a4 19bd 11ab 8e3d 9817 3d3c 7ebf 193d
000001e0: f820 50bc 50ac e5bb fc07 91bd 63c5 8fbd
000001f0: 5042 24bd c8ec fbbc a04b e43b 21a5 b0bd
00000200: ce15 763d 6004 7ebc 9cb3 34bd e0f0 56bc
00000210: 130e b1bd 71ff a3bd db61 9cbd 853a 95bd
00000220: 0e7b 173d 1fe6 4ebd 0697 113d cea2 8cbd
00000230: bdeb ae3d 50b4 5fbd b6e7 2d3d 8ee6 87bd
00000240: a36c b23d 8dd9 30bd 24ce a7bd e4b6 98bd
00000250: 0648 03bd 3846 dcbc 3335 a03d 7a99 573d
00000260: 95ac 2ebd 0f66 04bd ee18 463d 486a 153d
00000270: d1d3 a13d 14d5 afbd 7cc6 9a3c ed25 873d
00000280: 96f8 5d3d e0e1 e1bb 764f 07bd 5c92 fe3c
00000290: 2ad9 3f3d 7d4b 993d 9f33 98bd 76fa 383d
000002a0: 9011 99bc bbbd a83d 30c0 b43b 815c 0abd
000002b0: e0d4 413c 52fd ebbc 13a5 5bbd c234 463d
000002c0: b0c5 f3bb 789f 3dbc 37a0 33bd 90b6 b13b
000002d0: faa8 86bd a032 1c3c c75a 9f3d 7eee 473d
000002e0: 00ef b8ba c468 92bd 2c56 98bc 80fc 903b
000002f0: e092 113b be49 473d e894 ce3c 58c2 123c
00000300: 58eb 85bd 4323 933d 9453 123d 8a8b a4bd
00000310: c64d 203d 7721 55bd 7232 333d b94b 98bd
00000320: 99ff 28bd 8665 b3bd 6f19 63bd 10b8 6abc
00000330: a1c7 943d 4b76 79bd 46f1 1e3d c741 08bd
00000340: 4de6 8bbd dc2f 8bbd b384 9e3d 000f 4ebb
00000350: 47e5 8bbd b806 d63c 53f5 b43d fbe9 30bd
00000360: 47af 84bd 402e 663c b08c 863b e8bc 17bc
00000370: c08b 0e3c 1ffa b03d a3d9 833d aa81 6d3d
00000380: e165 883d fede 3e3d 28a7 d53c 6327 86bd
00000390: db76 0cbd 7eec 403d 9014 75bc 2070 a63b
000003a0: 225e 5a3d a8ee 57bd 6a64 263d 2ba7 b23d
000003b0: 7ce3 bbbc ca0b abbd 1666 103d 2918 ab3d
000003c0: 70a8 f73b e387 843d 986d 5ebc 0387 acbd
000003d0: 4a49 2c3d 6097 d4bb 2f84 09bd 5c49 0a3d
000003e0: 049d 803c 0016 0c3b 9c20 0ebd b795 90bd
000003f0: b374 73bd 0688 7bbd 6059 c13b 2f1f 823d

generator.transformer_layer.linear2.bias f4 [64]
-0.020324998 0.08106064 0.04075723 0.016245723 -0.027869549 -0.040041275 0.065135114 0.03126678
0.03629501 0.00017147511 0.045535617 0.085268356 -0.017151505 -0.042951155 -0.063603364 0.03341092
-0.07417827 0.006335683 0.08629701 -0.020080581 0.06821021 0.07950053 -0.064270265 0.076852866
0.06675517 -0.031556472 0.07546576 0.0059840307 -0.039618857 -0.011420481 -0.012524329 0.06511342
0.0020442158 -0.07369294 -0.02462893 0.012314647 0.039345644 0.059880562 0.03218051 0.05162374
0.058666997 -0.01464048 -0.0013606921 0.038179524 -0.032232486 -0.05400479 -0.00810542 -0.08509254
0.04799264 -0.07467839 0.04516501 0.0041920766 -0.035099674 0.064442284 -0.025859945 0.072342195
0.053472303 -0.06986637 0.007380627 -0.02770659 -0.025610775 0.043205373 -0.03601228 -0.05179995
00000000: 9c80 a6bc 1f03 a63d 0ef1 263d c015 853c
00000010: ae4e e4bc 5202 24bd 8f65 853d 9811 003d
00000020: 14aa 143d 00ce 3339 8e83 3a3d 2da1 ae3d
00000030: 5081 8cbc 8ded 2fbd 7b42 82bd e4d9 083d
00000040: c7ea 97bd 909b cf3b 7dbc b03d 0880 a4bc
00000050: cbb1 8b3d 2dd1 a23d 21a0 83bd 0965 9d3d
00000060: efb6 883d 5c41 01bd cb8d 9a3d b015 c43b
00000070: 6247 22bd f81c 3bbc d832 4dbc 2f5a 853d
00000080: 40f8 053b 53ec 96bd 9cc2 c9bc 60c3 493c
00000090: e628 213d 5245 753d b6cf 033d 6a73 533d
000000a0: ce4c 703d a0de 6fbc 4059 b2ba 2262 1c3d
000000b0: 3606 04bd 2034 5dbd 98cc 04bc ff44 aebd
000000c0: ee93 443d fcf0 98bd f2fe 383d b05d 893b
000000d0: adc4 0fbd 51fa 833d 3cd8 d3bc 2528 943d
000000e0: c605 5b3d 1916 8fbd 30d9 f13b eef8 e2bc
000000f0: b0cd d1bc 1ef8 303d 9d81 13bd 2f2c 54bd

generator.transformer_layer.norm1.weight f4 [64]
1.0 1.0 1.0 1.0 1.0 1.0 1.0 1.0
1.0 1.0 1.0 1.0 1.0 1.0 1.0 1.0
1.0 1.0 1.0 1.0 1.0 1.0 1.0 1.0
1.0 1.0 1.0 1.0 1.0 1.0 1.0 1.0
1.0 1.0 1.0 1.0 1.0 1.0 1.0 1.0
1.0 1.0 1.0 1.0 1.0 1.0 1.0 1.0
1.0 1.0 1.0 1.0 1.0 1.0 1.0 1.0
1.0 1.0 1.0 1.0 1.0 1.0 1.0 1.0
00000000: 0000 803f 0000 803f 0000 803f 0000 803f
00000010: 0000 803f 0000 803f 0000 803f 0000 803f
00000020: 0000 803f 0000 803f 0000 803f 0000 803f
00000030: 0000 803f 0000 803f 0000 803f 0000 803f
00000040: 0000 803f 0000 803f 0000 803f 0000 803f
00000050: 0000 803f 0000 803f 0000 803f 0000 803f
00000060: 0000 803f 0000 803f 0000 803f 0000 803f
00000070: 0000 803f 0000 803f 0000 803f 0000 803f
00000080: 0000 803f 0000 803f 0000 803f 0000 803f
00000090: 0000 803f 0000 803f 0000 803f 0000 803f
000000a0: 0000 803f 0000 803f 0000 803f 0000 803f
000000b0: 0000 803f 0000 803f 0000 803f 0000 803f
000000c0: 0000 803f 0000 803f 0000 803f 0000 803f
000000d0: 0000 803f 0000 803f 0000 803f 0000 803f
000000e0: 0000 803f 0000 803f 0000 803f 0000 803f
000000f0: 0000 803f 0000 803f 0000 803f 0000 803f

generator.transformer_layer.norm1.bias f4 [64]
0.0 0.0 0.0 0.0 0.0 0.0 0.0 0.0
0.0 0.0 0.0 0.0 0.0 0.0 0.0 0.0
0.0 0.0 0.0 0.0 0.0 0.0 0.0 0.0
0.0 0.0 0.0 0.0 0.0 0.0 0.0 0.0
0.0 0.0 0.0 0.0 0.0 0.0 0.0 0.0
0.0 0.0 0.0 0.0 0.0 0.0 0.0 0.0
0.0 0.0 0.0 0.0 0.0 0.0 0.0 0.0
0.0 0.0 0.0 0.0 0.0 0.0 0.0 0.0
00000000: 0000 0000 0000 0000 0000 0000 0000 0000
00000010: 0000 0000 0000 0000 0000 0000 0000 0000
00000020: 0000 0000 0000 0000 0000 0000 0000 0000
00000030: 0000 0000 0000 0000 0000 0000 0000 0000
00000040: 0000 0000 0000 0000 0000 0000 0000 0000
00000050: 0000 0000 0000 0000 0000 0000 0000 0000
00000060: 0000 0000 0000 0000 0000 0000 0000 0000
00000070: 0000 0000 0000 0000 0000 0000 0000 0000
00000080: 0000 0000 0000 0000 0000 0000 0000 0000
00000090: 0000 0000 0000 0000 0000 0000 0000 0000
000000a0: 0000 0000 0000 0000 0000 0000 0000 0000
000000b0: 0000 0000 0000 0000 0000 0000 0000 0000
000000c0: 0000 0000 0000 0000 0000 0000 0000 0000
000000d0: 0000 0000 0000 0000 0000 0000 0000 0000
000000e0: 0000 0000 0000 0000 0000 0000 0000 0000
000000f0: 0000 0000 0000 0000 0000 0000 0000 0000

generator.transformer_layer.norm2.weight f4 [64]
1.0 1.0 1.0 1.0 1.0 1.0 1.0 1.0
1.0 1.0 1.0 1.0 1.0 1.0 1.0 1.0
1.0 1.0 1.0 1.0 1.0 1.0 1.0 1.0
1.0 1.0 1.0 1.0 1.0 1.0 1.0 1.0
1.0 1.0 1.0 1.0 1.0 1.0 1.0 1.0
1.0 1.0 1.0 1.0 1.0 1.0 1.0 1.0
1.0 1.0 1.0 1.0 1.0 1.0 1.0 1.0
1.0 1.0 1.0 1.0 1.0 1.0 1.0 1.0
00000000: 0000 803f 0000 803f 0000 803f 0000 803f
00000010: 0000 803f 0000 803f 0000 803f 0000 803f
00000020: 0000 803f 0000 803f 0000 803f 0000 803f
00000030: 0000 803f 0000 803f 0000 803f 0000 803f
00000040: 0000 803f 0000 803f 0000 803f 0000 803f
00000050: 0000 803f 0000 803f 0000 803f 0000 803f
00000060: 0000 803f 0000 803f 0000 803f 0000 803f
00000070: 0000 803f 0000 803f 0000 803f 0000 803f
00000080: 0000 803f 0000 803f 0000 803f 0000 803f
00000090: 0000 803f 0000 803f 0000 803f 0000 803f
000000a0: 0000 803f 0000 803f 0000 803f 0000 803f
000000b0: 0000 803f 0000 803f 0000 803f 0000 803f
000000c0: 0000 803f 0000 803f 0000 803f 0000 803f
000000d0: 0000 803f 0000 803f 0000 803f 0000 803f
000000e0: 0000 803f 0000 803f 0000 803f 0000 803f
000000f0: 0000 803f 0000 803f 0000 803f 0000 803f

generator.transformer_layer.norm2.bias f4 [64]
0.0 0.0 0.0 0.0 0.0 0.0 0.0 0.0
0.0 0.0 0.0 0.0 0.0 0.0 0.0 0.0
0.0 0.0 0.0 0.0 0.0 0.0 0.0 0.0
0.0 0.0 0.0 0.0 0.0 0.0 0.0 0.0
0.0 0.0 0.0 0.0 0.0 0.0 0.0 0.0
0.0 0.0 0.0 0.0 0.0 0.0 0.0 0.0
0.0 0.0 0.0 0.0 0.0 0.0 0.0 0.0
0.0 0.0 0.0 0.0 0.0 0.0 0.0 0.0
00000000: 0000 0000 0000 0000 0000 0000 0000 0000
00000010: 0000 0000 0000 0000 0000 0000 0000 0000
00000020: 0000 0000 0000 0000 0000 0000 0000 0000
00000030: 0000 0000 0000 0000 0000 0000 0000 0000
00000040: 0000 0000 0000 0000 0000 0000 0000 0000
00000050: 0000 0000 0000 0000 0000 0000 0000 0000
00000060: 0000 0000 0000 0000 0000 0000 0000 0000
00000070: 0000 0000 0000 0000 0000 0000 0000 0000
00000080: 0000 0000 0000 0000 0000 0000 0000 0000
00000090: 0000 0000 0000 0000 0000 0000 0000 0000
000000a0: 0000 0000 0000 0000 0000 0000 0000 0000
000000b0: 0000 0000 0000 0000 0000 0000 0000 0000
000000c0: 0000 0000 0000 0000 0000 0000 0000 0000
000000d0: 0000 0000 0000 0000 0000 0000 0000 0000
000000e0: 0000 0000 0000 0000 0000 0000 0000 0000
000000f0: 0000 0000 0000 0000 0000 0000 0000 0000
