GANS/gan_model.pth (torch, 948054 bytes, 71 tensors)

embedding.fc.weight f4 [64, 17]
00000000: c336 93bc 3a7f aabd 6364 433e 2bb7 1b3e
00000010: f279 3e3e 56a9 99bb 4f33 743e d276 eabd
00000020: 3790 5dbe 0047 223e 23f9 ef3d 72e1 55bd
00000030: fee7 d23d d5c7 22bd 57d2 1ebe 4c17 abbd
00000040: cad6 203d 8947 593e a7c7 01be 8708 9bbb
00000050: e579 31be b8cc 53be 04ca 77be 6b60 233c
00000060: 66c9 36be 1246 3b3e 6995 19be b879 12be
00000070: 1cce 6d3d 0e04 203d cb74 86bd 1fd7 05be
00000080: 6fbd abbd b2ab 86bd 1f7f f83d 6445 66be
00000090: e23a 583e 0e98 66be 4fae fdbc 861b 7abd
000000a0: bacb 65be 72c6 fcba 526b 163e 6c35 a1bd
000000b0: cbc9 db3d b07c 553e 2455 12bd 8c88 0dbd
000000c0: f739 4c3e 52c6 6c3d 4984 ed3d c251 113e
000000d0: d3cc 00be d66a 9e3d d47c 07be 2eb3 2b3e
000000e0: f0f4 ef3c 39a8 1fbd 404a 0abe 8075 5e3e
000000f0: 6f6f 57be 78fc 423d 9cd2 50bd 3394 493e
00000100: 144f 21be 2f46 893d 0dbd c9bb 3cf4 603e
00000110: 4d83 3bbe bddd 583d 4f69 db3a 4bf5 9abd
00000120: 3003 5f3c 4ea9 2a3d a4bd b0bd b42c 11bb
00000130: ed72 76be 219c 3e3e 53d5 2f3e 9189 633e
00000140: 28cd 213e 367c cfbc 00ac 2bbe c9f4 0bbd
00000150: 3a99 403e e65b e2bd 2210 80bd c1b8 113e
00000160: ea1f 943d 43fe 283e 7fd9 0d3e 1fa5 26be
00000170: 689f fdbd 335c 6bbe 8be7 863d 12cb 153e
00000180: f21b a8bd dd20 16be 0233 81bc a1e5 453d
00000190: 84cf 06bd 2852 0abe 3f74 cdbd 45d0 fbbb
000001a0: 9409 3b3e 6790 3a3e 98d8 7f3d 4d77 f43d
000001b0: 5d6f 863d 443e c9bc bb49 0dbd 5354 e53d
000001c0: 5a2c 273e cbd7 0a3e 9cde 303d b576 c33d
000001d0: 1954 16bc 70f4 5cbe 72b6 9a3d fac4 9cbd
000001e0: e111 113e 2967 31bc ad84 1bbe d50b 5ebe
000001f0: 352a 983d 3030 16be 53b0 683e 2b3a e7bd
00000200: 1670 c23d 3984 7fbc 0176 c0bd 6ba8 373e
00000210: 091c 98bd 1b95 f3bd 9010 783e e480 c4bd
00000220: 5164 59be 8725 7abc 2f06 71bd 2a26 0f3d
00000230: aefb ad3d 1765 6fbe 161f ccbc 7bc9 34be
00000240: 7045 2b3d f44d 1e3e 14a1 dfbd b045 31be
00000250: 859b fb3d 4fbc 553d 4d0f 5abd 7c40 9abd
00000260: 9407 313e 959c c9bd a824 423e 0ceb c73d
00000270: bee3 1dbd fadf 083e c75f f33d b583 b43c
00000280: 878b 3abe 07b7 25be ff69 e2bd 1764 9a3d
00000290: 1a3f af3d a741 3abd 78d4 4d3d ca52 55be
000002a0: 6aff 8fbc 7a27 4e3d 5ad4 44bc 23b3 93bd
000002b0: 374a 053e f3a5 0d3e 0769 3a3e 167b 163e
000002c0: 580a 2f3e 921f 29be 1253 743e a3bc 2dbd
000002d0: 9674 c3bd da9e 393d e22c 353e fb31 a1bd
000002e0: 660b e93c 73a6 723e 6b91 0abe 73b9 6cbe
000002f0: 7f21 613e 4e92 55be a66e 1abe ab71 1dbe
00000300: 7b44 8abd 8165 2b3e b077 7abd e2f8 5bbe
00000310: 4a88 373e 071c 713e e13d 063e 53aa a93d
00000320: 8f7c 283e 0914 2bbe ee07 cb3c f445 c0bd
00000330: 4000 a8bd d38a 68bd 0482 2e3e 19d2 853d
00000340: c90a 66be be8d 463e dd9c 4abe eeae 033e
00000350: 20ec 09be 6bd9 d0bd a1db 92bc 146a 56be
00000360: 5290 5b3e d11b 753d 6171 97bd 075e dc3d
00000370: 1ead 9c3d edd4 70be fa38 343d df65 d6bd
00000380: 01cd b63b 8e2b ca3d c338 1dbe fdb8 173e
00000390: c420 acbd ef6e fcbd 1e87 2c3e 77ec 0f3d
000003a0: bde2 543e bfa3 ebbd 0fe5 2a3e c89c bc3c
000003b0: 6ff7 953d 3451 89bd 4b96 55bd 00b3 363e
000003c0: 281c 22be f136 1cbd 9b73 ffbb eb86 93bc
000003d0: 3d48 22be e346 65be 9d3c 6abe d20f b43d
000003e0: 7e42 eb3d 69c0 42be 6768 73be 4b03 dbbd
000003f0: a07f 163e ddc4 4bbe a01d 6f3d e52a d5bd
-0.017970448 -0.08325048 0.19081263 0.15206592 0.18601206 -0.004689376 0.23847698 -0.114484444
-0.21637045 0.15847397 0.11717441 -0.052216955 0.10298155 -0.039741356 -0.15509926 -0.08354053
0.03926734 0.21218695 -0.12673818 -0.004731241 -0.17331655 -0.20683563 -0.24198157 0.009971718
-0.17850265 0.18288448 -0.14998402 -0.14304245 0.05805789 0.039066367 -0.06565245 -0.13070343
-0.08385741 -0.06575717 0.121336214 -0.22487408 0.21116212 -0.22518942 -0.030966906 -0.061061405
-0.22440997 -0.0019285216 0.14689377 -0.078715175 0.10731848 0.20848346 -0.035725728 -0.03455405
0.19943987 0.05780632 0.11597497 0.14191344 -0.12578134 0.07735221 -0.13231212 0.1676757
0.0292916 -0.03897879 -0.13504887 0.2172451 -0.21038602 0.047604054 -0.050982103 0.1968544
-0.15752822 0.067028396 -0.00615657 0.21968168 -0.18311806 0.05294584 0.0016739758 -0.07566317
0.0136116 0.041665368 -0.08629921 -0.002215189 -0.24067278 0.18614246 0.1717122 0.22220446
0.15800917 -0.025327783 -0.16764832 -0.034168992 0.18808451 -0.110526845 -0.06253077 0.14230634
0.072326496 0.16503243 0.138525 -0.16273926 -0.1238392 -0.2298439 0.06587132 0.14628246
-0.08208455 -0.14660974 -0.015771393 0.048314694 -0.032912746 -0.13507903 -0.10031938 -0.00768474
0.18265373 0.18219148 0.06246242 0.11936817 0.065642096 -0.024565823 -0.034494143 0.11197724
0.16325513 0.13558881 0.043181047 0.09544126 -0.009175324 -0.2157762 0.0755433 -0.07654758
0.14166977 -0.010827818 -0.1518733 -0.21684201 0.07429925 -0.1466682 0.22723512 -0.112903915
0.09494035 -0.015595489 -0.093975075 0.1793534 -0.07427222 -0.11893674 0.24225068 -0.095948964
-0.21229674 -0.015267736 -0.058843788 0.034948505 0.0849527 -0.23378406 -0.024917167 -0.17654984
0.041814268 0.15459424 -0.10919395 -0.1731174 0.12285522 0.05218154 -0.05323725 -0.07531831
0.17288047 -0.09844319 0.18959296 0.097616285 -0.03854727 0.1336669 0.118835025 0.022035459
-0.18217288 -0.161831 -0.110553734 0.07538622 0.085569575 -0.045472767 0.050251454 -0.20832363
-0.017577846 0.050330617 -0.012013519 -0.07211902 0.13016592 0.13832836 0.18204127 0.14695391
0.1709379 -0.1651595 0.23859814 -0.042416226 -0.095437214 0.04531751 0.17692903 -0.07870861
0.028447818 0.23696308 -0.13532035 -0.23117618 0.21985434 -0.20856592 -0.15081272 -0.15375392
-0.06751343 0.1673794 -0.0611493 -0.2148166 0.17923084 0.23545848 0.13109542 0.0828444
0.16453765 -0.16706862 0.024784055 -0.093883425 -0.08203173 -0.056773018 0.17041785 0.065342136
-0.22465052 0.19390008 -0.19786401 0.12859699 -0.13468981 -0.10197719 -0.017926993 -0.20938903
0.21441773 0.05984098 -0.07394672 0.10760122 0.07650207 -0.23518725 0.04399965 -0.10468649
0.0055786376 0.09871589 -0.15353684 0.14816661 -0.08404687 -0.123258464 0.16848418 0.03513762
0.20789619 -0.115058415 0.16688941 0.023023978 0.07322585 -0.067049414 -0.052145284 0.1784172
-0.15831053 -0.038138334 -0.0077957637 -0.01800867 -0.15847869 -0.22390322 -0.22874685 0.0879208
0.11487292 -0.19018711 -0.23770295 -0.106939875 0.14697123 -0.19899316 0.058377862 -0.10408572

embedding.fc.bias f4 [64]
00000000: 85ce 41be aaf7 2dbe 24be d6bd 1c9a 773d
00000010: 084f 7abd 7a07 f4bc 7e3d 3cbd 935b 6abe
00000020: 4a55 1ebe 9586 0c3d be24 48bc 7d95 723e
00000030: 5616 18bd 96cf 673e c1b2 27be b44f 9e3a
00000040: d38a 193e ffb3 613e a794 153e 0940 463a
00000050: 4510 f8bd 05b9 e63d 5804 38be d984 89bd
00000060: 340d 4bbb 2b8d 12bd c0b4 01be 1f32 b0bd
00000070: 9be5 bb3c 4668 2dbe b9f1 0ebe 4eb6 453e
00000080: 1a6b 67be 9be7 e93d 7dc4 233e 2bb9 2abe
00000090: 4dac 6e3d a467 c3bc a53d e23d 7d01 5f3b
000000a0: 4111 25bd 340a 9d3d ec28 b83c f26b 66be
000000b0: ebce 46be 1b32 2cbe 8d00 56bd 69ba 73bd
000000c0: e4bb 113d 2c3c e63d c149 513d ccc3 eabd
000000d0: d5c9 9a3c 6392 04be fc13 58be 11d7 37bc
000000e0: 4bf4 0dbd 2f5d 2d3e c120 8e3d 4982 3b3d
000000f0: 78e1 62be 7813 39be 3c4f 733e c58e ffbb
-0.18926437 -0.16989008 -0.10485485 0.060449705 -0.061110526 -0.029788721 -0.04595708 -0.22886495
-0.15462223 0.034308035 -0.012215791 0.23689838 -0.037130676 0.22637782 -0.16376783 0.0012078197
0.14994363 0.2204132 0.14607488 0.00075626426 -0.12112478 0.112657584 -0.17970407 -0.06714792
-0.0030983211 -0.03577916 -0.12666607 -0.0860331 0.022936633 -0.16934308 -0.13959397 0.19307825
-0.2259945 0.11421128 0.15992923 -0.16672198 0.058269788 -0.02385313 0.11046914 0.0034027987
-0.040299658 0.07667962 0.02248045 -0.22502115 -0.1941487 -0.16815989 -0.05224662 -0.059503946
0.035579577 0.112419456 0.051095728 -0.114631265 0.01889507 -0.12946467 -0.21101373 -0.011220709
-0.034656804 0.16930078 0.06939841 0.045778546 -0.22156322 -0.18073833 0.23760694 -0.007799002

generator.transformer_layer.self_attn.in_proj_weight f4 [192, 64]
00000000: ce6c 64bd ceeb 9639 819e 06bd a45b b3bd
00000010: d07d 133c 433b 68bd 4cee 1abe e1af ce3d
00000020: 8130 93ba dbcf 99bd c6f0 6c3d a992 6abd
00000030: f5fb 693d 35bf 063d 2c7b 103e 7922 0cbe
00000040: b366 173e cd97 90bd c9ad 9dbd df3f e43d
00000050: 1b28 07be 7e5d a73d 880e 243d a566 38bd
00000060: 6928 b6bd 4cc4 e23d 97c2 c13d 53df 14bd
00000070: 7b8d 853c 3225 01be dd6b aa39 1179 56bd
00000080: db8f cd3d 2741 7b3c c816 1bbe 5c35 9e3d
00000090: 4aa6 c7bc fde8 f4bb 0640 c7bd 76d2 68bd
000000a0: 36b5 bdbd 3887 463d 06fb 583d 38ed 143d
000000b0: 73a1 ffbc beca 033e c2b7 ed3d f121 debc
000000c0: 1351 b1bd 6dca bcbc eab6 3f3d 4d69 dcbc
000000d0: c916 103e 168d 79bd 3c7d 88bd 4381 873d
000000e0: 3488 43bd 0ebd 1abd 1e0e e33d 140e b7bd
000000f0: 503a 9c3d 3f0d b23d a849 3e3d de8c 81bb
00000100: a3da 91bd dbc0 d13d a533 003c e27d c43d
00000110: 8e37 923d e46c e53d f6d7 e93c b2fb 43bd
00000120: 2846 953d d1ff babd 6adb e2bc 9be0 0d3e
00000130: f41d e53d 5c43 3e3d 1838 cb3d 2716 153e
00000140: 25e0 40bd cd7f d8bc 7a3b 3ebd d270 17bd
00000150: cc37 b5bd 9f46 3dbd 7f20 e43d ee27 aebb
00000160: 6916 61bc fd0a 0c3e e795 9e3d 114b c7bd
00000170: d5e4 d53d 3c9f 18be b963 f8bc 7722 afbc
00000180: 3a0a c23d d0e4 bc3d 754d 023d 8d00 edbd
00000190: e0b0 7f3c 1431 803d f7ff e63d 44af 323d
000001a0: 7192 bb3d 93bc f6bc 8145 05be f21d ee3d
000001b0: c552 c9bd 1975 c93d 3575 cdbd 234b ff3d
000001c0: a932 13be 8510 d23d 785c f23c 362f 1c3e
000001d0: f01c 4cbd c5a1 41bd 829b 053d f274 cabd
000001e0: e863 7bbc 48ca c13c 7fc9 243d b57b 583d
000001f0: 41c1 ce3d ad27 d4bd 5b7a 103e 76a9 0b3d
00000200: b065 1a3e 3539 28bd 2fb8 9bbd 4e01 823d
00000210: 5f53 b3bd f559 ff3d f949 c33c e5f6 aebd
00000220: 5d4c 03be ac22 d5bd 1c12 eb3c fe64 a6bd
00000230: b8b0 e43d 3c8e 473d 6c66 9cbd 1117 3fbc
00000240: 5044 fa3d 78f3 833d 10e2 fbbd c079 e23d
00000250: 8f23 dfbd 2fea 07be 786a 08be 4c7e b83c
00000260: 8b27 a13d 6c87 c63d bea1 25bc 3b8a 87bd
00000270: 379d 6f3d 9cfd 2a3b 6c7c 1bbd 9a6e e33d
00000280: 7349 0abe 086a cdbd 59c3 80bd f04e d5bc
00000290: 3734 973b 0fcd 2e3d 1bdd 963b 1c53 d9bc
000002a0: b15a 0e3e ff3d 043d 6781 c23d e04b ec3d
000002b0: 10ba 0a3d d8b3 6e3d 5872 09be fde2 d63c
000002c0: d49d c3bc e365 803d e606 dc3c 05cf 92bc
000002d0: c356 bd3d f12f cabd b45c b43d 7e87 e9bd
000002e0: 85dc a43c da20 d1bc b23c 1b3d 2054 14be
000002f0: 7f8a 9dbd d44e fc3c 4380 03be b320 b23d
00000300: 197a a4bd e96d ed3c fc73 b9bd 4386 1b3e
00000310: 363e d6bd b480 ee3d aa23 9c3d e852 6b3c
00000320: 9513 4ebd 0e14 ef3d 3e7c a93d c9ab e5bd
00000330: e022 d63d c483 903d dff3 ffbd c614 f9bd
00000340: b2a4 e6bd 4a2d 0e3e b311 113e 540f 8dbd
00000350: 9f7f 723d 963a 41bd 44bd 1ebc c4ca 19bd
00000360: f84e 153d f8a3 56bd 5286 f03d b420 3e3d
00000370: 4815 ca3d f0ed 153d 0725 f2bd ef1a 0f3d
00000380: c106 423d d3d2 ffbc 75be f6bd f021 923d
00000390: c2af 39bd cfeb 8b3b dea3 963d 1fcc 93bc
000003a0: 1cfc 9d3d 3c28 133e a9b3 3d3c df49 b7bd
000003b0: 7857 0f3e 794d 8dbd 0d56 e43c 7fcb a03d
000003c0: 67e4 0f3e 13a1 01be ad2a 1a3d c1cf bdbb
000003d0: 53d4 cdbd 327f 493b 7e66 66bd a7f5 843c
000003e0: 9d13 10bd f83e ef3c fbc8 a63c fe4f e3bc
000003f0: c1fc 083d 5d6c 0b3e 22bc 5d3d d5a2 55bd
-0.055767827 0.00028785918 -0.032866005 -0.087577134 0.009002164 -0.05669714 -0.15129966 0.1009214
-0.0011229665 -0.075103484 0.057846807 -0.057268772 0.05712505 0.032897193 0.14109486 -0.13685025
0.1478527 -0.07060204 -0.076991625 0.11144995 -0.13198893 0.08172129 0.04005292 -0.045019764
-0.088944264 0.11072597 0.09460943 -0.03634579 0.016302815 -0.12611845 0.0003250529 -0.05236155
0.10037204 0.015335358 -0.15145409 0.07725021 -0.024371285 -0.0074740634 -0.097290084 -0.056841336
-0.09263079 0.0484688 0.05297377 0.036359042 -0.031204915 0.12870309 0.11607315 -0.027115794
-0.08658042 -0.023045743 0.0468053 -0.02690568 0.14071192 -0.060925566 -0.066645116 0.066164516
-0.047737315 -0.037777953 0.11086677 -0.08938232 0.0762831 0.08693933 0.046456963 -0.0039535603
-0.0712178 0.102418624 0.007824813 0.09594323 0.071395025 0.1120241 0.028545361 -0.047847457
0.07288772 -0.09130824 -0.027692515 0.13855211 0.11187354 0.046450958 0.099228084 0.14559232
-0.04708876 -0.026428128 -0.04644344 -0.03697283 -0.08848533 -0.046209928 0.11139011 -0.0053148186
-0.013738253 0.13676067 0.07743435 -0.09731115 0.10444037 -0.14904493 -0.030320989 -0.021378739
0.09474607 0.0922333 0.03181215 -0.11572371 0.015606135 0.06259361 0.1127929 0.043624178
0.09158791 -0.030119216 -0.13014795 0.11626805 -0.0983024 0.09836788 -0.10032121 0.12465503
-0.14374794 0.10257057 0.029585108 0.15252385 -0.049832284 -0.047273416 0.032619007 -0.09885587
-0.015343644 0.023656026 0.040231224 0.05285235 0.10095454 -0.1035913 0.14109175 0.034097157
0.15077853 -0.041070182 -0.076034896 0.06347905 -0.08756136 0.1246833 0.023838984 -0.08543185
-0.12822099 -0.10407004 0.028695159 -0.081247315 0.11166519 0.04871963 -0.07636723 -0.011663214
0.12220061 0.06442922 -0.122989774 0.11058378 -0.10895454 -0.13272928 -0.13321865 0.02252116
0.0786887 0.096937984 -0.010109363 -0.06618162 0.05849954 0.0026091104 -0.037960455 0.1110508
-0.13504581 -0.100299895 -0.062872596 -0.026038617 0.004614379 0.042676028 0.0046039945 -0.026528887
0.13901784 0.032285687 0.09497338 0.115379095 0.03386885 0.05827698 -0.13422525 0.026231283
-0.02387897 0.06269433 0.026858758 -0.01792098 0.09245064 -0.09872425 0.08806744 -0.11402796
0.020124683 -0.02552836 0.03789968 -0.14485216 -0.07692432 0.030799307 -0.12841897 0.08697643
-0.08031101 0.028983073 -0.090553254 0.15187936 -0.104610845 0.11645642 0.0762399 0.014363028
-0.050311644 0.11673747 0.082756504 -0.11214406 0.10455871 0.07056382 -0.124976866 -0.12162165
-0.11261882 0.13884464 0.14166908 -0.06887689 0.05920374 -0.047175013 -0.009688679 -0.037546888
0.036452264 -0.052402467 0.117443696 0.046417907 0.0986734 0.036603868 -0.11823469 0.034937795
0.047369722 -0.031228459 -0.120480455 0.07135379 -0.04533363 0.004270054 0.07355474 -0.018041668
0.07714102 0.14370817 0.011578479 -0.08949637 0.1399821 -0.06899542 0.027873063 0.07851314
0.14051972 -0.12659101 0.037638355 -0.0057925885 -0.10050263 0.003074598 -0.056250088 0.016230417
-0.035174955 0.02920483 0.020359507 -0.027748104 0.03344417 0.13615556 0.054134496 -0.05215724

generator.transformer_layer.self_attn.in_proj_bias f4 [192]
00000000: 0000 0000 0000 0000 0000 0000 0000 0000
00000010: 0000 0000 0000 0000 0000 0000 0000 0000
00000020: 0000 0000 0000 0000 0000 0000 0000 0000
00000030: 0000 0000 0000 0000 0000 0000 0000 0000
00000040: 0000 0000 0000 0000 0000 0000 0000 0000
00000050: 0000 0000 0000 0000 0000 0000 0000 0000
00000060: 0000 0000 0000 0000 0000 0000 0000 0000
00000070: 0000 0000 0000 0000 0000 0000 0000 0000
00000080: 0000 0000 0000 0000 0000 0000 0000 0000
00000090: 0000 0000 0000 0000 0000 0000 0000 0000
000000a0: 0000 0000 0000 0000 0000 0000 0000 0000
000000b0: 0000 0000 0000 0000 0000 0000 0000 0000
000000c0: 0000 0000 0000 0000 0000 0000 0000 0000
000000d0: 0000 0000 0000 0000 0000 0000 0000 0000
000000e0: 0000 0000 0000 0000 0000 0000 0000 0000
000000f0: 0000 0000 0000 0000 0000 0000 0000 0000
00000100: 0000 0000 0000 0000 0000 0000 0000 0000
00000110: 0000 0000 0000 0000 0000 0000 0000 0000
00000120: 0000 0000 0000 0000 0000 0000 0000 0000
00000130: 0000 0000 0000 0000 0000 0000 0000 0000
00000140: 0000 0000 0000 0000 0000 0000 0000 0000
00000150: 0000 0000 0000 0000 0000 0000 0000 0000
00000160: 0000 0000 0000 0000 0000 0000 0000 0000
00000170: 0000 0000 0000 0000 0000 0000 0000 0000
00000180: 0000 0000 0000 0000 0000 0000 0000 0000
00000190: 0000 0000 0000 0000 0000 0000 0000 0000
000001a0: 0000 0000 0000 0000 0000 0000 0000 0000
000001b0: 0000 0000 0000 0000 0000 0000 0000 0000
000001c0: 0000 0000 0000 0000 0000 0000 0000 0000
000001d0: 0000 0000 0000 0000 0000 0000 0000 0000
000001e0: 0000 0000 0000 0000 0000 0000 0000 0000
000001f0: 0000 0000 0000 0000 0000 0000 0000 0000
00000200: 0000 0000 0000 0000 0000 0000 0000 0000
00000210: 0000 0000 0000 0000 0000 0000 0000 0000
00000220: 0000 0000 0000 0000 0000 0000 0000 0000
00000230: 0000 0000 0000 0000 0000 0000 0000 0000
00000240: 0000 0000 0000 0000 0000 0000 0000 0000
00000250: 0000 0000 0000 0000 0000 0000 0000 0000
00000260: 0000 0000 0000 0000 0000 0000 0000 0000
00000270: 0000 0000 0000 0000 0000 0000 0000 0000
00000280: 0000 0000 0000 0000 0000 0000 0000 0000
00000290: 0000 0000 0000 0000 0000 0000 0000 0000
000002a0: 0000 0000 0000 0000 0000 0000 0000 0000
000002b0: 0000 0000 0000 0000 0000 0000 0000 0000
000002c0: 0000 0000 0000 0000 0000 0000 0000 0000
000002d0: 0000 0000 0000 0000 0000 0000 0000 0000
000002e0: 0000 0000 0000 0000 0000 0000 0000 0000
000002f0: 0000 0000 0000 0000 0000 0000 0000 0000
0.0 0.0 0.0 0.0 0.0 0.0 0.0 0.0
0.0 0.0 0.0 0.0 0.0 0.0 0.0 0.0
0.0 0.0 0.0 0.0 0.0 0.0 0.0 0.0
0.0 0.0 0.0 0.0 0.0 0.0 0.0 0.0
0.0 0.0 0.0 0.0 0.0 0.0 0.0 0.0
0.0 0.0 0.0 0.0 0.0 0.0 0.0 0.0
0.0 0.0 0.0 0.0 0.0 0.0 0.0 0.0
0.0 0.0 0.0 0.0 0.0 0.0 0.0 0.0
0.0 0.0 0.0 0.0 0.0 0.0 0.0 0.0
0.0 0.0 0.0 0.0 0.0 0.0 0.0 0.0
0.0 0.0 0.0 0.0 0.0 0.0 0.0 0.0
0.0 0.0 0.0 0.0 0.0 0.0 0.0 0.0
0.0 0.0 0.0 0.0 0.0 0.0 0.0 0.0
0.0 0.0 0.0 0.0 0.0 0.0 0.0 0.0
0.0 0.0 0.0 0.0 0.0 0.0 0.0 0.0
0.0 0.0 0.0 0.0 0.0 0.0 0.0 0.0
0.0 0.0 0.0 0.0 0.0 0.0 0.0 0.0
0.0 0.0 0.0 0.0 0.0 0.0 0.0 0.0
0.0 0.0 0.0 0.0 0.0 0.0 0.0 0.0
0.0 0.0 0.0 0.0 0.0 0.0 0.0 0.0
0.0 0.0 0.0 0.0 0.0 0.0 0.0 0.0
0.0 0.0 0.0 0.0 0.0 0.0 0.0 0.0
0.0 0.0 0.0 0.0 0.0 0.0 0.0 0.0
0.0 0.0 0.0 0.0 0.0 0.0 0.0 0.0

generator.transformer_layer.self_attn.out_proj.weight f4 [64, 64]
00000000: 86d6 dfbd 5829 ecbd 1019 aabd e460 13bd
00000010: b071 933c b45e f9bd f8d1 5f3d 106a fc3d
00000020: 4ad4 9bbd 10e1 9ebc bcb2 48bd e067 88bc
00000030: 2c39 a13d b69a a9bd 4c74 22bd 4eee d4bd
00000040: 8c6d 083d 68ee e0bd fcb4 f1bd 2c05 413d
00000050: 0ef0 f2bd b019 a03d 204a d63d 0c2d fe3d
00000060: 2c50 793d b2ca ff3d 5825 b63c 286f ebbc
00000070: 4a94 d0bd e01e 50bc 78c9 883c fa67 e9bd
00000080: c044 5ebc 665c e03d 5224 853d 3850 003d
00000090: 4078 9f3b 2422 2fbd 2402 e73d a8ec 073d
000000a0: 9a11 9c3d a899 61bd 1850 f33c a85f eb3d
000000b0: c0fc 043c 0cc9 bc3d f8aa c03d 80ed c4ba
000000c0: ec17 cabd 20cc dbbb 3c73 1cbd c067 5f3c
000000d0: d0ac 22bd 6490 b33d a45d 0fbd d8da a8bd
000000e0: 188e 46bd c871 3ebd 5c0d 8e3d 4202 ea3d
000000f0: 36e5 963d 30fe 88bd b487 cdbd a0f2 14bc
00000100: d89d 903d f22d e83d 8066 d63a 24c0 df3d
00000110: 2c22 13bd 749d 0cbd 00f1 8abc 1c27 6f3d
00000120: b8f7 eabd 2897 d63c 6cdc 9d3d 50a8 ebbd
00000130: 5aad eb3d 7c96 cbbd 1010 f53d 08b6 d9bc
00000140: 562d 803d 1067 1fbd 28c4 af3c c046 a6bd
00000150: 3493 c1bd c485 a23d 0e7c a23d 2869 8bbd
00000160: 8875 a0bc 68e5 d6bc de6f ff3d 80ee b2bd
00000170: ac88 fe3d c892 e83d 804c 0ebc cef6 88bd
00000180: cc18 58bd 9c15 babd 8039 5fbc 88a6 bdbc
00000190: 3e3a aebd 7aaf f7bd 2cab f9bd 966a eabd
000001a0: 34b2 b73d fe33 cabd 1878 d8bd 165f f73d
000001b0: d0f5 34bc 7068 3b3c fc7c 733d c60e f63d
000001c0: c08b 69bb 1cf0 b4bd cc1a 2a3d 54aa 4fbd
000001d0: 2070 103d 8ce1 35bd 6ce6 2d3d 7440 2d3d
000001e0: 68cc d43c de7b 8f3d cc98 78bd 00d6 5cbc
000001f0: 2005 f53b b8c7 203d 22c2 d53d c857 87bd
00000200: ec8f 14bd f253 d93d b864 0bbd 422c e5bd
00000210: 70e3 853d bc56 0bbd 545e 3f3d d8cb eabc
00000220: 74b0 48bd 5a52 c63d 8cc0 7b3d 8c18 ecbd
00000230: d6c7 cc3d a03b 6dbc 028d ddbd 7069 6c3d
00000240: 50fc 413d 8ccc 44bd 306a c63d 2c99 1a3d
00000250: 14bf 3fbd 8046 39bc a09f ddbb 20bc f13c
00000260: 80dc 7cbc 90a2 b5bc 44c1 05bd d0e6 c8bd
00000270: dec9 fd3d 188c 853c 80eb f4bd a6bf df3d
00000280: 68a9 443d c4e4 60bd bcc2 fe3d 08e2 073d
00000290: 7478 393d 06cf bf3d 72c1 ef3d e095 9b3c
000002a0: 40db 02bd 4862 b53d 38d5 dfbc a222 f93d
000002b0: 42d6 95bd c049 1e3c 0058 c538 a2b9 f63d
000002c0: 00db 023b fc3f 2a3d 3478 0dbd b427 59bd
000002d0: 30b1 bfbd 48be a4bd 30fe 6a3c a603 973d
000002e0: 680d 863c 94e5 56bd 74d4 5c3d 606a 833d
000002f0: c0f1 023d b03f 0b3c c073 d7bb 309c 3fbc
00000300: 6088 23bc 94b1 053d 5a0a d23d 0c1d 43bd
00000310: 8c1a b5bd a07b 4c3d a8ce 873c d053 0d3c
00000320: 8c82 383d 1473 2f3d 1aee c83d 001f 0abd
00000330: 78f5 1b3d f2b8 bbbd 2c3c 0cbd 82c8 8cbd
00000340: 1cc7 0e3d 68e1 babc fa41 a73d 78d5 b43d
00000350: be42 e33d c4b1 aebd 4c99 393d 046d 31bd
00000360: b25d fe3d 20b0 d5bc aa20 bcbd 7eed babd
00000370: b0f7 5ebc a4c0 98bd 800b 79bb 825e d4bd
00000380: 96e8 9c3d d66e b3bd 1800 d33d 32b0 8bbd
00000390: 60c9 fd3d 3850 9ebd 6c8d 663d 1293 9fbd
000003a0: 56d1 f63d 0e95 ce3d 52f6 cdbd f02d b9bc
000003b0: 2a2c c4bd e451 493d b041 f73c 00c7 6dbc
000003c0: cc58 443d 7069 423c c025 5e3c 987e 993d
000003d0: 7036 2e3d 208b 183d e6c8 a4bd ece7 6f3d
000003e0: a260 87bd d8e7 f73d 0e4a c7bd 5847 bbbd
000003f0: 4a12 c63d f4d4 cebd 4ad8 e13d d41e 573d
-0.10929589 -0.11531323 -0.083055615 -0.035981074 0.017998546 -0.12176266 0.0546436 0.12324917
-0.0760885 -0.019394428 -0.04899858 -0.016651094 0.07872233 -0.08281462 -0.03966169 -0.103970155
0.033307597 -0.109829724 -0.11802098 0.047124073 -0.11862193 0.078173995 0.10463357 0.12410936
0.060867473 0.12489833 0.022234604 -0.028739527 -0.10184534 -0.012702674 0.01669763 -0.11396785
-0.013566196 0.109551236 0.06501068 0.031326503 0.00486663 -0.04275717 0.11279705 0.033184677
0.07620545 -0.05507818 0.029701278 0.11492854 0.008116901 0.09218034 0.0940761 -0.0015024394
-0.09867844 -0.006707683 -0.038195834 0.013635576 -0.039715588 0.08767775 -0.035001412 -0.08244866
-0.048475355 -0.04649523 0.06936142 0.11426212 0.07367937 -0.066891074 -0.10035649 -0.009091049
0.07061356 0.113368884 0.0016357452 0.1092532 -0.03592126 -0.034329847 -0.01696062 0.058386907
-0.1147303 0.026195124 0.07708058 -0.115067124 0.115076736 -0.09940812 0.11965954 -0.026576057
0.06258647 -0.038916647 0.02145584 -0.08118963 -0.09451905 0.0793567 0.07933818 -0.06807166
-0.019587293 -0.026232436 0.12472509 -0.087368965 0.12428412 0.11356121 -0.008685231 -0.06687699
-0.052758023 -0.09086153 -0.013624549 -0.023150697 -0.085072026 -0.120940164 -0.121908516 -0.11446111
0.089695364 -0.09873198 -0.10569781 0.12078683 -0.011044934 0.011438474 0.059445366 0.120145366
-0.0035636276 -0.0883486 0.04152946 -0.050699547 0.03526318 -0.04440455 0.042456076 0.042297795
0.025976375 0.07006048 -0.060692593 -0.013478756 0.0074774176 0.039252967 0.104374185 -0.0660854
-0.036270067 0.106117144 -0.0340316 -0.11190082 0.06537521 -0.034018263 0.046720818 -0.028661653
-0.048996404 0.09683676 0.061462924 -0.115281194 0.09999053 -0.014479548 -0.10817911 0.05771774
0.047359765 -0.048046634 0.096882224 0.037743732 -0.046813086 -0.011308312 -0.0067634135 0.02950865
-0.015433431 -0.022172242 -0.032655016 -0.09809649 0.12392019 0.016302153 -0.119589806 0.10925226
0.04801312 -0.054905668 0.124394864 0.033174545 0.04528089 0.093656585 0.11706819 0.018992364
-0.031947374 0.08856636 -0.02732335 0.12164809 -0.07316257 0.009661138 9.410083e-05 0.120471254
0.001996696 0.041564927 -0.034538463 -0.05301638 -0.09359968 -0.08044106 0.01434283 0.07373743
0.016363814 -0.052465037 0.05391355 0.06416774 0.031968832 0.008499071 -0.006575078 -0.011694953
-0.009981245 0.032640055 0.10255881 -0.047635123 -0.08842954 0.049922585 0.016578034 0.0086259395
0.045046374 0.042834356 0.09811039 -0.03372097 0.038075894 -0.09166135 -0.034237072 -0.06874181
0.034857854 -0.02281256 0.08166881 0.088297784 0.110967144 -0.0853 0.04531221 -0.043316856
0.12420215 -0.02608496 -0.09185918 -0.09127329 -0.013608858 -0.07458618 -0.003800124 -0.103695884
0.0766155 -0.08761375 0.10302752 -0.06820716 0.12391925 -0.07730144 0.056287214 -0.07791723
0.120516464 0.10087024 -0.100567475 -0.022604913 -0.09578736 0.049150363 0.03018269 -0.014512777
0.047936246 0.011865959 0.013558805 0.07494849 0.042532384 0.037242055 -0.08046131 0.058570787
-0.06610228 0.121047676 -0.09730922 -0.09144467 0.09671457 -0.10099211 0.11027582 0.052519634

generator.transformer_layer.self_attn.out_proj.bias f4 [64]
00000000: 0000 0000 0000 0000 0000 0000 0000 0000
00000010: 0000 0000 0000 0000 0000 0000 0000 0000
00000020: 0000 0000 0000 0000 0000 0000 0000 0000
00000030: 0000 0000 0000 0000 0000 0000 0000 0000
00000040: 0000 0000 0000 0000 0000 0000 0000 0000
00000050: 0000 0000 0000 0000 0000 0000 0000 0000
00000060: 0000 0000 0000 0000 0000 0000 0000 0000
00000070: 0000 0000 0000 0000 0000 0000 0000 0000
00000080: 0000 0000 0000 0000 0000 0000 0000 0000
00000090: 0000 0000 0000 0000 0000 0000 0000 0000
000000a0: 0000 0000 0000 0000 0000 0000 0000 0000
000000b0: 0000 0000 0000 0000 0000 0000 0000 0000
000000c0: 0000 0000 0000 0000 0000 0000 0000 0000
000000d0: 0000 0000 0000 0000 0000 0000 0000 0000
000000e0: 0000 0000 0000 0000 0000 0000 0000 0000
000000f0: 0000 0000 0000 0000 0000 0000 0000 0000
0.0 0.0 0.0 0.0 0.0 0.0 0.0 0.0
0.0 0.0 0.0 0.0 0.0 0.0 0.0 0.0
0.0 0.0 0.0 0.0 0.0 0.0 0.0 0.0
0.0 0.0 0.0 0.0 0.0 0.0 0.0 0.0
0.0 0.0 0.0 0.0 0.0 0.0 0.0 0.0
0.0 0.0 0.0 0.0 0.0 0.0 0.0 0.0
0.0 0.0 0.0 0.0 0.0 0.0 0.0 0.0
0.0 0.0 0.0 0.0 0.0 0.0 0.0 0.0

generator.transformer_layer.linear1.weight f4 [128, 64]
00000000: c8a6 b33c 9e7a e2bd 581a 41bd 101b 82bd
00000010: 249d 8e3d 18f1 5fbd 102d 133c f21b dfbd
00000020: c07a 663b b0f2 b1bd 32a9 81bd 5c3f 7f3d
00000030: 42cc bcbd 7a9f f43d 92b4 c93d a003 1bbd
00000040: 70cb 54bd 9c0f aabd 14ba 8ebd 3080 e9bc
00000050: 7473 9b3d 30cf f3bd 782a 8b3c 0a71 d0bd
00000060: 0815 65bd 98ae 8c3c 5ea5 f33d 50ba 8a3c
00000070: 6464 f7bd b242 d63d 58e0 173d 1cd5 423d
00000080: d839 ef3d 245c f5bd 40dd 0abc bc56 543d
00000090: 2846 8e3c 5094 ad3d 808d ac3c 64a8 a8bd
000000a0: 04d1 dabd 8a12 e53d b873 58bd 007f 6a3a
000000b0: 62fe a6bd 1e8b b83d 7af1 963d bc7b 023d
000000c0: 50d5 dd3d a09d 6f3c 600f 473c 84c9 d9bd
000000d0: 40af 93bd b08f 5c3d d0d5 96bc e480 e43d
000000e0: 580d bb3c 0803 d0bc 60d1 a03d 9444 93bd
000000f0: 582f 973c 0060 793d 8c51 a13d f8e6 f13d
00000100: e8c3 da3c 849d 223d 0895 8f3d 7458 be3d
00000110: fa2c 9bbd c8c8 343d 4864 f73c d852 efbc
00000120: 109e ba3c 70c5 8abd 7249 95bd d018 a03c
00000130: f8af 483d 5c60 fd3d 5628 e3bd ec94 073d
00000140: 0052 e33b 3249 ffbd 94c8 5dbd 701c 41bd
00000150: 2006 443d e21a d1bd a207 a7bd 1025 c6bc
00000160: b427 2b3d 529f 85bd b658 f7bd 889e 7abd
00000170: de04 febd fe84 b5bd cc5f b1bd dcd6 623d
00000180: 20c4 5ebd 20e5 da3c c280 acbd 6e7f ea3d
00000190: d0ce a83c e00b fd3b 502b ff3c b0f3 af3d
000001a0: 8e02 d8bd f0db 0dbc 80ba 873d aa82 dc3d
000001b0: a402 d0bd 500f 75bd f447 553d 707d a73c
000001c0: 9440 a83d 0265 aebd f023 da3d 2c36 1c3d
000001d0: c807 b53d c078 67bb c676 b53d 1af5 b8bd
000001e0: e817 f1bd 3809 fa3c 269a a6bd b055 9f3d
000001f0: 6456 f7bd 1abd c3bd d082 d83c 00e3 0b3a
00000200: 103f fdbc 3cb8 0c3d 7829 8c3c 5ccb f23d
00000210: 6845 e0bc 004f c03d 0c82 1fbd 5882 4bbd
00000220: 40e7 263c dc33 533d 6a20 a3bd a01f f9bd
00000230: 1881 f1bd 8ec4 fbbd eae0 8fbd 08c2 b73d
00000240: b8ac 483d 72a7 da3d 20eb 453c 38e1 143d
00000250: 0a11 bd3d ca9a a6bd 207c d13d 20d0 d23c
00000260: 00ff 3d3b ce86 fe3d 8036 273c 2859 d7bd
00000270: 0891 0d3d 4c0e 37bd b23a d93d 489b a8bd
00000280: c495 183d a810 8c3d eae9 f83d 8a84 fabd
00000290: fcaa f4bd 96bb febd 5241 cfbd be51 b0bd
000002a0: 225b 8c3d 86c2 95bd 7082 c6bd 1875 213d
000002b0: e68f 90bd d082 593c 944f d73d 86b1 ad3d
000002c0: 5809 963d 400b 803b 942f 42bd b043 70bd
000002d0: b2f3 e2bd 1473 a3bd d49f ad3d 408f 38bb
000002e0: d89c adbd a013 813d 9098 7bbd f26b f13d
000002f0: ae6e c0bd 20d4 00bd ecf4 9e3d c820 663d
00000300: 9600 be3d 80a1 3c3c 1050 753c 04da 47bd
00000310: c8fa 79bd 1cde 98bd f84b c63c 1089 b1bd
00000320: fafd e8bd 406a 5d3b 7aff f33d 2222 ee3d
00000330: 407f 26bd 14c5 9dbd 6cd1 0d3d ba9a ffbd
00000340: e2c5 b1bd 0073 ee3c 34c5 cd3d f0c4 cebd
00000350: e04f b53c d2bf fb3d 7e5c ec3d 180e 9bbc
00000360: c030 c23d 4427 e6bd 0c4b 31bd 0e83 813d
00000370: b45d 2ebd b412 c5bd 36b7 fdbd 6c21 903d
00000380: 62a6 fc3d a068 dbbb bcd4 073d 2cd7 58bd
00000390: 9403 fbbd b4e6 68bd 0054 c2bb b44e 26bd
000003a0: dc13 78bd 2c77 413d a812 ddbd 900d f8bc
000003b0: 9e47 87bd 8656 cc3d 0c97 35bd 4c8b 4ebd
000003c0: 00eb 71bd 2e38 973d 80bf b8bb 4609 99bd
000003d0: 60ad 2e3d 08d7 3e3d c4e9 d4bd 44f0 47bd
000003e0: b0c4 eabd b0c1 cf3d 3c86 cf3d b6fd 8f3d
000003f0: 5461 8f3d 001c b139 58c7 893d e4d4 06bd
0.021930113 -0.110585436 -0.047144264 -0.06352818 0.06963566 -0.054673284 0.008982912 -0.10894002
0.003516838 -0.08688867 -0.063310996 0.062316284 -0.092186466 0.1194448 0.09848894 -0.037845254
-0.051951826 -0.083037585 -0.06969085 -0.028503507 0.0759038 -0.11904752 0.016988024 -0.101778105
-0.05592826 0.017173097 0.11896776 0.016934544 -0.12079695 0.1046194 0.037079185 0.04756652
0.11680955 -0.11980465 -0.008475602 0.05184053 0.017367437 0.08475554 0.021063566 -0.08235243
-0.10684398 0.11185177 -0.052844733 0.0008945316 -0.081539884 0.090109095 0.07370277 0.031856284
0.10831702 0.014624983 0.012149662 -0.10634139 -0.07211161 0.05384797 -0.0184125 0.111573964
0.022833511 -0.02539207 0.07852435 -0.071908146 0.018455192 0.06088257 0.07876882 0.11811632
0.026704744 0.039701 0.07010847 0.09294215 -0.07576938 0.044136792 0.030199185 -0.029214308
0.022780448 -0.067759395 -0.07289399 0.019543082 0.048995942 0.12371895 -0.11091678 0.033101007
0.0069372654 -0.12465133 -0.054146364 -0.04714626 0.047857404 -0.102102056 -0.08155753 -0.024187595
0.04178591 -0.065245286 -0.12077467 -0.061186343 -0.12403272 -0.08863257 -0.0866085 0.055380687
-0.054386258 0.026720583 -0.08422996 0.114500865 0.020606428 0.007722363 0.031148583 0.085914016
-0.10547362 -0.008658394 0.06627369 0.1076711 -0.10156754 -0.059829056 0.052070573 0.020445555
0.08215442 -0.085153595 0.10651386 0.0381376 0.08839375 -0.0035319775 0.08860545 -0.090311244
-0.11772138 0.030521974 -0.0813487 0.077800155 -0.120770246 -0.09557553 0.026429564 0.0005336255
-0.03091386 0.034355387 0.017109618 0.11855194 -0.027376845 0.09390068 -0.03894238 -0.049684852
0.01018697 0.05156313 -0.07965167 -0.12164235 -0.11792201 -0.12293349 -0.07025321 0.089725554
0.048992842 0.10676469 0.012079984 0.036347598 0.092317656 -0.081349924 0.10228753 0.025734007
0.0028991103 0.12428056 0.010205865 -0.10515052 0.03456214 -0.04469137 0.10606898 -0.082327425
0.037252203 0.068391144 0.121539906 -0.12232311 -0.11946675 -0.12438123 -0.10119881 -0.08609341
0.0685332 -0.07312493 -0.09692848 0.03941831 -0.070586964 0.013275817 0.10513225 0.084811255
0.07326001 0.003907591 -0.047408655 -0.0586583 -0.110816374 -0.07980934 0.084777504 -0.0028161556
-0.08477181 0.06302571 -0.06142479 0.11788167 -0.093961105 -0.0314523 0.07761559 0.056183606
0.092774555 0.011513114 0.014972702 -0.0487919 -0.06103018 -0.07464239 0.024206147 -0.08668721
-0.11376567 0.0033785254 0.11913963 0.11627604 -0.0406487 -0.07703605 0.03462355 -0.124806836
-0.08680321 0.02910757 0.10047379 -0.100961566 0.022132814 0.12292446 0.11541079 -0.018927619
0.094819546 -0.11237958 -0.04328446 0.06323825 -0.04256983 -0.09622708 -0.1238846 0.07037625
0.123364225 -0.006695822 0.033161864 -0.05293958 -0.12256542 -0.05686064 -0.0059304237 -0.0406024
-0.060565814 0.04723279 -0.10794574 -0.030279905 -0.06605457 0.099774405 -0.044333503 -0.050425813
-0.059062004 0.07383762 -0.005638063 -0.07472472 0.042645812 0.04659179 -0.1039615 -0.04881312
-0.114632964 0.10144365 0.10133025 0.070308134 0.07000986 0.00033780932 0.06727475 -0.032917872

generator.transformer_layer.linear1.bias f4 [128]
00000000: cef6 cbbd a48f 7dbd 6845 b33c 8258 b13d
00000010: 0296 b2bd dc28 453d 4036 d6bd 280d 28bd
00000020: 3af0 a73d 4cf4 d6bd c4cb aa3d e836 ad3d
00000030: 10c7 333c 8051 8e3d 0082 88bc 4a52 c03d
00000040: 9a0c a1bd c8d8 253d c8c8 cc3d 7c07 c6bd
00000050: a043 cf3c a828 533d 5e89 aabd c019 e5bb
00000060: 4c29 95bd 58eb 853d a0d2 5dbc 3453 5d3d
00000070: a8ee e4bd 9ef4 d53d d080 853d d8fe d73c
00000080: 44ce c1bd 4af5 f5bd ece2 183d 0841 b53d
00000090: e831 7bbd 0cbe 7ebd 746a da3d 52e3 bfbd
000000a0: 72ef f6bd 0487 c43d 8e66 b7bd 0477 7dbd
000000b0: 2c98 0e3d 80f8 e93a baf7 ca3d 0001 0bbd
000000c0: b83a a63c fe70 8c3d 60e7 1abd d644 893d
000000d0: fee1 fabd 341a 60bd d445 3bbd c4b0 03bd
000000e0: d081 9fbd 7ad8 fb3d 7ada 973d 9602 e73d
000000f0: da9a 853d 469e 9fbd 4ce5 663d 68c6 b7bc
00000100: 14d8 103d 2097 433c 40fa 3f3d c084 f4bc
00000110: bc0e c33d c869 77bd eec4 e03d 40ca 0bbd
00000120: 1089 6f3c e427 07bd 4210 893d 6869 95bd
00000130: a224 cabd b8ad 96bc c092 c33d 86bd 88bd
00000140: 2c1c 70bd b8b6 143d 14d2 2e3d 240d 19bd
00000150: 082e 10bd e052 993c 78e0 e03d f857 cb3d
00000160: d47e 29bd 428a e13d a073 e63b a8a8 c2bd
00000170: c854 e23c c00a f5bd 50da 063d 364e d5bd
00000180: c0d2 9b3b 98d1 bebd 281d a6bc c841 e13d
00000190: 6007 a3bc c006 a73d f833 89bd 18d7 3e3d
000001a0: 508a a0bc b22e bc3d 5a70 a2bd 8a53 a13d
000001b0: f0a1 2b3d 2a98 9d3d 2203 a7bd 4064 5ebb
000001c0: 1c8c babd 3e5d d93d ae3c fbbd d08f fc3d
000001d0: e432 57bd 00dd b2ba 36c2 9d3d a042 1b3c
000001e0: 184c cbbc 301a 053c 00c0 9db7 4e41 f3bd
000001f0: 40c8 463d 80e8 8dbc 9045 abbd c843 3d3d
-0.09959184 -0.061904564 0.021883681 0.0865946 -0.08720018 0.04813467 -0.10459566 -0.04102817
0.082001165 -0.10495815 0.083396465 0.08457738 0.010972753 0.06949139 -0.016663551 0.093906954
-0.07863732 0.04048994 0.099992335 -0.09669396 0.0253008 0.051552445 -0.08326982 -0.006991595
-0.072832674 0.06539029 -0.013538986 0.054034427 -0.111783326 0.10447048 0.0651871 0.026366636
-0.0946317 -0.12009676 0.037325785 0.08850294 -0.06132689 -0.06219296 0.106648356 -0.0936953
-0.12057389 0.09596065 -0.08955108 -0.06188108 0.03481309 0.0017850548 0.09910531 -0.0339365
0.020291671 0.06857489 -0.037818313 0.067025825 -0.12250136 -0.05471249 -0.04572089 -0.032151
-0.07788432 0.12297149 0.07414718 0.1127979 0.06523676 -0.0779386 0.05637102 -0.022433475
0.03536232 0.0119378865 0.046869516 -0.029848456 0.09524295 -0.060403615 0.10975061 -0.034128428
0.014620081 -0.032997027 0.06692554 -0.07295495 -0.098702684 -0.018393382 0.09549475 -0.06676774
-0.058620617 0.036307067 0.042680815 -0.037366048 -0.03520015 0.018716276 0.10980314 0.09928888
-0.04138072 0.11012699 0.0070328265 -0.09504825 0.027628317 -0.11964941 0.032923043 -0.10415308
0.004755348 -0.093173206 -0.020277575 0.10998875 -0.019900978 0.08155584 -0.066993654 0.046591848
-0.019597203 0.09188594 -0.079315856 0.07877262 0.041902483 0.076950386 -0.081548944 -0.0033934265
-0.09108755 0.10613488 -0.12267433 0.123321176 -0.052538767 -0.0013646185 0.077030584 0.009476334
-0.024816558 0.008123919 -1.8805265e-05 -0.1187769 0.048530817 -0.017322779 -0.08362877 0.04620722

generator.transformer_layer.linear2.weight f4 [64, 128]
00000000: aea8 54bb f681 abbc 82d4 f03c 7306 98bd
00000010: 010c 9f3b 4e8d 0ebd 0160 043d d6f1 143d
00000020: c5b8 ba3a d667 b93c d900 2d3d 6c7b 8e3d
00000030: 5ead 5e3d 2943 053c f54c 19bb cecb d2bc
00000040: e1a6 a43c 204a 8bbd 5b8c 1d3d 2129 8abd
00000050: de83 81bd 6958 78bd edc7 883c 44a5 aabd
00000060: 462b 403c 8b8d 803b fbff bcbc 300e 0dbd
00000070: 3e88 843c 0832 21bd c39e b63c e760 273c
00000080: 4fa9 72bd 5b30 9abd 8077 7fbd 4572 a3bc
00000090: 6000 1cbc a03c aa3d e62a 913d e5f3 b1bd
000000a0: cc95 8abd 4f93 89bc a08f 87bd 83fe 403d
000000b0: 9348 80bd 02f8 20bd d29f 9f3d 8a39 703d
000000c0: d916 743b b8bd 88bc 8315 2a3c d8a6 133d
000000d0: db3e 63bd 1508 8bbd 906d 773d aad7 cf3c
000000e0: dbf9 23bd 181c 2b3d 4771 92bd 55d9 853c
000000f0: 7640 47bd 0c8d 0fbd 2e07 98bc 9d66 793c
00000100: 6c2b a93d 8a69 1bbd bed2 f83c 6f35 da39
00000110: 8f58 88bc 5784 813d 65b5 763d 6230 7ebc
00000120: 4f38 0e3d ab63 a1bd 4758 0f3c 09c5 f5bc
00000130: 81bf 9bbd 3ea6 8b3d 315b a9ba f7ff 8d3d
00000140: 13b1 373d 0b3b b13c 13ce 313d 82cc 0fbc
00000150: 41c4 afbc 9fee a33d 2808 efbc f610 7c3d
00000160: 0086 96bd 9a09 893b f555 353c 061c e23c
00000170: 7a61 73bb d7a4 18bd 2391 fcbc 7f54 9a3d
00000180: 8b29 7c3d ba26 15bd 4f0e 913c 88a4 9cbc
00000190: 872c d63c 01e6 4b3d 7c54 853d cd18 1a3d
000001a0: 3d6b 783d a77a 82bd c294 6e3d f0c3 ef3c
000001b0: 8bbf 923c 1c70 503d ca97 54bd 4ba7 8fbd
000001c0: 2694 72bc e352 d2bc 1235 75bd 1620 5f3d
000001d0: 290e 8f3d 6fdc a23d 54cc 82bd c1a6 9abd
000001e0: 0c24 79bd 535f 2d3c ff6e 7e3d edac 3abc
000001f0: 9a81 3bbd fffe 423d f8cb 56bd 45c8 7cbd
00000200: 8633 e93b 2b7f 31bc 5a1a 7c3d e682 b63c
00000210: fc6b a6bd 9b6a a2bd 56a3 a7bd 7bd5 953d
00000220: 1e4f d5bc 398f 48bd 80ef 8d3c e699 99bd
00000230: 0469 89bc f47d c6bc 415f 983d eb0d 3a3d
00000240: 919a 9b3d 1534 863d 8b9a aebd f87d 41bd
00000250: 4fec 28bc 34c4 acbb 6801 e9ba 8ea3 15bc
00000260: 73be 8f3d ed31 513d 17b9 8ebb 845b 633d
00000270: 8e9d b23d 1ec9 20bd 0f7d 593d 5fa6 783d
00000280: c5e5 86bc 7d87 8abd 6d01 4c3d 45e2 90bd
00000290: 8439 bebc 2492 a63d ecc6 de3c f0ce 2bbd
000002a0: 51ed 9c3d 02e8 a33d 19bc 833d 5414 20bc
000002b0: fba7 703d 7b34 b1bd fb66 e63c bdec 83bd
000002c0: 9449 4fbd 2da4 b4bd fe8c bb3c 99cd 21bd
000002d0: e9f4 3e3d 230d 4cbd 42e8 793d 7be5 7abd
000002e0: 0925 b3bd 60b5 02bd 4df1 0b3c 3c2a 6abd
000002f0: 5404 88bd 2616 4dbd 2d67 843d 127b 613d
00000300: 2d39 0dbd a9e2 8d39 da9d 543c 5d3e 913d
00000310: 6c03 46bc 7bf3 32bd 558e 2ebd 5ae0 70bd
00000320: f8a4 95bd 9b62 89bc 6b6f 623c c087 073d
00000330: a14e 93bd f378 2abc b8a2 f93b 200f 763d
00000340: c668 aa3b f572 d9bc c9eb 053d 7553 e43c
00000350: d1cb 0a3d 37f2 353d 5def ff3b 6051 d03c
00000360: df80 523d 0359 58bd 25e2 b43c fa98 593d
00000370: c6ca 8a3d cbeb 90bd 4ed2 d1bc fcae 953d
00000380: 6cfa 7d3c 8131 bcbc 363b e1bc 1603 69bc
00000390: d740 14bd ef02 5cbd 5c74 843d c4c8 2abd
000003a0: 2684 663d 0953 1f3d 7bba 023d ab9d 603d
000003b0: 5d9f db3c 8f53 b33d 46e7 773c 7d2b 2e3d
000003c0: ad73 55bd 84d2 ecbc f4e3 1a3d e5cf 71bd
000003d0: 3c82 49bd 33e6 c33c 5cd6 a5bd 7a2c be3b
000003e0: dce1 12bc 6a4e 43bd e2ca 2f3c 05ff 1ebd
000003f0: e3c7 57ba cdbc b23d c14a 0dbd a000 ab3c
-0.0032449174 -0.020935994 0.029398207 -0.07423105 0.004853726 -0.034802727 0.03231812 0.036363445
0.001424574 0.02263252 0.042237137 0.069571346 0.054364555 0.008133688 -0.0023391817 -0.025731947
0.020099105 -0.068012476 0.03846393 -0.06746126 -0.0632398 -0.06063119 0.016696895 -0.08332303
0.011729067 0.0039231232 -0.02307128 -0.03443736 0.016178247 -0.039354354 0.0222925 0.010215974
-0.059243497 -0.07528754 -0.062369823 -0.019951949 -0.009521574 0.083123446 0.0708826 -0.08689097
-0.06766853 -0.016793875 -0.06619191 0.04711772 -0.062638424 -0.03929902 0.07794155 0.058648624
0.0037245064 -0.016692027 0.010381105 0.036047786 -0.055479866 -0.06788651 0.06040722 0.025371391
-0.040033203 0.04177484 -0.07150512 0.016338984 -0.04864546 -0.035046622 -0.018558111 0.015222219
0.08260235 -0.037942447 0.030373927 0.0004162001 -0.01664379 0.0632407 0.060231585 -0.015514465
0.03472167 -0.07880338 0.008749074 -0.03000118 -0.07604886 0.068188176 -0.0012920854 0.06933587
0.044846606 0.0216346 0.04340942 -0.008776786 -0.021455886 0.08004498 -0.029178694 0.061539613
-0.07349777 0.004182053 0.011067857 0.027601253 -0.0037136958 -0.03726658 -0.030830925 0.075356476
0.061563056 -0.036413886 0.017707018 -0.019121423 0.02614428 0.049779896 0.06510255 0.037621308
0.060649145 -0.0637105 0.058247335 0.029268235 0.0179136 0.050888166 -0.05190257 -0.070143305
-0.014805829 -0.02567429 -0.059865065 0.05447396 0.06985123 0.079522006 -0.06386629 -0.07551337
-0.060825393 0.010581809 0.062117573 -0.011393768 -0.045777895 0.047606464 -0.052440614 -0.06171443
0.007116738 -0.010833542 0.06154857 0.022279214 -0.08126065 -0.0793049 -0.08185451 0.07316109
-0.026038703 -0.048964713 0.017326117 -0.07500057 -0.016773708 -0.024229981 0.07440043 0.04542343
0.075978406 0.065529026 -0.085255705 -0.047239274 -0.010310247 -0.0052724127 -0.0017776908 -0.009133233
0.07018747 0.051073004 -0.0043555605 0.055507198 0.087214574 -0.0392543 0.05309778 0.06070554
-0.016466985 -0.067641236 0.049806047 -0.070744075 -0.023220785 0.08133343 0.027194463 -0.041945398
0.07662452 0.08003236 0.06432361 -0.009770472 0.05875395 -0.08652588 0.028125277 -0.064416386
-0.05060728 -0.088203765 0.022894379 -0.039502714 0.046620283 -0.049817216 0.061012514 -0.061254006
-0.08747298 -0.031911254 0.008541417 -0.057169184 -0.066414505 -0.05006995 0.06464992 0.05504901
-0.034478355 0.0002706249 0.012977088 0.07091973 -0.012085777 -0.043689232 -0.042616207 -0.05880771
-0.07306856 -0.016770652 0.013820509 0.033088446 -0.07192732 -0.010404813 0.0076182745 0.060073018
0.0052004782 -0.026544074 0.032695565 0.027871827 0.03388578 0.044420447 0.0078105167 0.025429428
0.051392432 -0.052819263 0.02208049 0.053124405 0.06776957 -0.07076224 -0.025612976 0.07308766
0.0155016 -0.022972824 -0.027494054 -0.014221927 -0.03619465 -0.053713735 0.06467506 -0.04169537
0.05627837 0.038897548 0.031916123 0.054837864 0.026809389 0.08756172 0.0151308235 0.042521942
-0.05211227 -0.028908975 0.03781505 -0.059036154 -0.049196467 0.023913478 -0.080975264 0.005803642
-0.008964982 -0.047682203 0.010729523 -0.038817424 -0.00082313846 0.08727417 -0.03449512 0.020874321

generator.transformer_layer.linear2.bias f4 [64]
00000000: ed7b 1fbd 261d e3b8 d311 aa3d 5f51 203d
00000010: d63d afbc 78f7 02bb 3b59 b0bd 64ec 92bd
00000020: e2ed 27bd 7e1b 1b3d 307a bfbc 2a8c ab3d
00000030: c072 3bbd 0ff3 a6bc c95d 0a3d d1f5 abbd
00000040: 13e6 33bd c007 0cbc dbab 7bbd 64e8 363d
00000050: b9cc 6b3d 7dc7 753d 5d52 573d bb43 3d3d
00000060: 8824 6bbd 4759 86bd 8713 a53b 1c05 b03d
00000070: 7e76 01bc 7e14 79bd 5085 ceba 6a77 243d
00000080: 1651 aabd 23db 1c3c f29e 193d 2ff0 42bd
00000090: c5e2 743d 2700 143d 27ef 8cbc 2ccd aabd
000000a0: 4530 6abc 7fa0 923d 9016 a93d e575 963c
000000b0: c40d 59bd 4566 4dbd 2d33 0dbd 453c 093d
000000c0: aa6d 3c3d 6588 72bc 4986 503d 62c8 103d
000000d0: e161 8b3d a4d9 5e3d ddb3 043d 1f67 36bd
000000e0: f531 34bd 5c19 173d 4b1a 663d af26 84bc
000000f0: ecd6 0cbd b5c9 b13d 6923 b2bd 093f 0cbc
-0.038936544 -0.00010829633 0.08304181 0.0391401 -0.02139179 -0.0019983929 -0.08610769 -0.07173994
-0.040998347 0.037868015 -0.023373693 0.083763435 -0.04576373 -0.020379571 0.033780847 -0.08396495
-0.043920588 -0.00854677 -0.06144319 0.04465522 0.057568286 0.0600047 0.052568782 0.04620717
-0.057407886 -0.06559997 0.005037728 0.085947245 -0.007901786 -0.06081056 -0.0015756283 0.040152945
-0.08316247 0.009573731 0.037505098 -0.04759234 0.059786577 0.036132958 -0.01720388 -0.08339915
-0.014293735 0.071595185 0.082562566 0.018366763 -0.052991644 -0.05014636 -0.034472633 0.033504743
0.04600302 -0.014803027 0.050909314 0.03534735 0.06805778 0.054406777 0.032398093 -0.044531938
-0.043992955 0.03688942 0.05617742 -0.016131727 -0.034384653 0.08681051 -0.0869816 -0.008559951

generator.transformer_layer.norm1.weight f4 [64]
00000000: 0000 803f 0000 803f 0000 803f 0000 803f
00000010: 0000 803f 0000 803f 0000 803f 0000 803f
00000020: 0000 803f 0000 803f 0000 803f 0000 803f
00000030: 0000 803f 0000 803f 0000 803f 0000 803f
00000040: 0000 803f 0000 803f 0000 803f 0000 803f
00000050: 0000 803f 0000 803f 0000 803f 0000 803f
00000060: 0000 803f 0000 803f 0000 803f 0000 803f
00000070: 0000 803f 0000 803f 0000 803f 0000 803f
00000080: 0000 803f 0000 803f 0000 803f 0000 803f
00000090: 0000 803f 0000 803f 0000 803f 0000 803f
000000a0: 0000 803f 0000 803f 0000 803f 0000 803f
000000b0: 0000 803f 0000 803f 0000 803f 0000 803f
000000c0: 0000 803f 0000 803f 0000 803f 0000 803f
000000d0: 0000 803f 0000 803f 0000 803f 0000 803f
000000e0: 0000 803f 0000 803f 0000 803f 0000 803f
000000f0: 0000 803f 0000 803f 0000 803f 0000 803f
1.0 1.0 1.0 1.0 1.0 1.0 1.0 1.0
1.0 1.0 1.0 1.0 1.0 1.0 1.0 1.0
1.0 1.0 1.0 1.0 1.0 1.0 1.0 1.0
1.0 1.0 1.0 1.0 1.0 1.0 1.0 1.0
1.0 1.0 1.0 1.0 1.0 1.0 1.0 1.0
1.0 1.0 1.0 1.0 1.0 1.0 1.0 1.0
1.0 1.0 1.0 1.0 1.0 1.0 1.0 1.0
1.0 1.0 1.0 1.0 1.0 1.0 1.0 1.0

generator.transformer_layer.norm1.bias f4 [64]
00000000: 0000 0000 0000 0000 0000 0000 0000 0000
00000010: 0000 0000 0000 0000 0000 0000 0000 0000
00000020: 0000 0000 0000 0000 0000 0000 0000 0000
00000030: 0000 0000 0000 0000 0000 0000 0000 0000
00000040: 0000 0000 0000 0000 0000 0000 0000 0000
00000050: 0000 0000 0000 0000 0000 0000 0000 0000
00000060: 0000 0000 0000 0000 0000 0000 0000 0000
00000070: 0000 0000 0000 0000 0000 0000 0000 0000
00000080: 0000 0000 0000 0000 0000 0000 0000 0000
00000090: 0000 0000 0000 0000 0000 0000 0000 0000
000000a0: 0000 0000 0000 0000 0000 0000 0000 0000
000000b0: 0000 0000 0000 0000 0000 0000 0000 0000
000000c0: 0000 0000 0000 0000 0000 0000 0000 0000
000000d0: 0000 0000 0000 0000 0000 0000 0000 0000
000000e0: 0000 0000 0000 0000 0000 0000 0000 0000
000000f0: 0000 0000 0000 0000 0000 0000 0000 0000
0.0 0.0 0.0 0.0 0.0 0.0 0.0 0.0
0.0 0.0 0.0 0.0 0.0 0.0 0.0 0.0
0.0 0.0 0.0 0.0 0.0 0.0 0.0 0.0
0.0 0.0 0.0 0.0 0.0 0.0 0.0 0.0
0.0 0.0 0.0 0.0 0.0 0.0 0.0 0.0
0.0 0.0 0.0 0.0 0.0 0.0 0.0 0.0
0.0 0.0 0.0 0.0 0.0 0.0 0.0 0.0
0.0 0.0 0.0 0.0 0.0 0.0 0.0 0.0

generator.transformer_layer.norm2.weight f4 [64]
00000000: 0000 803f 0000 803f 0000 803f 0000 803f
00000010: 0000 803f 0000 803f 0000 803f 0000 803f
00000020: 0000 803f 0000 803f 0000 803f 0000 803f
00000030: 0000 803f 0000 803f 0000 803f 0000 803f
00000040: 0000 803f 0000 803f 0000 803f 0000 803f
00000050: 0000 803f 0000 803f 0000 803f 0000 803f
00000060: 0000 803f 0000 803f 0000 803f 0000 803f
00000070: 0000 803f 0000 803f 0000 803f 0000 803f
00000080: 0000 803f 0000 803f 0000 803f 0000 803f
00000090: 0000 803f 0000 803f 0000 803f 0000 803f
000000a0: 0000 803f 0000 803f 0000 803f 0000 803f
000000b0: 0000 803f 0000 803f 0000 803f 0000 803f
000000c0: 0000 803f 0000 803f 0000 803f 0000 803f
000000d0: 0000 803f 0000 803f 0000 803f 0000 803f
000000e0: 0000 803f 0000 803f 0000 803f 0000 803f
000000f0: 0000 803f 0000 803f 0000 803f 0000 803f
1.0 1.0 1.0 1.0 1.0 1.0 1.0 1.0
1.0 1.0 1.0 1.0 1.0 1.0 1.0 1.0
1.0 1.0 1.0 1.0 1.0 1.0 1.0 1.0
1.0 1.0 1.0 1.0 1.0 1.0 1.0 1.0
1.0 1.0 1.0 1.0 1.0 1.0 1.0 1.0
1.0 1.0 1.0 1.0 1.0 1.0 1.0 1.0
1.0 1.0 1.0 1.0 1.0 1.0 1.0 1.0
1.0 1.0 1.0 1.0 1.0 1.0 1.0 1.0

generator.transformer_layer.norm2.bias f4 [64]
00000000: 0000 0000 0000 0000 0000 0000 0000 0000
00000010: 0000 0000 0000 0000 0000 0000 0000 0000
00000020: 0000 0000 0000 0000 0000 0000 0000 0000
00000030: 0000 0000 0000 0000 0000 0000 0000 0000
00000040: 0000 0000 0000 0000 0000 0000 0000 0000
00000050: 0000 0000 0000 0000 0000 0000 0000 0000
00000060: 0000 0000 0000 0000 0000 0000 0000 0000
00000070: 0000 0000 0000 0000 0000 0000 0000 0000
00000080: 0000 0000 0000 0000 0000 0000 0000 0000
00000090: 0000 0000 0000 0000 0000 0000 0000 0000
000000a0: 0000 0000 0000 0000 0000 0000 0000 0000
000000b0: 0000 0000 0000 0000 0000 0000 0000 0000
000000c0: 0000 0000 0000 0000 0000 0000 0000 0000
000000d0: 0000 0000 0000 0000 0000 0000 0000 0000
000000e0: 0000 0000 0000 0000 0000 0000 0000 0000
000000f0: 0000 0000 0000 0000 0000 0000 0000 0000
0.0 0.0 0.0 0.0 0.0 0.0 0.0 0.0
0.0 0.0 0.0 0.0 0.0 0.0 0.0 0.0
0.0 0.0 0.0 0.0 0.0 0.0 0.0 0.0
0.0 0.0 0.0 0.0 0.0 0.0 0.0 0.0
0.0 0.0 0.0 0.0 0.0 0.0 0.0 0.0
0.0 0.0 0.0 0.0 0.0 0.0 0.0 0.0
0.0 0.0 0.0 0.0 0.0 0.0 0.0 0.0
0.0 0.0 0.0 0.0 0.0 0.0 0.0 0.0
