GANS/gan_model.pth (torch, 948054 bytes, 71 tensors)

embedding.fc.weight f4 [64, 17]
0	0x3e8ad2d1	0.27113965
1	0xbe3c99d6	-0.18418059
2	0xbd6d08a6	-0.057869576
3	0x3e208cd1	0.15678717
4	0xbe13e6fd	-0.14443584
5	0xbe3a3bfe	-0.18186948
6	0xbe164a58	-0.14676797
7	0xbddba1b2	-0.107242
8	0xbe01c6bf	-0.12673472
9	0xbe07927d	-0.13239475
10	0x3e170df4	0.14751416
11	0xbe6adaa2	-0.22934964
12	0x3d47e385	0.048800964
13	0xbe0aeda9	-0.13567223
14	0xbd9ea400	-0.07746124
15	0x3d85584f	0.06510984
16	0x3d867441	0.065651424
17	0x3e68cb69	0.22733845
18	0x3e21feba	0.15819827
19	0xbd4390bc	-0.04774545
20	0x3adf71ef	0.0017047505
21	0x3c70bfc0	0.014694154
22	0xbd97b1ae	-0.074069366
23	0x3e4686c5	0.19387348
24	0xbd459035	-0.04823323
25	0xbe1a6f63	-0.15081553
26	0x3d5b9197	0.053605642
27	0xbc9c2e51	-0.019065054
28	0xbdef9112	-0.11697592
29	0x3e343b5e	0.17600772
30	0x3e62fa53	0.22165804
31	0xbd53159c	-0.05153428
32	0xbe18a36c	-0.1490609
33	0x3dc9d41c	0.0985491
34	0x3d647ca1	0.055782918
35	0x3e359ffc	0.1773681
36	0xbd76c5c3	-0.060247194
37	0xbd85f71d	-0.06541274
38	0x3e82b333	0.25527343
39	0x3e1126a9	0.14174904
40	0x3e0e5c02	0.13902286
41	0xbd3edbb0	-0.04659623
42	0x3e16a632	0.14711836
43	0xbb5020db	-0.0031757865
44	0x3e77a747	0.24184905
45	0x3e05eec5	0.13079365
46	0xbe38742f	-0.1801307
47	0x3e720e90	0.23638368
48	0x3e0750fe	0.1321449
49	0xbd6344d2	-0.055485554
50	0xbc4cba89	-0.012495645
51	0xbcfdca16	-0.030980151
52	0xbe46c5db	-0.19411413
53	0xbe050d69	-0.12993397
54	0x3e3c3d6f	0.1838281
55	0x3d194714	0.0374213
56	0xbce7037c	-0.028199904
57	0x3e23d4ee	0.15999195
58	0x3e66764d	0.22506066
59	0x3e8a06cc	0.2695831
60	0xbe10bb79	-0.14134015
61	0x3be04b86	0.0068449406
62	0x3d22a1dc	0.039705142
63	0x3dcb67de	0.099319205
64	0x3e01adb2	0.12663916
65	0xbe409552	-0.18806961
66	0x3d33f77f	0.043937203
67	0x3d012b9e	0.031535737
68	0xbdb33d35	-0.08751909
69	0x3e7063f4	0.23475629
70	0x3e093f70	0.13403106
71	0x3d211d75	0.039334733
72	0x3e564a30	0.20926738
73	0x3e3d93ad	0.18513365
74	0x3c3605f9	0.011109822
75	0x3e4b3185	0.19843109
76	0x3c7bfa8d	0.01537956
77	0xbd2d4bfe	-0.0423088
78	0xbdbc5c12	-0.091972485
79	0x3e85429f	0.2602739
80	0x3de89344	0.11356214
81	0x3d152647	0.036413457
82	0x3d0e179d	0.034690488
83	0xbd078299	-0.033083532
84	0xbd1ad7a2	-0.0378033
85	0xbdd8e8e8	-0.10591298
86	0xbc04c9d5	-0.008104761
87	0xbdb4e026	-0.088318154
88	0x3dc2357e	0.09482859
89	0x3bd37984	0.006453695
90	0x3e44e65d	0.19228502
91	0xbdd50f9b	-0.10403367
92	0x3dba130a	0.09085663
93	0xbe3e5e89	-0.1859075
94	0xbe53c552	-0.2068074
95	0xbe753b9c	-0.2394852
96	0xbe20cf71	-0.15704133
97	0xbe1c1bd9	-0.15244998
98	0xbe13cfb1	-0.14434697
99	0x3df50005	0.11962894
100	0xbe01febd	-0.12694831
101	0xbdbbf4be	-0.0917754
102	0x3dfb689c	0.12275812
103	0xbe0dd84c	-0.13852042
104	0x3d5363b5	0.05160876
105	0xbe35f36c	-0.1776864
106	0x3e0a1cb4	0.13487512
107	0xbdcc63d5	-0.09979979
108	0xbe30c775	-0.17263587
109	0xbe7e9fa2	-0.24865583
110	0xbcc1f1c0	-0.023674846
111	0x3c096efc	0.008388277
112	0xbe63631c	-0.22205776
113	0xbe81b171	-0.2533069
114	0xbe214960	-0.15750647
115	0xbdec2684	-0.11530784
116	0xbdbcff4f	-0.09228384
117	0x3e0c8d83	0.13725857
118	0xbd90d535	-0.07071916
119	0xbdbf736d	-0.093481876
120	0xbd02bd76	-0.031918965
121	0xbba39117	-0.0049916613
122	0xbe0dd9a2	-0.13852552
123	0xbe5977d6	-0.2123712
124	0x3dedbb1d	0.11607955
125	0xbdfca302	-0.12335779
126	0xbe431f79	-0.19054975
127	0x3e3b621b	0.18299143
128	0x3e306f10	0.17229867
129	0xbd94f712	-0.072736874
130	0xbe4b3184	-0.19843107
131	0x3d251bc5	0.040309686
132	0x3ced5528	0.02897127
133	0xbe3b11b8	-0.18268478
134	0xbca6643e	-0.020311471
135	0xbd3fe5af	-0.046849903
136	0x3e9ae3e4	0.30251992
137	0x3d215624	0.03938879
138	0xbe03a58e	-0.12856123
139	0x3dba9dfc	0.091121644
140	0x3df4eddd	0.11959431
141	0x3e1adef1	0.15124108
142	0x3e449e25	0.19200952
143	0xbe7bbe57	-0.24584328
144	0x3a917660	0.00110979
145	0xbe7408e1	-0.23831512
146	0x3da7925e	0.08182214
147	0xba2aacc2	-0.0006510728
148	0xbd1334a1	-0.035938863
149	0x3dbb4e05	0.091457404
150	0xbe55405e	-0.20825335
151	0xbe4e6530	-0.20155787
152	0x3e58e680	0.21181679
153	0x3e204377	0.15650736
154	0xbe65a155	-0.22424825
155	0x3d9fae08	0.07796866
156	0xbdc3c1a3	-0.09558418
157	0x3e5a8986	0.21341524
158	0xbd95c892	-0.073136464
159	0xbe38d2f9	-0.1804923
160	0xbcb63d80	-0.022246122
161	0xbe881f09	-0.26586178
162	0xbd5c98e8	-0.05385676
163	0xbe1b06bc	-0.15139288
164	0xbd7d7196	-0.061875902
165	0xbd8b5672	-0.068035975
166	0xbcfb5515	-0.030680219
167	0xbddd27ac	-0.107985824
168	0xbe4c3e45	-0.19945629
169	0x3c84082c	0.016117178
170	0x3e49322c	0.19648045
171	0x3dcc8f26	0.09988241
172	0x3dbb5e30	0.09148824
173	0xbe289327	-0.16462384
174	0x3cbe8f09	0.023261564
175	0xbdf7b51d	-0.120950915
176	0x3d3fcca8	0.046826035
177	0x3e2a5966	0.16635665
178	0xbe5595b9	-0.20857896
179	0x3d7bac48	0.061443597
180	0xbdbb827e	-0.09155749
181	0x3d715f71	0.05892891
182	0xbd651d2b	-0.05593602
183	0xbe08c879	-0.13357724
184	0x3d2d9318	0.042376608
185	0x3cf36568	0.02971144
186	0xbe43df5b	-0.19128172
187	0x3d0db45e	0.03459584
188	0xbd193b50	-0.03741008
189	0xbdf4ef70	-0.119597316
190	0xbdb803ef	-0.08985125
191	0x3d6850e9	0.056717787
192	0xbe11258c	-0.14174479
193	0x3da2e63f	0.07954072
194	0xbe883daf	-0.2660956
195	0xbe55935a	-0.20856991
196	0xbe64f9b6	-0.22360882
197	0x3e483755	0.19552357
198	0x3e09a4cc	0.13441771
199	0xbe71a479	-0.23597898
200	0xbe769cb0	-0.24083209
201	0xbc033f83	-0.008010748
202	0xbd2e0e66	-0.0424942
203	0xbe54c1d0	-0.20777059
204	0x3e92d09f	0.2867479
205	0x3d47a904	0.04874517
206	0xbdcf30f4	-0.10116759
207	0xbe1b504c	-0.1516735
208	0xbe11e7c5	-0.1424857
209	0x3d9133ff	0.070899956
210	0x3daafd72	0.08349122
211	0x3e8867dd	0.2664174
212	0x3d826f16	0.06368844
213	0x3e84cdcc	0.2593826
214	0x3e4451fc	0.191719
215	0x3dfc1788	0.12309176
216	0xbe1080c4	-0.1411162
217	0x3e65a383	0.22425656
218	0xbe4d73cc	-0.20063704
219	0x3e39b08e	0.18133757
220	0x3d37a483	0.044834625
221	0x3b809a56	0.0039246483
222	0x3e5563b6	0.20838818
223	0xbc8b8252	-0.017029915
224	0x3e070002	0.13183597
225	0x3dd1621c	0.10223791
226	0xbe0069bf	-0.12540339
227	0x3dad753a	0.08469625
228	0xbe79df32	-0.24401549
229	0x3d099e66	0.033598326
230	0xbb80e05f	-0.003932997
231	0x3df8d564	0.12150076
232	0xbe718208	-0.23584759
233	0xbe1328dd	-0.14371057
234	0xbe73013e	-0.23730943
235	0x3c2e94d7	0.010655603
236	0x3dcd81ad	0.10034499
237	0xbc2051fe	-0.009785173
238	0xbda37cf4	-0.07982817
239	0xbb95b8eb	-0.004569163
240	0x3dd9eb4e	0.10640584
241	0xbe8c1676	-0.27360886
242	0x3da5fe27	0.08105116
243	0xbcb06b02	-0.0215354
244	0xbe7ef840	-0.24899387
245	0xbe43f869	-0.1913773
246	0x3db9e4dd	0.09076855
247	0xbce82291	-0.028336795
248	0xbd128d03	-0.03577901
249	0x3e6b247b	0.22963135
250	0x3e88732d	0.26650372
251	0x3d8cc693	0.068738125
252	0xbe139eaf	-0.14416002
253	0x3e21d1a4	0.15802628
254	0xbddb7ff3	-0.10717764
255	0xbe48e90f	-0.19620155

embedding.fc.bias f4 [64]
0	0xbe52ddae	-0.20592377
1	0x3e3d5c8c	0.18492335
2	0xbe3f823f	-0.18702029
3	0x3e153c7c	0.14573854
4	0xbcf0ee63	-0.029410547
5	0xbe2687d8	-0.16262758
6	0xbe537e15	-0.20653565
7	0x3c725dd2	0.014792876
8	0xbe210c20	-0.15727282
9	0x3dad157f	0.08451366
10	0xbdc51884	-0.096238166
11	0x3c5fe72a	0.013665954
12	0xbe1d8500	-0.15382767
13	0xbcc893e7	-0.024484588
14	0x3dc37062	0.0954292
15	0xbdc1ec09	-0.09468848
16	0x3e1c21cc	0.15247267
17	0x3df4ac26	0.11946897
18	0x3d9c4a87	0.076314025
19	0x3dc2fd7a	0.09521003
20	0x3e4791c2	0.19489196
21	0xbe2cfc4f	-0.16893123
22	0xbe18eef7	-0.14934908
23	0x3e48e2bb	0.19617741
24	0x3db06b6c	0.08614239
25	0xbe62c4bd	-0.22145362
26	0x3e18aaf3	0.14908962
27	0x3ddbb2b4	0.10727444
28	0xbe58db02	-0.21177295
29	0xbe370050	-0.17871213
30	0xbc7577e0	-0.014982194
31	0x3d37a57e	0.04483556
32	0x3d65f861	0.056145076
33	0x3e5278ec	0.2055394
34	0x3e0cfd1d	0.1376843
35	0xbe46fdb1	-0.19432713
36	0xbd7c3a4f	-0.061579045
37	0x3e3c6442	0.1839762
38	0xbd5377be	-0.051627867
39	0xbe579bc5	-0.21055515
40	0x3e14cb90	0.14530778
41	0x3e0e9086	0.13922319
42	0x3deca5d4	0.11555067
43	0xbe54472f	-0.2073028
44	0xbde59c4c	-0.11211452
45	0x3e09efaf	0.13470338
46	0xbe25ac0c	-0.16178912
47	0xbe2a747d	-0.16645999
48	0xbd657ab9	-0.05602524
49	0xbe0a9eb8	-0.13537109
50	0x3e1839c8	0.14865792
51	0x3dcf9c69	0.10137255
52	0xbc6201a0	-0.013794333
53	0x3dccf590	0.10007775
54	0x3d15e196	0.03659209
55	0x3e1d025c	0.15332931
56	0x3d04c1fa	0.032411553
57	0xbde46c5d	-0.11153481
58	0xbe124a05	-0.14286049
59	0x3e549e9a	0.20763627
60	0xbaf6e875	-0.0018837588
61	0xbdfa5750	-0.12223685
62	0xbe4dad4e	-0.20085642
63	0x3d9eab4b	0.07747515

generator.transformer_layer.self_attn.in_proj_weight f4 [192, 64]
0	0x3c59e230	0.013298556
1	0x3d909464	0.07059553
2	0x3e03e4c5	0.12880237
3	0xbdd613d0	-0.10452998
4	0xbd8cc9b5	-0.0687441
5	0xbd88cf13	-0.06680121
6	0xbdca3c50	-0.09874785
7	0x3b20a2c0	0.002451107
8	0xbd8169f9	-0.06319041
9	0x3e0c29ad	0.13687773
10	0x3dada97a	0.08479591
11	0x3e0f749f	0.14009331
12	0xbda8096a	-0.082049206
13	0xbd776944	-0.060403123
14	0xbdd94c1e	-0.10610221
15	0xbdf71f94	-0.1206657
16	0xbdacfd10	-0.08446705
17	0x3d458e58	0.048231453
18	0x3dcec7ba	0.100966886
19	0x3dde6b0a	0.1086026
20	0x3d913bbe	0.07091473
21	0xbdf4698c	-0.11934194
22	0x3e18f2c7	0.14936362
23	0x3dfc9a22	0.12334086
24	0xbddc0a04	-0.10744098
25	0x3dab47fc	0.08363339
26	0x3e1404c3	0.14454941
27	0x3dbde1bc	0.09271571
28	0x3dcf02de	0.10107969
29	0xbb8dc6e0	-0.0043266863
30	0x3d005f84	0.03134109
31	0x3df52072	0.11969079
32	0xbdb4bdc8	-0.088252604
33	0xbd5babfc	-0.053630814
34	0xbdab7664	-0.083721906
35	0x3e0ea1c5	0.13928898
36	0xbe0e43e9	-0.13893093
37	0x3da4a7f0	0.08039844
38	0x3e075121	0.13214542
39	0x3df03756	0.117293045
40	0x3dc4be9e	0.0960667
41	0x3cfd2c50	0.030904919
42	0x3dffae8e	0.124844655
43	0x3d65f7a0	0.056144357
44	0x3dbb65a0	0.09150243
45	0xbcdf8580	-0.027285337
46	0xbe0eefee	-0.13958713
47	0x3dc3f3a0	0.09567952
48	0xbded17c8	-0.115768015
49	0x3dd79a32	0.10527457
50	0xbd6fd1c8	-0.058549672
51	0xbdde07ef	-0.10841357
52	0xbe1b9343	-0.15192895
53	0xbd6f6116	-0.058442198
54	0x3dcbaefa	0.099454835
55	0xbdfb386d	-0.12266622
56	0x3d13407c	0.03595017
57	0x3d01dae8	0.031702906
58	0xbd83aca5	-0.06429414
59	0xbe0d02dc	-0.13770622
60	0x3d7a816c	0.061158583
61	0x3dc27cf4	0.09496489
62	0xbe0d72d5	-0.13813336
63	0xbd50002e	-0.05078142
64	0x3dae27f0	0.08503711
65	0x3e04b0b5	0.12958033
66	0x3e12575f	0.14291142
67	0x3b9343a0	0.0044941455
68	0x3d6023a8	0.054721504
69	0xbcbe2cf0	-0.023214787
70	0xbda69689	-0.08134181
71	0x3e006703	0.12539296
72	0xbded81de	-0.11597036
73	0x3d10acf4	0.03532119
74	0x3dbfe9a6	0.09370737
75	0xbd86f6c3	-0.06590035
76	0x3cf669f8	0.030079827
77	0xbe129953	-0.14316301
78	0x3c08b2b0	0.008343384
79	0xbd9ac9e0	-0.07558036
80	0xbdafe97a	-0.08589454
81	0x3d4be180	0.0497756
82	0xbe14bdf0	-0.1452558
83	0xbdb26260	-0.0871017
84	0x3e0d22ff	0.13782881
85	0x3db46eb0	0.088101745
86	0x3cfc8578	0.030825362
87	0xbd947849	-0.07249505
88	0x3e067aef	0.13132833
89	0xbd9f5791	-0.07780374
90	0x3da5cbc8	0.08095509
91	0x3d6b26e0	0.05741012
92	0xbdd47c2a	-0.10375245
93	0xba101800	-0.00054967403
94	0xbc827048	-0.01592268
95	0xbd1e3e82	-0.03863383
96	0x3d07de9c	0.03317128
97	0xbc1b2a60	-0.009470552
98	0xbe063fe0	-0.13110304
99	0x3d2a9f58	0.04165587
100	0x3df0005a	0.11718817
101	0xbdfbe894	-0.1230022
102	0x3cc401c0	0.023926616
103	0x3d7ce844	0.061744943
104	0x3dfa7d4e	0.12230931
105	0x3de2de7e	0.11077593
106	0xbdb2bc23	-0.087272905
107	0xbd430972	-0.04761643
108	0xbd19bcf8	-0.03753373
109	0xbe0df4b3	-0.13862877
110	0xbd87d133	-0.066316985
111	0xbb0bad40	-0.0021312982
112	0xbd96d1b6	-0.07364218
113	0x3c1cb700	0.009565115
114	0xbd1a3e24	-0.03765692
115	0xbdf5f4ac	-0.12009558
116	0x3e13a3df	0.1441798
117	0xbdae1098	-0.08499259
118	0x3d1b823c	0.037965998
119	0x3abf4f80	0.0014595836
120	0xbe0f251d	-0.13979001
121	0xbd1c6a68	-0.038187414
122	0x3e0bca83	0.13651471
123	0xbceac150	-0.028656632
124	0x3e08661f	0.13320206
125	0xbe0b810c	-0.13623446
126	0xbd1e46ca	-0.03864173
127	0x3d8d83ee	0.06909929
128	0xbde3113c	-0.110872716
129	0x3de6638a	0.11249454
130	0x3dc38a26	0.09547834
131	0xbdd2ab9a	-0.10286637
132	0xbdd67817	-0.10472124
133	0x3d19ad5c	0.037518844
134	0xbcddaf40	-0.027061105
135	0xbe03474d	-0.12820168
136	0x3d8cbbc6	0.068717524
137	0xbd03f686	-0.032217525
138	0xbe1b508f	-0.1516745
139	0x3d57ced8	0.052687496
140	0xbdeaf3b1	-0.11472262
141	0x3d331158	0.043717712
142	0x3de4610a	0.11151321
143	0xbcfb9ac0	-0.030713439
144	0x3d30b728	0.04314342
145	0x3d8fd678	0.070233285
146	0xbe0acbf8	-0.1355437
147	0x3e0a40a7	0.13501225
148	0xbddbec56	-0.10738437
149	0xbcb4ff68	-0.022094443
150	0xbe02524e	-0.12726709
151	0xbd6f48d2	-0.058419056
152	0xbdb4883a	-0.08815046
153	0xbc702f80	-0.014659762
154	0x3de164be	0.11005543
155	0x3de714a2	0.11283232
156	0x3bf356e0	0.007426128
157	0xbb5e2280	-0.0033895075
158	0x3e09d959	0.13461818
159	0x3d9d37be	0.076766476
160	0xbd20efb2	-0.03929109
161	0x3d2a7348	0.041613847
162	0x3e057845	0.1303416
163	0xbd3c1dae	-0.045926742
164	0x3c9ab7e0	0.018886507
165	0xbc02f6a0	-0.00799337
166	0xbde1482d	-0.110000946
167	0xbdcbc30b	-0.09949311
168	0x3d3c949c	0.046040162
169	0x3e07192b	0.13193195
170	0xbd5dc750	-0.054145157
171	0x3d434e90	0.047682345
172	0x3d95d902	0.073167816
173	0x3b6a9a80	0.0035797656
174	0xbe05c2a7	-0.13062535
175	0xbda4c173	-0.0804471
176	0x3ccbf050	0.024894863
177	0x3cd4d658	0.025981113
178	0xbd5c41fe	-0.053773873
179	0x3e0f83cf	0.14015125
180	0x3d9b0136	0.0756859
181	0x3e0ec51f	0.13942383
182	0xbced6e7c	-0.028983347
183	0x3d3589c8	0.04432085
184	0x3df71556	0.120646164
185	0xbd6f5bca	-0.058437146
186	0xbdeace96	-0.114651844
187	0xbe1b08e0	-0.15140104
188	0x3dba415a	0.09094496
189	0xbdd7e1a1	-0.10541082
190	0x3dbe8e36	0.09304468
191	0xbddce043	-0.10784962
192	0xbb9fe040	-0.0048790276
193	0xbdac0856	-0.084000275
194	0x3e05815b	0.13037626
195	0x3dede38e	0.11615668
196	0x3e19320d	0.14960499
197	0xbdd528b8	-0.10408157
198	0xbc9e9860	-0.019359767
199	0xbdca2906	-0.09871106
200	0x3d01ece0	0.031720042
201	0x3d60e8f0	0.054909647
202	0x3c651230	0.013981387
203	0xbdfff450	-0.12497771
204	0x3cfc5b38	0.030805215
205	0x3d5d7d04	0.054074302
206	0x3cac3d80	0.02102542
207	0xbd3ca7a2	-0.046058305
208	0xbdf713cc	-0.12064323
209	0xbe1561fe	-0.14588162
210	0xbd109372	-0.035296865
211	0x3e13a0ef	0.1441686
212	0x3bfa0920	0.0076304823
213	0xbdbab33b	-0.09116217
214	0x3d05c570	0.032658994
215	0x3df5a6ca	0.11994703
216	0xbdbda249	-0.09259469
217	0x3df84f4e	0.12124501
218	0xbdb587ca	-0.0886379
219	0x3dd1feb2	0.102536574
220	0x3cb79e08	0.022414222
221	0x3dec9046	0.115509555
222	0x3c760f40	0.015018284
223	0xbe018eff	-0.12652205
224	0xbddc499c	-0.107562274
225	0x3d9c12ea	0.07620795
226	0xbdec8b61	-0.11550022
227	0xbd764dbc	-0.060132727
228	0x3d826bac	0.06368193
229	0xbced4934	-0.02896557
230	0xbc2bc390	-0.010483637
231	0xbdc475e0	-0.09592795
232	0x3d708198	0.05871734
233	0xbdc8686c	-0.09785542
234	0xbd17fe38	-0.037107676
235	0xbde5cfb2	-0.11221255
236	0xbd6a81f4	-0.05725284
237	0xbdc599da	-0.096484855
238	0x3db9a664	0.090649396
239	0xbd269b84	-0.040675655
240	0x3dfa45f6	0.12220375
241	0x3e0b2645	0.13588817
242	0x3dfcc736	0.12342684
243	0xbe1b4feb	-0.15167205
244	0xbd8525b2	-0.065013304
245	0xbd009ec0	-0.031401396
246	0xbe0d77db	-0.13815252
247	0x3c94a6d0	0.018145949
248	0x3c96ca48	0.018407002
249	0x3d969e80	0.0735445
250	0xbd286b80	-0.041118145
251	0xbe052e22	-0.1300588
252	0xbdaef5f0	-0.085430026
253	0xbe02da10	-0.12778497
254	0xbde67cb8	-0.11254257
255	0xbd943d16	-0.07238214

generator.transformer_layer.self_attn.in_proj_bias f4 [192]
0	0x00000000	0.0
1	0x00000000	0.0
2	0x00000000	0.0
3	0x00000000	0.0
4	0x00000000	0.0
5	0x00000000	0.0
6	0x00000000	0.0
7	0x00000000	0.0
8	0x00000000	0.0
9	0x00000000	0.0
10	0x00000000	0.0
11	0x00000000	0.0
12	0x00000000	0.0
13	0x00000000	0.0
14	0x00000000	0.0
15	0x00000000	0.0
16	0x00000000	0.0
17	0x00000000	0.0
18	0x00000000	0.0
19	0x00000000	0.0
20	0x00000000	0.0
21	0x00000000	0.0
22	0x00000000	0.0
23	0x00000000	0.0
24	0x00000000	0.0
25	0x00000000	0.0
26	0x00000000	0.0
27	0x00000000	0.0
28	0x00000000	0.0
29	0x00000000	0.0
30	0x00000000	0.0
31	0x00000000	0.0
32	0x00000000	0.0
33	0x00000000	0.0
34	0x00000000	0.0
35	0x00000000	0.0
36	0x00000000	0.0
37	0x00000000	0.0
38	0x00000000	0.0
39	0x00000000	0.0
40	0x00000000	0.0
41	0x00000000	0.0
42	0x00000000	0.0
43	0x00000000	0.0
44	0x00000000	0.0
45	0x00000000	0.0
46	0x00000000	0.0
47	0x00000000	0.0
48	0x00000000	0.0
49	0x00000000	0.0
50	0x00000000	0.0
51	0x00000000	0.0
52	0x00000000	0.0
53	0x00000000	0.0
54	0x00000000	0.0
55	0x00000000	0.0
56	0x00000000	0.0
57	0x00000000	0.0
58	0x00000000	0.0
59	0x00000000	0.0
60	0x00000000	0.0
61	0x00000000	0.0
62	0x00000000	0.0
63	0x00000000	0.0
64	0x00000000	0.0
65	0x00000000	0.0
66	0x00000000	0.0
67	0x00000000	0.0
68	0x00000000	0.0
69	0x00000000	0.0
70	0x00000000	0.0
71	0x00000000	0.0
72	0x00000000	0.0
73	0x00000000	0.0
74	0x00000000	0.0
75	0x00000000	0.0
76	0x00000000	0.0
77	0x00000000	0.0
78	0x00000000	0.0
79	0x00000000	0.0
80	0x00000000	0.0
81	0x00000000	0.0
82	0x00000000	0.0
83	0x00000000	0.0
84	0x00000000	0.0
85	0x00000000	0.0
86	0x00000000	0.0
87	0x00000000	0.0
88	0x00000000	0.0
89	0x00000000	0.0
90	0x00000000	0.0
91	0x00000000	0.0
92	0x00000000	0.0
93	0x00000000	0.0
94	0x00000000	0.0
95	0x00000000	0.0
96	0x00000000	0.0
97	0x00000000	0.0
98	0x00000000	0.0
99	0x00000000	0.0
100	0x00000000	0.0
101	0x00000000	0.0
102	0x00000000	0.0
103	0x00000000	0.0
104	0x00000000	0.0
105	0x00000000	0.0
106	0x00000000	0.0
107	0x00000000	0.0
108	0x00000000	0.0
109	0x00000000	0.0
110	0x00000000	0.0
111	0x00000000	0.0
112	0x00000000	0.0
113	0x00000000	0.0
114	0x00000000	0.0
115	0x00000000	0.0
116	0x00000000	0.0
117	0x00000000	0.0
118	0x00000000	0.0
119	0x00000000	0.0
120	0x00000000	0.0
121	0x00000000	0.0
122	0x00000000	0.0
123	0x00000000	0.0
124	0x00000000	0.0
125	0x00000000	0.0
126	0x00000000	0.0
127	0x00000000	0.0
128	0x00000000	0.0
129	0x00000000	0.0
130	0x00000000	0.0
131	0x00000000	0.0
132	0x00000000	0.0
133	0x00000000	0.0
134	0x00000000	0.0
135	0x00000000	0.0
136	0x00000000	0.0
137	0x00000000	0.0
138	0x00000000	0.0
139	0x00000000	0.0
140	0x00000000	0.0
141	0x00000000	0.0
142	0x00000000	0.0
143	0x00000000	0.0
144	0x00000000	0.0
145	0x00000000	0.0
146	0x00000000	0.0
147	0x00000000	0.0
148	0x00000000	0.0
149	0x00000000	0.0
150	0x00000000	0.0
151	0x00000000	0.0
152	0x00000000	0.0
153	0x00000000	0.0
154	0x00000000	0.0
155	0x00000000	0.0
156	0x00000000	0.0
157	0x00000000	0.0
158	0x00000000	0.0
159	0x00000000	0.0
160	0x00000000	0.0
161	0x00000000	0.0
162	0x00000000	0.0
163	0x00000000	0.0
164	0x00000000	0.0
165	0x00000000	0.0
166	0x00000000	0.0
167	0x00000000	0.0
168	0x00000000	0.0
169	0x00000000	0.0
170	0x00000000	0.0
171	0x00000000	0.0
172	0x00000000	0.0
173	0x00000000	0.0
174	0x00000000	0.0
175	0x00000000	0.0
176	0x00000000	0.0
177	0x00000000	0.0
178	0x00000000	0.0
179	0x00000000	0.0
180	0x00000000	0.0
181	0x00000000	0.0
182	0x00000000	0.0
183	0x00000000	0.0
184	0x00000000	0.0
185	0x00000000	0.0
186	0x00000000	0.0
187	0x00000000	0.0
188	0x00000000	0.0
189	0x00000000	0.0
190	0x00000000	0.0
191	0x00000000	0.0

generator.transformer_layer.self_attn.out_proj.weight f4 [64, 64]
0	0xbdd043aa	-0.10169156
1	0xbd99aa66	-0.07503204
2	0x3c843fd0	0.01614371
3	0x3b4982c0	0.00307481
4	0xbbe2da20	-0.006922975
5	0x3c941720	0.018077433
6	0x3deb7948	0.11497742
7	0xbcb4a7b8	-0.02205263
8	0x3d7a7dd4	0.061155155
9	0xbd129144	-0.035783067
10	0xbde22aa0	-0.11043286
11	0xbd05227c	-0.03250359
12	0xbd9a440e	-0.07532512
13	0xbcc3eca8	-0.023916557
14	0x3db23414	0.08701339
15	0x3de318c4	0.11088708
16	0x3cc15440	0.023599744
17	0xbdfbe260	-0.12299037
18	0x3c17c220	0.009262592
19	0xbcccac88	-0.024984613
20	0xbdc34f50	-0.09536612
21	0x3dfccfb8	0.12344307
22	0x3cc864d0	0.024462134
23	0x3d336fe0	0.043807864
24	0xbdf3c5b8	-0.11902946
25	0x3dc2066a	0.0947388
26	0xbde07eda	-0.10961695
27	0xbdeb1adc	-0.114797324
28	0x3c3b2f60	0.011424869
29	0x3d122b90	0.035686076
30	0x3cc33100	0.023827076
31	0x3da5d474	0.08097163
32	0xbd1a1508	-0.037617713
33	0xbd949b30	-0.07256162
34	0x3dc6b078	0.097016275
35	0x3dfbf88a	0.123032644
36	0x3d6356e8	0.055502802
37	0x3d496634	0.049169734
38	0xbd9d39f6	-0.07677071
39	0x3c94b760	0.018153846
40	0xbda32c9a	-0.079674914
41	0x3d373508	0.04472831
42	0xbd5f40b8	-0.05450508
43	0x3d6b0d98	0.05738601
44	0xbdf7636c	-0.1207951
45	0x3ce17048	0.02751936
46	0xbd1a738c	-0.03770785
47	0x3d862b9a	0.06551285
48	0x3df54986	0.11976914
49	0x3da37be6	0.07982616
50	0xbd54976c	-0.05190222
51	0xbdc3458c	-0.095347494
52	0xbdcf6908	-0.10127455
53	0xbd07947c	-0.03310059
54	0x3dd3a392	0.10333933
55	0xbdd3386e	-0.103134975
56	0x3dc7ab9e	0.0974953
57	0x3dc08f76	0.09402363
58	0xbce8ce20	-0.0284186
59	0xbdb2dca8	-0.08733493
60	0x3ca51b10	0.020154506
61	0xbdd812e2	-0.105504766
62	0xbdb6e580	-0.089304924
63	0x3da10ab8	0.078633726
64	0xbdc276ba	-0.094953015
65	0xbca40a98	-0.020024583
66	0xbc15a940	-0.009134591
67	0xbded5406	-0.11588292
68	0x3dccf822	0.10008265
69	0xbc70aa80	-0.014689088
70	0xbdd9ec5a	-0.106407836
71	0xbd56cdd8	-0.0524424
72	0x3de4dcb8	0.11174911
73	0x3dcb031a	0.09912701
74	0xbdcf480a	-0.10121162
75	0xbde18876	-0.11012356
76	0xbd819550	-0.06327307
77	0x3ca83650	0.02053371
78	0xbcd53a38	-0.026028737
79	0x3d7120a8	0.058869034
80	0x3d8108c6	0.063005015
81	0x3bc0e540	0.0058867037
82	0xbde84208	-0.113407195
83	0x3c459a80	0.012060761
84	0x3c679400	0.014134407
85	0xbd8e19da	-0.069385245
86	0x3cb5c400	0.022188187
87	0x3d9c09ae	0.07619034
88	0xbde611cc	-0.11233863
89	0x3da6d124	0.08145359
90	0xbd1f408c	-0.038879916
91	0xbd9c5446	-0.076332614
92	0xbbfe5fe0	-0.007762894
93	0xbddca9c0	-0.10774565
94	0x3c4251d0	0.011860326
95	0x3c3b4450	0.011429861
96	0x3d9dae7e	0.07699297
97	0x3d9ade98	0.07561988
98	0x3d8433b6	0.064551756
99	0x3ce874b0	0.028375953
100	0xbdbcfcb6	-0.09227888
101	0x3dd95176	0.106112406
102	0x3dc35d4e	0.09539281
103	0x3dc0abd8	0.094077766
104	0xbcd9ae00	-0.026572227
105	0x3de2981c	0.11064169
106	0x3de71c34	0.11284676
107	0xbd806ec2	-0.062711254
108	0xbd892e84	-0.06698325
109	0x3d64265c	0.055700645
110	0x3d672398	0.05643043
111	0x3db0f370	0.08640182
112	0x3ded2eca	0.1158119
113	0xbd39aeb4	-0.045332626
114	0x3df80be4	0.12111643
115	0x38d85800	0.00010316074
116	0xbde1c18a	-0.11023243
117	0xbd386ea0	-0.045027375
118	0xbdabd190	-0.0838958
119	0x3dc65af0	0.09685314
120	0xbde4d534	-0.11173478
121	0x3d1161a8	0.035493523
122	0x3df53464	0.11972883
123	0xbde7b0fe	-0.113130555
124	0xbdc90288	-0.09814936
125	0x3d6e4ba8	0.05817762
126	0x3dc13f6a	0.094359234
127	0xbdbdd2c8	-0.09268719
128	0xbd5c5768	-0.053794295
129	0x3d6f7ea8	0.0584704
130	0xbdb4d76c	-0.08830151
131	0xbd8ceea6	-0.06881456
132	0x3dd68b54	0.104757935
133	0xbd9ef782	-0.07762052
134	0xbd5e80e8	-0.054322153
135	0x3db9a93c	0.09065482
136	0x3d9b724a	0.07590158
137	0x3d411244	0.04713656
138	0x3d77a320	0.060458302
139	0xbd860cea	-0.06545432
140	0x3d4ccd44	0.050000444
141	0xbd9db68a	-0.07700832
142	0x3dd7befe	0.10534476
143	0x3dd8517c	0.10562417
144	0x3df6a1c8	0.12042576
145	0xb7e4e000	-2.7284026e-05
146	0x3d97483c	0.073868245
147	0xbdda6a04	-0.10664752
148	0xbc6a8390	-0.0143135935
149	0xbd75c604	-0.060003296
150	0x3db88472	0.09009637
151	0xbdadaf1c	-0.08480665
152	0xbce5e220	-0.028061926
153	0x3caa9a00	0.020825386
154	0x3a6a0100	0.00089265406
155	0xbcedceb8	-0.029029235
156	0xbdb314b6	-0.08744185
157	0x3dbb2964	0.09138754
158	0xbc1d6240	-0.009605944
159	0x3cfcdea0	0.030867875
160	0xbd81f626	-0.06345777
161	0x3dbe82c8	0.09302288
162	0x3dd60b16	0.10451333
163	0xbc5c34c0	-0.013440311
164	0x3cbf9568	0.023386672
165	0xbdd4719e	-0.10373233
166	0x3d8fa5c0	0.07014036
167	0x3cefe310	0.029283077
168	0xbdedbc90	-0.11608231
169	0xbcd8d918	-0.026470706
170	0x3d11f820	0.03563702
171	0xbd88c6ac	-0.06678519
172	0x3d3ea1cc	0.04654102
173	0x3d94dd16	0.07268731
174	0x3da1dcc8	0.07903439
175	0x3df6f66e	0.120587215
176	0xbd406aa4	-0.0469767
177	0x3d6d3aac	0.057917282
178	0x3dbd2c28	0.09236938
179	0xbc4c1860	-0.012456983
180	0xbde70b3c	-0.1128144
181	0xbda0c7bc	-0.07850596
182	0xbded23e4	-0.11579111
183	0xbdc2e160	-0.09515643
184	0xbd8a2e84	-0.067471534
185	0x3d406178	0.046967953
186	0x3d5634e0	0.05229652
187	0xbda2114a	-0.07913454
188	0xbdbd29e6	-0.09236507
189	0xbd5e2b04	-0.05424024
190	0xbc8cfc38	-0.017210111
191	0x3df1d674	0.11808482
192	0x3c896090	0.016769677
193	0xbd91ea0e	-0.071247205
194	0xbdd5d0a2	-0.10440184
195	0x3d51e860	0.051247
196	0xbdf24738	-0.1182999
197	0xbdbfe294	-0.09369388
198	0x3d448ce4	0.047985926
199	0xbd65ff7c	-0.056151852
200	0xbda09a88	-0.078419745
201	0xbbdf96e0	-0.0068234056
202	0x3cd62090	0.026138574
203	0x3d970130	0.073732734
204	0xbd99b24a	-0.07504709
205	0x3d31e02c	0.043426678
206	0xbdb03908	-0.08604628
207	0x3d718dbc	0.05897306
208	0xbd7d010c	-0.061768577
209	0x3c1ee150	0.009697273
210	0xbd9ac9fc	-0.07558057
211	0xbd230c34	-0.03980656
212	0xbde2130e	-0.11038791
213	0x3de7f9a6	0.113269135
214	0x3ddf1866	0.108933255
215	0xbb990c00	-0.00467062
216	0xbdf136e8	-0.11778051
217	0x3dbfc0e2	0.09362961
218	0x3c4c2970	0.012461051
219	0x3b7fc140	0.0039025098
220	0x3d8bc1f8	0.06824106
221	0x3c220c70	0.009890661
222	0xbd91b730	-0.07115018
223	0xbda4275a	-0.08015318
224	0x3de56d10	0.11202443
225	0xbc6138d0	-0.013746455
226	0x3d476f64	0.048690215
227	0x3df6291e	0.12019561
228	0x3dc707c8	0.09718281
229	0x3dec23e4	0.11530283
230	0x3d7ff23c	0.062486872
231	0x3c0d1cd0	0.0086128265
232	0x3d3c62e8	0.04599276
233	0x3dac8bd8	0.084251106
234	0xbab8b700	-0.0014092624
235	0x3da87c82	0.08226873
236	0xbaf14400	-0.0018407106
237	0x3c362490	0.011117116
238	0x3de56be2	0.11202218
239	0x3d998e98	0.07497901
240	0x3d8d73c6	0.06906848
241	0xbb7dce80	-0.003872782
242	0xbdb009da	-0.08595629
243	0x3dd53d48	0.10412079
244	0xbdab7dc8	-0.083736
245	0xbda5af3a	-0.080900624
246	0x3dc15544	0.09440091
247	0xbdb2b850	-0.08726561
248	0xbdfef094	-0.124482304
249	0x3d39e86c	0.04538767
250	0xbcd2e448	-0.025743619
251	0x3d8d4250	0.06897414
252	0x3c089500	0.008336306
253	0x3cb97958	0.022640869
254	0xbda53bd6	-0.080680534
255	0x3d26e2a4	0.040743485

generator.transformer_layer.self_attn.out_proj.bias f4 [64]
0	0x00000000	0.0
1	0x00000000	0.0
2	0x00000000	0.0
3	0x00000000	0.0
4	0x00000000	0.0
5	0x00000000	0.0
6	0x00000000	0.0
7	0x00000000	0.0
8	0x00000000	0.0
9	0x00000000	0.0
10	0x00000000	0.0
11	0x00000000	0.0
12	0x00000000	0.0
13	0x00000000	0.0
14	0x00000000	0.0
15	0x00000000	0.0
16	0x00000000	0.0
17	0x00000000	0.0
18	0x00000000	0.0
19	0x00000000	0.0
20	0x00000000	0.0
21	0x00000000	0.0
22	0x00000000	0.0
23	0x00000000	0.0
24	0x00000000	0.0
25	0x00000000	0.0
26	0x00000000	0.0
27	0x00000000	0.0
28	0x00000000	0.0
29	0x00000000	0.0
30	0x00000000	0.0
31	0x00000000	0.0
32	0x00000000	0.0
33	0x00000000	0.0
34	0x00000000	0.0
35	0x00000000	0.0
36	0x00000000	0.0
37	0x00000000	0.0
38	0x00000000	0.0
39	0x00000000	0.0
40	0x00000000	0.0
41	0x00000000	0.0
42	0x00000000	0.0
43	0x00000000	0.0
44	0x00000000	0.0
45	0x00000000	0.0
46	0x00000000	0.0
47	0x00000000	0.0
48	0x00000000	0.0
49	0x00000000	0.0
50	0x00000000	0.0
51	0x00000000	0.0
52	0x00000000	0.0
53	0x00000000	0.0
54	0x00000000	0.0
55	0x00000000	0.0
56	0x00000000	0.0
57	0x00000000	0.0
58	0x00000000	0.0
59	0x00000000	0.0
60	0x00000000	0.0
61	0x00000000	0.0
62	0x00000000	0.0
63	0x00000000	0.0

generator.transformer_layer.linear1.weight f4 [128, 64]
0	0x3db0b35c	0.0862796
1	0x3d2f4f84	0.04280044
2	0xbd98af48	-0.07455307
3	0xbb92fde0	-0.0044858307
4	0x3c676090	0.014122143
5	0xbdd07204	-0.10177997
6	0x3b66d0c0	0.003521964
7	0xbd42b6ec	-0.04753773
8	0xbd8d39aa	-0.06895764
9	0x3dc135e8	0.0943411
10	0xbd2a7a18	-0.041620344
11	0xbdec131e	-0.11527084
12	0x3c9e6528	0.019335344
13	0xbd445208	-0.047929794
14	0x3d67bb9c	0.056575403
15	0xbc0e6c10	-0.008692756
16	0x3b74d440	0.0037357956
17	0x3df6e3ae	0.12055145
18	0xbdfffdd6	-0.12499587
19	0x3d7e2e5c	0.06205593
20	0x3d9c90c6	0.07644801
21	0x3d5a99b8	0.053369254
22	0xbd850716	-0.06495492
23	0x3d383354	0.044970825
24	0xbdfe5b5c	-0.12419769
25	0x3d7e7ca8	0.0621306
26	0xbc9cdaf8	-0.019147381
27	0x3dcea67e	0.100903496
28	0xbdaab91a	-0.083360866
29	0xbdd337f6	-0.10313408
30	0x3d8ba0fc	0.06817815
31	0xbd8b010e	-0.067873105
32	0x3c6bb5c0	0.014386594
33	0xbdd33108	-0.10312086
34	0xbd958450	-0.07300627
35	0xbce8c1a8	-0.028412655
36	0xbdb40724	-0.087904245
37	0x3da7dfd4	0.08196989
38	0x3cb2fce0	0.021849096
39	0x3cc35818	0.023845717
40	0xbdcd4f46	-0.10024886
41	0x3df8cb90	0.121482015
42	0xbbcf5da0	-0.0063282996
43	0x3c81e8c0	0.015858054
44	0xbc03fe90	-0.008056298
45	0xbda56ad2	-0.08077015
46	0xbd0008b4	-0.0312583
47	0x3d81f84a	0.063461855
48	0x3d65bddc	0.056089267
49	0xbc2e1e30	-0.010627314
50	0x3dbfc5e4	0.093639165
51	0x3d021a90	0.031763613
52	0xbdfe2770	-0.12409866
53	0x3ddb9a94	0.10722843
54	0xbbac5920	-0.005259648
55	0xbdfb9a66	-0.122853085
56	0xbcbbcb10	-0.022923976
57	0xbd4dcc84	-0.05024387
58	0x3decea22	0.11568095
59	0x3c3865a0	0.011254698
60	0xbcaec950	-0.021336228
61	0xbbbcfc40	-0.005767375
62	0xbce1d6a8	-0.027568176
63	0x3d5fdc38	0.054653376
64	0x3d1e94f0	0.038716257
65	0xbd706f04	-0.058699623
66	0xbd456eec	-0.048201486
67	0x3cb0ce18	0.021582648
68	0xbdd51db0	-0.10406053
69	0x3d324258	0.0435203
70	0xbda57916	-0.08079736
71	0xbde4f11c	-0.111788005
72	0xbd89f0a2	-0.0673535
73	0xbda91192	-0.082553044
74	0x3d9f9fd6	0.07794158
75	0xbce74cb0	-0.02823481
76	0x3bdfbd20	0.0068279654
77	0xbdf78a04	-0.12086871
78	0x3d4eaf54	0.050460175
79	0x3a1de700	0.00060234964
80	0xbd65efe0	-0.056136966
81	0xbc940f00	-0.018073559
82	0x3ddb8b2a	0.10719903
83	0xbd001f44	-0.031279817
84	0xbd7d0e68	-0.061781317
85	0xbdbb93c4	-0.091590434
86	0x3c9da368	0.019242957
87	0xbdac8716	-0.08424203
88	0xbde7c78c	-0.113173574
89	0xbdeaa628	-0.11457473
90	0x3de36fdc	0.1110532
91	0xbda6758c	-0.08127889
92	0xbddef756	-0.10887019
93	0x3d330308	0.043704063
94	0x3d2bcb2c	0.041941807
95	0x3d29da94	0.041468218
96	0x3d247ae4	0.04015626
97	0x3ddd8794	0.10816875
98	0x3d134770	0.0359568
99	0xbda6cc66	-0.08144455
100	0xbd300304	-0.042971626
101	0x3d0ad084	0.033890262
102	0xbdff8c94	-0.12477985
103	0xbac73c00	-0.0015200377
104	0x3d7329a4	0.059365883
105	0xbc8f19f0	-0.017468423
106	0x3cb663a0	0.022264302
107	0x3d2d5364	0.042315856
108	0x3d4abdcc	0.04949741
109	0x3cb1e250	0.02171436
110	0xbdede670	-0.11616218
111	0xbd93cc50	-0.07216704
112	0xbd5cfac0	-0.05395007
113	0xbd8aad38	-0.0677132
114	0xbdc09000	-0.09402466
115	0x3ce892a8	0.028390244
116	0xbd20d0dc	-0.039261684
117	0x3d2da1c4	0.0423906
118	0x3def81d8	0.116946876
119	0x3db4bc00	0.08824921
120	0x3c073e40	0.008254588
121	0x3d86f528	0.065897286
122	0x3da06268	0.078312695
123	0x3ca1f108	0.019768253
124	0x3c946fa8	0.018119648
125	0xbdba5c1e	-0.09099601
126	0xbcdaedc8	-0.026724711
127	0xbd9a0076	-0.07519619
128	0x3df72c34	0.12068978
129	0x3ce67258	0.028130695
130	0x3d28bf0c	0.04119782
131	0x3db80bfc	0.08986661
132	0xbd77c720	-0.060492635
133	0x3d4d0c2c	0.050060436
134	0x3db9d02a	0.09072907
135	0x3d9d34a8	0.07676059
136	0xbbd11280	-0.006380379
137	0xbc3e0670	-0.0115982145
138	0xbdb7ca4c	-0.08974132
139	0x3d9bcbd4	0.076072365
140	0xbda7edaa	-0.08199628
141	0xbc7c8220	-0.015411884
142	0xbdd1bb44	-0.10240796
143	0xbbba3c40	-0.005683452
144	0x3cd740c0	0.026275992
145	0xbd99daaa	-0.0751241
146	0x3dc3d77e	0.09562586
147	0xbdb7609a	-0.08953972
148	0xbd5d8634	-0.054083064
149	0x3d63df48	0.05563286
150	0x3d7f4f00	0.0623312
151	0xbca87a78	-0.02056621
152	0xbd990d0c	-0.074731916
153	0x3cf45e38	0.029830083
154	0xbd1f357c	-0.038869366
155	0x3dc37d0a	0.09545334
156	0xbcebea78	-0.028798327
157	0xbd0136f0	-0.031546533
158	0xbda4f52e	-0.08054577
159	0x3dcd2966	0.10017662
160	0x3d48c3ec	0.04901497
161	0x3db8e318	0.0902769
162	0x3dccd464	0.10001448
163	0x3dc63284	0.09677604
164	0xbd65f144	-0.056138292
165	0xbd7eedb0	-0.062238395
166	0x3d17a218	0.03701982
167	0x3db27bda	0.08715029
168	0x3bc1a0e0	0.0059090704
169	0xbd690c40	-0.056896448
170	0xbd9b33ca	-0.07578237
171	0xbc7889d0	-0.015169576
172	0xbd3482e0	-0.044070125
173	0xbddf2822	-0.108963266
174	0xbc6a3540	-0.014294922
175	0x39a97600	0.0003232211
176	0xbdcc403c	-0.09973189
177	0x3daa3bd6	0.08312194
178	0x3d84bf86	0.06481843
179	0xbce45490	-0.027872354
180	0xbd56d2b0	-0.05244702
181	0x3de4ec62	0.11177899
182	0xbded3952	-0.115831986
183	0x3de241a2	0.11047675
184	0x3c903f28	0.01760824
185	0x3cb82068	0.02247639
186	0x3dc258dc	0.09489605
187	0x3d6ac3dc	0.057315692
188	0xbdcb9d00	-0.09942055
189	0x3dc10716	0.0942518
190	0x3d3bddfc	0.045865998
191	0x3c2d6220	0.010582477
192	0x3c693020	0.014232665
193	0x3da31c00	0.07964325
194	0x3da287d2	0.07936062
195	0x3dfd642a	0.123726204
196	0xbdb3c980	-0.087786674
197	0xbd1d1a10	-0.038354933
198	0x3d6440bc	0.055725798
199	0x3d8f83a6	0.07007532
200	0x3dc001b4	0.09375325
201	0x3dd31e9e	0.10308574
202	0x3dcccd6c	0.100001186
203	0xbd26685c	-0.04062687
204	0x3da7482c	0.081680626
205	0xbd2805ec	-0.041021273
206	0x3d32638c	0.043551967
207	0xbdfa42a4	-0.12219742
208	0x3dc3069c	0.09522745
209	0xbd67cd38	-0.056592196
210	0x3cebcab0	0.028783172
211	0xbcbe7c00	-0.023252487
212	0xbd569314	-0.05238636
213	0x3dec93d2	0.11551632
214	0x3d31ccdc	0.04340826
215	0xbdc80896	-0.09767263
216	0xbda92cb8	-0.082604825
217	0x3c1832f0	0.009289488
218	0xbd804a12	-0.06264128
219	0xbd6d98a0	-0.058006883
220	0xbc9c9858	-0.019115612
221	0xbd099b3c	-0.03359531
222	0x3da6ad4a	0.08138521
223	0x3d09249c	0.03348218
224	0xbca8e150	-0.02061525
225	0x3d1f7f2c	0.03893964
226	0xbadccc80	-0.0016845614
227	0xbd128188	-0.035768062
228	0x3dd3d998	0.10344237
229	0x3d49a83c	0.049232706
230	0x3d84c638	0.0648312
231	0xbb047d80	-0.0020216405
232	0xbc9850c0	-0.018593192
233	0x3c7b90f0	0.01535438
234	0xbd28aaf0	-0.041178644
235	0x3dc32378	0.095282495
236	0xbda88476	-0.0822839
237	0x3db6a15a	0.08917494
238	0x3d587d14	0.05285366
239	0x3deac5ac	0.11463484
240	0xbcda43b0	-0.026643604
241	0x3dfc4f04	0.123197585
242	0xbbe7c1c0	-0.0070726573
243	0xbd990368	-0.07471353
244	0x3d93ffbc	0.07226512
245	0x3dacc640	0.08436251
246	0xbd4d2bf4	-0.050090745
247	0x3df15148	0.11783081
248	0xbdfe91a6	-0.12430124
249	0x3d29f1e8	0.041490465
250	0x3dc83976	0.09776585
251	0x3c0a7c00	0.0084524155
252	0xbc926dc0	-0.017874599
253	0x3d38549c	0.045002565
254	0xbdfcd5b4	-0.12345448
255	0xbd96b0ec	-0.07357964

generator.transformer_layer.linear1.bias f4 [128]
0	0xbda73fb4	-0.08166447
1	0xbcea0ae0	-0.028569639
2	0xbde5263a	-0.11188932
3	0x3d6944cc	0.056950375
4	0x3dcfa31c	0.101385325
5	0xbd2456fc	-0.040122017
6	0x3bc81940	0.0061065257
7	0x3ceb9688	0.028758302
8	0x3da49a10	0.080371976
9	0x3b77e000	0.0037822723
10	0x3d36237c	0.044467434
11	0xbdacf326	-0.084448144
12	0xbd901146	-0.07034545
13	0xbcf15670	-0.029460162
14	0xbccb1430	-0.0247899
15	0xbd03a810	-0.0321427
16	0xbd282d94	-0.04105909
17	0xbda9d136	-0.08291857
18	0x3cc807b0	0.024417728
19	0xbda88190	-0.08227837
20	0xbcf95150	-0.03043428
21	0xbc935950	-0.017986923
22	0xbd3df894	-0.04637964
23	0x3d001ae0	0.03127563
24	0xbd47cc7c	-0.048778996
25	0x3d859f48	0.06524521
26	0xbca257b8	-0.019817218
27	0xbd198e10	-0.037488997
28	0x3df2debe	0.11858891
29	0x3d476e5c	0.04868923
30	0x3dc8b430	0.09799993
31	0xbcde5c98	-0.027143762
32	0xbdbf978e	-0.09355079
33	0x3caa9ef0	0.02082774
34	0x3dafb794	0.085799366
35	0x3dda84a4	0.106698304
36	0x3d3909f0	0.045175493
37	0xbb1a24c0	-0.002352044
38	0xbdf55a80	-0.11980152
39	0xbb9396e0	-0.0045040697
40	0xbd3d5ae0	-0.046229243
41	0xbd2cc8c0	-0.042183638
42	0x3d157478	0.036488026
43	0xbdb1e486	-0.086861655
44	0x3ddddfb4	0.108336836
45	0x3ccf8788	0.025333181
46	0x3bdce120	0.006740704
47	0x3df786e4	0.12086275
48	0xbd927fd6	-0.07153289
49	0xbbaf7f40	-0.0053557456
50	0x3d7b1c8c	0.06130652
51	0xbd9206b0	-0.07130182
52	0x3d1430c8	0.036179334
53	0x3da2a09c	0.0794079
54	0xbd92b056	-0.0716254
55	0x3d0338fc	0.032036766
56	0x3cb7d768	0.02244158
57	0x3da69526	0.081339166
58	0x3c8f0b50	0.017461449
59	0x3de5acbe	0.112145886
60	0x3d812384	0.06305602
61	0x3d1a6d0c	0.03770165
62	0xbcd3e4f8	-0.025866017
63	0x3d42b8c8	0.047539502
64	0x3c6ab4a0	0.014325291
65	0x3dbb16cc	0.091352075
66	0xbd179514	-0.037007406
67	0xbd2bc0f4	-0.04193206
68	0xbd23d4ec	-0.03999798
69	0xbdf9fefa	-0.12206836
70	0x3cb219e8	0.021740869
71	0xbdbe2eae	-0.09286247
72	0xbd81e5c8	-0.063426554
73	0xbd95a23c	-0.073063344
74	0xbda44b08	-0.080221236
75	0x3ca4f510	0.020136386
76	0x3c9fe1e0	0.019516885
77	0x3dd81264	0.10550383
78	0xbdd4d850	-0.10392821
79	0xbdf1cee8	-0.11807042
80	0xbd9e3706	-0.07725339
81	0x3d324ff4	0.04353328
82	0xbd317b18	-0.043330282
83	0xbd6caf3c	-0.057784304
84	0x3d61eb74	0.055156186
85	0xbdd9d58a	-0.106364325
86	0x3df2ce84	0.11855796
87	0x3d99fae8	0.0751856
88	0x3d803b5a	0.062613204
89	0x3d299ee8	0.04141131
90	0xbd12a9c0	-0.035806417
91	0xbc6f55b0	-0.014607832
92	0x3cb53760	0.022121131
93	0x3dc4ee4c	0.09615764
94	0x3dd3c754	0.10340753
95	0xbde6310a	-0.11239822
96	0x3d93f300	0.07224083
97	0xbdb92016	-0.09039323
98	0xbdf158e2	-0.11784531
99	0xbddacfa8	-0.106841385
100	0xbd42a908	-0.047524482
101	0x3c607b50	0.013701275
102	0x3da360e6	0.07977466
103	0x3dbe0e2e	0.09280048
104	0x3b9e4de0	0.004831061
105	0x3d825dee	0.06365572
106	0x3db2584c	0.087082475
107	0xbd9c9536	-0.07645647
108	0x3da111fa	0.07864757
109	0x3d0091e0	0.031389117
110	0x3dac5e2a	0.08416398
111	0x3bea14a0	0.007143572
112	0x3d4633b0	0.048389137
113	0xbdea7ac4	-0.11449197
114	0x3dc5cfba	0.09658761
115	0xbdfe7034	-0.12423745
116	0xba791500	-0.00095017254
117	0x3dc19326	0.094518945
118	0x3d85ad24	0.065271646
119	0xbd8b8eba	-0.06814332
120	0x3d81fbc0	0.063468456
121	0xbda90020	-0.08251977
122	0xbde87634	-0.113506705
123	0xbd0b0c68	-0.03394738
124	0xbd428a2c	-0.047495052
125	0xbc612770	-0.013742313
126	0xbc200ef0	-0.009769186
127	0x3de086be	0.109632

generator.transformer_layer.linear2.weight f4 [64, 128]
0	0xbd2b4436	-0.041813098
1	0x3da0816d	0.07837186
2	0x3c9dd458	0.019266292
3	0x3d136bb4	0.035991386
4	0x3c4dd9c8	0.01256413
5	0xbd32b103	-0.043625843
6	0xbc734018	-0.014846824
7	0xbd8cd5bd	-0.06876705
8	0xbd85d3fa	-0.06534572
9	0xbd9b26f6	-0.075757906
10	0x3ced2dac	0.028952442
11	0x3d7a63ca	0.061130323
12	0x3c972e30	0.018454641
13	0xbd4eac23	-0.05045713
14	0xbd942efa	-0.072355226
15	0xbd0198a7	-0.03163972
16	0x3cf6826c	0.030091487
17	0xbc195958	-0.00935968
18	0x3d125c78	0.035732716
19	0xbcadcf70	-0.021217078
20	0x3d722632	0.059118457
21	0xbcb3df1c	-0.021956973
22	0x3d16b042	0.036789186
23	0xba392d00	-0.00070638955
24	0xbbbe05b0	-0.005799018
25	0x3ca1df48	0.01975979
26	0x3da6bbad	0.08141265
27	0xbc7519f8	-0.014959805
28	0x3d1fef12	0.039046355
29	0xbce4d51a	-0.027933646
30	0x3d898d1f	0.0671637
31	0xbd375dcb	-0.044767182
32	0x3bad5620	0.005289808
33	0x3cdddbdc	0.027082376
34	0xbd835064	-0.06411818
35	0x3c46e8d8	0.012140475
36	0x3d069daa	0.032865204
37	0x3d894441	0.067024715
38	0xbda755fd	-0.08170698
39	0xbdb25a3d	-0.08708618
40	0x3d936a67	0.07198029
41	0x3c2aa0c8	0.01041431
42	0xbcb18210	-0.021668464
43	0xbd8ca415	-0.06867234
44	0xbd8ccbcc	-0.06874809
45	0xbd0ce768	-0.034400374
46	0x3d805715	0.062666096
47	0xbcac667c	-0.021044962
48	0x3a4c4a80	0.0007793084
49	0xbdae5018	-0.085113704
50	0xbce61d3e	-0.028090116
51	0xbd9dcc4e	-0.07704984
52	0xbb5023e0	-0.0031759664
53	0xbd7cc8aa	-0.061714806
54	0x3d894851	0.067032464
55	0x3db0eadf	0.08638548
56	0x3bc7f660	0.0061023682
57	0xbd509670	-0.05092472
58	0xbd8d0472	-0.068856135
59	0x3d9855b1	0.07438219
60	0x3c0ae980	0.008478522
61	0xbd55af1b	-0.052168947
62	0x3cfb82b8	0.03070198
63	0xbd1bede7	-0.03806868
64	0xbd2fb633	-0.042898368
65	0x3a589300	0.0008261651
66	0x3bef3100	0.0072995424
67	0x3d67aac6	0.056559347
68	0xbb02b040	-0.001994148
69	0xbd230966	-0.039803885
70	0x3ca983e0	0.020692766
71	0xbd99f9ed	-0.07518373
72	0x3d77dd5e	0.060513847
73	0xbc1ec148	-0.0096896365
74	0x3d85c215	0.06531159
75	0xbc373890	-0.011182919
76	0x3c8c3b14	0.017118014
77	0xbd6ddc86	-0.058071636
78	0xbd1fcd44	-0.039014116
79	0x3da19021	0.078888185
80	0xbcf8389e	-0.030300435
81	0x3cb689f8	0.022282586
82	0x3d7fccb6	0.062451087
83	0x3bea2ec0	0.0071466863
84	0xbd68ec1d	-0.0568658
85	0x3b810180	0.0039369464
86	0x3d3c9072	0.04603619
87	0xbd214cf0	-0.039380014
88	0x3d5fcb72	0.05463738
89	0xbc2bf950	-0.010496452
90	0x3d33de1e	0.043913
91	0x3bc07c40	0.0058741868
92	0xbcf96dc6	-0.030447852
93	0x3d56ec6a	0.052471556
94	0x3d78dc6a	0.06075708
95	0xbbe17960	-0.006880924
96	0xbd33dd1a	-0.04391203
97	0xbd55dabf	-0.052210566
98	0x3d22457a	0.03961704
99	0x3dabcb03	0.08388331
100	0x3c6b1938	0.014349274
101	0xbd54571c	-0.051840886
102	0x3cbdc950	0.023167282
103	0x3d7f2696	0.062292658
104	0xbd3794f2	-0.04481978
105	0x3d31a802	0.043373115
106	0x3d543f76	0.051818334
107	0x3b2cad40	0.0026348382
108	0xbdb33e60	-0.087521315
109	0x3d0bb648	0.034109384
110	0xbd5fbd02	-0.05462361
111	0x3da49e8b	0.08038052
112	0xbcf2b184	-0.029625662
113	0x3d96950b	0.073526464
114	0xbd4e570d	-0.050375987
115	0x3d071042	0.03297449
116	0xbc95f7f8	-0.018306717
117	0xbc64f4b0	-0.013974354
118	0x3d5f0e4a	0.054456986
119	0x3c217f90	0.009857073
120	0xba869580	-0.0010267943
121	0xbd81892d	-0.06324992
122	0xbb143e20	-0.0022620037
123	0xbd90916d	-0.07058988
124	0xbba081d0	-0.0048982874
125	0x3d20403e	0.039123766
126	0xbc2e9748	-0.010656185
127	0xbd3bdabd	-0.045862902
128	0x3dadf8e7	0.0849474
129	0xbd3242a6	-0.043520592
130	0xbd91041b	-0.07080861
131	0xbd2bca13	-0.04194076
132	0xbbd66d60	-0.0065438002
133	0xbdaaa962	-0.083330885
134	0xbd82ab44	-0.063803226
135	0x3c7c7ed8	0.015411101
136	0xbd5d798e	-0.054071
137	0xbd19c179	-0.037538026
138	0x3d393872	0.045219846
139	0x3cfa09fc	0.030522339
140	0xbd5a6ca2	-0.053326257
141	0xbd216c97	-0.0394102
142	0xbdb2ada7	-0.08724528
143	0x3cffc338	0.031221017
144	0x3d13e9da	0.03611169
145	0x3d8370f3	0.06418028
146	0xbd8f043e	-0.06983231
147	0xbd669696	-0.056295954
148	0x3b9c6320	0.004772559
149	0xbd80d3ae	-0.06290375
150	0x3bbd81d0	0.005783297
151	0x3da1222d	0.07867847
152	0xbd7b118a	-0.061296023
153	0x3cbe9594	0.023264684
154	0xbd64fac7	-0.055903222
155	0xbbe7d2b0	-0.0070746765
156	0xb9830600	-0.00024990737
157	0xbc521858	-0.012823187
158	0xbd25ebb7	-0.040508
159	0xbc2223a8	-0.009896196
160	0xbd90ade0	-0.07064414
161	0x3bee75c0	0.0072772205
162	0x3d94635b	0.07245513
163	0x3b777900	0.003776133
164	0xbc932ed4	-0.017966665
165	0x3c9dbbd0	0.019254595
166	0xbd0273b1	-0.031848613
167	0xbd884dbb	-0.06655451
168	0xbcf09176	-0.029366236
169	0x3ca196b4	0.019725181
170	0xbd1e686e	-0.03867381
171	0x3d3b8932	0.045785137
172	0x3cbf14b8	0.02332531
173	0xbd832431	-0.06403387
174	0x3cfe40e8	0.03103681
175	0xbd15de0b	-0.03658871
176	0xbd0971cc	-0.03355579
177	0x3d417a6a	0.047235884
178	0xbcf61522	-0.030039374
179	0xbda1d090	-0.07901108
180	0xbd7a66f1	-0.06113333
181	0xbd89fdd2	-0.067378655
182	0xbd9d054c	-0.07667026
183	0xb6b60000	-5.4240227e-06
184	0x3d962bcd	0.07332573
185	0x3d39e4e6	0.04538431
186	0x3d6b8ce6	0.057507418
187	0x3d1dfcd2	0.038571186
188	0x3d839cc7	0.06426387
189	0x3b8164f0	0.0039488003
190	0xbda6d83d	-0.08146713
191	0xbcb57f7c	-0.022155516
192	0x3d39350a	0.045216598
193	0x3cd19b70	0.025586814
194	0x3c60e4e8	0.0137264505
195	0xbd043547	-0.03227737
196	0xbcf4147c	-0.029794924
197	0x3d8cc447	0.068733744
198	0x3cd65148	0.026161805
199	0xbd92399e	-0.07139896
200	0x3db05b97	0.086112194
201	0xbd017d33	-0.03161354
202	0x3cef0978	0.02917932
203	0x3be55100	0.0069981813
204	0xbd6a36ec	-0.057181284
205	0xbb288d60	-0.0025719032
206	0xbd8b9716	-0.06815927
207	0xbd2e00f1	-0.042481367
208	0xbd4a2c51	-0.04935867
209	0x3d8826fb	0.0664806
210	0xbcbe4f14	-0.023231067
211	0xbd9fc4db	-0.07801219
212	0xbc7bd998	-0.015371703
213	0x3ce27ed8	0.027648374
214	0x3bb23630	0.0054385886
215	0x3da506e7	0.08057957
216	0xbd6db78e	-0.05803638
217	0xbd5f50a5	-0.054520268
218	0xbc267538	-0.010159783
219	0xbdadd1da	-0.08487292
220	0xbced9de0	-0.029005945
221	0x3d9a6ee5	0.07540683
222	0xbc4d8560	-0.012544006
223	0x3be30f00	0.0069292784
224	0x3c13f810	0.009031311
225	0x3c8abf4c	0.01693692
226	0x3bf220e0	0.007389173
227	0xbce46e70	-0.027884692
228	0x3d52b8c2	0.05144573
229	0x3bf4efb0	0.007474862
230	0x3d8ac4ab	0.06775793
231	0x3c9ac368	0.018892005
232	0x3d596392	0.053073473
233	0xbd813639	-0.0630917
234	0x3cb98d50	0.02265039
235	0x3d3415d2	0.043966122
236	0xbd840c14	-0.06447616
237	0x3da2c465	0.079476155
238	0x3c754250	0.014969423
239	0xbd1a1807	-0.03762057
240	0xbdaca17a	-0.08429237
241	0x3d8805fb	0.06641766
242	0xbc123c58	-0.00892552
243	0xbd4b3386	-0.049609683
244	0xbd551f68	-0.052031904
245	0x3c36ec98	0.011164807
246	0xbc1d18a8	-0.009588398
247	0xbd647637	-0.0557768
248	0x3d8a5bc7	0.067557864
249	0xbcee8224	-0.02911479
250	0x3c5ea6e0	0.013589591
251	0xbcda94c8	-0.026682273
252	0xbca88168	-0.020569518
253	0xbdb0f8b8	-0.08641189
254	0xbc5e7a48	-0.013578959
255	0xbac14000	-0.0014743805

generator.transformer_layer.linear2.bias f4 [64]
0	0x3af1b540	0.0018440858
1	0x3d292c32	0.041301914
2	0xbac7c840	-0.0015242174
3	0x3bc877e0	0.006117806
4	0xbd3c9a36	-0.046045505
5	0xbd6cb88e	-0.057793193
6	0xbd09ae69	-0.033613596
7	0x3d1c4cc6	0.038159154
8	0x3da1a15b	0.07892104
9	0xba95d540	-0.0011431351
10	0x3d111ac8	0.03542593
11	0x3d9b3c09	0.0757981
12	0x3daf58e7	0.08561879
13	0xbc931aa8	-0.017957047
14	0x3cce72b4	0.02520118
15	0x3ce65b90	0.028119832
16	0xbd97ca1a	-0.07411595
17	0xbd6313d5	-0.055438835
18	0x3d0544fa	0.032536484
19	0x3b86c980	0.004113376
20	0xbd5a63bd	-0.053317774
21	0x3cd496a0	0.02595073
22	0xbd6f0522	-0.058354504
23	0xbdaabe4a	-0.08337076
24	0xbd040a33	-0.03223629
25	0xbd378fcc	-0.04481487
26	0xbd63e6b2	-0.05563993
27	0xbd0b0eac	-0.03394954
28	0xbd012357	-0.031527843
29	0x3d41c182	0.047303684
30	0x3cb07e6c	0.021544658
31	0xbd8efb4b	-0.06981524
32	0x39c74b00	0.00038012117
33	0xbd38fee2	-0.04516495
34	0x3c5f3840	0.013624251
35	0xbd5286ed	-0.051398207
36	0xbd64f398	-0.05589637
37	0xbd61306a	-0.054977812
38	0x3ca70e7c	0.020392649
39	0x3d637d52	0.055539437
40	0xbca76b50	-0.020436913
41	0x3cbfaeb0	0.023398727
42	0x3bbfce70	0.0058534667
43	0x3d9ecf63	0.077543996
44	0x3d804321	0.06262804
45	0x3c545310	0.012959257
46	0xbd221af8	-0.0395765
47	0xbc705270	-0.014668092
48	0x3d7af2b2	0.06126661
49	0x3d916a8f	0.071004026
50	0x3d2d05ca	0.04224185
51	0x3d6e58d2	0.058190174
52	0xbd7532d2	-0.05986292
53	0xbd93d1aa	-0.072177246
54	0x3d2fe40a	0.042942084
55	0xbd06d864	-0.03292121
56	0xbcd5dbca	-0.02610578
57	0xbcd3393c	-0.025784127
58	0x3cfbff14	0.03076128
59	0x3d3e3772	0.046439596
60	0xbcd03108	-0.025414005
61	0xbd2bcac8	-0.041941434
62	0x3d93fee5	0.07226352
63	0x3d22106a	0.039566435

generator.transformer_layer.norm1.weight f4 [64]
0	0x3f800000	1.0
1	0x3f800000	1.0
2	0x3f800000	1.0
3	0x3f800000	1.0
4	0x3f800000	1.0
5	0x3f800000	1.0
6	0x3f800000	1.0
7	0x3f800000	1.0
8	0x3f800000	1.0
9	0x3f800000	1.0
10	0x3f800000	1.0
11	0x3f800000	1.0
12	0x3f800000	1.0
13	0x3f800000	1.0
14	0x3f800000	1.0
15	0x3f800000	1.0
16	0x3f800000	1.0
17	0x3f800000	1.0
18	0x3f800000	1.0
19	0x3f800000	1.0
20	0x3f800000	1.0
21	0x3f800000	1.0
22	0x3f800000	1.0
23	0x3f800000	1.0
24	0x3f800000	1.0
25	0x3f800000	1.0
26	0x3f800000	1.0
27	0x3f800000	1.0
28	0x3f800000	1.0
29	0x3f800000	1.0
30	0x3f800000	1.0
31	0x3f800000	1.0
32	0x3f800000	1.0
33	0x3f800000	1.0
34	0x3f800000	1.0
35	0x3f800000	1.0
36	0x3f800000	1.0
37	0x3f800000	1.0
38	0x3f800000	1.0
39	0x3f800000	1.0
40	0x3f800000	1.0
41	0x3f800000	1.0
42	0x3f800000	1.0
43	0x3f800000	1.0
44	0x3f800000	1.0
45	0x3f800000	1.0
46	0x3f800000	1.0
47	0x3f800000	1.0
48	0x3f800000	1.0
49	0x3f800000	1.0
50	0x3f800000	1.0
51	0x3f800000	1.0
52	0x3f800000	1.0
53	0x3f800000	1.0
54	0x3f800000	1.0
55	0x3f800000	1.0
56	0x3f800000	1.0
57	0x3f800000	1.0
58	0x3f800000	1.0
59	0x3f800000	1.0
60	0x3f800000	1.0
61	0x3f800000	1.0
62	0x3f800000	1.0
63	0x3f800000	1.0

generator.transformer_layer.norm1.bias f4 [64]
0	0x00000000	0.0
1	0x00000000	0.0
2	0x00000000	0.0
3	0x00000000	0.0
4	0x00000000	0.0
5	0x00000000	0.0
6	0x00000000	0.0
7	0x00000000	0.0
8	0x00000000	0.0
9	0x00000000	0.0
10	0x00000000	0.0
11	0x00000000	0.0
12	0x00000000	0.0
13	0x00000000	0.0
14	0x00000000	0.0
15	0x00000000	0.0
16	0x00000000	0.0
17	0x00000000	0.0
18	0x00000000	0.0
19	0x00000000	0.0
20	0x00000000	0.0
21	0x00000000	0.0
22	0x00000000	0.0
23	0x00000000	0.0
24	0x00000000	0.0
25	0x00000000	0.0
26	0x00000000	0.0
27	0x00000000	0.0
28	0x00000000	0.0
29	0x00000000	0.0
30	0x00000000	0.0
31	0x00000000	0.0
32	0x00000000	0.0
33	0x00000000	0.0
34	0x00000000	0.0
35	0x00000000	0.0
36	0x00000000	0.0
37	0x00000000	0.0
38	0x00000000	0.0
39	0x00000000	0.0
40	0x00000000	0.0
41	0x00000000	0.0
42	0x00000000	0.0
43	0x00000000	0.0
44	0x00000000	0.0
45	0x00000000	0.0
46	0x00000000	0.0
47	0x00000000	0.0
48	0x00000000	0.0
49	0x00000000	0.0
50	0x00000000	0.0
51	0x00000000	0.0
52	0x00000000	0.0
53	0x00000000	0.0
54	0x00000000	0.0
55	0x00000000	0.0
56	0x00000000	0.0
57	0x00000000	0.0
58	0x00000000	0.0
59	0x00000000	0.0
60	0x00000000	0.0
61	0x00000000	0.0
62	0x00000000	0.0
63	0x00000000	0.0

generator.transformer_layer.norm2.weight f4 [64]
0	0x3f800000	1.0
1	0x3f800000	1.0
2	0x3f800000	1.0
3	0x3f800000	1.0
4	0x3f800000	1.0
5	0x3f800000	1.0
6	0x3f800000	1.0
7	0x3f800000	1.0
8	0x3f800000	1.0
9	0x3f800000	1.0
10	0x3f800000	1.0
11	0x3f800000	1.0
12	0x3f800000	1.0
13	0x3f800000	1.0
14	0x3f800000	1.0
15	0x3f800000	1.0
16	0x3f800000	1.0
17	0x3f800000	1.0
18	0x3f800000	1.0
19	0x3f800000	1.0
20	0x3f800000	1.0
21	0x3f800000	1.0
22	0x3f800000	1.0
23	0x3f800000	1.0
24	0x3f800000	1.0
25	0x3f800000	1.0
26	0x3f800000	1.0
27	0x3f800000	1.0
28	0x3f800000	1.0
29	0x3f800000	1.0
30	0x3f800000	1.0
31	0x3f800000	1.0
32	0x3f800000	1.0
33	0x3f800000	1.0
34	0x3f800000	1.0
35	0x3f800000	1.0
36	0x3f800000	1.0
37	0x3f800000	1.0
38	0x3f800000	1.0
39	0x3f800000	1.0
40	0x3f800000	1.0
41	0x3f800000	1.0
42	0x3f800000	1.0
43	0x3f800000	1.0
44	0x3f800000	1.0
45	0x3f800000	1.0
46	0x3f800000	1.0
47	0x3f800000	1.0
48	0x3f800000	1.0
49	0x3f800000	1.0
50	0x3f800000	1.0
51	0x3f800000	1.0
52	0x3f800000	1.0
53	0x3f800000	1.0
54	0x3f800000	1.0
55	0x3f800000	1.0
56	0x3f800000	1.0
57	0x3f800000	1.0
58	0x3f800000	1.0
59	0x3f800000	1.0
60	0x3f800000	1.0
61	0x3f800000	1.0
62	0x3f800000	1.0
63	0x3f800000	1.0

generator.transformer_layer.norm2.bias f4 [64]
0	0x00000000	0.0
1	0x00000000	0.0
2	0x00000000	0.0
3	0x00000000	0.0
4	0x00000000	0.0
5	0x00000000	0.0
6	0x00000000	0.0
7	0x00000000	0.0
8	0x00000000	0.0
9	0x00000000	0.0
10	0x00000000	0.0
11	0x00000000	0.0
12	0x00000000	0.0
13	0x00000000	0.0
14	0x00000000	0.0
15	0x00000000	0.0
16	0x00000000	0.0
17	0x00000000	0.0
18	0x00000000	0.0
19	0x00000000	0.0
20	0x00000000	0.0
21	0x00000000	0.0
22	0x00000000	0.0
23	0x00000000	0.0
24	0x00000000	0.0
25	0x00000000	0.0
26	0x00000000	0.0
27	0x00000000	0.0
28	0x00000000	0.0
29	0x00000000	0.0
30	0x00000000	0.0
31	0x00000000	0.0
32	0x00000000	0.0
33	0x00000000	0.0
34	0x00000000	0.0
35	0x00000000	0.0
36	0x00000000	0.0
37	0x00000000	0.0
38	0x00000000	0.0
39	0x00000000	0.0
40	0x00000000	0.0
41	0x00000000	0.0
42	0x00000000	0.0
43	0x00000000	0.0
44	0x00000000	0.0
45	0x00000000	0.0
46	0x00000000	0.0
47	0x00000000	0.0
48	0x00000000	0.0
49	0x00000000	0.0
50	0x00000000	0.0
51	0x00000000	0.0
52	0x00000000	0.0
53	0x00000000	0.0
54	0x00000000	0.0
55	0x00000000	0.0
56	0x00000000	0.0
57	0x00000000	0.0
58	0x00000000	0.0
59	0x00000000	0.0
60	0x00000000	0.0
61	0x00000000	0.0
62	0x00000000	0.0
63	0x00000000	0.0
