GANS/gan_model.pth (torch, 948054 bytes, 71 tensors)

embedding.fc.weight f4 [64, 17]
-0.013418565 0.08908831 0.1270813 -0.19287416 -0.1539149 0.21498677 -0.119204104 0.15103038
0.040467918 0.16548246 -0.15484317 -0.3380775 -0.12057562 0.040103804 -0.23074774 0.24394362
-0.18244752 -0.21465349 0.10674056 -0.2447384 -0.09049174 0.20793687 0.06355795 -0.11466856
-0.2738937 -0.5526846 -0.7008012 0.56701255 0.67847997 0.43120348 -0.08646015 0.18851715
0.040406942 -0.1460106 -0.033341367 0.11470927 -0.089217015 0.041614458 -0.39990607 0.18539722
0.113319285 -0.019842405 -0.12835725 -0.015760593 -0.12669346 -0.15398967 -0.108551994 0.06006269
0.010285339 -0.091970116 0.36759028 0.13019392 -0.10241926 0.19096121 -0.065478966 -0.2039851
-0.171426 0.18185228 -0.17457801 0.13558455 0.07499326 -0.23444472 0.11819613 0.32948375
-0.040428873 0.06342661 0.115904175 -0.14893922 0.08622928 0.032120697 -0.043160547 0.050580785
-0.20672774 -0.08418671 0.17878948 0.053130448 0.2581487 0.07481334 -0.4294196 -0.44015315
0.035273306 0.07219951 0.25535104 0.19093922 0.20271413 -0.31084713 -0.09480882 0.31109148
-0.2598929 0.27985218 -0.17101005 -0.10111944 0.23356688 0.20075394 0.029998476 -0.15859623
-0.13185409 0.046965446 0.3646583 -0.14034154 0.036945526 0.123652175 0.16603982 -0.17506751
-0.096306615 -0.51224774 0.13892607 0.22661054 -0.11030535 -0.15514332 0.037059706 0.036274213
0.105273776 -0.21747823 -0.3711209 0.01279432 0.0477057 0.24490964 0.19406669 0.38144374
-0.11760131 0.108835384 -0.22111064 -0.18927498 -0.20685843 0.12445009 -0.050991055 -0.16135375
0.016972939 0.06499716 -0.5085997 -0.22055976 0.14679125 0.07722691 -0.03881057 0.56556475
-0.033043478 -0.07794702 0.2276785 0.39065942 -0.37773654 0.2647083 0.098044075 0.12705216
0.019166173 -0.2673887 0.18035172 -0.34350958 -0.09824079 -0.119507305 -0.03772543 0.11665242
-0.0068442514 0.19036564 0.19989786 0.18491252 -0.2127919 -0.15359072 0.051909804 -0.029920252
0.26815534 0.025019947 -0.05129286 -0.087471075 -0.03968415 -0.26498482 0.34218916 -0.011899919
-0.29398426 0.116705894 0.0784917 0.10746029 -0.034979593 -0.076307826 -0.031060267 -0.05128647
0.11890554 -0.032161493 0.11458476 0.15666446 -0.23868233 0.23913378 0.18069158 -0.41520908
-0.0954301 0.017966758 -0.14881082 0.03399527 -0.061488997 0.11021997 -0.10496454 -0.15013014
-0.08901377 0.11284845 0.2638376 -0.022826755 -0.079215616 -0.061198186 -0.2703602 -0.109252445
0.19219302 -0.24709737 -0.09348361 0.09480619 0.13793299 0.09700124 -0.30648392 -0.4336531
0.045313623 0.1401442 0.12068272 0.023915721 0.22425331 -0.048500467 0.2539565 0.10949189
-0.25052628 -0.34493297 0.33266506 0.49380353 -0.43392432 0.07062344 -0.14843485 0.07975037
-0.17471918 0.17313358 -0.13436228 -0.017742386 0.016093755 -0.009756468 0.13971713 0.17163078
0.14144577 0.19717032 -0.0903754 0.17637983 0.020863444 -0.24087177 -0.19574468 0.04000454
0.05901109 -0.07060739 -0.14014107 -0.20807515 -0.06985434 -0.22223994 -0.08396695 0.19829284
0.24899612 -0.15591344 -0.63226575 0.14659746 0.46455255 0.45880008 0.009280384 -0.036554188
00000000: 8ad9 5bbc ef73 b63d 9a21 023e ce80 45be
00000010: de9b 1dbe 7e25 5c3e 4821 f4bd b5a7 1a3e
00000020: b0c1 253d 3c74 293e 358f 1ebe 7e18 adbe
00000030: 5af0 f6bd e343 243d 2349 6cbe 5bcc 793e
00000040: 86d3 3abe 20ce 5bbe cb9a da3d b49c 7abe
00000050: bc53 b9bd 67ed 543e ac2a 823d 5ad7 eabd
00000060: cc3b 8cbe bd7c 0dbf b567 33bf bc27 113f
00000070: ddb0 2d3f b4c6 dc3e 0512 b1bd a40a 413e
00000080: c081 253d cd83 15be f590 08bd b2ec ea3d
00000090: 69b7 b6bd ec73 2a3d 7dc0 ccbe c5d8 3d3e
000000a0: f113 e83d 8a8c a2bc 1570 03be 5c1c 81bc
000000b0: eebb 01be 78af 1dbe 8250 debd 4c04 763d
000000c0: d783 283c d45a bcbd cb34 bc3e 8e51 053e
000000d0: 30c1 d1bd 568b 433e d619 86bd 78e1 50be
000000e0: 4c8a 2fbe 7c37 3a3e 94c4 32be add6 0a3e
000000f0: 1196 993d 4712 70be d010 f23d 18b2 a83e
00000100: bf98 25bd cfe5 813d 2b5f ed3d 8683 18be
00000110: fa98 b03d fe90 033d 1dc9 30bd cc2d 4f3d
00000120: 70b0 53be 156a acbd 9714 373e 509f 593d
00000130: 112c 843e bd37 993d e3dc dbbe c15b e1be
00000140: be7a 103d 56dd 933d 5fbd 823e 9285 433e
00000150: 4b94 4f3e 5b27 9fbe 202b c2bd 6247 9f3e
00000160: af10 85be c948 8f3e 421d 2fbe b517 cfbd
00000170: 282c 6f3e 7192 4d3e 5dbf f53c 0d67 22be
00000180: c204 07be d75e 403d 7eb4 ba3e b1b5 0fbe
00000190: 3154 173d 5a3d fd3d 5806 2a3e e644 33be
000001a0: 673c c5bd ab22 03bf a342 0e3e 980c 683e
000001b0: c5e7 e1bd e4dd 1ebe ebcb 173d 4594 143d
000001c0: c799 d73d 9db2 5ebe 8f03 bebe 449f 513c
000001d0: 0d67 433d 98c9 7a3e 6bb9 463e 984c c33e
000001e0: f5d8 f0bd 16e5 de3d d46a 62be 4dd1 41be
000001f0: b2d2 53be b0df fe3d ffdb 50bd eb39 25be
00000200: d50a 8b3c 3b1d 853d 9733 02bf 6bda 61be
00000210: 7250 163e 2429 9e3d d5f7 1ebd dac8 103f
00000220: 9958 07bd b0a2 9fbd 8d24 693e 8304 c83e
00000230: af66 c1be d987 873e 55cb c83d f619 023e
00000240: 6102 9d3c 2ce7 88be 1fae 383e 7de0 afbe
00000250: 7832 c9bd 3fc0 f4bd fb85 1abd 77e7 ee3d
00000260: be45 e0bb 36ef 423e 06b2 4c3e b559 3d3e
00000270: 1fe6 59be e346 1dbe 609f 543d 511b f5bc
00000280: a84b 893e a2f6 cc3c 7618 52bd 0924 b3bd
00000290: d98b 22bd 17ac 87be 6b33 af3e e1f7 42bc
000002a0: 1b85 96be 8003 ef3d 42c0 a03d 2414 dc3d
000002b0: c346 0fbd 4747 9cbd 1a72 febc c311 52bd
000002c0: bf84 f33d c5bb 03bd 6aab ea3d a66c 203e
000002d0: 2469 74be 7cdf 743e 3707 393e 4996 d4be
000002e0: db70 c3bd 062f 933c dd61 18be a03e 0b3d
000002f0: e3db 7bbd 02bb e13d a6f7 d6bd b7bb 19be
00000300: da4c b6bd 171d e73d b915 873e 2dff babc
00000310: cc3b a2bd f3aa 7abd a76c 8abe bfbf dfbd
00000320: 3fce 443e 1807 7dbe 5674 bfbd bf29 c23d
00000330: 4e3e 0d3e 96a8 c63d 76eb 9cbe c707 debe
00000340: c79a 393d f681 0f3e 8028 f73d e7ea c33c
00000350: a9a2 653e 6da8 46bd 9606 823e 493d e03d
00000360: fb44 80be 0e9b b0be 1353 aa3e d1d3 fc3e
00000370: 542b debe 06a3 903d 4eff 17be 2954 a33d
00000380: 96e9 32be ee49 313e 4496 09be 7b58 91bc
00000390: 0dd7 833c 98d9 1fbc 0212 0f3e fbbf 2f3e
000003a0: 29d7 103e 04e7 493e bd16 b9bd ea9c 343e
000003b0: d0e9 aa3c 17a7 76be 4b71 48be cddb 233d
000003c0: 9db5 713d 9b9a 90bd 2481 0fbe a711 55be
000003d0: cb0f 8fbd de92 63be ddf6 abbd 470d 4b3e
000003e0: d7f8 7e3e c6a7 1fbe 2bdc 21bf a51d 163e
000003f0: d5d9 ed3e d8e7 ea3e c00c 183c d8b9 15bd

embedding.fc.bias f4 [64]
0.122288145 0.19575807 -0.12879804 0.11850345 -0.24084656 -0.12147866 0.19581701 -0.013142749
-0.26862106 0.22928922 -0.1097335 0.025429834 -0.0320133 -0.14074644 0.121188454 -0.0005686934
0.25282553 -0.15380579 -0.011621961 -0.02119699 -0.12570368 0.24160354 0.29924464 -0.113453455
-0.28147823 0.049064532 -0.2280612 0.06591198 -0.121931046 -0.22292858 -0.22471926 0.14520177
0.07305471 0.22703564 0.13709222 0.0017643679 -0.18671866 -0.159021 0.37735924 -0.19527191
0.1870869 -0.22536299 -0.038544614 0.029475296 0.028036805 0.1699292 -0.11255898 0.07284176
-0.20720896 0.22747357 0.12047314 -0.16905278 0.123044 0.30682865 0.1473504 -0.03910353
0.07041562 -0.0480016 0.20585947 0.06876544 -0.064184904 -0.1101109 -0.044306148 0.012554655
00000000: 3572 fa3d ce74 483e a2e3 03be f0b1 f23d
00000010: 7ba0 76be cec9 f8bd 4184 483e af54 57bc
00000020: b388 89be cbca 6a3e f5bb e0bd 3a52 d03c
00000030: 6120 03bd d61f 10be a731 f83d 5e14 15ba
00000040: 5972 813e 447f 1dbe 0a6a 3ebc 4fa5 adbc
00000050: 77b8 00be eb66 773e 9836 993e 495a e8bd
00000060: ea1d 90be e4f7 483d e088 69be dcfc 863d
00000070: fcb6 f9bd 6447 64be ce1c 66be c6af 143e
00000080: b59d 953d 087c 683e e761 0c3e 5d42 e73a
00000090: 2d33 3fbe 67d6 22be 3b35 c13e 5cf5 47be
000000a0: b593 3f3e 8ec5 66be f5e0 1dbd 2d76 f13c
000000b0: 71ad e53c ec01 2e3e 5385 e6bd 102e 953d
000000c0: 962e 54be d5ee 683e 9fba f63d 2c1c 2dbe
000000d0: 7efe fb3d a518 9d3e 06e3 163e 062b 20bd
000000e0: 1136 903d 539d 44bd d3cc 523e e5d4 8c3d
000000f0: 6073 83bd d381 e1bd 5d7a 35bd 0ab2 4d3c

generator.transformer_layer.self_attn.in_proj_weight f4 [192, 64]
0.15124117 0.09549871 0.07135217 -0.03732588 0.044493034 0.02012527 0.050188914 -0.073090315
-0.1521182 0.06916121 0.0055092424 0.12873848 0.084395364 -0.077406175 -0.0072677433 -0.06521971
-0.14336555 0.08243641 0.13998629 -0.118219465 0.048367187 -0.0400673 0.152741 -0.10539006
0.13037215 -0.07172528 0.06768273 0.04329586 -0.055665903 -0.13940802 -0.08627522 -0.015211374
-0.122978024 0.14414062 0.13575386 0.118569896 0.123900905 -0.1149335 0.074113026 0.13206024
0.15305333 0.009513393 -0.01929459 0.08226986 -0.0020506233 0.13750808 0.09021661 -0.094653785
-0.13340098 0.07778749 0.14938645 -0.059026882 0.12939472 -0.0013258904 0.07351832 -0.13425602
-0.13211869 0.0024984926 0.13818814 -0.07324994 -0.120101094 0.029253855 0.042270273 -0.053032592
-0.07310792 -0.0766544 -0.1387306 -0.09493655 -0.012863219 0.07982528 -0.074925944 0.03736143
0.12214114 -0.11604603 -0.08455982 -0.09379655 -0.09897134 0.035352528 0.1102529 -0.12562025
-0.0030817688 0.04504198 0.10906516 -0.14216824 -0.15107271 0.048364952 0.12948574 0.091215104
0.14135946 0.114656284 0.05235839 -0.039355934 0.050605252 -0.036472335 -0.03540513 0.1407303
0.12232159 0.023210913 -0.054817162 0.083541945 -0.0004849434 -0.04702366 0.035873115 0.093741
0.12699713 -0.035496123 -0.11898988 -0.098500594 0.010220945 -0.03229408 0.1081868 0.074623615
0.08827226 -0.06794663 -0.0061710924 -0.14786042 -0.023234442 -0.10456011 0.0041265786 0.052838698
-0.10296397 -0.023258522 -0.034507237 -0.12955151 0.14073728 -0.042846195 0.05173865 -0.1499527
-0.029043682 0.13218473 -0.13334343 0.020048305 0.11909966 -0.0066629946 0.08844763 -0.06969962
-0.12875006 -0.09684359 -0.032503724 0.12916313 -0.15192668 -0.12311505 -0.087548405 0.14947905
0.06602095 -0.09497721 0.10974707 -0.13767147 -0.09026086 -0.13550398 0.1254239 -0.0934045
0.01370962 -0.07841229 0.04835692 -0.018433541 -0.039105445 -0.12634265 0.13658924 -0.14516732
0.058378667 -0.14023778 0.09223813 0.10956307 0.12047775 -0.10568335 0.120121285 -0.14543778
-0.02983293 0.12959765 -0.11853291 -0.039088935 0.115007624 -0.10755501 -0.007322207 -0.06317778
0.13140444 -0.039763033 0.09037042 0.1447104 -0.020174384 0.06447868 0.055495754 0.07184054
0.08484186 -0.021332145 -0.08032758 0.060893446 0.12914275 0.123969 -0.10599202 -0.10406339
0.09627633 0.13767825 -0.0627564 -0.01361236 -0.07778512 -0.031036578 -0.048952997 -0.04812278
0.11705987 -0.09750162 0.036004767 -0.102666035 0.0712371 -0.04878956 -0.06082192 0.10086228
-0.0031856447 -0.026239246 -0.14522564 0.059093326 -0.054128036 0.03867109 0.14835139 0.020015433
0.026365861 -0.019619644 0.018697992 0.04185058 -0.11233057 -0.14295493 0.0071537495 -0.020835146
0.001162082 0.15251358 0.07455717 0.13369845 0.035635054 -0.02410549 -0.020389736 -0.049913622
0.0943006 0.008797795 -0.032699198 0.0115314275 0.09983893 -0.09725676 0.0099461675 0.083956584
-0.064878434 0.06535041 0.08283138 -0.1480839 -0.03546053 -0.1157077 0.08989343 -0.05629412
0.071006626 -0.055084832 -0.083412364 0.087721035 -0.14587995 -0.048651554 -0.055413626 -0.001976505
00000000: f7de 1a3e d494 c33d 1621 923d 06e3 18bd
00000010: 543e 363d c0dd a43c e492 4d3d 60b0 95bd
00000020: e0c4 1bbe 64a4 8d3d e086 b43b 05d4 033e
00000030: 7ad7 ac3d 2187 9ebd 4026 eebb e991 85bd
00000040: 6bce 12be 6cd4 a83d 9158 0f3e 0c1d f2bd
00000050: ac1c 463d 9c1d 24bd 2368 1c3e bed6 d7bd
00000060: 4780 053e b4e4 92bd 3e9d 8a3d 0057 313d
00000070: ee01 64bd fac0 0ebe 10b1 b0bd 2039 79bc
00000080: e7db fbbd 9999 133e 0f03 0b3e c6d4 f23d
00000090: c2bf fd3d 4162 ebbd 92c8 973d cd3a 073e
000000a0: 03ba 1c3e 10de 1b3c b00f 9ebc 1a7d a83d
000000b0: c063 06bb ebce 0c3e 7cc3 b83d d8d9 c1bd
000000c0: 449a 08be 0c4f 9f3d c3f8 183e 2cc6 71bd
000000d0: 0d80 043e 80c9 adba c690 963d 697a 09be
000000e0: 1f4a 07be c0bd 233b 3181 0d3e 1104 96bd
000000f0: 90f7 f5bd c8a5 ef3c 9823 2d3d b438 59bd
00000100: 9bb9 95bd fbfc 9cbd 650f 0ebe 186e c2bd
00000110: 40c0 52bc 707b a33d c672 99bd 4c08 193d
00000120: 2225 fa3d 8aa9 edbd b32d adbd 6818 c0bd
00000130: 7cb1 cabd d0cd 103d 46cc e13d 98a2 00be
00000140: 80f7 49bb f07d 383d 8e5d df3d 8d94 11be
00000150: ceb2 1abe 541a 463d e997 043e fcce ba3d
00000160: 89c0 103e ead0 ea3d c075 563d b033 21bd
00000170: 7447 4f3d 0464 15bd f804 11bd 9b1b 103e
00000180: be83 fa3d d024 be3c f687 60bd 0a18 ab3d
00000190: 0040 feb9 e29b 40bd b0ef 123d 48fb bf3d
000001a0: 890b 023e 6264 11bd f7b0 f3bd aeba c9bd
000001b0: c075 273c cc46 04bd 0a91 dd3d 44d4 983d
000001c0: 16c8 b43d 9a27 8bbd e036 cabb b968 17be
000001d0: 2856 bebc 9c23 d6bd 4038 873b 646d 583d
000001e0: c6de d2bd a888 bebc 7657 0dbd 27a9 04be
000001f0: 6f1d 103e 7e7f 2fbd e8eb 533d 338d 19be
00000200: 04ed edbc 6f5b 073e 2e8b 08be 583c a43c
00000210: 86ea f33d 4055 dabb 0824 b53d adbe 8ebd
00000220: 0ed7 03be ef55 c6bd a022 05bd 5743 043e
00000230: ab92 1bbe be23 fcbd 944c b3bd 0911 193e
00000240: fe35 873d 6983 c2bd 12c3 e03d c0f9 0cbe
00000250: b0da b8bd 8ec1 0abe 1f6f 003e dc4a bfbd
00000260: 509e 603c 9f96 a0bd e811 463d f001 97bc
00000270: 082d 20bd f85f 01be 0dde 0b3e bea6 14be
00000280: 781e 6f3d 7e9a 0fbe 58e7 bc3d 9a62 e03d
00000290: 0abd f63d 8370 d8bd 2602 f63d a4ed 14be
000002a0: 3064 f4bc 3fb5 043e 62c1 f2bd b81b 20bd
000002b0: 1e89 eb3d cd45 dcbd 20ef efbb 5a63 81bd
000002c0: e38e 063e 90de 22bd 2014 b93d f72e 143e
000002d0: c044 a5bc 660d 843d 844f 633d 2221 933d
000002e0: 92c1 ad3d c0c0 aebc c982 a4bd 686b 793d
000002f0: ff3d 043e 76e3 fd3d 5812 d9bd 301f d5bd
00000300: 862c c53d 87fb 0c3e 6d86 80bd 6006 5fbc
00000310: ce4d 9fbd 6c40 febc f082 48bd 641c 45bd
00000320: 16bd ef3d eeae c7bd bc79 133d 9242 d2bd
00000330: c2e4 913d 90d7 47bd 6820 79bd e290 ce3d
00000340: 40c6 50bb b0f3 d6bc 08b6 14be d80b 723d
00000350: 5cb5 5dbd 9465 1e3d 6de9 173e 68f7 a33c
00000360: 38fd d73c 60b9 a0bc 882c 993c 846b 2b3d
00000370: 920d e6bd c762 12be 006a ea3b 78ae aabc
00000380: 0051 983a 852c 1c3e 6eb1 983d 3fe8 083e
00000390: 10f6 113d e078 c5bc 6008 a7bc 3a72 4cbd
000003a0: ac20 c13d a024 103c 98ef 05bd 50ee 3c3c
000003b0: 5a78 cc3d 8d2e c7bd 40f5 223c 6ef1 ab3d
000003c0: fcde 84bd 70d6 853d 80a3 a93d 4ea3 17be
000003d0: 103f 11bd 29f8 ecbd 0c1a b83d aa94 66bd
000003e0: ec6b 913d a2a0 61bd 1ad4 aabd 16a7 b33d
000003f0: 8e61 15be da46 47bd 66f9 62bd 4088 01bb

generator.transformer_layer.self_attn.in_proj_bias f4 [192]
0.0 0.0 0.0 0.0 0.0 0.0 0.0 0.0
0.0 0.0 0.0 0.0 0.0 0.0 0.0 0.0
0.0 0.0 0.0 0.0 0.0 0.0 0.0 0.0
0.0 0.0 0.0 0.0 0.0 0.0 0.0 0.0
0.0 0.0 0.0 0.0 0.0 0.0 0.0 0.0
0.0 0.0 0.0 0.0 0.0 0.0 0.0 0.0
0.0 0.0 0.0 0.0 0.0 0.0 0.0 0.0
0.0 0.0 0.0 0.0 0.0 0.0 0.0 0.0
0.0 0.0 0.0 0.0 0.0 0.0 0.0 0.0
0.0 0.0 0.0 0.0 0.0 0.0 0.0 0.0
0.0 0.0 0.0 0.0 0.0 0.0 0.0 0.0
0.0 0.0 0.0 0.0 0.0 0.0 0.0 0.0
0.0 0.0 0.0 0.0 0.0 0.0 0.0 0.0
0.0 0.0 0.0 0.0 0.0 0.0 0.0 0.0
0.0 0.0 0.0 0.0 0.0 0.0 0.0 0.0
0.0 0.0 0.0 0.0 0.0 0.0 0.0 0.0
0.0 0.0 0.0 0.0 0.0 0.0 0.0 0.0
0.0 0.0 0.0 0.0 0.0 0.0 0.0 0.0
0.0 0.0 0.0 0.0 0.0 0.0 0.0 0.0
0.0 0.0 0.0 0.0 0.0 0.0 0.0 0.0
0.0 0.0 0.0 0.0 0.0 0.0 0.0 0.0
0.0 0.0 0.0 0.0 0.0 0.0 0.0 0.0
0.0 0.0 0.0 0.0 0.0 0.0 0.0 0.0
0.0 0.0 0.0 0.0 0.0 0.0 0.0 0.0
00000000: 0000 0000 0000 0000 0000 0000 0000 0000
00000010: 0000 0000 0000 0000 0000 0000 0000 0000
00000020: 0000 0000 0000 0000 0000 0000 0000 0000
00000030: 0000 0000 0000 0000 0000 0000 0000 0000
00000040: 0000 0000 0000 0000 0000 0000 0000 0000
00000050: 0000 0000 0000 0000 0000 0000 0000 0000
00000060: 0000 0000 0000 0000 0000 0000 0000 0000
00000070: 0000 0000 0000 0000 0000 0000 0000 0000
00000080: 0000 0000 0000 0000 0000 0000 0000 0000
00000090: 0000 0000 0000 0000 0000 0000 0000 0000
000000a0: 0000 0000 0000 0000 0000 0000 0000 0000
000000b0: 0000 0000 0000 0000 0000 0000 0000 0000
000000c0: 0000 0000 0000 0000 0000 0000 0000 0000
000000d0: 0000 0000 0000 0000 0000 0000 0000 0000
000000e0: 0000 0000 0000 0000 0000 0000 0000 0000
000000f0: 0000 0000 0000 0000 0000 0000 0000 0000
00000100: 0000 0000 0000 0000 0000 0000 0000 0000
00000110: 0000 0000 0000 0000 0000 0000 0000 0000
00000120: 0000 0000 0000 0000 0000 0000 0000 0000
00000130: 0000 0000 0000 0000 0000 0000 0000 0000
00000140: 0000 0000 0000 0000 0000 0000 0000 0000
00000150: 0000 0000 0000 0000 0000 0000 0000 0000
00000160: 0000 0000 0000 0000 0000 0000 0000 0000
00000170: 0000 0000 0000 0000 0000 0000 0000 0000
00000180: 0000 0000 0000 0000 0000 0000 0000 0000
00000190: 0000 0000 0000 0000 0000 0000 0000 0000
000001a0: 0000 0000 0000 0000 0000 0000 0000 0000
000001b0: 0000 0000 0000 0000 0000 0000 0000 0000
000001c0: 0000 0000 0000 0000 0000 0000 0000 0000
000001d0: 0000 0000 0000 0000 0000 0000 0000 0000
000001e0: 0000 0000 0000 0000 0000 0000 0000 0000
000001f0: 0000 0000 0000 0000 0000 0000 0000 0000
00000200: 0000 0000 0000 0000 0000 0000 0000 0000
00000210: 0000 0000 0000 0000 0000 0000 0000 0000
00000220: 0000 0000 0000 0000 0000 0000 0000 0000
00000230: 0000 0000 0000 0000 0000 0000 0000 0000
00000240: 0000 0000 0000 0000 0000 0000 0000 0000
00000250: 0000 0000 0000 0000 0000 0000 0000 0000
00000260: 0000 0000 0000 0000 0000 0000 0000 0000
00000270: 0000 0000 0000 0000 0000 0000 0000 0000
00000280: 0000 0000 0000 0000 0000 0000 0000 0000
00000290: 0000 0000 0000 0000 0000 0000 0000 0000
000002a0: 0000 0000 0000 0000 0000 0000 0000 0000
000002b0: 0000 0000 0000 0000 0000 0000 0000 0000
000002c0: 0000 0000 0000 0000 0000 0000 0000 0000
000002d0: 0000 0000 0000 0000 0000 0000 0000 0000
000002e0: 0000 0000 0000 0000 0000 0000 0000 0000
000002f0: 0000 0000 0000 0000 0000 0000 0000 0000

generator.transformer_layer.self_attn.out_proj.weight f4 [64, 64]
-0.02496931 0.03639698 0.078672454 -0.120163605 -0.0553122 0.07469128 0.1207477 -0.039382398
0.07822479 0.11570753 0.070108294 0.07870129 -0.11782293 0.06800179 -0.01720202 -0.010660395
0.12017445 -0.04320866 -0.03226541 0.10865992 0.10577512 -0.09292191 0.12268016 0.08104226
-0.023581281 -0.056628287 -0.046077713 0.036184654 -0.10086495 -0.05781229 -0.08739382 -0.012366012
-0.08807249 -0.1122534 -0.021774143 -0.04915373 0.06503348 0.012734741 0.046827033 -0.09507452
-0.040871248 0.10054235 0.0825499 -0.007459268 0.016392544 -0.0021877289 -0.048399895 -0.11122961
0.08082485 -0.03540604 -0.090491295 -0.024028018 0.039376438 -0.006880015 0.012600124 0.08921321
-0.06070803 -0.06735729 -0.10619789 0.09127085 0.040475816 0.11868887 0.103048295 0.081931025
-0.10857479 0.020199716 -0.024211928 -0.028885394 0.12492794 -0.052886933 -0.11693208 0.07501984
0.07389414 -0.01994212 0.10800022 0.007398233 -0.10220425 -0.05130644 -0.09147532 0.027612194
0.031453997 0.111340165 -0.10608117 -0.021664172 -0.042052045 -0.07979503 0.041510046 0.0016325712
-0.017649293 0.082324654 0.026193157 -0.015352637 -0.021135092 -0.10555397 0.04251699 -0.003102377
-0.0044455826 -0.083523214 0.013580158 0.035807565 0.06158133 -0.030627877 0.11879791 0.08199681
-0.02486886 -0.0790893 -0.12064017 0.03706613 0.061311856 0.018328816 0.080159426 0.062784
0.042762637 -0.0935891 0.05083014 0.017379 0.09461716 -0.02179259 0.10084954 -0.07566723
-0.11076976 -0.05462587 -0.089443296 -0.073406294 -0.119589 0.05828786 0.105689526 0.034837604
-0.081652015 0.10104285 -0.079720706 0.015602529 -0.0065846145 0.04839316 0.09528895 0.11834471
-0.119288445 0.037735358 -0.06767078 -0.07119964 -0.023327798 0.066984445 0.0026288629 -0.00370273
-0.115830705 -0.0057070404 0.024981737 0.034897044 -0.023162305 -0.07311767 -0.043248966 -0.032879964
-0.06481379 -0.023811892 -0.071180984 -0.0045173317 0.078709975 -0.11588922 -0.12250638 0.005052373
-0.007828757 -0.067469895 0.07350531 -0.101854175 0.06148328 0.123802885 0.013499409 0.06289205
0.0848477 -0.036854178 0.016191185 -0.08833504 -0.1009465 0.08633025 0.10377324 -0.028312996
-0.048522204 0.022450268 0.0056601763 -0.04802698 -0.08745547 0.053533673 0.09547807 -0.019259721
0.06699872 -0.07068971 0.017962202 0.0067700297 -0.015753642 0.029381528 0.122576445 0.10332438
-0.055666924 -0.1082654 0.066102535 -0.043576345 -0.040861636 -0.0011190027 0.1071057 0.10178594
0.0481724 0.0011803359 -0.027423292 -0.037725925 -0.037314087 0.06856592 -0.04238446 -0.0140455365
-0.06436503 0.09739813 -0.06060925 -0.09566513 0.035873473 -0.10762614 0.08005519 -0.05278653
0.04599823 0.050515503 -0.098418355 -0.09652999 -0.08879703 0.04890974 -0.10706459 -0.12000905
0.057853237 -0.026578143 -0.03777735 0.11062352 -0.10552658 -0.05858776 0.10388294 0.12366122
-0.024094 -0.041775376 0.047943518 -0.0759978 0.09255807 0.09480719 0.10002001 0.05404593
0.09554726 -0.025031805 -0.10743286 -0.042399213 0.03699462 0.00078596175 -0.013629779 -0.10402539
0.021731675 -0.11886032 0.06688 0.047100663 -0.089059785 -0.031187862 -0.06420368 -0.0453548
00000000: 708c ccbc 0015 153d 061f a13d 5618 f6bd
00000010: 0c8f 62bd bef7 983d 924a f73d 704f 21bd
00000020: 5234 a03d 12f8 ec3d f094 8f3d 242e a13d
00000030: 264d f1bd 8644 8b3d 40eb 8cbc f0a8 2ebc
00000040: 061e f63d 90fb 30bd bc28 04bd 1889 de3d
00000050: a0a0 d83d d84d bebd bc3f fb3d 7cf9 a53d
00000060: 882d c1bc 10f3 67bd fcbb 3cbd 5c36 143d
00000070: 4892 cebd 94cc 6cbd 88fb b2bd d09a 4abc
00000080: 5a5f b4bd 1ce5 e5bd b05f b2bc 6c55 49bd
00000090: 4630 853d 60a5 503c b4cd 3f3d 6eb6 c2bd
000000a0: 9c68 27bd 26e9 cd3d ec0f a93d e06c f4bb
000000b0: a849 863c 0060 0fbb f83e 46bd 5acc e3bd
000000c0: 8087 a53d ec05 11bd 8053 b9bd 68d6 c4bc
000000d0: 3049 213d c071 e1bb c070 4e3c 6ab5 b63d
000000e0: fca8 78bd 9ef2 89bd 487e d9bd 36ec ba3d
000000f0: f8c9 253d 2613 f33d fc0a d33d 74cb a73d
00000100: 765c debd e079 a53c 1858 c6bc 10a1 ecbc
00000110: 38da ff3d f89f 58bd 167a efbd 00a4 993d
00000120: d055 973d a85d a3bc 382f dd3d e06c f23b
00000130: 7650 d1bd b426 52bd 6a57 bbbd f832 e23c
00000140: e8d5 003d 5006 e43d 1641 d9bd 1079 b1bc
00000150: c43e 2cbd 946b a3bd 7006 2a3d 00fc d53a
00000160: 4095 90bc d499 a83d 0893 d63c a089 7bbc
00000170: 8023 adbc ae2c d8bd 4c26 2e3d 4051 4bbb
00000180: 40ac 91bb 380e abbd 507f 5e3c f4aa 123d
00000190: b43c 7c3d 50e7 fabc 524c f33d f2ed a73d
000001a0: c8b9 cbbc 92f9 a1bd 3212 f7bd a8d2 173d
000001b0: 2422 7b3d 5026 963c a02a a43d e694 803d
000001c0: e027 2f3d a4ab bfbd 4433 503d 685e 8e3c
000001d0: a4c6 c13d 6086 b2bc 348a ce3d 6cf7 9abd
000001e0: 42db e2bd 60bf 5fbd 0c2e b7bd 0a56 96bd
000001f0: 14eb f4bd 40bf 6e3d c073 d83d e0b1 0e3d
00000200: 2c39 a7bd 8eef ce3d 9c44 a3bd c0a1 7f3c
00000210: c0c3 d7bb e837 463d da26 c33d b65e f23d
00000220: 804d f4bd 6490 1a3d fa96 8abd 1ed1 91bd
00000230: f019 bfbc 242f 893d 0049 2c3b 80a9 72bb
00000240: a638 edbd 2002 bbbb 80a6 cc3c 34f0 0e3d
00000250: e0be bdbc b8be 95bd d425 31bd 24ad 06bd
00000260: 18bd 84bd 2811 c3bc 56c7 91bd 2006 94bb
00000270: b232 a13d 5457 edbd a0e4 fabd 608e a53b
00000280: 3044 00bc a82d 8abd f489 963d ec98 d0bd
00000290: e4d5 7b3d 5e8c fd3d a02c 5d3c 8ccd 803d
000002a0: a2c4 ad3d 68f4 16bd 60a3 843c 00e9 b4bd
000002b0: 0abd cebd eacd b03d 1087 d43d a8f0 e7bc
000002c0: 38bf 46bd a0e9 b73c 0079 b93b f0b7 44bd
000002d0: da1b b3bd 2046 5b3d 028a c33d 90c6 9dbc
000002e0: a036 893d c4c5 90bd 7825 933c 20d7 dd3b
000002f0: c80d 81bc 88b1 f03c 5c09 fb3d bc9b d33d
00000300: 0003 64bd 40ba ddbd c460 873d 1c7d 32bd
00000310: 885e 27bd 80ab 92ba 3c5a db3d 2675 d03d
00000320: 6c50 453d 80b5 9a3a d0a6 e0bc 8086 1abd
00000330: a8d6 18bd 4a6c 8c3d 549b 2dbd 401f 66bc
00000340: d0d1 83bd ac78 c73d 6841 78bd 14ec c3bd
00000350: 10f0 123d 186b dcbd faf3 a33d b036 58bd
00000360: a468 3c3d 58e9 4e3d 908f c9bd 84b1 c5bd
00000370: 38db b5bd 9455 483d ae44 dbbd 4ec7 f5bd
00000380: 84f7 6c3d 68ba d9bc 6cbc 1abd 968e e23d
00000390: 521e d8bd b8f9 6fbd 94c0 d43d 1842 fd3d
000003a0: c860 c5bc a81c 2bbd 6c60 443d bca4 9bbd
000003b0: 168f bd3d 462a c23d 4ad7 cc3d 445f 5d3d
000003c0: 48ae c33d 800f cdbc c205 dcbd ccaa 2dbd
000003d0: ac87 173d 0009 4e3a 704f 5fbc 440b d5bd
000003e0: a006 b23c 0a6d f3bd 62f8 883d a0ec 403d
000003f0: fa64 b6bd b07d ffbc 387d 83bd f4c5 39bd

generator.transformer_layer.self_attn.out_proj.bias f4 [64]
0.0 0.0 0.0 0.0 0.0 0.0 0.0 0.0
0.0 0.0 0.0 0.0 0.0 0.0 0.0 0.0
0.0 0.0 0.0 0.0 0.0 0.0 0.0 0.0
0.0 0.0 0.0 0.0 0.0 0.0 0.0 0.0
0.0 0.0 0.0 0.0 0.0 0.0 0.0 0.0
0.0 0.0 0.0 0.0 0.0 0.0 0.0 0.0
0.0 0.0 0.0 0.0 0.0 0.0 0.0 0.0
0.0 0.0 0.0 0.0 0.0 0.0 0.0 0.0
00000000: 0000 0000 0000 0000 0000 0000 0000 0000
00000010: 0000 0000 0000 0000 0000 0000 0000 0000
00000020: 0000 0000 0000 0000 0000 0000 0000 0000
00000030: 0000 0000 0000 0000 0000 0000 0000 0000
00000040: 0000 0000 0000 0000 0000 0000 0000 0000
00000050: 0000 0000 0000 0000 0000 0000 0000 0000
00000060: 0000 0000 0000 0000 0000 0000 0000 0000
00000070: 0000 0000 0000 0000 0000 0000 0000 0000
00000080: 0000 0000 0000 0000 0000 0000 0000 0000
00000090: 0000 0000 0000 0000 0000 0000 0000 0000
000000a0: 0000 0000 0000 0000 0000 0000 0000 0000
000000b0: 0000 0000 0000 0000 0000 0000 0000 0000
000000c0: 0000 0000 0000 0000 0000 0000 0000 0000
000000d0: 0000 0000 0000 0000 0000 0000 0000 0000
000000e0: 0000 0000 0000 0000 0000 0000 0000 0000
000000f0: 0000 0000 0000 0000 0000 0000 0000 0000

generator.transformer_layer.linear1.weight f4 [128, 64]
0.08422321 -0.021012932 -0.018920988 0.03288351 -0.0012843907 0.11564402 -0.024599642 -0.000355497
-0.06462735 0.0656548 -0.122875795 -0.014445618 -0.009425327 0.004560545 -0.117187485 -0.027913943
-0.09474802 0.11933985 0.114146575 -0.06993681 0.103618026 -0.12457441 -0.008403704 0.071328
0.028992102 0.041998267 -0.0031673908 0.008893594 -0.10880837 0.041511968 -0.11990324 -0.031388283
-0.024527207 0.10311672 0.02964817 0.09765597 -0.042453542 -0.07923642 0.044609368 0.040208578
-0.111316875 0.10572854 0.09030819 -0.064910635 0.08375202 -0.09544517 -0.08911392 -0.058663398
-0.0773136 -0.046102166 -0.07679549 0.06209521 -0.010588959 0.017433152 0.093779564 -0.08849919
-0.09396094 -0.06133698 0.0039522797 0.008784384 -0.009674042 0.090825364 0.039532498 -0.08584665
-0.08181268 -0.017595053 0.1123358 -0.017618105 -0.11536321 0.075123355 -0.098755494 0.059911445
-0.07419722 -0.0741722 -0.05942619 0.020084515 -0.030040964 -0.044518635 0.07428308 0.107469946
0.10692763 0.02061081 0.05763617 0.10831268 0.034278765 -0.05142349 -0.011809334 0.110714704
0.08491255 -0.023889884 -0.05001965 0.052798256 0.046913654 -0.041211188 0.07464731 0.006408021
-0.10603525 0.06613764 0.030632898 -0.013695121 -0.018501237 0.109359324 0.0039047897 -0.063703224
-0.011397764 -0.049639016 0.05642338 0.10606024 0.02826503 0.12014745 0.06762557 -0.058738053
0.07720183 0.027844176 -0.08578992 0.1223973 -0.036088347 -0.085183725 -0.12358585 -0.054324493
-0.10548502 0.06352833 0.102375194 -0.09015466 -0.04476942 -0.122008026 -0.11250208 0.010158941
0.12325935 0.028057933 0.097472906 0.047487125 0.05437419 0.01139766 0.059510082 0.04572977
0.08091122 0.039892286 0.08065003 -0.030925795 0.009236246 0.08482942 -0.09225504 0.015469864
0.046696708 0.057711244 0.08103545 -0.0030352175 0.11572936 0.06507406 0.105545476 -0.111602336
0.056334823 0.10517685 -0.024420843 0.081611186 0.016430289 -0.097819716 0.0740893 -0.05365309
0.034160376 0.08899 -0.111572355 -0.004026085 -0.025195882 -0.11639166 0.093324706 0.014996573
-0.016922593 -0.045204073 -0.09783724 0.0972874 -0.05733563 -0.09969881 0.09494142 -0.09166418
-0.041470915 0.05553001 0.03163588 0.09858687 0.11495116 -0.096670836 -0.12024768 0.04581812
-0.017499924 -0.066131935 0.014928654 -0.046868652 0.07303782 0.010376319 -0.034798324 -0.056180105
0.020375997 -0.018484443 0.050564975 0.054148555 0.08932111 -0.04809256 -0.045588642 0.03966506
0.05840957 0.03094031 0.072600454 0.09725861 -0.07690026 0.025175616 0.09701012 -0.082854524
-0.03469871 -0.018788919 0.10919693 0.11816011 0.054558724 0.035760313 -0.031619117 -0.08655536
0.031873032 0.01982838 0.0005386025 0.036167175 0.08231993 0.009488493 -0.11208238 0.05626966
0.06943785 -0.000338614 0.05829926 0.01547949 0.023703992 0.02603887 -0.07989915 0.03136508
-0.00048081577 0.020004198 -0.10046904 0.02896218 0.0378533 -0.07392658 -0.06369297 0.010582626
0.058417857 0.013575658 0.04062292 -0.09214173 0.04923223 0.069739014 0.107786655 -0.11005694
0.116955236 -0.11574106 -0.0031970888 0.11080383 0.084496304 0.091874495 -0.038821667 -0.09980859
00000000: 387d ac3d 5023 acbc 3000 9bbc dcb0 063d
00000010: 0059 a8ba c6d6 ec3d 3085 c9bc 0062 bab9
00000020: 585b 84bd 0676 863d 4ea6 fbbd 50ad 6cbc
00000030: b06c 1abc a070 953b feff efbd c8ab e4bc
00000040: 400b c2bd 7468 f43d aec5 e93d 083b 8fbd
00000050: b035 d43d de20 ffbd b0af 09bc 6a14 923d
00000060: d880 ed3c 6006 2c3d 0094 4fbb 70b6 113c
00000070: ecd6 debd 7408 2a3d d48f f5bd 0091 00bd
00000080: 48ed c8bc dc2e d33d b8e0 f23c daff c73d
00000090: c4e3 2dbd b446 a2bd 50b8 363d c0b1 243d
000000a0: 1afa e3bd 3488 d83d 80f3 b83d deef 84bd
000000b0: 2e86 ab3d c278 c3bd 5c81 b6bd 0849 70bd
000000c0: 9856 9ebd a0d5 3cbd f446 9dbd 8c57 7e3d
000000d0: 507d 2dbc f8cf 8e3c 800f c03d 103f b5bd
000000e0: 986e c0bd 7c3c 7bbd 2082 813b 60ec 0f3c
000000f0: e07f 1ebc a602 ba3d d4ec 213d 5ed0 afbd
00000100: 688d a7bd 8023 90bc 5010 e63d d853 90bc
00000110: 8c43 ecbd 46da 993d 5240 cabd b465 753d
00000120: b6f4 97bd 98e7 97bd e068 73bd 4888 a43c
00000130: 7818 f6bc 2c59 36bd ba21 983d 3419 dc3d
00000140: e0fc da3d 00d8 a83c e813 6c3d 0ad3 dd3d
00000150: e467 0c3d 70a1 52bd f07b 41bc 64be e23d
00000160: a2e6 ad3d b8b4 c3bc 68e1 4cbd fc42 583d
00000170: 8828 403d 10cd 28bd b0e0 983d 60fa d13b
00000180: 0229 d9bd 2c73 873d d8f1 fa3c 8061 60bc
00000190: e88f 97bc c8f7 df3d 80e7 7f3b d676 82bd
000001a0: b0bd 3abc 4852 4bbd 341c 673d 1c36 d93d
000001b0: 108c e73c de0f f63d 467f 8a3d 5097 70bd
000001c0: fe1b 9e3d 7819 e43c a0b2 afbd 70ab fa3d
000001d0: 60d1 13bd ce74 aebd 941a fdbd 5c83 5ebd
000001e0: 8808 d8bd 241b 823d 16aa d13d 02a3 b8bd
000001f0: 2460 37bd 58df f9bd 7e67 e6bd b071 263c
00000200: 666f fc3d c0d9 e53c e09f c73d dc81 423d
00000210: 78b7 5e3d 40bd 3a3c d8c0 733d 244f 3b3d
00000220: c8b4 a53d 1866 233d d82b a53d 1858 fdbc
00000230: a053 173c 0cbb ad3d 36f0 bcbd 5075 7d3c
00000240: 0c45 3f3d a062 6c3d eaf5 a53d 80ea 46bb
00000250: 8403 ed3d 8c45 853d 3a28 d83d c48f e4bd
00000260: 58bf 663d f666 d73d 380e c8bc c423 a73d
00000270: d098 863c b455 c8bd 22bc 973d 58c3 5bbd
00000280: c0eb 0b3d 6440 b63d 0c80 e4bd 40ed 83bb
00000290: 9867 cebc c05e eebd 0621 bf3d 30b4 753c
000002a0: 40a1 8abc e827 39bd e45e c8bd 9e3e c73d
000002b0: c4d8 6abd e42e ccbd a670 c23d 6eba bbbd
000002c0: 68dd 29bd 7073 633d a094 013d eae7 c93d
000002d0: 846b eb3d 5cfb c5bd 6a44 f6bd c8ab 3b3d
000002e0: 005c 8fbc 2e70 87bd 5097 743c 58f9 3fbd
000002f0: da94 953d 7001 2a3c b088 0ebd 1c1d 66bd
00000300: 90eb a63c b06c 97bc 381d 4f3d e0ca 5d3d
00000310: fced b63d b4fc 44bd 28bb 3abd d477 223d
00000320: e03e 6f3d 8876 fd3c 8caf 943d 862f c73d
00000330: e27d 9dbd 183d ce3c 3ead c63d a2af a9bd
00000340: 3c20 0ebd 38eb 99bc a4a2 df3d eefd f13d
00000350: f878 5f3d 6879 123d 0c83 01bd f043 b1bd
00000360: 4c8d 023d 206f a23c 0031 0d3a 0824 143d
00000370: 5a97 a83d a075 1b3c 728b e5bd 047b 663d
00000380: 6e35 8e3d 0088 b1b9 34cb 6e3d b09d 7d3c
00000390: e02e c23c 784f d53c 2aa2 a3bd ac78 003d
000003a0: 0016 fcb9 d8df a33c b6c2 cdbd 1842 ed3c
000003b0: 100c 1b3d d266 97bd 7671 82bd c062 2d3c
000003c0: 9047 6f3d 706c 5e3c 3864 263d ceb4 bcbd
000003d0: bca7 493d 54d3 8e3d 40bf dc3d 8865 e1bd
000003e0: 3a86 ef3d a609 edbd 4086 51bb 1eed e23d
000003f0: 660c ad3d b228 bc3d 7803 1fbd 7268 ccbd

generator.transformer_layer.linear1.bias f4 [128]
-0.0115811825 -0.09647669 -0.053212374 -0.03452243 0.1157608 -0.10941066 -0.015421912 0.019702896
-0.111768365 -0.048830047 -0.05622384 -0.12110008 -0.007732898 -0.05616884 0.03268753 0.0060564578
0.030196562 -0.043793827 0.09480113 0.068279356 -0.004318103 0.07209396 -0.043519676 -0.06598921
-0.027073756 0.0035966635 -0.067324325 -0.0028280169 -0.050570816 -0.05287355 -0.07905698 -0.10613966
0.06952128 0.069398776 0.09337036 0.11585441 -0.061342373 0.06580438 -0.07233678 -0.05298367
-0.12452838 -4.194677e-05 0.029146552 0.08052887 -0.087734476 -0.11957261 -0.10320862 -0.023159742
0.082011685 0.038116947 0.06429052 0.03090845 0.08652456 0.0529508 -0.12457788 -0.020267144
0.1194783 -0.08361663 -0.017929763 0.08707143 0.110990986 -0.06170179 0.025572985 0.10627936
0.0852043 -0.08259244 0.07124233 -0.092004135 0.07129109 0.07912105 -0.010260463 -0.011859804
0.12034841 -0.11352691 0.0020949244 0.0055155307 0.030090824 -0.12040208 -0.10709083 0.051707745
0.07674807 -0.094239384 -0.06881988 -0.040380627 -0.038984388 0.111566484 0.043413714 0.02711618
0.06916663 0.11835085 -0.074256495 -0.09325549 -0.102763906 -0.005310595 0.08170849 -0.05253713
0.016864344 -0.11453864 0.11509073 -0.020149201 -0.084140584 -0.08874084 -0.085019335 0.022256985
-0.062332988 0.045270354 -0.06629385 -0.09334871 -0.11880168 0.12121606 -0.10167536 0.10665731
-0.018194899 -0.05830325 -0.02418086 0.042152867 0.022868633 -0.11790596 -0.10422622 0.06814483
0.12456456 -0.12355827 0.046197727 -0.020584106 0.043252215 0.047132194 -0.025837004 -0.10912295
00000000: 00bf 3dbc 9295 c5bd 38f5 59bd 6467 0dbd
00000010: 0014 ed3d b212 e0bd 30ac 7cbc f867 a13c
00000020: d0e6 e4bd 0402 48bd f84a 66bd 5203 f8bd
00000030: 4064 fdbb 4c11 66bd 5ce3 053d 4075 c63b
00000040: c85e f73c 2861 33bd 1827 c23d 0cd6 8b3d
00000050: e07e 8dbb 00a6 933d b041 32bd 5a25 87bd
00000060: c8c9 ddbc 00b6 6b3b 56e1 89bd 4056 39bb
00000070: 5823 4fbd f091 58bd a0e8 a1bd c05f d9bd
00000080: 2c61 8e3d f220 8e3d f638 bf3d 1445 ed3d
00000090: 2442 7bbd 72c4 863d 4e25 94bd 6805 59bd
000000a0: bc08 ffbd 00f0 2fb8 c0c4 ee3c 52ec a43d
000000b0: 22ae b3bd 7ce2 f4bd 0a5f d3bd 80b9 bdbc
000000c0: bef5 a73d 8420 1c3d c0aa 833d b833 fd3c
000000d0: ca33 b13d f0e2 583d b022 ffbd 4807 a6bc
000000e0: 0ab1 f43d 323f abbd 70e1 92bc 8252 b23d
000000f0: 3e4f e33d 04bb 7cbd 707e d13c fea8 d93d
00000100: 987f ae3d 3a26 a9bd 80e7 913d aa6c bcbd
00000110: 1001 923d 380a a23d 801b 28bc a04f 42bc
00000120: 3a79 f63d cc80 e8bd 004b 093b a0bb b43b
00000130: 0881 f63c 5e95 f6bd 7052 dbbd 80cb 533d
00000140: 182e 9d3d 9400 c1bd 70f1 8cbd 2866 25bd
00000150: 18ae 1fbd f87c e43d 94d2 313d c022 de3c
00000160: 3ca7 8d3d ee61 f23d ca13 98bd bcfc bebd
00000170: e275 d2bd 8004 aebb c856 a73d 2c31 57bd
00000180: 1827 8a3c 3c93 eabd b0b4 eb3d f00f a5bc
00000190: e651 acbd c2bd b5bd 9e1e aebd 4854 b63c
000001a0: e050 7fbd 686d 393d 12c5 87bd 9c2d bfbd
000001b0: 4c4e f3bd 2040 f83d 2c3b d0bd 266f da3d
000001c0: 780d 95bc 64cf 6ebd f016 c6bc 7ca8 2c3d
000001d0: 0057 bb3c ae78 f1bd 8e74 d5bd 848f 8b3d
000001e0: b41b ff3d 1e0c fdbd d439 3d3d 00a0 a8bc
000001f0: 3c29 313d b00d 413d 20a8 d3bc da7b dfbd

generator.transformer_layer.linear2.weight f4 [64, 128]
-0.012582496 0.040410005 0.029064372 -0.058795497 -0.047425445 -0.07148228 0.08547617 0.0021879822
0.062101 0.062924616 0.046432354 -0.05406367 -0.05965431 -0.02918706 0.015193604 0.02744446
0.019057192 -0.0769684 -0.03157746 -0.037982833 -0.08702775 -0.074379124 -0.049759928 -0.059772313
-0.059308518 0.048266403 0.05273222 0.027077362 -0.024598725 0.038719617 -0.022236094 -0.015099116
0.06486676 0.005715564 0.06010849 0.0022662804 0.05741497 -0.040546943 -0.07462264 -0.0466479
0.016849443 0.026171751 0.0026776865 -0.05595816 0.056725405 0.015967682 -0.038035203 -0.055250335
0.008696988 0.05628539 -0.07817499 -0.019105881 -0.043355156 8.779019e-05 -0.060399015 0.04341639
-0.036473915 -0.024665497 0.06671459 0.01639364 0.021453544 0.061910413 -0.072243534 -0.029933523
0.012320511 0.0039079413 -0.08300287 0.0016465113 -0.026037395 0.07154109 0.060102634 -0.006974347
-0.08759281 0.064654924 0.013877608 0.012730986 0.04040038 0.06079442 -0.074044764 -0.019793645
-0.014283337 -0.020147532 0.0489875 0.048201226 0.08646589 0.079534985 0.0066453665 -0.06892346
-0.04704231 0.06765596 0.042619072 -0.009181164 -0.04717973 -0.06941424 -0.08032825 0.07835061
-0.04081287 -0.047286414 0.038972057 0.07902511 0.003428258 -0.0034588724 0.041799046 -0.01257015
-0.008665517 -0.025496252 -0.03913141 0.064498805 -0.01543583 0.0026591793 0.012980029 -0.07818805
-0.014866725 0.01544717 -0.06997685 -0.025201194 0.08508774 0.08463604 0.01922103 0.06260247
-0.0345923 -0.029140227 0.08323867 0.014735602 -0.017040253 -0.059207797 -0.068083525 0.034627363
0.051884465 -0.022339977 0.06587354 -0.08457671 0.045518927 0.08631451 0.07497927 -0.033876076
0.07411774 0.056037 0.040294148 0.0031122267 0.038508497 -0.03247126 -0.015807748 0.011444606
-0.068950556 0.025707282 -0.06371215 0.080542274 -0.03037161 0.052867956 -0.06564525 0.08591973
0.07703061 -0.004912354 -0.07222718 -0.0020412877 0.06615738 -0.071908645 -0.07623544 0.06505685
0.0091670975 0.085716076 0.007705964 0.04484626 -0.043449376 0.024632894 0.08102814 0.06794735
0.061360203 0.046302848 0.07518584 -0.0071612 -0.012278803 0.037440516 0.054044507 -0.086198926
-0.07181814 0.04526762 -0.055450857 0.052270465 0.058561422 0.0440441 0.04003901 -0.024916254
-0.010318615 0.027913928 0.0014970675 -0.0035845041 -0.059809823 0.071858086 0.055628695 -0.06813239
-0.021677122 -0.009830311 0.048246033 -0.023925945 0.02283372 -0.013918892 0.06137929 -0.006982118
0.019777432 -0.061004274 -0.08783688 -0.0668042 -0.009318076 -0.065958366 -0.035281286 0.05367484
-0.03211181 -0.005628146 -0.024366915 -0.08184703 -0.03681875 0.05882693 0.04007586 -0.0783137
0.05293513 0.042626 -0.043856546 -0.06301543 -0.040991962 -0.058790036 0.05567161 -0.010310605
0.010350108 0.017814822 -0.08664822 -0.035611 -0.05115581 0.06635333 -0.07296407 -0.08719429
0.04678165 0.014961794 -0.08656067 0.028937243 0.05075472 0.02681239 0.019616343 -0.08115883
-0.08063137 0.07078921 -0.031933002 -0.006303586 -0.05636827 0.02938211 0.038191296 -0.043404784
-0.07733915 0.036292553 -0.061393872 -0.053312663 -0.045708794 0.070159964 0.06452236 0.06891755
00000000: d026 4ebc f684 253d 6818 ee3c 8cd3 70bd
00000010: 2f41 42bd 4d65 92bd 210e af3d 4064 0f3b
00000020: 9e5d 7e3d 9fde 803d da2f 3e3d de71 5dbd
00000030: 1458 74bd b419 efbc 98ee 783c 34d3 e03c
00000040: d41d 9c3c 9ca1 9dbd 5e57 01bd e393 1bbd
00000050: 9b3b b2bd 1554 98bd 11d1 4bbd d0d3 74bd
00000060: 7ded 72bd feb2 453d befd 573d 58d1 dd3c
00000070: 4483 c9bc 7698 1e3d 7828 b6bc 4862 77bc
00000080: ddd8 843d a049 bb3b 5234 763d e085 143b
00000090: f62b 6b3d 8d14 26bd c1d3 98bd de11 3fbd
000000a0: d807 8a3c 2466 d63c 207c 2f3b 6234 65bd
000000b0: e658 683d a8ce 823c cdca 1bbd 2d4e 62bd
000000c0: d07d 0e3c 828b 663d 361a a0bd f083 9cbc
000000d0: 2d95 31bd 001c b838 f564 77bd 62d5 313d
000000e0: ac65 15bd 4c0f cabc a9a1 883d f44b 863c
000000f0: 58bf af3c c695 7d3d 6bf4 93bd 2637 f5bc
00000100: f8db 493c 300e 803b 69fd a9bd c0cf d73a
00000110: 604c d5bc 2384 923d 2e2e 763d 1089 e4bb
00000120: dc63 b3bd cd69 843d e85e 633c a095 503c
00000130: de7a 253d 9203 793d c8a4 97bd 4826 a2bc
00000140: a804 6abc 700c a5bc 1ea7 483d a66e 453d
00000150: 0715 b13d 3de3 a23d 60c1 d93b be27 8dbd
00000160: 70af 40bd 358f 8a3d 5691 2e3d 986c 16bc
00000170: 883f 41bd 0e29 8ebd 2383 a4bd 4976 a03d
00000180: 652b 27bd 66af 41bd 2aa1 1f3d ebd7 a13d
00000190: a0ac 603b 40ae 62bb 7a35 2b3d 08f3 4dbc
000001a0: d0f9 0dbc 84dd d0bc 4248 20bd f317 843d
000001b0: 90e6 7cbc a045 2e3b 30aa 543c 0e21 a0bd
000001c0: 9093 73bc 2016 7d3c 0650 8fbd bc72 cebc
000001d0: 7b42 ae3d a955 ad3d 6c75 9d3c b935 803d
000001e0: a8b0 0dbd 7cb7 eebc 0979 aa3d 986d 713c
000001f0: 0098 8bbc e083 72bd 606f 8bbd 6cd5 0d3d
00000200: ce84 543d 5402 b7bc b5e8 863d 8e36 adbd
00000210: 0e72 3a3d a9c5 b03d bb8e 993d a4c1 0abd
00000220: 0bcb 973d 0e87 653d 7a0b 253d 80f6 4b3b
00000230: 16bb 1d3d 9500 05bd 407f 81bc 2882 3b3c
00000240: f335 8dbd 1498 d23c 847b 82bd 59f3 a43d
00000250: e2cd f8bc 128c 583d 0471 86bd aff6 af3d
00000260: 39c2 9d3d d0f7 a0bb d8eb 93bd 20c7 05bb
00000270: 857d 873d d744 93bd 5421 9cbd 873c 853d
00000280: 9831 163c e98b af3d 5082 fc3b b6b0 373d
00000290: f9f7 31bd ecca c93c 15f2 a53d fb27 8b3d
000002a0: d654 7b3d 0ea8 3d3d 09fb 993d 80a8 eabb
000002b0: 082d 49bc 3a5b 193d c65d 5d3d 1089 b0bd
000002c0: 6415 93bd 8a6a 393d 7020 63bd 8e19 563d
000002d0: 1ade 6f3d 9667 343d f2ff 233d 2c1d ccbc
000002e0: 680f 29bc c0ab e43c 4039 c43a 00ea 6abb
000002f0: 25fb 74bd 552a 933d eada 633d ff88 8bbd
00000300: 3894 b1bc 500f 21bc a29d 453d 5800 c4bc
00000310: c80d bb3c 100c 64bc da68 7b3d 40ca e4bb
00000320: 4804 a23c 9edf 79bd d2e3 b3bd a4d0 88bd
00000330: d8aa 18bc 2e15 87bd 1c83 10bd 26da 5b3d
00000340: ac87 03bd 506c b8bb 209d c7bc 6a9f a7bd
00000350: 42cf 16bd 82f4 703d 9626 243d ef62 a0bd
00000360: 82d2 583d 9a98 2e3d eca2 33bd 3c0e 81bd
00000370: 30e7 27bd d2cd 70bd ea07 643d d0ed 28bc
00000380: 8093 293c 64f0 913c 9f74 b1bd d7dc 11bd
00000390: c188 51bd 41e4 873d 306e 95bd eb92 b2bd
000003a0: 1e9e 3f3d 5022 753c b846 b1bd cc0d ed3c
000003b0: 2ee4 4f3d a8a5 db3c 74b2 a03c 9a36 a6bd
000003c0: 0f22 a5bd eff9 903d 2ecc 02bd 508e cebb
000003d0: 6ae2 66bd c0b2 f03c 7a6e 1c3d 37c9 31bd
000003e0: fd63 9ebd 80a7 143d 2478 7bbd 615e 5abd
000003f0: 2539 3bbd 07b0 8f3d 4d24 843d a524 8d3d

generator.transformer_layer.linear2.bias f4 [64]
-0.078449965 -0.05463849 0.0861317 0.0034704134 0.06222806 -0.043051593 -0.06256688 -0.0741268
-0.0830342 -0.067735404 -0.07178956 0.03545902 -0.07321981 0.081296526 0.03798736 -0.042652156
-0.03455917 0.042718016 0.003035307 -0.0010939091 0.03607869 -0.08438234 -0.01210314 0.020076402
-0.001636751 0.08496729 -0.02513972 0.009984754 0.014960498 0.025100693 -0.035959955 -0.0706767
-0.054940503 0.04862111 0.06705252 0.06957 0.072021954 -0.046958722 0.04105354 -0.0497478
-0.065895304 0.055063434 -0.06802968 0.048311137 -0.02005294 0.07127497 -0.006382674 -0.087630965
-0.08811959 -0.06866168 0.0058624446 0.0607479 0.08175462 -0.06164734 -0.064134456 -0.047568135
0.06876578 0.060843386 0.01822669 -0.06595486 0.057217725 -0.048053045 -0.021908395 -0.008205168
00000000: 60aa a0bd 9ccc 5fbd d165 b03d e06f 633b
00000010: dae2 7e3d de56 30bd 1023 80bd cbcf 97bd
00000020: d60d aabd dcb8 8abd 6806 93bd 7a3d 113d
00000030: 45f4 95bd cb7e a63d a298 1b3d 07b4 2ebd
00000040: eb8d 0dbd 16f9 2e3d 00ec 463b 8061 8fba
00000050: 40c7 133d a6d0 acbd 404c 46bc 4477 a43c
00000060: 4088 d6ba 5503 ae3d d0f1 cdbc 1897 233c
00000070: e01c 753c f89f cd3c bf4a 13bd f2be 90bd
00000080: 4b09 61bd ee26 473d d552 893d b77a 8e3d
00000090: 3f80 933d ca57 40bd c227 283d 59c4 4bbd
000000a0: 1ef4 86bd 328a 613d 2553 8bbd e6e1 453d
000000b0: 1046 a4bc 9df8 913d c025 d1bb dd77 b3bd
000000c0: 0b78 b4bd 7f9e 8cbd c019 c03b cad2 783d
000000d0: f76e a73d ec81 7cbd ed58 83bd ced6 42bd
000000e0: 13d5 8c3d ea36 793d 2450 953c 5713 87bd
000000f0: 225d 6a3d 45d3 44bd 3c79 b3bc f86e 06bc

generator.transformer_layer.norm1.weight f4 [64]
1.0 1.0 1.0 1.0 1.0 1.0 1.0 1.0
1.0 1.0 1.0 1.0 1.0 1.0 1.0 1.0
1.0 1.0 1.0 1.0 1.0 1.0 1.0 1.0
1.0 1.0 1.0 1.0 1.0 1.0 1.0 1.0
1.0 1.0 1.0 1.0 1.0 1.0 1.0 1.0
1.0 1.0 1.0 1.0 1.0 1.0 1.0 1.0
1.0 1.0 1.0 1.0 1.0 1.0 1.0 1.0
1.0 1.0 1.0 1.0 1.0 1.0 1.0 1.0
00000000: 0000 803f 0000 803f 0000 803f 0000 803f
00000010: 0000 803f 0000 803f 0000 803f 0000 803f
00000020: 0000 803f 0000 803f 0000 803f 0000 803f
00000030: 0000 803f 0000 803f 0000 803f 0000 803f
00000040: 0000 803f 0000 803f 0000 803f 0000 803f
00000050: 0000 803f 0000 803f 0000 803f 0000 803f
00000060: 0000 803f 0000 803f 0000 803f 0000 803f
00000070: 0000 803f 0000 803f 0000 803f 0000 803f
00000080: 0000 803f 0000 803f 0000 803f 0000 803f
00000090: 0000 803f 0000 803f 0000 803f 0000 803f
000000a0: 0000 803f 0000 803f 0000 803f 0000 803f
000000b0: 0000 803f 0000 803f 0000 803f 0000 803f
000000c0: 0000 803f 0000 803f 0000 803f 0000 803f
000000d0: 0000 803f 0000 803f 0000 803f 0000 803f
000000e0: 0000 803f 0000 803f 0000 803f 0000 803f
000000f0: 0000 803f 0000 803f 0000 803f 0000 803f

generator.transformer_layer.norm1.bias f4 [64]
0.0 0.0 0.0 0.0 0.0 0.0 0.0 0.0
0.0 0.0 0.0 0.0 0.0 0.0 0.0 0.0
0.0 0.0 0.0 0.0 0.0 0.0 0.0 0.0
0.0 0.0 0.0 0.0 0.0 0.0 0.0 0.0
0.0 0.0 0.0 0.0 0.0 0.0 0.0 0.0
0.0 0.0 0.0 0.0 0.0 0.0 0.0 0.0
0.0 0.0 0.0 0.0 0.0 0.0 0.0 0.0
0.0 0.0 0.0 0.0 0.0 0.0 0.0 0.0
00000000: 0000 0000 0000 0000 0000 0000 0000 0000
00000010: 0000 0000 0000 0000 0000 0000 0000 0000
00000020: 0000 0000 0000 0000 0000 0000 0000 0000
00000030: 0000 0000 0000 0000 0000 0000 0000 0000
00000040: 0000 0000 0000 0000 0000 0000 0000 0000
00000050: 0000 0000 0000 0000 0000 0000 0000 0000
00000060: 0000 0000 0000 0000 0000 0000 0000 0000
00000070: 0000 0000 0000 0000 0000 0000 0000 0000
00000080: 0000 0000 0000 0000 0000 0000 0000 0000
00000090: 0000 0000 0000 0000 0000 0000 0000 0000
000000a0: 0000 0000 0000 0000 0000 0000 0000 0000
000000b0: 0000 0000 0000 0000 0000 0000 0000 0000
000000c0: 0000 0000 0000 0000 0000 0000 0000 0000
000000d0: 0000 0000 0000 0000 0000 0000 0000 0000
000000e0: 0000 0000 0000 0000 0000 0000 0000 0000
000000f0: 0000 0000 0000 0000 0000 0000 0000 0000

generator.transformer_layer.norm2.weight f4 [64]
1.0 1.0 1.0 1.0 1.0 1.0 1.0 1.0
1.0 1.0 1.0 1.0 1.0 1.0 1.0 1.0
1.0 1.0 1.0 1.0 1.0 1.0 1.0 1.0
1.0 1.0 1.0 1.0 1.0 1.0 1.0 1.0
1.0 1.0 1.0 1.0 1.0 1.0 1.0 1.0
1.0 1.0 1.0 1.0 1.0 1.0 1.0 1.0
1.0 1.0 1.0 1.0 1.0 1.0 1.0 1.0
1.0 1.0 1.0 1.0 1.0 1.0 1.0 1.0
00000000: 0000 803f 0000 803f 0000 803f 0000 803f
00000010: 0000 803f 0000 803f 0000 803f 0000 803f
00000020: 0000 803f 0000 803f 0000 803f 0000 803f
00000030: 0000 803f 0000 803f 0000 803f 0000 803f
00000040: 0000 803f 0000 803f 0000 803f 0000 803f
00000050: 0000 803f 0000 803f 0000 803f 0000 803f
00000060: 0000 803f 0000 803f 0000 803f 0000 803f
00000070: 0000 803f 0000 803f 0000 803f 0000 803f
00000080: 0000 803f 0000 803f 0000 803f 0000 803f
00000090: 0000 803f 0000 803f 0000 803f 0000 803f
000000a0: 0000 803f 0000 803f 0000 803f 0000 803f
000000b0: 0000 803f 0000 803f 0000 803f 0000 803f
000000c0: 0000 803f 0000 803f 0000 803f 0000 803f
000000d0: 0000 803f 0000 803f 0000 803f 0000 803f
000000e0: 0000 803f 0000 803f 0000 803f 0000 803f
000000f0: 0000 803f 0000 803f 0000 803f 0000 803f

generator.transformer_layer.norm2.bias f4 [64]
0.0 0.0 0.0 0.0 0.0 0.0 0.0 0.0
0.0 0.0 0.0 0.0 0.0 0.0 0.0 0.0
0.0 0.0 0.0 0.0 0.0 0.0 0.0 0.0
0.0 0.0 0.0 0.0 0.0 0.0 0.0 0.0
0.0 0.0 0.0 0.0 0.0 0.0 0.0 0.0
0.0 0.0 0.0 0.0 0.0 0.0 0.0 0.0
0.0 0.0 0.0 0.0 0.0 0.0 0.0 0.0
0.0 0.0 0.0 0.0 0.0 0.0 0.0 0.0
00000000: 0000 0000 0000 0000 0000 0000 0000 0000
00000010: 0000 0000 0000 0000 0000 0000 0000 0000
00000020: 0000 0000 0000 0000 0000 0000 0000 0000
00000030: 0000 0000 0000 0000 0000 0000 0000 0000
00000040: 0000 0000 0000 0000 0000 0000 0000 0000
00000050: 0000 0000 0000 0000 0000 0000 0000 0000
00000060: 0000 0000 0000 0000 0000 0000 0000 0000
00000070: 0000 0000 0000 0000 0000 0000 0000 0000
00000080: 0000 0000 0000 0000 0000 0000 0000 0000
00000090: 0000 0000 0000 0000 0000 0000 0000 0000
000000a0: 0000 0000 0000 0000 0000 0000 0000 0000
000000b0: 0000 0000 0000 0000 0000 0000 0000 0000
000000c0: 0000 0000 0000 0000 0000 0000 0000 0000
000000d0: 0000 0000 0000 0000 0000 0000 0000 0000
000000e0: 0000 0000 0000 0000 0000 0000 0000 0000
000000f0: 0000 0000 0000 0000 0000 0000 0000 0000
