GANS/gan_model.pth (torch, 948054 bytes, 71 tensors)

embedding.fc.weight f4 [64, 17]
0	0xbe1ca355	-0.15296681
1	0x3de06909	0.10957534
2	0x3e6a0edb	0.2285723
3	0x3d6f78ab	0.058464687
4	0x3e68c359	0.22730769
5	0xbe49bce2	-0.1970096
6	0x3d6c541e	0.057697408
7	0x3d50000f	0.050781306
8	0x3d9c9351	0.07645286
9	0xbc9d6a63	-0.019215768
10	0xbe5968aa	-0.21231332
11	0x3e3f06b1	0.18654896
12	0x3e3d64db	0.18495505
13	0xbdbd6f5c	-0.09249756
14	0xbccbb91a	-0.024868537
15	0x3e099c5a	0.1343855
16	0xbe73bdaf	-0.23802827
17	0x3dbf1afb	0.09331318
18	0xbe3e95dc	-0.18611854
19	0xbd8d4643	-0.06898167
20	0xbda231b0	-0.079196334
21	0x3e61f403	0.2206574
22	0xbe0e3e20	-0.13890886
23	0xbe4e0bbf	-0.20121668
24	0x3e69255b	0.22768156
25	0xbe172f9b	-0.14764254
26	0x3e1e6c7f	0.15471075
27	0x3e59dd02	0.21275714
28	0xbe569f8b	-0.20959298
29	0xbd507e5c	-0.050901756
30	0xbdf8453c	-0.121225804
31	0xbe5cdc0e	-0.21568319
32	0x3e54eb9f	0.20793007
33	0xbe72361c	-0.23653454
34	0xbe5c3eea	-0.21508375
35	0xbd147f7d	-0.036254395
36	0xbc024331	-0.00795059
37	0xbe2bdc34	-0.1678322
38	0xbbf5abab	-0.007497271
39	0xbdd3ba9a	-0.10338326
40	0x3daa2204	0.08307269
41	0xbe1c6417	-0.15272556
42	0x3e108b4e	0.1411564
43	0x3e118223	0.142098
44	0x3dc08f65	0.0940235
45	0xbda3475d	-0.07972596
46	0xbe546432	-0.20741346
47	0xb93c7b02	-0.00017974901
48	0x3d83468a	0.06409939
49	0xbdc5846b	-0.09644397
50	0xbe2d10e8	-0.1690098
51	0xbdf55a58	-0.11980122
52	0x3e474588	0.19460118
53	0x3e501f30	0.20324397
54	0x3e601ba8	0.2188555
55	0x3dffae70	0.12484443
56	0x3e77e75f	0.24209355
57	0xbe10e8ae	-0.1415126
58	0x3e19dff6	0.1502684
59	0x3d145a2b	0.036218803
60	0x3e2d5769	0.16927876
61	0xbe574f67	-0.21026383
62	0xbe46f8aa	-0.19430795
63	0xbe591a6b	-0.21201484
64	0x3bd54daf	0.0065095047
65	0xbda7cf46	-0.08193831
66	0x3e061fda	0.13098088
67	0xba26f499	-0.00063688454
68	0x3d97ecfb	0.07418247
69	0xbe0ba816	-0.13638338
70	0x3d2aba68	0.041681677
71	0x3d848aa8	0.06471759
72	0x3e0e6b80	0.13908195
73	0x3d0113c0	0.031512976
74	0xbd56e782	-0.052466877
75	0x3e4ac824	0.1980291
76	0x3e748ef1	0.23882653
77	0xbe3f1979	-0.18662061
78	0xbde3aa4f	-0.11116468
79	0xbd0e9840	-0.034813166
80	0x3d096c18	0.03355035
81	0xbd2ae91f	-0.041726228
82	0xbdb1f678	-0.08689588
83	0xbe6f0ab3	-0.23343925
84	0xbe564ffc	-0.20928949
85	0xbc6ba6db	-0.014383043
86	0x3e349e07	0.17638408
87	0x3e51404a	0.2043468
88	0xbdbc3d44	-0.09191373
89	0x3d813b12	0.06310095
90	0x3cbfdf2a	0.023421843
91	0xbe610128	-0.21973097
92	0xbda8cf1a	-0.082426265
93	0xbd9e5525	-0.07731084
94	0x3e5e3fd1	0.21704032
95	0xbce433fb	-0.027856817
96	0x3d4d2ff1	0.05009455
97	0x3d569f3b	0.052397948
98	0x3e02e5ed	0.12783022
99	0xbdd0193d	-0.10161064
100	0xbe2b5562	-0.1673179
101	0xbe6a9a28	-0.22910368
102	0x3e11eba8	0.14250052
103	0x3de1ce7c	0.11025712
104	0x3e44da34	0.19223863
105	0xbd7a07d9	-0.06104264
106	0xbe7219f0	-0.23642707
107	0xbc808d0d	-0.015692258
108	0x3e5ea42f	0.21742319
109	0xbe1bad9b	-0.15202944
110	0x3e632f37	0.2218598
111	0xbd82a250	-0.06378615
112	0x3e708968	0.23489916
113	0xbe28de9c	-0.16491169
114	0x3d990747	0.07472091
115	0xbc8a13b0	-0.01685509
116	0xbddb441c	-0.1070635
117	0xbe480ee0	-0.19536924
118	0x3e1f597c	0.1556148
119	0x3e1d68a8	0.15371954
120	0xbd4af1dc	-0.04954706
121	0xbe337a42	-0.17527106
122	0xbdbdafaa	-0.09262021
123	0x3e5bfe72	0.21483782
124	0xbe4883bb	-0.19581501
125	0xbd824f1f	-0.063627474
126	0xbcb6252c	-0.022234522
127	0x3e0349e7	0.1282116
128	0xbd2c7a94	-0.042109087
129	0x3c116db4	0.008876253
130	0x3db8781c	0.09007284
131	0xbdf0116f	-0.11722075
132	0x3e5fe9be	0.2186651
133	0x3da2af1c	0.07943556
134	0xbd5ac7d7	-0.05341324
135	0x3dc95666	0.09830932
136	0xbdc25d5a	-0.09490462
137	0xbd7fdea8	-0.0624682
138	0xbde20e0f	-0.11037838
139	0x3dbd6085	0.09246925
140	0xbd1dd4ad	-0.0385329
141	0xbbe9a10b	-0.0071297935
142	0x3e6fbfd8	0.23413026
143	0xbc940a03	-0.01807118
144	0x3e1ad9e9	0.15122189
145	0xbe04319a	-0.12909546
146	0xbd4b6cd3	-0.04966433
147	0xbe4dd56b	-0.20100944
148	0x3e2ae2a6	0.16688022
149	0xbe1c49a7	-0.15262471
150	0xbe7041ab	-0.2346255
151	0x3d8a8861	0.067642935
152	0xbd4cdfef	-0.050018247
153	0x3e3db608	0.1852647
154	0xbcb4a9e8	-0.022053674
155	0x3dcd0f6d	0.10012708
156	0xbe75c423	-0.24000601
157	0x3e69f275	0.22846396
158	0x3e677c1a	0.22605935
159	0xbdab5166	-0.08365135
160	0xbe73d251	-0.23810698
161	0x3d942467	0.07233506
162	0x3e513462	0.20430139
163	0xbe4dc548	-0.20094788
164	0xbe73d8fe	-0.23813245
165	0xbd5a60a4	-0.05331482
166	0x3e10d383	0.14143185
167	0x3dfaece5	0.12252215
168	0x3e646215	0.2230304
169	0x3dc5d245	0.09659246
170	0xbe5d31ac	-0.2160098
171	0x3dee53ce	0.11637078
172	0x3e1e4fb2	0.15460089
173	0x3cb5046f	0.02209684
174	0xbe23eae2	-0.1600757
175	0x3dde6ec5	0.10860971
176	0x3e2e01b7	0.16992842
177	0x3e448800	0.19192505
178	0x3e582331	0.21107174
179	0x3d810af5	0.06300918
180	0xbe509ea0	-0.2037301
181	0x3e66953d	0.22517867
182	0x3e56dd90	0.20982957
183	0x3ddcd425	0.10782651
184	0xbe70c1af	-0.23511384
185	0xbd8b4d03	-0.06801798
186	0xbdc80d89	-0.097682066
187	0x3d89ccab	0.067284904
188	0x3e2d0bed	0.1689908
189	0xbcfaf8e6	-0.030636262
190	0x3e66657f	0.22499655
191	0xbe048454	-0.12941104
192	0xbe09154c	-0.1338703
193	0xba744d35	-0.0009319366
194	0xbe3c3d63	-0.18382792
195	0xbe30291e	-0.17203185
196	0xbe23f171	-0.16010071
197	0x3d96b0ed	0.07357965
198	0x3c0e5194	0.008686442
199	0x3d937e99	0.07201881
200	0xbd1e9d39	-0.038724158
201	0x3e2346df	0.15945004
202	0xbd88aa01	-0.06673051
203	0xbda2b130	-0.07943952
204	0x3e4eeb13	0.20206861
205	0xbdd6d0a2	-0.10489012
206	0x3e51afcc	0.20477217
207	0x3c13231e	0.008980541
208	0x3db5cfe4	0.088775426
209	0xbe22a3ac	-0.15882748
210	0x3e68a08c	0.22717494
211	0xbd34fe38	-0.044187754
212	0xbe458007	-0.1928712
213	0xbd48c93e	-0.049020045
214	0xbe358982	-0.17728236
215	0xbcdcff9e	-0.026977357
216	0x3df5154c	0.11966953
217	0x3e0f6c3f	0.14006136
218	0x3ddfb82e	0.10923801
219	0x3d8a420f	0.06750881
220	0x3e07bf16	0.13256487
221	0x3d89ed3b	0.06734701
222	0xbe65411c	-0.22388119
223	0xbd7bd81f	-0.061485406
224	0xbdaf1a82	-0.08549978
225	0x3dda1bb8	0.10649818
226	0x3e2c9701	0.16854478
227	0x3e781070	0.2422502
228	0xbe4a87e1	-0.19778396
229	0x3e489721	0.19588901
230	0xbe66afaa	-0.22527948
231	0xbe5caade	-0.21549556
232	0xbd115082	-0.03547717
233	0xbd8392a2	-0.06424452
234	0xbe4bc4b1	-0.1989925
235	0x3d5a151f	0.0532428
236	0x3e02c2a1	0.12769558
237	0x3e53b39c	0.20673984
238	0x3cc87972	0.024471972
239	0x3dbd8cb9	0.09255356
240	0x3e2d6f33	0.1693695
241	0x3d66fa66	0.056391142
242	0xbe4a0902	-0.19729999
243	0x3dac1dfe	0.08404158
244	0x3e6b189a	0.22958604
245	0x3d9fbe34	0.0779995
246	0xbd859b0e	-0.06523715
247	0xbded7ceb	-0.11596092
248	0x3e5eb8cc	0.21750182
249	0x3c672e16	0.014110109
250	0x3e3b54c8	0.1829406
251	0xbe1010d9	-0.14068927
252	0xbda01e8d	-0.07818327
253	0x3db74756	0.08949153
254	0xbe3d0100	-0.18457413
255	0xbe3c5aa5	-0.18393953

embedding.fc.bias f4 [64]
0	0xbe6da9d6	-0.23209319
1	0xbdc03a57	-0.093861274
2	0x3d80f3f3	0.062965296
3	0xbdd4137a	-0.10355277
4	0xbbb985cf	-0.005661703
5	0xbe5a0b13	-0.21293287
6	0xbdc0b388	-0.09409243
7	0xbdad8953	-0.08473458
8	0xbce3b067	-0.027794076
9	0x3e4a5295	0.19758065
10	0xbe15034a	-0.14552036
11	0xbcbfe4dd	-0.02342456
12	0x3daac03a	0.083374456
13	0xbdf23f67	-0.11828499
14	0xbe1e5c81	-0.15464975
15	0x3e2433bc	0.1603536
16	0x3d192dfa	0.037397362
17	0xbd11ec5e	-0.035625808
18	0x3e45c332	0.19312742
19	0xbe1f0b40	-0.15531635
20	0xbe6b6621	-0.22988178
21	0xbe384ce7	-0.17998086
22	0x3c8c4b96	0.017125886
23	0xbd9a5291	-0.075352795
24	0xbdd3a2a3	-0.10333755
25	0x3db2bfba	0.08727975
26	0x3e0537a5	0.13009508
27	0x3e49e007	0.19714366
28	0x3d8cf80f	0.06883251
29	0x3e15bb87	0.14622317
30	0x3ce2c744	0.027682908
31	0x3d27fd44	0.041013017
32	0xbcca37b6	-0.024684768
33	0xbdae31b9	-0.085055776
34	0xbe6691b8	-0.22516525
35	0x3e3f14da	0.18660298
36	0x3e58d931	0.21176602
37	0xbd91a669	-0.07111818
38	0xbe6d7fc1	-0.23193265
39	0x3e2565d1	0.16152121
40	0xbe55c56b	-0.2087609
41	0x3e73f6c0	0.23824596
42	0xbdfe95b8	-0.124309
43	0xbd25e104	-0.040497795
44	0xbdf509b3	-0.119647406
45	0x3db21941	0.08696223
46	0x3df405bc	0.11915156
47	0x3e19469c	0.14968342
48	0xbcca6018	-0.024704024
49	0xbdcc001e	-0.0996096
50	0xbe5d278b	-0.21597116
51	0x3caca03c	0.0210725
52	0xbe61b7b2	-0.2204273
53	0xbc6d1d55	-0.014472325
54	0xbc480727	-0.0122087365
55	0xbe01d7cf	-0.1267998
56	0x3e08e398	0.1336807
57	0x3e02ac5d	0.12761064
58	0x3e349093	0.17633276
59	0xbe055123	-0.13019232
60	0x3e76f4e4	0.24116856
61	0xbe2ad0c3	-0.16681199
62	0x3e1d0b7c	0.15336412
63	0x3e377c77	0.17918573

generator.transformer_layer.self_attn.in_proj_weight f4 [192, 64]
0	0x3cf2d443	0.02964223
1	0x3e0979ff	0.13425444
2	0x3d99e2b0	0.0751394
3	0x3d88f6b5	0.06687681
4	0xbe1562df	-0.14588498
5	0x3d8cfa95	0.06883732
6	0x3d98e8a8	0.07466251
7	0x3de23ec8	0.11047131
8	0x3dce1082	0.10061742
9	0xbe1c1209	-0.15241255
10	0xbb94b893	-0.0045386045
11	0x3a0c4a6b	0.00053516653
12	0x3dd6f3fb	0.10495754
13	0x3e042db6	0.12908062
14	0xbe1c5e96	-0.15270457
15	0x3c9bbf61	0.019012155
16	0xbc1e08c5	-0.0096456455
17	0x3e012396	0.12611231
18	0x3cfab840	0.030605435
19	0xbac63e5e	-0.0015124788
20	0xbc9aa184	-0.018875845
21	0xbdc89857	-0.097946815
22	0xbe0dcf51	-0.13848616
23	0xbdd18ed0	-0.102323174
24	0xbe10d41c	-0.14143413
25	0xbdf07d8e	-0.11742698
26	0x3df7af8b	0.12094029
27	0x3cf52dc4	0.02992905
28	0xbbb99d32	-0.005664491
29	0x3d878fdb	0.06619235
30	0xbcb9637a	-0.022630442
31	0xbd8d6531	-0.06904066
32	0x3d9a0e3b	0.075222455
33	0x3e090907	0.1338235
34	0x3c8fa739	0.017535793
35	0xbe19d006	-0.15020761
36	0xbbf285b0	-0.0074011907
37	0xbdd9c2ea	-0.1063288
38	0x3dc858f8	0.097825944
39	0xbc9cf987	-0.019161953
40	0xbd46768d	-0.048452903
41	0xbdeee192	-0.11664118
42	0x3e17a8c6	0.14810476
43	0xbd1e3f54	-0.038634613
44	0xbd9aceab	-0.0755895
45	0xbdbda08e	-0.09259139
46	0x3ded8eda	0.115995124
47	0x3dd187c8	0.10230976
48	0xbd8b719f	-0.06808781
49	0x3d8edbdc	0.069755286
50	0x3dfcba0d	0.12340174
51	0xbd910b43	-0.07082226
52	0x3db56294	0.08856693
53	0x3e0583e7	0.13038598
54	0x3d91d316	0.071203396
55	0xbdb89007	-0.09011846
56	0x3d2edc32	0.042690463
57	0xbd9868d8	-0.07441872
58	0xbcf649a3	-0.03006441
59	0x3ca5802d	0.02020272
60	0x3d068fbb	0.032851916
61	0x3e111987	0.14169894
62	0xbe1b9daf	-0.1519687
63	0x3e05b638	0.13057792
64	0xbdbe5732	-0.09293975
65	0x3d2eaa00	0.042642593
66	0x3ddf55bc	0.109050244
67	0xbdeebc5f	-0.11657023
68	0xbd199758	-0.03749785
69	0xbde646a8	-0.11243945
70	0xbddd3d42	-0.108026996
71	0xbdf6a474	-0.12043086
72	0x3c2d3a54	0.010572989
73	0xbdf543ba	-0.119758084
74	0x3e0b05b7	0.13576399
75	0x3d28dcf1	0.04122633
76	0xbd5830f1	-0.05278105
77	0x3e1afe60	0.15136099
78	0x3d5266cf	0.051367577
79	0xbc621f6a	-0.013801435
80	0xbdae1a66	-0.08501129
81	0x3c3d2f64	0.011546943
82	0xbdc729d3	-0.09724774
83	0x3d0b571e	0.03401863
84	0xbdc57213	-0.096408986
85	0xbd8e6890	-0.069535375
86	0x3e1bfd16	0.15233263
87	0xbdcef0ea	-0.101045445
88	0xbe075194	-0.13214713
89	0xbe06ca93	-0.13163213
90	0x3d620fc8	0.05519083
91	0x3da2722d	0.079319336
92	0x3cb02119	0.021500157
93	0xbda055d8	-0.078288734
94	0xbe0229f5	-0.12711318
95	0x3b7a8090	0.0038223602
96	0xbdf8d6e8	-0.12150365
97	0x3e15a41d	0.14613385
98	0x3e023c1e	0.12718245
99	0x3d0ccc34	0.03437443
100	0x3dd88331	0.10571898
101	0x3e16923c	0.14704221
102	0x3b658ccb	0.0035026546
103	0xbd46c4bf	-0.048527475
104	0x3e02ce77	0.12774073
105	0xbc7c4767	-0.015397883
106	0xbd831b77	-0.06401723
107	0xbe08781f	-0.13327073
108	0xbe1a869d	-0.15090413
109	0xbc81ad49	-0.0158297
110	0xbe12cc83	-0.14335828
111	0xbc7eec26	-0.015559232
112	0x3dae69d9	0.085162826
113	0x3d448f11	0.047988
114	0x3e009d67	0.12560044
115	0xbd9fb2b1	-0.077977546
116	0x3d34566a	0.044027723
117	0x3e077039	0.13226403
118	0xbd31c4c4	-0.04340054
119	0x3e0c942a	0.13728395
120	0x3e003baf	0.12522767
121	0xbe16e1e0	-0.14734602
122	0x3da60e4b	0.08108195
123	0x3daa9f29	0.08331139
124	0x3dd0f545	0.102030315
125	0x3dbcddd2	0.09221996
126	0xbcb42038	-0.02198802
127	0x3ca6e085	0.020370731
128	0x3daf9d00	0.08574867
129	0xbdc202bf	-0.0947318
130	0x3d86e6bc	0.06586978
131	0x3c2457e7	0.010030723
132	0x3da3d2cc	0.07999191
133	0x3dc76541	0.097361095
134	0x3d1ae376	0.03781458
135	0x3d8fe420	0.07025933
136	0x3d5c9581	0.053853516
137	0xbd56732c	-0.05235593
138	0x3cf15673	0.029460168
139	0x3c9c35af	0.019068567
140	0xbddc2fa2	-0.10751273
141	0x3d8f9aa4	0.07011917
142	0xbd72b870	-0.059257925
143	0xbca735f2	-0.020411465
144	0xbd46230a	-0.04837326
145	0xbc97bb48	-0.01852192
146	0x3e038753	0.12844591
147	0xbe02bce8	-0.12767375
148	0x3db2d4f2	0.08732022
149	0x3b067ef3	0.0020522445
150	0xbc052121	-0.008125574
151	0xbdca0cc4	-0.09865716
152	0xbd87895c	-0.06617996
153	0xbe141cd8	-0.14464128
154	0xbcaa8074	-0.020813204
155	0x3dafa0ec	0.08575615
156	0x3e03fa17	0.1288837
157	0xbd7fda93	-0.062464308
158	0xbcd5940f	-0.026071576
159	0x3d533b35	0.051570136
160	0x3d75a6ce	0.05997353
161	0xbd0384d5	-0.0321091
162	0x3e0421c0	0.129035
163	0x3dbdad79	0.09261603
164	0xbcc8e848	-0.024524823
165	0x3d290247	0.041261937
166	0x3d8fce1a	0.07021733
167	0xbd602c1f	-0.054729577
168	0xbddb3162	-0.107027784
169	0x3dfda787	0.12385469
170	0x3cc888ad	0.024479235
171	0x3e094142	0.134038
172	0xbc9e6c2a	-0.019338686
173	0xbddaecdf	-0.10689711
174	0xbd94d21a	-0.07266636
175	0xbd85ba80	-0.06529713
176	0xbda573fa	-0.080787614
177	0x3bbae7b9	0.005703893
178	0x3d689f31	0.05679244
179	0x3d82fac7	0.06395488
180	0xbcc177f5	-0.02361677
181	0x3b5ce006	0.0033702864
182	0xbde6742c	-0.11252627
183	0xbda6a68e	-0.081372365
184	0xbe021637	-0.12703787
185	0xbde84c86	-0.11342721
186	0x3c8af928	0.01696451
187	0xbd4fb008	-0.050704986
188	0xbdcef14a	-0.10104616
189	0xbd9b38c3	-0.07579186
190	0xbd0f809b	-0.035034757
191	0xbd53a404	-0.05167009
192	0xbdf14ef7	-0.117826395
193	0x3d849587	0.064738326
194	0xbe0557a8	-0.1302172
195	0x3d9094fa	0.07059665
196	0x3d13c506	0.036076568
197	0xbda9ddc9	-0.08294255
198	0x3d8ab283	0.0677233
199	0x3e18e040	0.14929295
200	0x3dca0a6f	0.09865271
201	0xbe114d82	-0.14189723
202	0xbdbe5642	-0.09293796
203	0x3deb88bf	0.115006916
204	0xbe02dc17	-0.1277927
205	0x3ddc52d0	0.10757983
206	0xbe0bdb5b	-0.13657896
207	0x3d1fc727	0.039008286
208	0x3d37c3a8	0.044864327
209	0x3d8c5520	0.06852174
210	0x3d94fb57	0.07274502
211	0xbd73578a	-0.059409656
212	0x3c479db7	0.012183598
213	0x3e0f77f9	0.1401061
214	0xbded58c6	-0.11589198
215	0x3d2f980b	0.04286961
216	0xbd429953	-0.047509503
217	0xbdb9443d	-0.090462185
218	0x3dd6f374	0.10495654
219	0x3d1db6dd	0.03850447
220	0x3d619d89	0.055081878
221	0x3c6fac47	0.014628476
222	0x3de2b990	0.110705495
223	0xbd7c4492	-0.06158883
224	0xbde7626f	-0.112980716
225	0xbdc03338	-0.09384769
226	0x3c23b911	0.009992854
227	0xbd8bc5e1	-0.06824852
228	0x3d6a08ea	0.057137407
229	0xbe04c62b	-0.1296622
230	0xbd2f39a9	-0.0427796
231	0x3d61db7b	0.055140954
232	0x3e0f65b5	0.14003642
233	0xbb0a4236	-0.0021096594
234	0x3cfd5118	0.030922458
235	0xbc8e3ba1	-0.017362418
236	0xbd3342cf	-0.043764886
237	0xbd54a137	-0.05191156
238	0xbcd0183b	-0.025402179
239	0x3e1b1681	0.15145303
240	0x3d82a12e	0.06378399
241	0x3c9eef05	0.019401083
242	0xbdd7832e	-0.105230674
243	0x3de2d6fc	0.11076161
244	0x3ced43bb	0.02896296
245	0xbc614c12	-0.013751047
246	0xbd254802	-0.040351875
247	0xbba9a921	-0.0051776324
248	0x3ca3e5cf	0.020007042
249	0xbe016fe3	-0.12640338
250	0xbdfb42f1	-0.122686274
251	0x3d91d7c4	0.07121232
252	0x3e0e5fb9	0.13903703
253	0xbdb551e1	-0.08853508
254	0xbd317aa6	-0.043329857
255	0x3df23a94	0.11827579

generator.transformer_layer.self_attn.in_proj_bias f4 [192]
0	0x00000000	0.0
1	0x00000000	0.0
2	0x00000000	0.0
3	0x00000000	0.0
4	0x00000000	0.0
5	0x00000000	0.0
6	0x00000000	0.0
7	0x00000000	0.0
8	0x00000000	0.0
9	0x00000000	0.0
10	0x00000000	0.0
11	0x00000000	0.0
12	0x00000000	0.0
13	0x00000000	0.0
14	0x00000000	0.0
15	0x00000000	0.0
16	0x00000000	0.0
17	0x00000000	0.0
18	0x00000000	0.0
19	0x00000000	0.0
20	0x00000000	0.0
21	0x00000000	0.0
22	0x00000000	0.0
23	0x00000000	0.0
24	0x00000000	0.0
25	0x00000000	0.0
26	0x00000000	0.0
27	0x00000000	0.0
28	0x00000000	0.0
29	0x00000000	0.0
30	0x00000000	0.0
31	0x00000000	0.0
32	0x00000000	0.0
33	0x00000000	0.0
34	0x00000000	0.0
35	0x00000000	0.0
36	0x00000000	0.0
37	0x00000000	0.0
38	0x00000000	0.0
39	0x00000000	0.0
40	0x00000000	0.0
41	0x00000000	0.0
42	0x00000000	0.0
43	0x00000000	0.0
44	0x00000000	0.0
45	0x00000000	0.0
46	0x00000000	0.0
47	0x00000000	0.0
48	0x00000000	0.0
49	0x00000000	0.0
50	0x00000000	0.0
51	0x00000000	0.0
52	0x00000000	0.0
53	0x00000000	0.0
54	0x00000000	0.0
55	0x00000000	0.0
56	0x00000000	0.0
57	0x00000000	0.0
58	0x00000000	0.0
59	0x00000000	0.0
60	0x00000000	0.0
61	0x00000000	0.0
62	0x00000000	0.0
63	0x00000000	0.0
64	0x00000000	0.0
65	0x00000000	0.0
66	0x00000000	0.0
67	0x00000000	0.0
68	0x00000000	0.0
69	0x00000000	0.0
70	0x00000000	0.0
71	0x00000000	0.0
72	0x00000000	0.0
73	0x00000000	0.0
74	0x00000000	0.0
75	0x00000000	0.0
76	0x00000000	0.0
77	0x00000000	0.0
78	0x00000000	0.0
79	0x00000000	0.0
80	0x00000000	0.0
81	0x00000000	0.0
82	0x00000000	0.0
83	0x00000000	0.0
84	0x00000000	0.0
85	0x00000000	0.0
86	0x00000000	0.0
87	0x00000000	0.0
88	0x00000000	0.0
89	0x00000000	0.0
90	0x00000000	0.0
91	0x00000000	0.0
92	0x00000000	0.0
93	0x00000000	0.0
94	0x00000000	0.0
95	0x00000000	0.0
96	0x00000000	0.0
97	0x00000000	0.0
98	0x00000000	0.0
99	0x00000000	0.0
100	0x00000000	0.0
101	0x00000000	0.0
102	0x00000000	0.0
103	0x00000000	0.0
104	0x00000000	0.0
105	0x00000000	0.0
106	0x00000000	0.0
107	0x00000000	0.0
108	0x00000000	0.0
109	0x00000000	0.0
110	0x00000000	0.0
111	0x00000000	0.0
112	0x00000000	0.0
113	0x00000000	0.0
114	0x00000000	0.0
115	0x00000000	0.0
116	0x00000000	0.0
117	0x00000000	0.0
118	0x00000000	0.0
119	0x00000000	0.0
120	0x00000000	0.0
121	0x00000000	0.0
122	0x00000000	0.0
123	0x00000000	0.0
124	0x00000000	0.0
125	0x00000000	0.0
126	0x00000000	0.0
127	0x00000000	0.0
128	0x00000000	0.0
129	0x00000000	0.0
130	0x00000000	0.0
131	0x00000000	0.0
132	0x00000000	0.0
133	0x00000000	0.0
134	0x00000000	0.0
135	0x00000000	0.0
136	0x00000000	0.0
137	0x00000000	0.0
138	0x00000000	0.0
139	0x00000000	0.0
140	0x00000000	0.0
141	0x00000000	0.0
142	0x00000000	0.0
143	0x00000000	0.0
144	0x00000000	0.0
145	0x00000000	0.0
146	0x00000000	0.0
147	0x00000000	0.0
148	0x00000000	0.0
149	0x00000000	0.0
150	0x00000000	0.0
151	0x00000000	0.0
152	0x00000000	0.0
153	0x00000000	0.0
154	0x00000000	0.0
155	0x00000000	0.0
156	0x00000000	0.0
157	0x00000000	0.0
158	0x00000000	0.0
159	0x00000000	0.0
160	0x00000000	0.0
161	0x00000000	0.0
162	0x00000000	0.0
163	0x00000000	0.0
164	0x00000000	0.0
165	0x00000000	0.0
166	0x00000000	0.0
167	0x00000000	0.0
168	0x00000000	0.0
169	0x00000000	0.0
170	0x00000000	0.0
171	0x00000000	0.0
172	0x00000000	0.0
173	0x00000000	0.0
174	0x00000000	0.0
175	0x00000000	0.0
176	0x00000000	0.0
177	0x00000000	0.0
178	0x00000000	0.0
179	0x00000000	0.0
180	0x00000000	0.0
181	0x00000000	0.0
182	0x00000000	0.0
183	0x00000000	0.0
184	0x00000000	0.0
185	0x00000000	0.0
186	0x00000000	0.0
187	0x00000000	0.0
188	0x00000000	0.0
189	0x00000000	0.0
190	0x00000000	0.0
191	0x00000000	0.0

generator.transformer_layer.self_attn.out_proj.weight f4 [64, 64]
0	0x3d98e722	0.0746596
1	0xbd9c406e	-0.076294765
2	0xbdc59ffe	-0.09649657
3	0x3defeb04	0.117147475
4	0x3d6131b8	0.054979056
5	0x3dda84e0	0.10669875
6	0xbcd673c0	-0.02617824
7	0x3dbaa32c	0.09113154
8	0x3d781720	0.06056893
9	0xbc9a0278	-0.018800005
10	0x3d7191cc	0.058976933
11	0xbd5e978c	-0.054343745
12	0xbd69bcf0	-0.05706495
13	0xbda8ef18	-0.082487285
14	0x3dfeed30	0.12447584
15	0x3b955920	0.0045577437
16	0x3df6159e	0.12015842
17	0xbc4886a0	-0.012239128
18	0x3dccb60e	0.09995662
19	0x3da32436	0.07965891
20	0x3de11f80	0.10992336
21	0xbcf4f608	-0.029902473
22	0x3daefe5a	0.085446075
23	0xbd84bfd2	-0.06481899
24	0xbd9a3c12	-0.07530989
25	0x3d826d44	0.06368497
26	0xbdb091c6	-0.08621554
27	0xbd5fef98	-0.054671854
28	0x3d642abc	0.055704817
29	0xbd20a064	-0.03921546
30	0xbdae70fc	-0.08517644
31	0xbd9c1fc0	-0.07623243
32	0x3daff39e	0.08591388
33	0x3dc132b4	0.09433499
34	0x3d8e1602	0.069377914
35	0xbc6be2e0	-0.014397353
36	0x3d35c054	0.04437287
37	0x3dc4d44a	0.096108034
38	0xbdfd287c	-0.123612374
39	0xbd8e0776	-0.06935017
40	0x3ddeddaa	0.10882123
41	0xbdda93dc	-0.10672733
42	0x3de7df52	0.11321892
43	0x3cb4a810	0.022052795
44	0x3d612f70	0.05497688
45	0x3cb2ed10	0.021841556
46	0x3d2c6774	0.042090848
47	0xbdd3c8f2	-0.10341062
48	0xbd94c85a	-0.072647765
49	0x3cc0eaa8	0.023549393
50	0xbd80307c	-0.06259248
51	0xbd293c1c	-0.04131709
52	0xbd2f3498	-0.042774767
53	0xbb89e880	-0.0042086244
54	0xbd98bec0	-0.07458258
55	0x3dce35d0	0.10068858
56	0x3db3fa28	0.08787948
57	0xbdf4f6a6	-0.11961107
58	0xbdd0dec8	-0.10198742
59	0xbca70658	-0.020388767
60	0xbd99907a	-0.0749826
61	0xbde1aef0	-0.11019695
62	0x3cc59540	0.02411902
63	0x3de3fe5e	0.11132501
64	0xbd0dc62c	-0.03461282
65	0xbd6da2d0	-0.0580166
66	0x3d95ac5c	0.073082656
67	0xbd8a2bb2	-0.067466155
68	0x3dc83622	0.0977595
69	0x3dec445c	0.11536476
70	0xbd7be428	-0.061496884
71	0x3dbed390	0.09317696
72	0xbdbfe5fc	-0.09370038
73	0xbdc8202c	-0.09771761
74	0x3d9a9036	0.07547037
75	0x3dda08fa	0.106462434
76	0x3c8acd08	0.01694347
77	0x3cef2590	0.029192716
78	0x3d68a2bc	0.05679582
79	0xbd9081c8	-0.07056004
80	0xbd9b24fa	-0.07575412
81	0x3bb94720	0.0056542307
82	0x39e25800	0.00043171644
83	0x3d9133e2	0.07089974
84	0x3de4c782	0.111708656
85	0x3b91c780	0.004448831
86	0x3d9460fe	0.07245062
87	0x3da20b48	0.07912308
88	0x3d8baa8e	0.0681964
89	0xbda5d840	-0.08097887
90	0xbdde5c90	-0.10857499
91	0x3dd047fc	0.1016998
92	0x3db9180e	0.09037791
93	0xbd68cbdc	-0.05683504
94	0xbc3e2a70	-0.011606798
95	0x3d9c47ca	0.0763088
96	0x3c750070	0.014953718
97	0xbdc0cd98	-0.09414214
98	0x3ddb29dc	0.107013434
99	0x3c3ab720	0.011396199
100	0xbda1e0a2	-0.079041734
101	0x3d8094ec	0.062784046
102	0xbd2a5170	-0.04158157
103	0x3d8910e2	0.06692673
104	0xbb305140	-0.0026903898
105	0xbdeb6cb6	-0.11495344
106	0x3d0fa800	0.035072327
107	0xbdb45c9e	-0.08806728
108	0xbd071288	-0.032976657
109	0x3d176b24	0.03696741
110	0xbbe66d00	-0.007032037
111	0xbdde1884	-0.1084452
112	0x3dbb4628	0.091442406
113	0xbcd48b90	-0.025945455
114	0xbd918394	-0.07105175
115	0x3ddcfb94	0.10790172
116	0xbd984f02	-0.074369445
117	0xbd24fce0	-0.040280223
118	0x3c3f4100	0.011673212
119	0xbdc731b2	-0.097262755
120	0xbd3afbc8	-0.045650274
121	0x3c85f0c8	0.016350165
122	0xbd85f394	-0.065405995
123	0x3d7a4dac	0.06110923
124	0xbd854dd0	-0.06508982
125	0xbda0550e	-0.07828723
126	0xbd37c20c	-0.044862792
127	0x3df062d2	0.117375985
128	0xbde1e3a0	-0.11029744
129	0xbdc1aa06	-0.094562575
130	0x3de7695e	0.11299394
131	0xbdb0dbe4	-0.08635691
132	0x3d3cf7b4	0.046134666
133	0x3de3372e	0.11094509
134	0xbbc951c0	-0.0061437786
135	0xbdc58d4e	-0.09646092
136	0x3c4fed40	0.012690842
137	0x3db98264	0.09058073
138	0x3dc3680c	0.0954133
139	0xbd3e5648	-0.046469003
140	0xbd508194	-0.050904825
141	0x3d81f414	0.06345382
142	0xbd1d12ec	-0.038348123
143	0x3cbf2f58	0.023338005
144	0xbdea68be	-0.11445759
145	0xbd01f6c4	-0.031729475
146	0x3dfe184a	0.124069765
147	0x3d09d6cc	0.033652112
148	0xbc8ec418	-0.01742749
149	0x3dae0d86	0.08498673
150	0xbd9176e2	-0.07102753
151	0x3da988b0	0.08278024
152	0x3d72c90c	0.059273764
153	0x3da694e0	0.081338644
154	0x3dcc4a2e	0.09975086
155	0xbce1be30	-0.027556509
156	0x3d357724	0.044303074
157	0xbdc7d1ae	-0.0975679
158	0x3d41cb60	0.047313094
159	0xbdc57aea	-0.096425846
160	0x3cac0050	0.020996243
161	0xbdb30a72	-0.08742227
162	0xbc1ad230	-0.009449527
163	0x3c7cbe90	0.015426293
164	0x3b837dc0	0.0040127933
165	0xbc30b720	-0.010785848
166	0xbc35ed00	-0.0111038685
167	0x3d1013b0	0.035175025
168	0x3d48ec18	0.04905328
169	0xbd3d33a0	-0.04619181
170	0x3dc95fd2	0.098327294
171	0x3d53b1c8	0.051683217
172	0xbdd4044e	-0.103523836
173	0x3d986dc8	0.07442814
174	0xbd5f09d0	-0.054452717
175	0x3dc137f0	0.09434497
176	0xbd9a0ba8	-0.075217545
177	0xbd5c2e84	-0.0537553
178	0xbd0d24bc	-0.03445886
179	0x3dbfb23e	0.09360169
180	0xbd3f7128	-0.046738774
181	0xbda5b918	-0.080919445
182	0xbde89d5e	-0.113581404
183	0x3d185c68	0.0371975
184	0xbdc79d42	-0.097467914
185	0x3b5a54c0	0.0033314675
186	0x3cb601b8	0.022217616
187	0x3d3c0c10	0.04590994
188	0x3d9e788e	0.07737838
189	0xbbb785c0	-0.005600661
190	0xbc3deb00	-0.011591673
191	0xbdb468e8	-0.08809072
192	0xbdb5af10	-0.08871281
193	0x3dbdf1fa	0.09274669
194	0xbdf40974	-0.119158655
195	0xbdd5e586	-0.10444169
196	0xbb65b440	-0.0035050064
197	0x3dd5c252	0.10437454
198	0x3d8d0386	0.06885438
199	0x3db4ece6	0.08834247
200	0x3ca9e0c0	0.020737052
201	0xbd977344	-0.07395032
202	0x3d544728	0.051825672
203	0x3db1ec1e	0.08687614
204	0x3cf21178	0.029549345
205	0x3dae73b4	0.08518162
206	0x3d8edcd4	0.06975713
207	0xbda8c2a6	-0.08240251
208	0x3d4b3bc0	0.04961753
209	0xbd5356a4	-0.0515963
210	0xbdd8bb98	-0.10582656
211	0x3cf65a80	0.03007245
212	0xbd4bbc0c	-0.049739882
213	0xbd786e34	-0.060651973
214	0xbd9687c2	-0.073501125
215	0xbc7f44e0	-0.015580386
216	0xbb91f640	-0.004454404
217	0xbd39facc	-0.045405194
218	0x3d26d5d0	0.04073125
219	0xbdb10c02	-0.086448684
220	0x3ccf4098	0.025299355
221	0xbdbeee24	-0.093227655
222	0xbd8dc534	-0.06922379
223	0x3de6547c	0.11246583
224	0xbd4b3bcc	-0.049617574
225	0x3d3a62f0	0.04550451
226	0x3d03164c	0.032003686
227	0x3dab0f50	0.0835253
228	0xbc823e60	-0.015898883
229	0x3be58fe0	0.0070056766
230	0xbcacf9b8	-0.021115169
231	0x3de7bc12	0.113151684
232	0x3cc186a0	0.023623765
233	0x3dc61644	0.096722156
234	0x3d4f3ba0	0.050593972
235	0x3df27604	0.11838916
236	0x3d073998	0.03301391
237	0x3d987d34	0.074457556
238	0x3c22d7b0	0.009939119
239	0x3d6857c0	0.05672431
240	0xbbc20d60	-0.0059220046
241	0xbdf9cbe8	-0.12197095
242	0x3dfc5ab8	0.12321991
243	0xba832380	-0.0010005087
244	0x3dec06a0	0.11524701
245	0x3d9c03fa	0.07617946
246	0x3dcc0f00	0.099637985
247	0xbda76f9e	-0.08175586
248	0xbdb1c3b0	-0.086799026
249	0x3dd0439c	0.101691455
250	0x3dde0d3a	0.108423665
251	0xbd98e16a	-0.07464869
252	0xbd551844	-0.052025095
253	0x3dfa4a88	0.12221247
254	0x3deeafc8	0.11654621
255	0x3cb22930	0.021748155

generator.transformer_layer.self_attn.out_proj.bias f4 [64]
0	0x00000000	0.0
1	0x00000000	0.0
2	0x00000000	0.0
3	0x00000000	0.0
4	0x00000000	0.0
5	0x00000000	0.0
6	0x00000000	0.0
7	0x00000000	0.0
8	0x00000000	0.0
9	0x00000000	0.0
10	0x00000000	0.0
11	0x00000000	0.0
12	0x00000000	0.0
13	0x00000000	0.0
14	0x00000000	0.0
15	0x00000000	0.0
16	0x00000000	0.0
17	0x00000000	0.0
18	0x00000000	0.0
19	0x00000000	0.0
20	0x00000000	0.0
21	0x00000000	0.0
22	0x00000000	0.0
23	0x00000000	0.0
24	0x00000000	0.0
25	0x00000000	0.0
26	0x00000000	0.0
27	0x00000000	0.0
28	0x00000000	0.0
29	0x00000000	0.0
30	0x00000000	0.0
31	0x00000000	0.0
32	0x00000000	0.0
33	0x00000000	0.0
34	0x00000000	0.0
35	0x00000000	0.0
36	0x00000000	0.0
37	0x00000000	0.0
38	0x00000000	0.0
39	0x00000000	0.0
40	0x00000000	0.0
41	0x00000000	0.0
42	0x00000000	0.0
43	0x00000000	0.0
44	0x00000000	0.0
45	0x00000000	0.0
46	0x00000000	0.0
47	0x00000000	0.0
48	0x00000000	0.0
49	0x00000000	0.0
50	0x00000000	0.0
51	0x00000000	0.0
52	0x00000000	0.0
53	0x00000000	0.0
54	0x00000000	0.0
55	0x00000000	0.0
56	0x00000000	0.0
57	0x00000000	0.0
58	0x00000000	0.0
59	0x00000000	0.0
60	0x00000000	0.0
61	0x00000000	0.0
62	0x00000000	0.0
63	0x00000000	0.0

generator.transformer_layer.linear1.weight f4 [128, 64]
0	0x3d9fe384	0.07807067
1	0x3deb2ec6	0.11483531
2	0xbddf0460	-0.10889506
3	0x3d147f94	0.03625448
4	0x3c81e4c8	0.015856162
5	0xbd8c0000	-0.068359375
6	0xbdc24196	-0.09485166
7	0xbdcdb2fc	-0.10043904
8	0x3d187d2c	0.03722875
9	0x3cb18ee0	0.021674573
10	0x3d91429a	0.07092781
11	0x3d9f6b66	0.077841565
12	0x3c949678	0.018138155
13	0xbdc1f9ca	-0.094714716
14	0x3df92a9a	0.12166329
15	0x3d8153b4	0.06314793
16	0xbdebffb8	-0.11523384
17	0xbd9d2a34	-0.07674065
18	0x3ca805e0	0.020510614
19	0xbdc91d94	-0.09820095
20	0xbce7c0c0	-0.028290153
21	0x3d3ec8dc	0.046578273
22	0x3d234660	0.039862037
23	0x3d969f88	0.07354647
24	0xbdc65d36	-0.09685747
25	0xbd99f550	-0.07517493
26	0xbde644b0	-0.1124357
27	0xbd503950	-0.050835907
28	0x3d2157e8	0.039390475
29	0x3d07338c	0.033008143
30	0xbd66fe0c	-0.05639462
31	0x3db72a0c	0.08943567
32	0x3d931012	0.071807995
33	0x3c091aa0	0.008368164
34	0xbd46c96c	-0.048531935
35	0x3d4fd8a4	0.050743714
36	0x3c3fc990	0.011705771
37	0xbdc14bde	-0.09438299
38	0xbdb7fdf8	-0.089839876
39	0xbdde9efc	-0.108701676
40	0xbdc86a04	-0.09785846
41	0x3d602f64	0.054732695
42	0x3c262b40	0.010142148
43	0x3db1e22a	0.086857155
44	0xbdeb06b4	-0.11475888
45	0x3df97996	0.12181394
46	0x3de5121a	0.11185093
47	0x3d7dead4	0.061991528
48	0xbdea3076	-0.114350244
49	0x3d90fe10	0.070797086
50	0x3d23bb24	0.039973393
51	0xbd0c2e5c	-0.0342239
52	0xbdfbea1c	-0.12300512
53	0xbd0ca04c	-0.03433256
54	0x3db4252e	0.08796154
55	0x3dcb89f8	0.09938425
56	0x3da81b80	0.0820837
57	0xbd9be6c0	-0.076123714
58	0xbded4322	-0.1158507
59	0xbdeb60ca	-0.114930704
60	0xbdd2a04a	-0.10284479
61	0xbd0f52d0	-0.034991086
62	0x3d7f9110	0.0623942
63	0xbdd3bd4c	-0.1033884
64	0xbcd14968	-0.025547698
65	0x3d6358d8	0.05550465
66	0xbc617220	-0.01376012
67	0x3de4ec0c	0.11177835
68	0xbd8ca5fe	-0.06867598
69	0xbdce5f66	-0.100767896
70	0xbd485f00	-0.048918724
71	0x3d9580bc	0.07299945
72	0xbd1c84d8	-0.038212627
73	0xbca3ec80	-0.020010233
74	0x3dc89610	0.09794247
75	0x3d2e2dc0	0.0425241
76	0x3ddaa4a8	0.10675937
77	0x3dc9554e	0.09830724
78	0x3d28b948	0.041192323
79	0xbb536300	-0.0032255054
80	0x3d9fb844	0.07798818
81	0xbc3e04c0	-0.011597812
82	0xbd481a60	-0.04885328
83	0x3ddc3ab8	0.10753387
84	0xbdcbddac	-0.0995439
85	0x3c9ea078	0.019363627
86	0x3da1c438	0.07898754
87	0x3b2ab580	0.0026048124
88	0x3dd2cef6	0.10293381
89	0xbde5bb3e	-0.11217354
90	0x3dd65356	0.10465114
91	0x3dc8a7c8	0.09797627
92	0xbd2c1c24	-0.042019024
93	0x3bca3ac0	0.0061715543
94	0x3d81e62e	0.063427314
95	0xbcbb6820	-0.0228768
96	0xbd0dd000	-0.034622192
97	0xbd98afa4	-0.07455376
98	0xbc5e1880	-0.013555646
99	0x3dd71fde	0.10504125
100	0x3dedd5fe	0.116130814
101	0xbd887c8c	-0.066643804
102	0xbdda95be	-0.10673092
103	0x3d063a54	0.03277047
104	0xbccdff10	-0.025146037
105	0x3d986b28	0.074423134
106	0x3bfe1640	0.0077541173
107	0x3de0fb6e	0.109854564
108	0xbdde1286	-0.10843377
109	0xbdffe5ee	-0.124950275
110	0x3ddec940	0.10878229
111	0x3d5f6afc	0.054545388
112	0x3dc5d7d0	0.096603036
113	0xbdb3c9ba	-0.08778711
114	0x3d895e46	0.06707434
115	0x3d570fec	0.05250542
116	0x3c640c50	0.013918951
117	0xbd88b630	-0.066753745
118	0x3b046b40	0.0020205528
119	0x3d4ef3c0	0.050525427
120	0x3cbf3730	0.023341745
121	0xbdc10e28	-0.09426528
122	0x3da9e8e8	0.082963765
123	0xbd9babec	-0.07601151
124	0xbdb67270	-0.08908546
125	0x3c89a728	0.01680334
126	0x3d0850ac	0.03328006
127	0xbde23878	-0.11045927
128	0x3d4bee8c	0.049788043
129	0x3df549f0	0.11976993
130	0xbdb18eac	-0.086697906
131	0x3d9e3b58	0.07726163
132	0xbd397494	-0.045277193
133	0x3be07a20	0.006850496
134	0x3ce97638	0.028498754
135	0x3da5b2ec	0.08090767
136	0x3d90a610	0.07062924
137	0xbdf2692c	-0.11836466
138	0xbd78bf54	-0.06072934
139	0xbd0705b8	-0.03296444
140	0x3db9e18a	0.09076221
141	0x3da1e912	0.07905783
142	0xbde94a24	-0.11391094
143	0x3d61ae2c	0.055097744
144	0xbd97bea0	-0.07409406
145	0x3df5ef08	0.12008482
146	0x3d2799c0	0.04091811
147	0xbcde28c8	-0.027119055
148	0x3d383048	0.04496792
149	0xbd1f82bc	-0.038943037
150	0xbd8302b8	-0.06397003
151	0xbdcc905a	-0.099884704
152	0x3df8c9f0	0.121478915
153	0xbdfd9926	-0.12382726
154	0x3d90c664	0.0706909
155	0x3c4ab2e0	0.012371749
156	0xbdbd8686	-0.09254174
157	0xbd55eab0	-0.05222577
158	0xbcd69c28	-0.026197508
159	0x3bd442e0	0.0064776987
160	0x3defe28c	0.11713132
161	0xbdda20d2	-0.10650791
162	0xbd5c0934	-0.053719714
163	0xbdc668ae	-0.09687935
164	0x3d602e00	0.05473137
165	0x3d17545c	0.036945686
166	0x3dcc051c	0.09961912
167	0x3d73c3d8	0.059512943
168	0xbd9b3358	-0.075781524
169	0xbd7078e8	-0.058709055
170	0x3d225820	0.039634824
171	0xbd8062c2	-0.062688366
172	0xbd0fd534	-0.035115436
173	0x3dfd2c30	0.12361944
174	0xbd4ac42c	-0.04950349
175	0x3b86f660	0.0041187257
176	0xbd6f25a8	-0.05838552
177	0x3d86f91a	0.06590481
178	0x3d814a40	0.0631299
179	0xbbdba7e0	-0.006703362
180	0xbd2930c0	-0.041306257
181	0xbd644690	-0.055731356
182	0xbde8aeba	-0.113614514
183	0x3d1c4eb0	0.03816098
184	0x3ddfdee6	0.109311864
185	0xbc80f2b0	-0.015740722
186	0x3d3fa1d8	0.046785206
187	0x3d900470	0.070320964
188	0xbddb3d44	-0.10705045
189	0x3d2aba3c	0.041681513
190	0x3d35abb0	0.044353187
191	0x3ded6fe6	0.115936086
192	0x3d8fac48	0.07015282
193	0xbda8df0a	-0.08245666
194	0xbd44984c	-0.047996804
195	0xbd1c3ef8	-0.03814599
196	0xbdab2812	-0.08357252
197	0xbda579de	-0.08079885
198	0x3d74e8e4	0.059792414
199	0xbdf27736	-0.11839144
200	0xbd81340a	-0.06308754
201	0x3bb8c6e0	0.005638942
202	0x3d277f64	0.040892974
203	0xbd09637c	-0.03354214
204	0x3dbcc7ac	0.09217772
205	0xbd1f0874	-0.03882642
206	0xbd03b17c	-0.032151684
207	0x3bbbea20	0.005734697
208	0x3de3eb10	0.11128819
209	0xba9ef600	-0.0012127757
210	0xbd9e1700	-0.07719231
211	0x3878d000	5.9321523e-05
212	0x3da7e9c8	0.08198887
213	0x3c0f3dc0	0.00874275
214	0xbd946f7c	-0.072478265
215	0x3d90638a	0.070502356
216	0x3d682d14	0.056683615
217	0x3dca8e34	0.09890404
218	0xbdd69f78	-0.10479635
219	0x3b884d00	0.0041595697
220	0xbc795a00	-0.015219212
221	0xbdc9046a	-0.09815295
222	0xbdb22cc4	-0.086999446
223	0xbd84f730	-0.0649246
224	0xbda5a0aa	-0.08087285
225	0x3d9109cc	0.07081947
226	0xbd21dbd4	-0.039516285
227	0x3d2c2fe8	0.042037874
228	0xbd4eb120	-0.05046189
229	0x3d5846c4	0.052801862
230	0xbd122f84	-0.035689846
231	0xbde53c7e	-0.111931786
232	0xbdd57b60	-0.104239225
233	0xbd903c70	-0.070427775
234	0xbdf25ca6	-0.118340775
235	0x3bfc05e0	0.00769113
236	0x3df21f4e	0.11822377
237	0xbca78870	-0.0204508
238	0x3d418448	0.047245294
239	0x3dcc50b4	0.099763304
240	0xbd9bc1c6	-0.07605319
241	0x3dfde74c	0.12397632
242	0x3dd0e336	0.10199587
243	0xbdd72ef6	-0.10507004
244	0xbd8afbfe	-0.06786345
245	0xbde4e81a	-0.11177082
246	0xbd85a8e0	-0.06526351
247	0xbdbb4616	-0.09144227
248	0x3dab677a	0.08369346
249	0xbdd3f0f6	-0.10348694
250	0xbdfe2a5a	-0.12410422
251	0xbdbbf8da	-0.09178324
252	0xbdc5fc26	-0.09667234
253	0x3d3c886c	0.04602854
254	0xbda4a9f4	-0.080402285
255	0xbddbfc00	-0.107414246

generator.transformer_layer.linear1.bias f4 [128]
0	0xbd6a04b0	-0.057133377
1	0xbd23ccd4	-0.03999026
2	0x3d2177e8	0.039420992
3	0x3d9a2590	0.07526696
4	0xbd560e5c	-0.052259788
5	0xbde6c622	-0.112682596
6	0xbd69548c	-0.056965396
7	0xbda7105a	-0.08157416
8	0x3beba520	0.0071913153
9	0x3da59732	0.08085479
10	0xbd9a8540	-0.07544947
11	0x3d684ea4	0.056715623
12	0x3dbdd0e2	0.09268357
13	0xbd9186aa	-0.07105763
14	0x3dee84d0	0.11646426
15	0xbc9c4ee0	-0.01908058
16	0x3bf67c80	0.007522166
17	0xbd8c05da	-0.068370536
18	0x3dd7ea4c	0.105427355
19	0x3dd9986e	0.10624777
20	0x3dfe071c	0.124037
21	0x3d7b7ec4	0.06140019
22	0xbdff265c	-0.12458488
23	0x3be3dd80	0.006953895
24	0x3cacd010	0.021095306
25	0x3be29940	0.0069152415
26	0x3df74890	0.12074387
27	0xbd2404f0	-0.04004377
28	0x3df4e748	0.11958176
29	0xbda98bee	-0.082786426
30	0xbda57362	-0.08078648
31	0xbbd2a880	-0.006428778
32	0xbb41b580	-0.0029557645
33	0x3c9e1740	0.019298196
34	0x3d6248ac	0.055245087
35	0x3d40637c	0.046969876
36	0x3d39a7b0	0.045325935
37	0x3dcb0242	0.0991254
38	0x3ce5b5f8	0.028040871
39	0x3da4ad88	0.08040911
40	0xbd4dad24	-0.050213948
41	0x3de82568	0.1133526
42	0xbc7c99c0	-0.015417516
43	0xbdbbb708	-0.0916577
44	0xbd052a60	-0.032511115
45	0x3c9ef4a0	0.019403756
46	0x3cd68390	0.02618578
47	0x3c176d60	0.009242386
48	0xbc8586b0	-0.016299576
49	0xbdca5240	-0.09878969
50	0xbc72bbb0	-0.014815256
51	0xbdced7ae	-0.100997314
52	0x3c066770	0.008203372
53	0x3d7f14a8	0.06227556
54	0x3c9d9480	0.01923585
55	0x3dedd40c	0.1161271
56	0x3d0d7a70	0.034540594
57	0xbcb7f8a8	-0.022457436
58	0xbdefd97c	-0.11711404
59	0x3ba88aa0	0.0051434785
60	0x3dbbd5b2	0.091716185
61	0xbd8433ae	-0.064551696
62	0xbd4c1f40	-0.04983449
63	0x3ce51710	0.027965099
64	0xbc8a61a8	-0.01689227
65	0x3d2c6ca8	0.04209581
66	0xbcd49420	-0.025949538
67	0xbd8d17ac	-0.06889281
68	0xbc9abc18	-0.018888518
69	0xbd3ea0b4	-0.046539977
70	0xbdd7d0be	-0.10537861
71	0xb88fa000	-6.848574e-05
72	0xbdfe5b84	-0.12419799
73	0xbbd2a3a0	-0.006428197
74	0x3d0bb978	0.034112424
75	0xbd0a9e9c	-0.033842668
76	0x3db3caf2	0.08778943
77	0xbdb91994	-0.09038082
78	0x3d7843f4	0.06061168
79	0x3d937c88	0.07201487
80	0x3debb1f2	0.1150855
81	0xbd19f6b4	-0.03758879
82	0xbdfb20d2	-0.12262119
83	0xbdf4b310	-0.11948216
84	0xbde51c50	-0.11187041
85	0xbcdb9248	-0.02680315
86	0xbdfc2436	-0.12311594
87	0xbd140e14	-0.03614624
88	0xba7a4f00	-0.0009548515
89	0x3c2d0000	0.010559082
90	0xbd0985d4	-0.033574894
91	0xbded5216	-0.11587922
92	0x3ddcf576	0.107890055
93	0x3df9174a	0.12162645
94	0xbd1bb1e4	-0.038011447
95	0xbd99af44	-0.075041324
96	0xbddee562	-0.10883595
97	0xba084800	-0.0005198717
98	0xbcd69f70	-0.026199073
99	0xbc2c62b0	-0.010521576
100	0x3cc33fd0	0.02383414
101	0x3c373390	0.011181727
102	0x3cac2bc0	0.021016955
103	0xbdac1bc4	-0.084037334
104	0xbd05a4e0	-0.03262794
105	0x3d6e4bd4	0.058177784
106	0xbdd24022	-0.102661386
107	0x3c0a2340	0.008431256
108	0x3da635a4	0.081157
109	0x3be44440	0.006966144
110	0xbdf314c0	-0.11869192
111	0xbdabc46a	-0.083870724
112	0xbdbe2e92	-0.09286226
113	0xbdc3c774	-0.09559527
114	0x3ccbb750	0.024867684
115	0xbdb76e1a	-0.08956547
116	0x3d8a90e8	0.0676592
117	0xbdb886e6	-0.09010105
118	0xbbd89a00	-0.006610155
119	0x3db3fe3a	0.08788724
120	0x3d6d91e8	0.058000475
121	0xbdd595ce	-0.104289636
122	0x3db43d70	0.08800781
123	0x3d14ddfc	0.036344513
124	0x3c161e10	0.009162441
125	0xbdfabf8c	-0.12243566
126	0x3d089c20	0.033352017
127	0x3de28d98	0.11062163

generator.transformer_layer.linear2.weight f4 [64, 128]
0	0xbb044237	-0.0020181069
1	0xbd24facd	-0.040278245
2	0x3d3bfc9d	0.045895208
3	0x3c86d795	0.01646022
4	0xbc7f0a4e	-0.015566422
5	0x3db11c0a	0.08647926
6	0x3cc609db	0.024174621
7	0xbcafca8d	-0.021458888
8	0xbd9f58e1	-0.07780624
9	0x3d88b52b	0.0667518
10	0xbd4ed8c9	-0.05049971
11	0xbd21c065	-0.039490122
12	0xbd296a70	-0.041361272
13	0xbbe8c8c0	-0.0071040094
14	0x3c82c2e6	0.015962075
15	0x3db453fb	0.088050805
16	0xbc41c998	-0.011827849
17	0xbd363b2e	-0.044490032
18	0x3c4dd275	0.012562384
19	0x3d97de92	0.07415499
20	0xbd901652	-0.07035507
21	0xbd5655cb	-0.052327912
22	0x3d22f2f8	0.039782494
23	0xbd19b3ad	-0.037524868
24	0x3d835fb0	0.06414735
25	0xbd23920c	-0.039934203
26	0x3d16d21b	0.036821466
27	0x3d8fd192	0.07022394
28	0x3d3770e2	0.044785388
29	0x3d30c177	0.043153252
30	0x3d92bf4c	0.07165393
31	0x3d91d803	0.07121279
32	0xbd7534d4	-0.059864834
33	0xbd716889	-0.058937583
34	0x3d779ee2	0.060454257
35	0xbd0ce113	-0.034394335
36	0xbd92cac9	-0.071675844
37	0xbd29f14f	-0.041489895
38	0x3d6453ad	0.055743862
39	0xbdb21bb8	-0.08696693
40	0x3cdeae27	0.027182652
41	0x3ced9c8d	0.029005313
42	0xbcd86220	-0.026413977
43	0x3d76d09f	0.06025755
44	0xbd082fe1	-0.033248786
45	0x3d207cf0	0.03918165
46	0xbc3e7675	-0.011624922
47	0xbd6bec7f	-0.057598587
48	0xbd7b4ee2	-0.061354525
49	0xbd21227d	-0.03933953
50	0x3ce16214	0.027512588
51	0xbd846506	-0.06464581
52	0x3d682b9e	0.05668222
53	0x3d63b07b	0.055588227
54	0x3d269766	0.04067173
55	0xbd89cde6	-0.06728725
56	0xbc8667c0	-0.016406894
57	0x3d9a865f	0.075451605
58	0xbd0ee751	-0.03488857
59	0xbd632479	-0.055454705
60	0x3d1a0eea	0.03761188
61	0x3cd0869b	0.02545481
62	0x3d20ca9e	0.03925573
63	0xbcb82034	-0.022476293
64	0x3da32509	0.07966048
65	0x3b5cd6f4	0.0033697458
66	0xbd1611aa	-0.03663794
67	0x3c872322	0.016496245
68	0x3d7909c9	0.060800347
69	0x3d36055a	0.044438697
70	0x3d961d30	0.07329786
71	0x3c084b9c	0.008318808
72	0x3d77a6bd	0.06046175
73	0xbcddf2a3	-0.027093237
74	0xbd734756	-0.059394203
75	0xbd47ad86	-0.04874947
76	0x3d8bc515	0.068247
77	0xbcbb3eca	-0.022857089
78	0xbda6e05d	-0.08148263
79	0xbd8e60bb	-0.069520436
80	0xbd8b1f09	-0.06793029
81	0x3c9fbb52	0.019498501
82	0x3d8fedfe	0.07027815
83	0xbd086765	-0.03330173
84	0xbda58382	-0.08081724
85	0xbd8cacb9	-0.06868882
86	0x3db4aab0	0.088216186
87	0x3c004c7e	0.007830737
88	0x3ccca71c	0.024982028
89	0x3ccd7dac	0.02508434
90	0xbba96ea3	-0.0051706596
91	0x3d171855	0.03688844
92	0x3d1c01a8	0.038087517
93	0x3d0a7581	0.033803467
94	0x3cdb594b	0.026775977
95	0xbd3eeee0	-0.046614528
96	0xbc913665	-0.017726133
97	0x3d6fbc7b	0.05852936
98	0xbd9e1450	-0.07718718
99	0xbd635e83	-0.055510055
100	0xbc33c70f	-0.010972752
101	0x3cc8903d	0.02448284
102	0xbc411937	-0.011785797
103	0xbc92701b	-0.017875722
104	0xbdabefef	-0.08395373
105	0x3d4b3f9a	0.049621202
106	0xbcb8479a	-0.02249508
107	0x3d99b00b	0.07504281
108	0x3d79a7cd	0.060951043
109	0x3d81c513	0.06336417
110	0x3b4513b7	0.0030071565
111	0xbd1dd708	-0.038535148
112	0xbc9f069d	-0.019412333
113	0xbd92d3d6	-0.07169311
114	0x3d7e85ca	0.06213931
115	0x3daa223a	0.083073094
116	0xbd31c211	-0.043397967
117	0xbd931303	-0.071813606
118	0x3bc4ffd4	0.0060119424
119	0xbd83d973	-0.064379595
120	0xbd3aab5f	-0.04557359
121	0x3d8f1e16	0.0698816
122	0x3d292fe4	0.041305438
123	0x3c8ab71f	0.016933022
124	0xbd5c2a11	-0.053751055
125	0x3d55340c	0.05205159
126	0x3d3bffcf	0.045898255
127	0xbdad68ce	-0.084672555
128	0xbd0451ac	-0.03230445
129	0xbd3cef60	-0.046126723
130	0xbaca4e9f	-0.0015434808
131	0x3ca761da	0.020432401
132	0xbd1de302	-0.03854657
133	0x3b83ab29	0.0040182066
134	0x3d1dec7a	0.0385556
135	0x3da3be6b	0.07995304
136	0xbd0304f8	-0.03198716
137	0xbb38eadb	-0.0028216157
138	0x3bdfbc9f	0.0068279053
139	0x3d55ce35	0.052198607
140	0x3aa188aa	0.0012324054
141	0x3c9f3060	0.019432247
142	0x3d7e35da	0.062063076
143	0x3aef46e4	0.001825538
144	0xbcc15b05	-0.023602972
145	0xbd4041bc	-0.04693769
146	0x3cdb8f5d	0.02680176
147	0x3c5ceaf9	0.013483756
148	0x3d5d6c05	0.054058094
149	0x3c3a1e2e	0.011359734
150	0x3d9393c8	0.072059214
151	0xbd03444d	-0.03204756
152	0xbd39541d	-0.045246232
153	0xbd94fd54	-0.07274881
154	0x3d196338	0.037448138
155	0x3dad4c84	0.0846186
156	0x3d917912	0.071031705
157	0xbd91305c	-0.07089302
158	0xbd7b47bc	-0.061347708
159	0x3b940d03	0.0045181527
160	0x3d2a4bf6	0.04157635
161	0x3ccaf876	0.024776679
162	0xbd81cc03	-0.0633774
163	0xbd9ad22b	-0.075596176
164	0x3d80337b	0.06259819
165	0xbd553c4d	-0.05205946
166	0x3db2f7bc	0.08738658
167	0x3db20ef1	0.08694256
168	0x3cea756f	0.02862045
169	0xbda3b4a3	-0.07993438
170	0x3cd97191	0.02654341
171	0xbd9faea6	-0.077969834
172	0xbd03bfbc	-0.032165274
173	0x3d829491	0.06375993
174	0x3d066cc7	0.032818582
175	0x3bcc2b1f	0.0062307264
176	0xbcf934da	-0.03042071
177	0xbd8ccaef	-0.06874644
178	0xbd8eed20	-0.06978822
179	0x3c575fa2	0.013145359
180	0x3b0c4698	0.0021404382
181	0x3d88b6a7	0.06675463
182	0x3cc38241	0.02386582
183	0x3d0375ad	0.032094646
184	0x3b9f6503	0.0048643365
185	0xbdaa0446	-0.08301596
186	0xbd27915d	-0.040910114
187	0x3d45f981	0.04833365
188	0xbda1d416	-0.0790178
189	0xbce41272	-0.027840827
190	0x3d82f97c	0.063952416
191	0x3db2df76	0.08734028
192	0x3cf54d1d	0.029943997
193	0x3ce3b03a	0.027793992
194	0x3d822b19	0.063558765
195	0x3c19161c	0.00934365
196	0xbd00598d	-0.031335402
197	0x3da95b42	0.08269359
198	0x3c3b6fb1	0.0114402035
199	0x3c929211	0.017891916
200	0x3ba8ebbc	0.005155055
201	0x3d78d7de	0.060752742
202	0xbcecec32	-0.02892122
203	0x3d90683a	0.0705113
204	0x3d6b187f	0.05739641
205	0xbd97a1a3	-0.07403877
206	0x3d6d162b	0.05788247
207	0xbcc10dbf	-0.023566125
208	0x3d438a88	0.047739536
209	0xbdaf1974	-0.08549777
210	0x3d757e26	0.059934758
211	0xbda2a456	-0.07941501
212	0x3da5257d	0.08063791
213	0x3d31d6c8	0.043417722
214	0xbd6b2ca6	-0.057415627
215	0xbb405104	-0.0029345164
216	0xbd6203e8	-0.055179507
217	0xbc753f42	-0.014968695
218	0xbc4a9adb	-0.012366022
219	0x3cafe7da	0.02147286
220	0x3c8afb5c	0.01696556
221	0x3d06956a	0.032857336
222	0xbcff556a	-0.031168658
223	0x3c500e55	0.0126987295
224	0x3d8e3670	0.06943977
225	0x3c4cf68c	0.012509953
226	0x3b74589c	0.003728426
227	0xbb9d4254	-0.0047991667
228	0xbda8066a	-0.082043484
229	0x3d5208f3	0.051278066
230	0xbc98308b	-0.018577835
231	0x3c861f23	0.016372269
232	0x3d9c2e24	0.07625988
233	0xbcc92959	-0.024555849
234	0x3d295367	0.041339304
235	0x3d2f7f06	0.04284575
236	0x3d7a678c	0.061133906
237	0xbca07e32	-0.019591425
238	0xbb80d458	-0.0039315633
239	0x3ce41607	0.027842535
240	0xbc8b204e	-0.016983178
241	0x3d8171a7	0.063205056
242	0x3db2fd91	0.0873977
243	0x3da0bcc1	0.07848502
244	0x3d0c4c19	0.03425226
245	0xbd3969ae	-0.0452668
246	0x3cd14f8e	0.02555063
247	0x3d00161f	0.031271096
248	0x3c9da8c0	0.019245505
249	0x3d8bc454	0.06824556
250	0xbcbb9ec2	-0.02290285
251	0x3d4d66fa	0.050147034
252	0x3c5d72a6	0.013516104
253	0x3cc93482	0.02456117
254	0xbd12200f	-0.035675105
255	0xbd21d283	-0.0395074

generator.transformer_layer.linear2.bias f4 [64]
0	0xbda7eb41	-0.08199168
1	0x3dab0c7a	0.08351989
2	0x3d8eab43	0.06966259
3	0xbbc92806	-0.0061388044
4	0x3db3ac81	0.08773137
5	0x3cd97e7e	0.026549574
6	0xbd099796	-0.03359183
7	0xbd4122d1	-0.047152344
8	0xbda8ae5d	-0.08236382
9	0x3d55d585	0.05220558
10	0x3d8d9507	0.0691319
11	0xbc15f79c	-0.009153273
12	0xbd2afe1c	-0.041746244
13	0xbd2bfe8e	-0.04199081
14	0xbd88e7ec	-0.066848606
15	0xb9a49440	-0.00031390972
16	0x3dabc483	0.08387091
17	0x3d5cb503	0.053883564
18	0x3cb0f5e1	0.02160162
19	0xbd717f87	-0.05895951
20	0xbd9352ce	-0.07193528
21	0xbd96445d	-0.07337258
22	0x3c3f8252	0.011688786
23	0xbcfedb2c	-0.031110369
24	0xbd66a367	-0.056308176
25	0x3d01007e	0.03149461
26	0xbcf1b969	-0.029507356
27	0xbd15eaf6	-0.03660103
28	0xbc9b1d26	-0.018934797
29	0xbd796a05	-0.060892124
30	0xbd051a95	-0.032496054
31	0xbc3a2168	-0.011360504
32	0xbd4a839f	-0.04944193
33	0xbd19cff3	-0.03755183
34	0x3d51ec26	0.0512506
35	0xbd9a6f75	-0.0754079
36	0x3cb278d2	0.021786127
37	0xbcf276fb	-0.02959775
38	0x3d2b4a0e	0.04181867
39	0x3db29801	0.08720399
40	0x3d8e974a	0.0696245
41	0xbdadfaa5	-0.08495072
42	0x3d757546	0.059926294
43	0x3bb3cbf7	0.005486961
44	0x3c84057e	0.0161159
45	0x3c43f5a5	0.011960422
46	0xbc211d46	-0.0098336395
47	0xbcfe15c8	-0.031016245
48	0x3d95a000	0.07305908
49	0xbc4e6d45	-0.012599294
50	0x3cace373	0.02110455
51	0x3d7fddbe	0.06246733
52	0xbd85cc19	-0.06533069
53	0xbd271c59	-0.04079852
54	0xbcff1533	-0.031138038
55	0xbbb661bb	-0.0055658496
56	0x3c6ee5cc	0.014581155
57	0xbc917312	-0.017755065
58	0x3d099379	0.033587907
59	0xbb371638	-0.0027936827
60	0x3cf96aba	0.030446399
61	0x3d0815c2	0.033223875
62	0x3b8520b1	0.004062735
63	0xbd38d325	-0.045123238

generator.transformer_layer.norm1.weight f4 [64]
0	0x3f800000	1.0
1	0x3f800000	1.0
2	0x3f800000	1.0
3	0x3f800000	1.0
4	0x3f800000	1.0
5	0x3f800000	1.0
6	0x3f800000	1.0
7	0x3f800000	1.0
8	0x3f800000	1.0
9	0x3f800000	1.0
10	0x3f800000	1.0
11	0x3f800000	1.0
12	0x3f800000	1.0
13	0x3f800000	1.0
14	0x3f800000	1.0
15	0x3f800000	1.0
16	0x3f800000	1.0
17	0x3f800000	1.0
18	0x3f800000	1.0
19	0x3f800000	1.0
20	0x3f800000	1.0
21	0x3f800000	1.0
22	0x3f800000	1.0
23	0x3f800000	1.0
24	0x3f800000	1.0
25	0x3f800000	1.0
26	0x3f800000	1.0
27	0x3f800000	1.0
28	0x3f800000	1.0
29	0x3f800000	1.0
30	0x3f800000	1.0
31	0x3f800000	1.0
32	0x3f800000	1.0
33	0x3f800000	1.0
34	0x3f800000	1.0
35	0x3f800000	1.0
36	0x3f800000	1.0
37	0x3f800000	1.0
38	0x3f800000	1.0
39	0x3f800000	1.0
40	0x3f800000	1.0
41	0x3f800000	1.0
42	0x3f800000	1.0
43	0x3f800000	1.0
44	0x3f800000	1.0
45	0x3f800000	1.0
46	0x3f800000	1.0
47	0x3f800000	1.0
48	0x3f800000	1.0
49	0x3f800000	1.0
50	0x3f800000	1.0
51	0x3f800000	1.0
52	0x3f800000	1.0
53	0x3f800000	1.0
54	0x3f800000	1.0
55	0x3f800000	1.0
56	0x3f800000	1.0
57	0x3f800000	1.0
58	0x3f800000	1.0
59	0x3f800000	1.0
60	0x3f800000	1.0
61	0x3f800000	1.0
62	0x3f800000	1.0
63	0x3f800000	1.0

generator.transformer_layer.norm1.bias f4 [64]
0	0x00000000	0.0
1	0x00000000	0.0
2	0x00000000	0.0
3	0x00000000	0.0
4	0x00000000	0.0
5	0x00000000	0.0
6	0x00000000	0.0
7	0x00000000	0.0
8	0x00000000	0.0
9	0x00000000	0.0
10	0x00000000	0.0
11	0x00000000	0.0
12	0x00000000	0.0
13	0x00000000	0.0
14	0x00000000	0.0
15	0x00000000	0.0
16	0x00000000	0.0
17	0x00000000	0.0
18	0x00000000	0.0
19	0x00000000	0.0
20	0x00000000	0.0
21	0x00000000	0.0
22	0x00000000	0.0
23	0x00000000	0.0
24	0x00000000	0.0
25	0x00000000	0.0
26	0x00000000	0.0
27	0x00000000	0.0
28	0x00000000	0.0
29	0x00000000	0.0
30	0x00000000	0.0
31	0x00000000	0.0
32	0x00000000	0.0
33	0x00000000	0.0
34	0x00000000	0.0
35	0x00000000	0.0
36	0x00000000	0.0
37	0x00000000	0.0
38	0x00000000	0.0
39	0x00000000	0.0
40	0x00000000	0.0
41	0x00000000	0.0
42	0x00000000	0.0
43	0x00000000	0.0
44	0x00000000	0.0
45	0x00000000	0.0
46	0x00000000	0.0
47	0x00000000	0.0
48	0x00000000	0.0
49	0x00000000	0.0
50	0x00000000	0.0
51	0x00000000	0.0
52	0x00000000	0.0
53	0x00000000	0.0
54	0x00000000	0.0
55	0x00000000	0.0
56	0x00000000	0.0
57	0x00000000	0.0
58	0x00000000	0.0
59	0x00000000	0.0
60	0x00000000	0.0
61	0x00000000	0.0
62	0x00000000	0.0
63	0x00000000	0.0

generator.transformer_layer.norm2.weight f4 [64]
0	0x3f800000	1.0
1	0x3f800000	1.0
2	0x3f800000	1.0
3	0x3f800000	1.0
4	0x3f800000	1.0
5	0x3f800000	1.0
6	0x3f800000	1.0
7	0x3f800000	1.0
8	0x3f800000	1.0
9	0x3f800000	1.0
10	0x3f800000	1.0
11	0x3f800000	1.0
12	0x3f800000	1.0
13	0x3f800000	1.0
14	0x3f800000	1.0
15	0x3f800000	1.0
16	0x3f800000	1.0
17	0x3f800000	1.0
18	0x3f800000	1.0
19	0x3f800000	1.0
20	0x3f800000	1.0
21	0x3f800000	1.0
22	0x3f800000	1.0
23	0x3f800000	1.0
24	0x3f800000	1.0
25	0x3f800000	1.0
26	0x3f800000	1.0
27	0x3f800000	1.0
28	0x3f800000	1.0
29	0x3f800000	1.0
30	0x3f800000	1.0
31	0x3f800000	1.0
32	0x3f800000	1.0
33	0x3f800000	1.0
34	0x3f800000	1.0
35	0x3f800000	1.0
36	0x3f800000	1.0
37	0x3f800000	1.0
38	0x3f800000	1.0
39	0x3f800000	1.0
40	0x3f800000	1.0
41	0x3f800000	1.0
42	0x3f800000	1.0
43	0x3f800000	1.0
44	0x3f800000	1.0
45	0x3f800000	1.0
46	0x3f800000	1.0
47	0x3f800000	1.0
48	0x3f800000	1.0
49	0x3f800000	1.0
50	0x3f800000	1.0
51	0x3f800000	1.0
52	0x3f800000	1.0
53	0x3f800000	1.0
54	0x3f800000	1.0
55	0x3f800000	1.0
56	0x3f800000	1.0
57	0x3f800000	1.0
58	0x3f800000	1.0
59	0x3f800000	1.0
60	0x3f800000	1.0
61	0x3f800000	1.0
62	0x3f800000	1.0
63	0x3f800000	1.0

generator.transformer_layer.norm2.bias f4 [64]
0	0x00000000	0.0
1	0x00000000	0.0
2	0x00000000	0.0
3	0x00000000	0.0
4	0x00000000	0.0
5	0x00000000	0.0
6	0x00000000	0.0
7	0x00000000	0.0
8	0x00000000	0.0
9	0x00000000	0.0
10	0x00000000	0.0
11	0x00000000	0.0
12	0x00000000	0.0
13	0x00000000	0.0
14	0x00000000	0.0
15	0x00000000	0.0
16	0x00000000	0.0
17	0x00000000	0.0
18	0x00000000	0.0
19	0x00000000	0.0
20	0x00000000	0.0
21	0x00000000	0.0
22	0x00000000	0.0
23	0x00000000	0.0
24	0x00000000	0.0
25	0x00000000	0.0
26	0x00000000	0.0
27	0x00000000	0.0
28	0x00000000	0.0
29	0x00000000	0.0
30	0x00000000	0.0
31	0x00000000	0.0
32	0x00000000	0.0
33	0x00000000	0.0
34	0x00000000	0.0
35	0x00000000	0.0
36	0x00000000	0.0
37	0x00000000	0.0
38	0x00000000	0.0
39	0x00000000	0.0
40	0x00000000	0.0
41	0x00000000	0.0
42	0x00000000	0.0
43	0x00000000	0.0
44	0x00000000	0.0
45	0x00000000	0.0
46	0x00000000	0.0
47	0x00000000	0.0
48	0x00000000	0.0
49	0x00000000	0.0
50	0x00000000	0.0
51	0x00000000	0.0
52	0x00000000	0.0
53	0x00000000	0.0
54	0x00000000	0.0
55	0x00000000	0.0
56	0x00000000	0.0
57	0x00000000	0.0
58	0x00000000	0.0
59	0x00000000	0.0
60	0x00000000	0.0
61	0x00000000	0.0
62	0x00000000	0.0
63	0x00000000	0.0
