GANS/gan_model.pth (torch, 948054 bytes, 71 tensors)

embedding.fc.weight f4 [64, 17]
0.25490353 -0.30931416 -0.069134705 -0.42756683 0.16017932 0.20367931 -0.18042839 -0.053715695
-0.2293345 0.09422675 0.055338334 -0.050870057 -0.1924222 0.0063629113 0.060888182 0.11586473
0.25285935 -0.11798811 -0.06808601 0.10090957 -0.14320369 0.1257585 0.14514191 0.14172386
-0.17109193 -0.17908695 0.14826964 -0.14203133 -0.15996467 0.15797788 0.090504386 0.015214947
0.18150355 0.14081877 0.12409942 0.22945175 0.103005245 0.39771658 -0.49285457 -0.17108063
-0.251547 -0.08802356 0.17114727 -0.28036863 0.36418954 -0.1262655 -0.24190354 -0.4464129
0.07811594 0.3390712 -0.2109358 -0.17790198 -0.04075501 -0.09854879 -0.16354743 0.20398574
0.014482748 -0.20003225 0.08551236 0.11685521 -0.24584384 0.22032753 0.31998408 -0.2008546
0.25875482 -0.058468357 -0.18489857 0.09614349 -0.31284213 0.38587603 -0.044705752 0.3996815
-0.6402174 0.08507399 0.014428374 0.23287494 0.09104594 -0.26551116 0.28695765 0.06401479
0.4353639 -0.1892153 0.37503168 -0.108641356 -0.37322265 -0.14004192 -0.229082 0.10288369
0.4192648 -0.4995043 0.041428506 0.058416955 0.04973432 0.035121366 -0.13399597 -0.17946437
-0.28497627 0.06439761 -0.088920586 0.06729584 0.040101077 0.41258308 0.3863887 -0.104035184
0.12782829 -0.5251377 0.3309518 -0.23113538 0.17298941 -0.15023176 -0.21460742 -0.12667404
-0.28391713 -0.01413667 -0.25450468 0.28289446 -0.092330426 0.14667821 0.30659202 0.050629128
-0.045756847 0.1914954 0.4900563 -0.32099828 0.07238651 0.056133952 0.25359383 0.23106751
-0.4137962 -0.005941825 -0.47721973 0.34705687 -0.35868657 -0.33726722 -0.014039175 0.4305867
0.21528684 -0.15491027 0.02264223 -0.29593503 0.28531164 -0.13276702 -0.071100965 0.21084417
0.08689209 -0.19758897 0.052877538 -0.16911437 -0.018375708 0.20918639 -0.21849303 0.06899656
-0.29107702 0.061618373 -0.23235184 0.05949911 0.0034830337 0.15831631 0.12248108 -0.07639602
0.2627468 0.086253315 -0.009820967 -0.050538164 -0.031563587 -0.19331382 0.12964343 -0.1605106
0.19118802 0.02256824 -0.16859652 0.060908537 0.20361109 0.4335284 -0.35519272 -0.15212728
-0.18299119 -0.065541476 -0.19506028 0.09706556 0.24998038 -0.19747773 -0.14743862 0.21551433
-0.19015105 -0.06133967 0.16169329 -0.10069019 -0.1881559 -0.11638376 -0.47968745 0.47002533
0.19150567 0.25047603 -0.15829137 -0.19340916 0.18791392 -0.19734131 0.055840775 -0.2032014
0.23433386 0.0500676 -0.09358279 0.21827076 0.2602096 0.15061529 0.044504438 -0.06520332
0.01921 -0.22368497 -0.096670374 -0.20774534 0.18052353 0.5533221 1.1216784 0.06349577
-0.65964055 -0.15450592 -0.1948525 -0.212875 -0.49816886 -0.8082008 -0.59988976 -0.48789287
0.023440853 -1.0090836 0.05676928 0.11407766 0.65870434 0.10904899 0.41379407 0.74137425
0.26004237 0.48694292 -0.3936783 0.18252099 0.06345803 0.16638625 0.19439776 -0.021377215
0.17746443 -0.18675922 0.027318006 -0.091040365 -0.028973615 -0.083546184 0.052878883 0.25167453
-0.21231787 0.056503665 -0.31475395 -0.11119046 -0.09815372 0.025364881 -0.06884842 -0.19033079
00000000: b782 823e 6d5e 9ebe 7f96 8dbd 0aea dabe
00000010: 0c06 243e 4f91 503e 38c2 38be fd04 5cbd
00000020: aad6 6abe f4f9 c03d 73aa 623d 1f5d 50bd
00000030: 530a 45be f87f d03b e365 793d 7d4a ed3d
00000040: c876 813e c0a3 f1bd ae70 8bbd ada9 ce3d
00000050: fda3 12be d6c6 003e 15a0 143e 0f20 113e
00000060: b932 2fbe 9262 37be ffd3 173e a970 11be
00000070: c7cd 23be f4c4 213e 5d5a b93d 1d48 793c
00000080: 11dc 393e cc32 103e d627 fe3d 66f5 6a3e
00000090: 6af4 d23d 82a1 cb3e 6f57 fcbe c32f 2fbe
000000a0: c5ca 80be b245 b4bd 3b41 2f3e 7a8c 8fbe
000000b0: 0d77 ba3e be4b 01be 90b5 77be 3b90 e4be
000000c0: 40fb 9f3d be9a ad3e 8eff 57be f02b 36be
000000d0: baee 26bd f3d3 c9bd fa78 27be a3e1 503e
000000e0: 0c49 6d3c 41d5 4cbe 1b21 af3d c951 ef3d
000000f0: 7dbe 7bbe 8a9d 613e f4d4 a33e d4ac 4dbe
00000100: 837b 843e 847c 6fbd 0d56 3dbe e1e6 c43d
00000110: d82c a0be 8b91 c53e 611d 37bd 0ea3 cc3e
00000120: 4ae5 23bf 463b ae3d fd64 6c3c c576 6e3e
00000130: 4b76 ba3d 14f1 87be 1dec 923e 301a 833d
00000140: 04e8 de3e a8c1 41be 2704 c03e 5c7f debd
00000150: 0a17 bfbe 2667 0fbe 7994 6abe afb4 d23d
00000160: e0a9 d63e 07bf ffbe f0b0 293d 9e46 6f3d
00000170: 37b6 4b3d 6cdb 0f3d 3d36 09be 82c5 37be
00000180: 69e8 91be e5e2 833d ff1b b6bd 67d2 893d
00000190: 0741 243d 173e d33e bdd4 c53e 6610 d5bd
000001a0: 6be5 023e 6d6f 06bf 8472 a93e c1ae 6cbe
000001b0: 2324 313e 5bd6 19be 0cc2 5bbe d7b6 01be
000001c0: 965d 91be 7e9d 67bc 704e 82be 8bd7 903e
000001d0: bc17 bdbd d032 163e a1f9 9c3e 7d60 4f3d
000001e0: 886b 3bbd 5f17 443e a9e8 fa3e e359 a4be
000001f0: 613f 943d b7ec 653d 0dd7 813e f69c 6c3e
00000200: 18dd d3be a4b3 c2bb 2556 f4be 70b1 b13e
00000210: c4a5 b7be 4aae acbe 9104 66bc dc75 dc3e
00000220: 2774 5c3e cca0 1ebe 337c b93c cc84 97be
00000230: 5e14 923e 14f4 07be 629d 91bd 89e7 573e
00000240: 7bf4 b13d c354 4abe 1e96 583d 512c 2dbe
00000250: a788 96bc f534 563e a3bc 5fbe 124e 8d3d
00000260: 0c08 95be 8c63 7c3d a4ed 6dbe 57b5 733d
00000270: 9c43 643b ac1d 223e 5cd7 fa3d 8475 9cbd
00000280: c086 863e 94a5 b03d 1fe8 20bc 1b01 4fbd
00000290: d248 01bd 0ff4 45be 3fc1 043e e45c 24be
000002a0: cbc6 433e 08e1 b83c 91a4 2cbe 3b7b 793d
000002b0: 6d7f 503e 6ff7 dd3e d2db b5be 41c7 1bbe
000002c0: 0b62 3bbe 9c3a 86bd e2bd 47be 4fca c63d
000002d0: dbfa 7f3e 9a37 4abe 26fa 16be caaf 5c3e
000002e0: f5b6 42be 4e3f 7bbd ed92 253e a936 cebd
000002f0: f1ab 40be 9c5a eebd 9899 f5be 29a7 f03e
00000300: 101a 443e 653e 803e 2217 22be 0d0d 46be
00000310: 826c 403e d713 4abe 4cb9 643d 0714 50be
00000320: 37f5 6f3e af13 4d3d 55a8 bfbd 5f82 5f3e
00000330: 313a 853e e53a 1a3e 494a 363d 5189 85bd
00000340: 4a5e 9d3c ac0d 65be 1efb c5bd 32bb 54be
00000350: 29db 383e 84a6 0d3f 2893 8f3f 120a 823d
00000360: 34de 28bf cd36 1ebe 6a87 47be e7fb 59be
00000370: fd0f ffbe 3fe6 4ebf 6092 19bf 18cd f9be
00000380: 0807 c03c a729 81bf e886 683d 8ca1 e93d
00000390: d9a0 283f 1455 df3d d1dc d33e b4ca 3d3f
000003a0: 4624 853e 9550 f93e 3490 c9be c8e6 3a3e
000003b0: 49f6 813d 2861 2a3e 3510 473e 451f afbc
000003c0: 3cb9 353e cf3d 3fbe 03ca df3c 5f73 babd
000003d0: 135a edbc 431a abbd 8797 583d 7cdb 803e
000003e0: db69 59be 6370 673d 6e27 a1be d3b7 e3bd
000003f0: d104 c9bd 03ca cf3c 6700 8dbd 13e6 42be

embedding.fc.bias f4 [64]
-0.23946197 -0.034053344 0.21162398 0.15023722 -0.36999345 -0.22567086 0.01696304 -0.14178154
0.1199225 0.04857342 -0.14746776 0.008779325 -0.041585095 0.21645793 0.23691773 0.005974307
0.020516016 -0.16396236 0.06631483 -0.09161767 0.17000471 0.12956981 -0.23055086 -0.16122518
-0.09505434 -0.123897344 0.12522258 -0.039437573 -0.20857726 0.15093705 -0.11818834 -0.16952117
-0.010292685 0.26841953 -0.11443023 -0.06884017 0.06561847 0.31169403 -0.27774626 0.09274487
-0.0350288 -0.084102474 -0.09520898 -0.047183454 0.29061666 -0.11916796 0.15656666 -0.18052876
0.12403759 0.091723934 0.07170112 0.17452411 -0.23641866 -0.10731098 0.03147962 -0.13709095
-0.062189396 -0.14369278 -0.1678949 0.00031754735 -0.1669075 0.03805838 -0.05030529 -0.15593903
00000000: 8535 75be 857b 0bbd f5b3 583e c9d7 193e
00000010: c86f bdbe 4316 67be 13f6 8a3c 2e2f 11be
00000020: ed99 f53d ecf4 463d ca01 17be 28d7 0f3c
00000030: 2255 2abd 26a7 5d3e 909a 723e 1fc4 c33b
00000040: 3411 a83c c0e5 27be 12d0 873d 0ca2 bbbd
00000050: b715 2e3e f3ad 043e 8615 6cbe 3718 25be
00000060: daab c2bd e4bd fdbd 593a 003e 4b89 21bd
00000070: 4795 55be 3e8f 1a3e ba0c f2bd f596 2dbe
00000080: a6a2 28bc 496e 893e 655a eabd 13fc 8cbd
00000090: fa62 863d 5c96 9f3e c234 8ebe 06f1 bd3d
000000a0: 5c7a 0fbd eb3d acbd edfc c2bd 7043 41bd
000000b0: b5cb 943e 550e f4bd 0353 203e 88dc 38be
000000c0: 6c07 fe3d c2d9 bb3d 09d8 923d 73b6 323e
000000d0: bc17 72be dcc5 dbbd c6f0 003d 9261 0cbe
000000e0: 4fba 7ebd 3324 13be a4ec 2bbe 7c7c a639
000000f0: cde9 2abe 1be3 1b3d eb0c 4ebd 7bae 1fbe

generator.transformer_layer.self_attn.in_proj_weight f4 [192, 64]
0.13604619 0.046381906 -0.08059456 0.1264896 0.05432415 -0.15156275 -0.039499722 -0.12264848
-0.1291619 -0.03364592 0.039931685 0.1165791 -0.02163826 -0.11783499 0.14373912 0.09832172
0.065168306 0.13099517 -0.10329773 0.004542023 -0.059862956 -0.097305395 -0.109746635 0.14586814
-0.021899492 0.107226625 -0.011287153 -0.089649744 0.114903346 0.06852211 -0.046741955 0.108695194
0.08999261 0.14665242 -0.051155165 -0.011265084 -0.08295848 -0.040515378 0.08383453 -0.055222534
0.14079134 -0.056583896 0.09929551 -0.029949017 -0.03984905 0.02471754 0.07782127 -0.014225274
-0.08746106 -0.14075163 0.103183135 -0.041727223 0.033908293 -0.09585079 0.103926346 0.04581976
-0.07985166 0.15295877 -0.067125075 -0.010865673 0.058784366 0.011990294 -0.11782501 -0.09430984
-0.0020832121 0.008806318 -0.059232555 -0.14466545 0.113507584 -0.034832455 -0.058396757 -0.082464345
-0.13962363 0.089705735 0.0027804077 -0.03146016 0.14749952 -0.15275866 0.033387557 0.08711518
-0.15013398 0.0963721 0.117059395 -0.004966408 0.06445016 -0.13809283 -0.10124989 -0.06038571
0.0105353 -0.110179976 0.04343036 -0.090996385 -0.076600045 0.09318957 0.122693345 -0.11281993
-0.053684592 -0.020859912 -0.018406987 -0.116071686 -0.038350478 0.02617243 -0.059641562 0.10277103
-0.0067650825 0.089102134 0.089707285 0.1428522 0.102777645 0.012514889 -0.056219697 -0.020016477
-0.077284865 0.02793634 0.09903015 0.042409077 0.08800207 -0.09724466 0.12614919 -0.08329651
-0.035264067 -0.068177946 -0.11832078 0.14247887 -0.0773596 0.09171018 -0.10287296 0.06872037
-0.114255264 0.0014300495 -0.013839632 -0.13345279 -0.026678279 -0.102303505 0.11689885 -0.06148749
0.12244488 0.033367336 -0.014121339 0.12770577 0.08840191 -0.09471273 0.05954154 0.1237479
-0.032598987 -0.010924712 -0.045757048 -0.063742615 -0.118924126 -0.13284773 0.1301863 -0.022533998
0.094172195 0.0025929213 -0.07534597 -0.060523607 -0.10410927 0.12601854 0.09081425 0.13852312
-0.087088905 0.06852585 0.0024469048 -0.050718144 -0.12726125 0.009930551 -0.013594553 0.13900705
-0.0689852 -0.10297018 0.059581533 0.002745077 -0.039734714 0.022539929 0.0576358 0.0626733
0.055002093 0.048171043 -0.078367315 -0.059029266 0.056573793 -0.10414553 -0.06976104 -0.025923803
-0.05868739 0.1462913 -0.06620283 -0.050561905 -0.14487001 0.0284594 0.09060994 0.1297024
-0.084249094 -0.13797446 0.056539074 -0.017086133 -0.023760274 0.115563795 0.12564875 -0.095578566
0.1265379 -0.012670785 0.06568788 -0.049430378 0.073209316 0.065681845 0.048812494 0.13391583
-0.13106069 -0.07421872 -0.13638096 0.05747217 -0.13680446 -0.10027325 0.026272357 0.117047325
0.14463554 0.061372012 0.044136465 -0.08477705 -0.14648184 0.080398604 -0.14327316 0.03714329
-0.05553545 -0.1338356 -0.04141739 -0.03711412 -0.032879673 -0.021854937 0.14855357 -0.033392444
-0.07751635 0.12424712 0.05999972 0.12832846 -0.12819004 0.1309065 0.01026088 0.033075273
0.06559521 -0.1453587 -0.012021691 -0.057379603 -0.0013551116 0.10415991 -0.09550914 -0.07568181
-0.039299645 0.079634964 -0.0051902384 0.06346893 0.001757741 0.14523931 0.14754786 0.0013559312
00000000: b14f 0b3e f4fa 3d3d c30e a5bd 7d86 013e
00000010: 0083 5e3d 4433 1bbe 76ca 21bd 202f fbbd
00000020: 0443 04be 4ed0 09bd 688f 233d 06c1 ee3d
00000030: b842 b1bc 7953 f1bd 5930 133e e65c c93d
00000040: f676 853d 9923 063e c38d d3bd 40d5 943b
00000050: dc32 75bd 0d48 c7bd d8c2 e0bd 755e 153e
00000060: 9066 b3bc a299 db3d c0ed 38bc 499a b7bd
00000070: 7252 eb3d 5255 8c3d 7e74 3fbd 969b de3d
00000080: 0c4e b83d 0d2c 163e 1488 51bd 3091 38bc
00000090: 23e6 a9bd 74f3 25bd 70b1 ab3d 0631 62bd
000000a0: 9b2b 103e 84c4 67bd 725b cb3d a457 f5bc
000000b0: c238 23bd 707c ca3c c260 9f3d 2011 69bc
000000c0: c91e b3bd 3221 10be ae51 d33d 2aea 2abd
000000d0: 6ce3 0a3d 6b4d c4bd 56d7 d43d 80ad 3b3d
000000e0: 4489 a3bd 39a1 1c3e df78 89bd f005 32bc
000000f0: e0c7 703d f072 443c 3d4e f1bd 8425 c1bd
00000100: 8086 08bb 6048 103c d69d 72bd 2e23 14be
00000110: aa76 e83d 7aac 0ebd 7031 6fbd 11e3 a8bd
00000120: 7ff9 0ebe a4b7 b73d 8037 363b 5edc 00bd
00000130: 1d0a 173e c46c 1cbe 64c1 083d 7269 b23d
00000140: b9bc 19be bc5e c53d d6bc ef3d 40bd a2bb
00000150: 72fe 833d 3568 0dbe 1a5c cfbd 0257 77bd
00000160: 409c 2c3c 0aa6 e1bd 08e4 313d 505c babd
00000170: 7ce0 9cbd 2cda be3d a646 fb3d 230e e7bd
00000180: 60e4 5bbd 68e2 aabc 40ca 96bc feb6 edbd
00000190: 6415 1dbd 9067 d63c b64a 74bd 9e79 d23d
000001a0: a0ad ddbb 2e7b b63d 74b8 b73d d947 123e
000001b0: 167d d23d 400b 4d3c a046 66bd 98f9 a3bc
000001c0: 8747 9ebd c0da e43c 52d0 ca3d 24b5 2d3d
000001d0: 6e3a b43d 3528 c7bd 412d 013e 5c97 aabd
000001e0: 0e71 10bd e1a0 8bbd 2a52 f2bd fbe5 113e
000001f0: b66e 9ebd 8cd2 bb3d 0faf d2bd 44bd 8c3d
00000200: aafe e9bd 8070 bb3a a0bf 62bc d9a7 08be
00000210: 688c dabc 8084 d1bd aa68 ef3d 4eda 7bbd
00000220: 62c4 fa3d 30ac 083d 305d 67bc 4dc5 023e
00000230: 100c b53d bff8 c1bd d4e1 733d 8a6f fd3d
00000240: 8486 05bd 90fd 32bc be6b 3bbd 7d8b 82bd
00000250: 7e8e f3bd 3c09 08be 8f4f 053e 3899 b8bc
00000260: 5add c03d 00ee 293b fd4e 9abd 9ae7 77bd
00000270: 3e37 d5bd 010b 013e d2fc b93d 01d9 0d3e
00000280: ab5b b2bd 4857 8c3d 405c 203b d4bd 4fbd
00000290: c650 02be c0b3 223c b0bb 5ebc dd57 0e3e
000002a0: 1d48 8dbd 08e2 d2bd c40b 743d c0e6 333b
000002b0: dec0 22bd a8a5 b83c 8413 6c3d dc5a 803d
000002c0: e049 613d 004f 453d 0b7f a0bd acc8 71bd
000002d0: ecb9 673d 404a d5bd e0de 8ebd 285e d4bc
000002e0: 3062 70bd 63cd 153e 5995 87bd 001a 4fbd
000002f0: ce58 14be b023 e93c b491 b93d b5d0 043e
00000300: ca8a acbd 2d49 0dbe 8495 673d 38f8 8bbc
00000310: e8a4 c2bc b6ac ec3d 11aa 003e b2be c3bd
00000320: 2793 013e 2099 4fbc 5e87 863d 8277 4abd
00000330: c4ee 953d 3484 863d 9cef 473d 3b21 093e
00000340: c634 06be fcff 97bd 73a7 0bbe f067 6b3d
00000350: 7816 0cbe 105c cdbd 2039 d73c 82b6 ef3d
00000360: 571b 143e 3861 7b3d 70c8 343d 979f adbd
00000370: 56ff 15be 06a8 a43d 33b6 12be 9023 183d
00000380: 2479 63bd 330c 09be 48a5 29bd fa04 18bd
00000390: d6ac 06bd 2009 b3bc 6d1e 183e 84c6 08bd
000003a0: e4c0 9ebd 4675 fe3d 44c2 753d 8968 033e
000003b0: 4044 03be 5b0c 063e 401d 283c f079 073d
000003c0: c856 863d e9d8 14be a0f6 44bc e006 6bbd
000003d0: 009e b1ba ca51 d53d 4c9a c3bd 11ff 9abd
000003e0: aaf8 20bd a817 a33d e012 aabb 00fc 813d
000003f0: 0064 e63a 9db9 143e c916 173e 80b9 b13a

generator.transformer_layer.self_attn.in_proj_bias f4 [192]
0.0 0.0 0.0 0.0 0.0 0.0 0.0 0.0
0.0 0.0 0.0 0.0 0.0 0.0 0.0 0.0
0.0 0.0 0.0 0.0 0.0 0.0 0.0 0.0
0.0 0.0 0.0 0.0 0.0 0.0 0.0 0.0
0.0 0.0 0.0 0.0 0.0 0.0 0.0 0.0
0.0 0.0 0.0 0.0 0.0 0.0 0.0 0.0
0.0 0.0 0.0 0.0 0.0 0.0 0.0 0.0
0.0 0.0 0.0 0.0 0.0 0.0 0.0 0.0
0.0 0.0 0.0 0.0 0.0 0.0 0.0 0.0
0.0 0.0 0.0 0.0 0.0 0.0 0.0 0.0
0.0 0.0 0.0 0.0 0.0 0.0 0.0 0.0
0.0 0.0 0.0 0.0 0.0 0.0 0.0 0.0
0.0 0.0 0.0 0.0 0.0 0.0 0.0 0.0
0.0 0.0 0.0 0.0 0.0 0.0 0.0 0.0
0.0 0.0 0.0 0.0 0.0 0.0 0.0 0.0
0.0 0.0 0.0 0.0 0.0 0.0 0.0 0.0
0.0 0.0 0.0 0.0 0.0 0.0 0.0 0.0
0.0 0.0 0.0 0.0 0.0 0.0 0.0 0.0
0.0 0.0 0.0 0.0 0.0 0.0 0.0 0.0
0.0 0.0 0.0 0.0 0.0 0.0 0.0 0.0
0.0 0.0 0.0 0.0 0.0 0.0 0.0 0.0
0.0 0.0 0.0 0.0 0.0 0.0 0.0 0.0
0.0 0.0 0.0 0.0 0.0 0.0 0.0 0.0
0.0 0.0 0.0 0.0 0.0 0.0 0.0 0.0
00000000: 0000 0000 0000 0000 0000 0000 0000 0000
00000010: 0000 0000 0000 0000 0000 0000 0000 0000
00000020: 0000 0000 0000 0000 0000 0000 0000 0000
00000030: 0000 0000 0000 0000 0000 0000 0000 0000
00000040: 0000 0000 0000 0000 0000 0000 0000 0000
00000050: 0000 0000 0000 0000 0000 0000 0000 0000
00000060: 0000 0000 0000 0000 0000 0000 0000 0000
00000070: 0000 0000 0000 0000 0000 0000 0000 0000
00000080: 0000 0000 0000 0000 0000 0000 0000 0000
00000090: 0000 0000 0000 0000 0000 0000 0000 0000
000000a0: 0000 0000 0000 0000 0000 0000 0000 0000
000000b0: 0000 0000 0000 0000 0000 0000 0000 0000
000000c0: 0000 0000 0000 0000 0000 0000 0000 0000
000000d0: 0000 0000 0000 0000 0000 0000 0000 0000
000000e0: 0000 0000 0000 0000 0000 0000 0000 0000
000000f0: 0000 0000 0000 0000 0000 0000 0000 0000
00000100: 0000 0000 0000 0000 0000 0000 0000 0000
00000110: 0000 0000 0000 0000 0000 0000 0000 0000
00000120: 0000 0000 0000 0000 0000 0000 0000 0000
00000130: 0000 0000 0000 0000 0000 0000 0000 0000
00000140: 0000 0000 0000 0000 0000 0000 0000 0000
00000150: 0000 0000 0000 0000 0000 0000 0000 0000
00000160: 0000 0000 0000 0000 0000 0000 0000 0000
00000170: 0000 0000 0000 0000 0000 0000 0000 0000
00000180: 0000 0000 0000 0000 0000 0000 0000 0000
00000190: 0000 0000 0000 0000 0000 0000 0000 0000
000001a0: 0000 0000 0000 0000 0000 0000 0000 0000
000001b0: 0000 0000 0000 0000 0000 0000 0000 0000
000001c0: 0000 0000 0000 0000 0000 0000 0000 0000
000001d0: 0000 0000 0000 0000 0000 0000 0000 0000
000001e0: 0000 0000 0000 0000 0000 0000 0000 0000
000001f0: 0000 0000 0000 0000 0000 0000 0000 0000
00000200: 0000 0000 0000 0000 0000 0000 0000 0000
00000210: 0000 0000 0000 0000 0000 0000 0000 0000
00000220: 0000 0000 0000 0000 0000 0000 0000 0000
00000230: 0000 0000 0000 0000 0000 0000 0000 0000
00000240: 0000 0000 0000 0000 0000 0000 0000 0000
00000250: 0000 0000 0000 0000 0000 0000 0000 0000
00000260: 0000 0000 0000 0000 0000 0000 0000 0000
00000270: 0000 0000 0000 0000 0000 0000 0000 0000
00000280: 0000 0000 0000 0000 0000 0000 0000 0000
00000290: 0000 0000 0000 0000 0000 0000 0000 0000
000002a0: 0000 0000 0000 0000 0000 0000 0000 0000
000002b0: 0000 0000 0000 0000 0000 0000 0000 0000
000002c0: 0000 0000 0000 0000 0000 0000 0000 0000
000002d0: 0000 0000 0000 0000 0000 0000 0000 0000
000002e0: 0000 0000 0000 0000 0000 0000 0000 0000
000002f0: 0000 0000 0000 0000 0000 0000 0000 0000

generator.transformer_layer.self_attn.out_proj.weight f4 [64, 64]
-0.05738537 -0.031029746 0.07318105 -0.070255 0.035129547 0.12220609 -0.07661551 -0.006216958
0.0012910068 0.124165684 -0.10215442 0.06165254 0.03836207 -0.098841906 0.010596275 0.11734605
0.07719633 -0.0032683313 -0.10087909 -0.04702875 -0.028615877 -0.02018866 -0.066716775 0.019391283
0.09008221 0.052655444 0.023169294 -0.05426453 0.020226792 -0.105467364 -0.058947206 -0.10902898
0.08555165 0.038932398 -0.06785853 0.036468506 0.09225859 -0.065003544 0.080044135 -0.07138026
-0.09629895 -0.09813231 -0.11493261 -0.10396415 0.05990264 0.10384251 0.109515056 -0.10756898
0.05274488 0.062120736 0.09466037 0.10901351 0.106887355 0.021256164 0.029133469 -0.084751606
0.031786546 0.12232998 0.08361825 0.030803248 0.011971742 -0.095808595 -0.10672116 -0.09686111
-0.058650717 0.11003704 0.031046867 -0.07194145 0.0094010085 -0.09786746 0.073047504 0.098659545
0.011000648 0.047143295 -0.10436973 -0.04197803 -0.015142396 0.032929167 0.03502497 -0.011877015
0.094541624 -0.042380095 0.06685324 0.11649409 0.10626091 0.103763044 -0.021471187 0.08756989
-0.05380456 -0.093553886 -0.03887573 0.10703085 -0.113951564 -0.030404583 0.06957504 0.0886832
-0.06306374 -0.047120467 -0.042301 0.01517871 -0.11378613 -0.009147152 0.08632444 0.10800813
-0.03426987 0.089100435 0.12427372 0.025103912 -0.10224889 0.05408542 -0.040011004 0.058563426
0.065402895 -0.063612625 0.09987019 0.041774422 0.1107022 0.0020118356 -0.0009712875 -0.018106908
0.12121725 -0.0147894025 0.11708391 0.095541656 0.11993487 -0.04536751 0.043810666 -0.041214317
-0.026188165 0.09207851 -0.11460531 -0.05993481 0.060988024 0.02694586 0.116462186 -0.015340954
0.042908996 -0.11130534 0.06223397 -0.037231103 -0.07054803 0.07358782 -0.095715374 -0.111047596
-0.03866577 0.024261594 -0.0134841055 0.089160115 0.09754068 0.102691546 -0.05103919 -0.0055020154
-0.0612386 0.0023317635 0.014255628 -0.06722027 0.040778577 0.08965775 -0.09426811 -0.11305584
-0.12498373 0.034013808 -0.11595419 0.11100292 0.098626524 0.019046545 0.08068487 0.052013054
0.0047404915 -0.041288346 0.061939463 0.08360848 -0.06528467 -0.0912631 0.06980792 0.042281702
0.09941244 -0.067386195 0.11502196 -0.10095848 0.07138671 -0.016483724 0.11784603 -0.05806169
0.043940365 0.12444426 0.043368652 0.099811494 -0.12319745 -0.091519535 0.12241262 -0.006817773
0.04190786 -0.008076981 -0.11269401 -0.023013756 0.05930394 0.09149118 -0.106578946 -0.02265814
-0.01972492 -0.0669505 -0.05033745 0.07589854 0.11917189 0.049974024 -0.04893525 -0.0031998008
0.08282502 -0.0978231 0.0151530355 -0.04942566 0.11735539 0.038943246 0.035778716 -0.08467671
-0.08880633 0.045117557 -0.03612852 -0.011259228 -0.12105295 -0.07380153 0.12401743 -0.07639299
-0.10074927 -0.09036577 -0.11754754 -0.0095056 -0.10716711 -0.08971727 -0.011969805 0.08360754
-0.025886148 0.10743658 -0.124265 -0.074848995 -0.019911513 -0.040369704 0.053453147 0.01942861
-0.092330694 -0.03598778 0.114802495 -0.055346996 0.010771006 -0.072102875 0.03405069 0.09292315
-0.11922571 -0.002063945 -0.06570594 -0.097585514 -0.057591483 0.093033075 0.04165265 0.096698746
00000000: ec0c 6bbd 1832 febc f2df 953d dae1 8fbd
00000010: 00e4 0f3d 3047 fa3d 98e8 9cbd a0b7 cbbb
00000020: 0037 a93a 944a fe3d 5636 d1bd 6087 7c3d
00000030: 8c21 1d3d a06d cabd 009c 2d3c 2053 f03d
00000040: 1c19 9e3d 8031 56bb b299 cebd 38a1 40bd
00000050: d86b eabc b062 a5bc cea2 88bd 78da 9e3c
00000060: 067d b83d 3cad 573d 88cd bd3c 7c44 5ebd
00000070: a8b2 a53c 46ff d7bd a072 71bd 964a dfbd
00000080: b435 af3d 9477 1f3d 6af9 8abd 0060 153d
00000090: 12f2 bc3d 9420 85bd 2eee a33d d02f 92bd
000000a0: 6238 c5bd 98f9 c8bd ca61 ebbd 28eb d4bd
000000b0: 785c 753d 62ab d43d 6e49 e03d 204d dcbd
000000c0: 040b 583d 5072 7e3d 4cdd c13d 7a42 df3d
000000d0: c2e7 da3d 6821 ae3c 50a9 ee3c 4092 adbd
000000e0: 9c32 023d 2488 fa3d 0c40 ab3d 1857 fc3c
000000f0: 2025 443c 4c37 c4bd a090 dabd 1e5f c6bd
00000100: bc3b 70bd 1a5b e13d 0056 fe3c 0a56 93bd
00000110: b006 1a3c bc6e c8bd ee99 953d 040e ca3d
00000120: 103c 343c 5419 413d ccbf d5bd 28f1 2bbd
00000130: d017 78bc bce0 063d 5876 0f3d d097 42bc
00000140: 0a9f c13d c096 2dbd 5aea 883d 7494 ee3d
00000150: 529f d93d b881 d43d 58e4 afbc d857 b33d
00000160: 2c62 5cbd 2e99 bfbd 283c 1fbd fe32 db3d
00000170: 705f e9bd 0813 f9bc 5c7d 8e3d 8a9f b53d
00000180: 9027 81bd 6401 41bd d043 2dbd 20b0 783c
00000190: b408 e9bd f0dd 15bc deca b03d 5e33 dd3d
000001a0: 905e 0cbd 4a7a b63d 3883 fe3d b8a6 cd3c
000001b0: de67 d1bd ac88 5d3d 94e2 23bd 34e0 6f3d
000001c0: f4f1 853d 5647 82bd be88 cc3d a81b 2b3d
000001d0: d6b7 e23d 00d9 033b 009e 7eba f054 94bc
000001e0: c040 f83d 404f 72bc b0c9 ef3d 58ab c33d
000001f0: 6aa0 f53d 48d3 39bd d072 333d 58d0 28bd
00000200: 9088 d6bc a893 bc3d 30b6 eabd 347e 75bd
00000210: 94ce 793d 90bd dc3c ba83 ee3d a058 7bbc
00000220: 58c1 2f3d 0ef4 e3bd 0ce9 7e3d a47f 18bd
00000230: 7c7b 90bd 36b5 963d 6c06 c4bd ec6c e3bd
00000240: 0060 1ebd 40c0 c63c 70ec 5cbc 9499 b63d
00000250: 68c3 c73d f24f d23d 780e 51bd 404a b4bb
00000260: 54d5 7abd 80d0 183b 7090 693c c8aa 89bd
00000270: 7007 273d 7c9e b73d a40f c1bd d289 e7bd
00000280: 78f7 ffbd 1052 0b3d 6479 edbd 8055 e33d
00000290: b4fc c93d 8007 9c3c 1c3e a53d a40b 553d
000002a0: 2056 9b3b f81d 29bd 3cb4 7d3d ec3a ab3d
000002b0: f8b3 85bd 26e8 babd 74f7 8e3d 942f 2d3d
000002c0: c098 cb3d c601 8abd a290 eb3d 52c3 cebd
000002d0: 3233 923d e008 87bc 4259 f13d 18d2 6dbd
000002e0: d0fa 333d a2dc fe3d 54a3 313d f869 cc3d
000002f0: f24e fcbd 986e bbbd 78b3 fa3d a067 dfbb
00000300: 94a7 2b3d 5055 04bc 1ecc e6bd 5887 bcbc
00000310: b0e8 723d ba5f bb3d 1046 dabd 909d b9bc
00000320: 2896 a1bc 581d 89bd a42e 4ebd b270 9b3d
00000330: 6410 f43d 90b1 4c3d 5470 48bd c0b3 51bb
00000340: 2aa0 a93d 7a57 c8bd 7044 783c 9072 4abd
00000350: 0658 f03d f482 1f3d b48c 123d fc6a adbd
00000360: 18e0 b5bd 30cd 383d 80fb 13bd a078 38bc
00000370: 9cea f7bd 4225 97bd dafc fd3d ee73 9cbd
00000380: a255 cebd b011 b9bd c4bc f0bd 60bd 1bbc
00000390: 6e7a dbbd b0bd b7bd 001d 44bc 6e3a ab3d
000003a0: 300f d4bc b607 dc3d a67e febd 6e4a 99bd
000003b0: 781d a3bc b45a 25bd b0f1 5a3d c028 9f3c
000003c0: e017 bdbd ec67 13bd 921d eb3d 88b3 62bd
000003d0: e078 303c acaa 93bd bc78 0b3d 7e4e be3d
000003e0: 9c2c f4bd 4043 07bb d690 86bd eada c7bd
000003f0: 0ce5 6bbd 2088 be3d f89b 2a3d fe09 c63d

generator.transformer_layer.self_attn.out_proj.bias f4 [64]
0.0 0.0 0.0 0.0 0.0 0.0 0.0 0.0
0.0 0.0 0.0 0.0 0.0 0.0 0.0 0.0
0.0 0.0 0.0 0.0 0.0 0.0 0.0 0.0
0.0 0.0 0.0 0.0 0.0 0.0 0.0 0.0
0.0 0.0 0.0 0.0 0.0 0.0 0.0 0.0
0.0 0.0 0.0 0.0 0.0 0.0 0.0 0.0
0.0 0.0 0.0 0.0 0.0 0.0 0.0 0.0
0.0 0.0 0.0 0.0 0.0 0.0 0.0 0.0
00000000: 0000 0000 0000 0000 0000 0000 0000 0000
00000010: 0000 0000 0000 0000 0000 0000 0000 0000
00000020: 0000 0000 0000 0000 0000 0000 0000 0000
00000030: 0000 0000 0000 0000 0000 0000 0000 0000
00000040: 0000 0000 0000 0000 0000 0000 0000 0000
00000050: 0000 0000 0000 0000 0000 0000 0000 0000
00000060: 0000 0000 0000 0000 0000 0000 0000 0000
00000070: 0000 0000 0000 0000 0000 0000 0000 0000
00000080: 0000 0000 0000 0000 0000 0000 0000 0000
00000090: 0000 0000 0000 0000 0000 0000 0000 0000
000000a0: 0000 0000 0000 0000 0000 0000 0000 0000
000000b0: 0000 0000 0000 0000 0000 0000 0000 0000
000000c0: 0000 0000 0000 0000 0000 0000 0000 0000
000000d0: 0000 0000 0000 0000 0000 0000 0000 0000
000000e0: 0000 0000 0000 0000 0000 0000 0000 0000
000000f0: 0000 0000 0000 0000 0000 0000 0000 0000

generator.transformer_layer.linear1.weight f4 [128, 64]
-0.04171011 -0.026054159 0.031784564 0.04874283 -0.091444775 0.038699716 -0.11809851 -0.073325396
-0.08394632 -0.1167424 -0.012560919 -0.00273107 0.11266841 -0.037049666 0.043169692 -0.103891954
0.08815652 -0.08939886 -0.06885737 -0.07152952 0.09573418 0.084674776 0.09642954 0.02431184
-0.045407265 0.12378788 -0.04930693 -0.043003827 0.0061882287 0.0060895234 -0.06804694 0.022807896
0.06416066 -0.0155980885 0.014928967 0.07361579 0.008845359 0.0031963438 0.047499225 -0.040881366
0.09749298 0.014565855 -0.042467117 0.02734667 0.017518386 -0.1104798 -0.06503312 0.08329834
-0.014545232 -0.10739863 0.06859802 -0.08488381 0.06033112 0.044970468 -0.12391013 0.050748155
-0.037225828 0.120756716 0.04918529 0.10991572 -0.1023234 0.063495934 -0.11556266 -0.029723912
0.016052455 -0.037924945 -0.072376326 -0.04446152 -0.081468895 0.071414456 -0.10411519 0.051371425
-0.016041487 -0.015995234 0.07836896 0.11779708 0.10697766 0.06807937 -0.07241166 0.010238737
0.075717285 0.033096194 0.077361956 -0.07087205 0.08703701 -0.12402263 0.12448831 -0.06349112
0.008775666 0.08416769 -0.0656935 -0.08713965 0.02990073 0.06319286 -0.12294045 0.111414194
-0.11966081 0.040691882 -0.10325664 -0.011290863 -0.11190167 -0.024137497 0.08379984 -0.10942218
-0.117218584 -0.025014922 0.111921534 -0.0039509833 -0.102268875 -0.07284868 0.034844846 -0.015642866
0.05117221 0.027325422 -0.08961728 -0.068621784 0.094997704 -0.0984053 -0.019905373 -0.032500595
0.042644605 0.02212201 -0.014909685 -0.106695175 0.043739915 -0.021902055 0.019549474 0.010865077
0.032932535 -0.1060054 -0.123670295 -0.07162058 -0.05990988 -0.062224388 -0.112500295 0.01911205
-0.087562576 0.084306866 -0.07033801 0.011932373 -0.0657074 0.120970085 0.06559774 -0.110406175
-0.06598213 -0.023351818 -0.010382503 0.09992871 -0.1072952 0.10106768 -0.066563904 0.039265618
-0.042553723 0.103672236 0.05718343 -0.099966794 -0.03747131 0.036372542 0.042878345 0.019051194
-0.022576153 0.057822853 0.10080029 -0.09825659 0.031519547 0.01174733 0.04631801 0.10183486
-0.09888433 0.075576946 -0.018960834 -0.012021929 0.09777902 -0.032264546 0.07741931 0.00084485114
0.10754536 0.050818175 0.12175436 0.070703536 0.08449286 0.017883971 -0.09383206 -0.114234224
-0.04732725 0.08058268 -0.091767326 0.06160955 -0.006570354 -0.025738165 -0.09186442 0.08955784
0.083526954 -0.07702856 -0.095207185 0.11036122 0.0899771 0.07802911 -0.019481912 -0.061259463
0.090333626 0.06653288 0.084589005 -0.022191867 -0.0622935 0.102038205 0.004860878 -0.078117356
0.077650025 -0.04145272 -0.088361114 -0.08846985 -0.114088595 0.056462973 0.12490255 -0.090776145
0.110404894 0.0917052 -0.013237298 -0.012668222 0.039696112 -0.073392525 -0.10655624 -0.0689365
-0.028129458 0.086621106 0.073004365 0.0011400431 -0.015693843 0.011900395 -0.0571737 -0.08968978
-0.08290444 -0.10786456 -0.06831476 0.036155462 0.050964937 0.06708285 -0.06281425 -0.110565364
0.036732286 0.109849796 -0.09778318 -0.069985956 -0.07828057 -0.016771406 0.09017919 -0.038112998
0.09020235 -5.7816505e-06 0.10401563 -0.07475911 -0.049737066 -0.06306821 0.08575258 0.04554133
00000000: 38d8 2abd 886f d5bc 8830 023d 90a6 473d
00000010: 6647 bbbd 9883 1e3d a2dd f1bd a02b 96bd
00000020: 0cec abbd a416 efbd 50cc 4dbc c0fb 32bb
00000030: b2be e63d 64c1 17bd b4d2 303d 4ec5 d4bd
00000040: 688b b43d c016 b7bd 1805 8dbd 127e 92bd
00000050: 4810 c43d f869 ad3d da7c c53d a029 c73c
00000060: f8fc 39bd 8084 fd3d 10f6 49bd c824 30bd
00000070: a0c6 ca3b a08a c73b 325c 8bbd a0d7 ba3c
00000080: aa66 833d 208f 7fbc a098 743c e0c3 963d
00000090: 20ec 103c c079 513b 8c8e 423d 3873 27bd
000000a0: 66aa c73d a0a5 6e3c 00f2 2dbd 2006 e03c
000000b0: b882 8f3c 3c43 e2bd 1630 85bd 5298 aa3d
000000c0: 204f 6ebc d0f3 dbbd 1e7d 8c3d 90d7 adbd
000000d0: c41d 773d f432 383d 98c4 fdbd 4cdd 4f3d
000000e0: 1c7a 18bd 4c4f f73d 8476 493d 7e1b e13d
000000f0: ee8e d1bd 280a 823d 1eac ecbd 907f f3bc
00000100: 7080 833c 3057 1bbd 0a3a 94bd 481d 36bd
00000110: 2ad9 a6bd be41 923d 583a d5bd d86a 523d
00000120: 7069 83bc 7008 83bc e87f a03d 983f f13d
00000130: 1a17 db3d 326d 8b3d 904c 94bd 60c0 273c
00000140: aa11 9b3d e08f 073d f26f 9e3d 5e25 91bd
00000150: 7640 b23d 94ff fdbd baf3 fe3d a207 82bd
00000160: d0c7 0f3c 1c60 ac3d 508a 86bd 4676 b2bd
00000170: 60f2 f43c 426b 813d 34c8 fbbd 202d e43d
00000180: ba10 f5bd 88ac 263d 3878 d3bd 50fd 38bc
00000190: b42c e5bd 00bc c5bc 409f ab3d bc18 e0bd
000001a0: 4c10 f0bd 18ec ccbc 1e37 e53d 4077 81bb
000001b0: 5872 d1bd b031 95bd 78b9 0e3d 7825 80bc
000001c0: f499 513d 90d9 df3c 4489 b7bd 9489 8cbd
000001d0: 288e c23d b888 c9bd 9810 a3bc 581f 05bd
000001e0: 1cac 2e3d 3839 b53c c047 74bc 0083 dabd
000001f0: a028 333d f06b b3bc 3826 a03c 7003 323c
00000200: 44e4 063d 5c19 d9bd da46 fdbd d0ad 92bd
00000210: 1064 75bd 00df 7ebd 8e66 e6bd e090 9c3c
00000220: 0254 b3bd 14a9 ac3d 600d 90bd 0080 433c
00000230: 9a91 86bd 2abf f73d 1c58 863d a21c e2bd
00000240: a421 87bd 504c bfbc 601b 2abc 6ca7 cc3d
00000250: 96bd dbbd 92fc ce3d a852 88bd fcd4 203d
00000260: d04c 2ebd 1c52 d43d 2c39 6a3d 64bb ccbd
00000270: 847b 19bd 60fb 143d 34a1 2f3d 4011 9c3c
00000280: a0f1 b8bc a8d7 6c3d 6270 ce3d c03a c9bd
00000290: a41a 013d e077 403c f4b7 3d3d cc8e d03d
000002a0: de83 cabd 16c8 9a3d c053 9bbc a0f7 44bc
000002b0: 5e40 c83d d427 04bd 048e 9e3d 0079 5d3a
000002c0: be40 dc3d b826 503d 5a5a f93d 04cd 903d
000002d0: 980a ad3d 6881 923c 062b c0bd a2f3 e9bd
000002e0: 38da 41bd 8808 a53d 82f0 bbbd 4c5a 7c3d
000002f0: 204c d7bb d8d8 d2bc 6a23 bcbd 1a6a b73d
00000300: 2e10 ab3d 26c1 9dbd fcfb c2bd 1005 e23d
00000310: ea45 b83d bacd 9f3d 8898 9fbc 34eb 7abd
00000320: d600 b93d 6442 883d 003d ad3d b8cb b5bc
00000330: 7827 7fbd 68f9 d03d 0048 9f3b fefb 9fbd
00000340: fa06 9f3d 54ca 29bd acf6 b4bd ae2f b5bd
00000350: 48a7 e9bd b845 673d e8cc ff3d d8e8 b9bd
00000360: f61b e23d f0cf bb3d 40e1 58bc 608e 4fbc
00000370: 6498 223d d24e 96bd 283a dabd 942e 8dbd
00000380: c06f e6bc 6866 b13d 5083 953d 806d 953a
00000390: 6090 80bc e0f9 423c f82e 6abd 46af b7bd
000003a0: cec9 a9bd 18e8 dcbd 9ce8 8bbd c017 143d
000003b0: 9cc0 503d bc62 893d c2a4 80bd 1870 e2bd
000003c0: 9874 163d eef8 e03d 8c42 c8bd cc54 8fbd
000003d0: 9051 a0bd 3064 89bc deaf b83d 601c 1cbd
000003e0: 02bc b83d 0000 c2b6 2606 d53d 4e1b 99bd
000003f0: 18b9 4bbd e829 81bd 0c9f af3d 8c89 3a3d

generator.transformer_layer.linear1.bias f4 [128]
-0.06059672 0.09998253 0.040483236 -0.08891128 0.03456612 0.013547093 -0.07919502 0.046005353
-0.014826983 -0.12029201 -0.08544095 -0.00045007467 0.08054471 -2.3245811e-05 -0.031127483 0.022351414
-0.106952906 -0.037264153 0.04925257 -0.050233573 -0.12470785 -0.05989808 -0.11834106 -0.059930548
-0.029336467 0.0896084 0.029010996 -0.013829932 -0.047740355 -0.035766676 -0.047559395 0.06909369
-0.09685823 0.1199123 0.052341685 0.04323402 -0.11532214 -0.11797559 0.032485306 0.06593153
-0.051408276 -0.061034188 -0.067089096 0.0837889 -0.09451671 0.07133828 0.10964826 0.08164948
0.083076134 0.06579505 0.110749364 -0.022257492 -0.017182112 0.074719265 0.0582553 0.058356076
-0.106465906 0.01910302 -0.10006103 -0.07614994 -0.055450752 0.05850151 0.110202074 -0.06975055
0.038980007 -0.11403686 0.11289419 -0.06721805 -0.08568761 0.11470057 0.064540684 0.060205296
0.011875808 0.11237858 0.08517873 0.08844678 -0.122113734 -0.001447618 0.02321589 -0.03002125
0.025022507 0.032973945 -0.06329228 -0.11765692 -0.05620466 -0.03563717 0.11769642 0.0023288727
-0.09903292 0.114765644 -0.120856375 -0.04393536 -0.025490865 -0.023683578 0.07249029 0.12391193
-0.073461756 -0.11460294 0.029511482 0.000380978 0.08364296 0.0204546 -0.053980038 -0.017834932
0.09177604 0.119766355 -0.08455764 0.0497953 -0.0906733 -0.07596764 0.085437 -0.08456424
0.024325252 -0.08437319 0.10501979 -0.07135637 -0.03311357 -0.09203257 -0.07236461 -0.07081756
0.03634186 -0.07999176 -0.066810325 0.015689418 0.091474265 -0.092101455 -0.11873205 0.04388784
00000000: 4434 78bd a4c3 cc3d c0d1 253d 1e17 b6bd
00000010: 3495 0d3d a0f4 5d3c 0031 a2bd 1c70 3c3d
00000020: e0ec 72bc a85b f6bd aafb aebd 00f8 ebb9
00000030: a0f4 a43d 0000 c3b7 10ff febc 501a b73c
00000040: 200a dbbd 4ca2 18bd 10bd 493d b8c1 4dbd
00000050: d466 ffbd b057 75bd cc5c f2bd bc79 75bd
00000060: 0853 f0bc 9c84 b73d 78a8 ed3c f096 62bc
00000070: 648b 43bd 1480 12bd a4cd 42bd fe80 8d3d
00000080: 9c5d c6bd 9494 f53d 3c64 563d 2816 313d
00000090: 042e ecbd 309d f1bd 500f 053d 1c07 873d
000000a0: 7c91 52bd fcfe 79bd 0266 89bd 8499 ab3d
000000b0: fa91 c1bd ce19 923d 448f e03d d837 a73d
000000c0: d223 aa3d 8ebf 863d 90d0 e23d 5855 b6bc
000000d0: 80c1 8cbc 6a06 993d 1c9d 6e3d c806 6f3d
000000e0: cc0a dabd f07d 9c3c ccec ccbd 80f4 9bbd
000000f0: 5420 63bd 489f 6f3d a0b1 e13d 60d9 8ebd
00000100: 80a9 1f3d 288c e9bd 1235 e73d 9ea9 89bd
00000110: fc7c afbd 22e8 ea3d e82d 843d d499 763d
00000120: c092 423c be26 e63d 3072 ae3d 9623 b53d
00000130: c416 fabd 00be bdba 402f be3c 20ef f5bc
00000140: 00fc cc3c b00f 073d 629f 81bd 1cf6 f0bd
00000150: dc36 66bd 48f8 11bd d20a f13d 00a0 183b
00000160: c6d1 cabd 400a eb3d 8c83 f7bd 90f5 33bd
00000170: 38d2 d0bc 1004 c2bc ca75 943d 8ac5 fd3d
00000180: 1e73 96bd f2b4 eabd 10c2 f13c 00be c739
00000190: 004d ab3d 6890 a73c 2c1a 5dbd 901a 92bc
000001a0: 14f5 bb3d 1048 f53d 8e2c adbd 28f6 4b3d
000001b0: ecb2 b9bd ec94 9bbd 98f9 ae3d 0430 adbd
000001c0: c045 c73c dacb acbd 9e14 d73d 4a23 92bd
000001d0: 18a2 07bd 927b bcbd e633 94bd cc08 91bd
000001e0: 34db 143d b8d2 a3bd dad3 88bd 1887 803c
000001f0: dc56 bb3d b09f bcbd ca29 f3bd bcc3 333d

generator.transformer_layer.linear2.weight f4 [64, 128]
-0.050044514 -0.029768128 -0.005220279 -0.0330127 -0.08212725 -0.061919987 -0.062105488 0.0828648
-0.08647154 -0.04397625 0.009952672 -0.0015645549 0.045374505 -0.08352533 0.08360607 0.08355149
0.019991174 0.07475368 -0.07957937 0.027278401 -0.021829665 -0.029382665 -0.071235865 -0.0046483353
0.05470892 0.08479162 -0.049098317 -0.04873383 -0.062900126 0.059272014 -0.057619706 -0.08381126
-0.06377906 0.080188714 0.023545273 0.031128272 0.051578842 -0.026244674 0.042110182 -0.053241912
0.068062626 0.044177957 0.00992585 -1.4685094e-05 0.031449564 0.07675616 0.042068817 0.06354677
0.08130727 0.0122394785 0.07721577 -0.06368537 0.054433055 0.0070359632 -0.070611134 0.04361201
-0.03890995 -0.08646763 0.059784047 -0.07417125 -0.06423323 -0.014123164 0.030279636 0.0015714467
-0.047242466 -0.07845605 -0.036080137 0.07459801 0.01467438 0.057129927 0.01868181 -0.068030596
-0.022425525 0.04194791 0.026550293 -0.072213694 0.03336963 0.0030083656 -0.059225235 -0.054914434
-0.048349008 -0.060589876 0.076579355 0.067397974 0.043499716 -0.035822798 0.06917884 0.02853775
-0.04992627 -0.007785313 0.009391032 -0.08771434 0.074409746 0.06199252 0.062350087 -0.03736256
0.07277211 0.07355594 -0.064113416 -0.020165361 0.0127137005 -0.036926214 -0.040235434 -0.02084802
0.030200295 -0.054287005 -0.08204836 -0.07206428 0.08280865 -0.06036087 0.03322178 -0.042767186
0.06757132 0.046363674 0.0387507 0.07592525 -0.037547953 0.04228557 -0.016583458 0.057308502
-0.03447313 -0.047043193 -0.0012532473 0.0068672374 -0.083973266 -0.039602283 -0.048242357 -0.026689187
-0.063317694 -0.041852146 0.07714916 -0.07492669 0.027699865 0.063904576 -0.0014781356 0.08053958
0.04777824 -0.060407273 0.03949728 -0.059170373 -0.015694462 0.04352305 -0.05278078 -0.07482876
-0.019893304 -0.07168786 -0.03690767 -0.04461052 0.013262853 0.038530864 -0.07275036 0.010757327
-0.054296058 0.07314976 -0.03003415 -0.014378004 0.062739454 -0.087730795 -0.031806476 -0.076682985
-0.05970984 -0.027507044 0.03049662 -0.06782613 0.0030225515 -0.023628674 -0.007049933 0.08500161
0.04783138 -0.032296423 -0.017132588 0.008839995 0.043182753 0.030701376 -0.0008324012 0.046191894
0.028375283 0.020713761 -0.013957076 0.007892944 -0.074315175 0.0116353035 0.008677043 0.08126377
-0.036258984 0.042980157 -0.0041238815 0.076940574 0.04455679 0.005670145 0.047868647 0.02788324
0.06242224 -0.07902387 -0.033953268 0.08006998 0.020967625 -0.07132201 0.06640772 0.057555415
-0.040636472 0.04993663 0.0007906407 0.047865547 0.046841048 0.05045197 0.022294573 -0.046644222
0.05043798 -0.063651584 -0.07672836 0.012200505 -0.08827678 -0.04436313 -0.00944683 0.059746258
-0.030458525 -0.031261727 -0.0071186647 -0.014646664 0.009232797 0.08760781 0.0018903315 -0.011887036
-0.08763992 -0.012620255 -0.009604432 0.0028561652 0.08130615 0.0073217005 0.029628947 0.030242503
-0.074014574 0.016998224 0.054890893 0.06588402 -0.056032497 0.04458157 -0.06269455 0.060443483
-0.03704474 -0.07384879 -0.0022230223 0.0042934343 -0.04368367 -0.011500135 -0.06364119 0.07047821
-0.03877022 0.048579656 -0.02907119 -0.004089877 0.074336834 -0.034816373 0.0015607923 -0.00017699599
00000000: 7afb 4cbd 4adc f3bc e00e abbb 5338 07bd
00000010: 5532 a8bd d09f 7dbd 5362 7ebd 05b5 a93d
00000020: fe17 b1bd 7120 34bd 8810 233c c011 cdba
00000030: 9eda 393d 540f abbd a939 ab3d 0b1d ab3d
00000040: 88c4 a33c 7518 993d 82fa a2bd f476 df3c
00000050: 20d4 b2bc eab3 f0bc 1ce4 91bd 1051 98bb
00000060: 7616 603d 3ba7 ad3d 511b 49bd 209d 47bd
00000070: c8d1 80bd 36c7 723d a402 6cbd 3da5 abbd
00000080: 999e 82bd fb39 a43d 04e2 c03c b800 ff3c
00000090: 5644 533d 12ff d6bc ba7b 2c3d 3114 5abd
000000a0: 6b64 8b3d f2f3 343d 08a0 223c 0060 76b7
000000b0: 42d1 003d 5532 9d3d 5a50 2c3d cf24 823d
000000c0: 6d84 a63d 1888 483c 4d23 9e3d 7a6d 82bd
000000d0: 32f5 5e3d f08d e63b 929c 90bd 82a2 323d
000000e0: 0a60 1fbd f115 b1bd 1ee0 743d 19e7 97bd
000000f0: b68c 83bd d864 67bc 000d f83c 00f9 cd3a
00000100: 5181 41bd 91ad a0bd c4c8 13bd d7c6 983d
00000110: d06c 703c 1201 6a3d 980a 993c a053 8bbd
00000120: bcb5 b7bc 92d1 2b3d 0080 d93c c6e4 93bd
00000130: 98ae 083d 0028 453b 2996 72bd f5ed 60bd
00000140: 9c09 46bd 172d 78bd a3d5 9c3d f307 8a3d
00000150: c22c 323d edba 12bd a3ad 8d3d 00c8 e93c
00000160: 7d7f 4cbd f01b ffbb d8dc 193c 93a3 b3bd
00000170: 2364 983d deeb 7d3d ce62 7f3d 7c09 19bd
00000180: 8b09 953d 7fa4 963d e54d 83bd d431 a5bc
00000190: 204d 503c f13f 17bd e9cd 24bd 78c9 aabc
000001a0: 9c66 f73c 0d5c 5ebd f808 a8bd 7096 93bd
000001b0: 9597 a93d f63c 77bd 9013 083d a52c 2fbd
000001c0: d562 8a3d d6e7 3d3d 0eb9 1e3d b37e 9b3d
000001d0: e2cb 19bd a233 2d3d 08da 87bc 52bc 6a3d
000001e0: b233 0dbd 5db0 40bd 0044 a4ba 9006 e13b
000001f0: 2dfa abbd 0136 22bd c799 45bd 48a3 dabc
00000200: b5ac 81bd 286d 2bbd 6100 9e3d 2a73 99bd
00000210: d4ea e23c 67e0 823d 00be c1ba eff1 a43d
00000220: 1eb3 433d 9e6d 77bd e6c7 213d a25c 72bd
00000230: ac91 80bc 3a45 323d a930 58bd d23f 99bd
00000240: 48f7 a2bc 16d1 92bd 7f2c 17bd 85b9 36bd
00000250: 704c 593c 8ad2 1d3d 24fe 94bd 803f 303c
00000260: 8b65 5ebd 8bcf 953d 2e0a f6bc b891 6bbc
00000270: 8b7d 803d 34ac b3bd 8247 02bd f80b 9dbd
00000280: 4e92 74bd 7456 e1bc 0cd4 f93c 6de8 8abd
00000290: 0016 463b ec90 c1bc 2003 e7bb 5315 ae3d
000002a0: d6ea 433d 4149 04bd a459 8cbc a0d5 103c
000002b0: 66e0 303d 7481 fb3c 8035 5aba b633 3d3d
000002c0: 4873 e83c e8af a93c 38ac 64bc 6851 013c
000002d0: 8e32 98bd 00a2 3e3c 282a 0e3c 9f6d a63d
000002e0: 4d84 14bd f60b 303d a021 87bb 0593 9d3d
000002f0: 2e81 363d a0cc b93b ea11 443d 646b e43c
00000300: 76ae 7f3d 44d7 a1bd 9512 0bbd bbfb a33d
00000310: 4cc4 ab3c 4611 92bd c500 883d 3abf 6b3d
00000320: 6e72 26bd 5a8a 4c3d 0043 4f3a aa0e 443d
00000330: 66dc 3f3d baa6 4e3d 1ca3 b63c 030e 3fbd
00000340: 0e98 4e3d c35b 82bd c223 9dbd a0e4 473c
00000350: 75ca b4bd 1db6 35bd e0c6 1abc 7eb8 743d
00000360: 2884 f9bc 4c0c 00bd b043 e9bb 90f8 6fbc
00000370: 2845 173c b96b b33d 00c5 f73a d8c1 42bc
00000380: 8f7c b3bd 30c5 4ebc e85b 1dbc 802e 3b3b
00000390: d783 a63d e0ea ef3b 68b8 f23c 20bf f73c
000003a0: f494 97bd dc3f 8b3c 46d5 603d 33ee 863d
000003b0: 5582 65bd 2a9b 363d 0066 80bd 9693 773d
000003c0: 3abc 17bd 093e 97bd 20b0 11bb f0af 8c3b
000003d0: a6ed 32bd 106b 3cbc 5056 82bd e156 903d
000003e0: 86cd 1ebd 76fb 463d b426 eebc 6004 86bb
000003f0: e93d 983d 9d9b 0ebd 8093 cc3a 0098 39b9

generator.transformer_layer.linear2.bias f4 [64]
0.056357212 -0.059899405 -0.022525087 -0.088190824 0.023475014 0.06174124 0.012111664 0.046363734
-0.009150766 -0.04394637 -0.018525593 0.042875297 0.058979727 0.04929831 0.08635145 -0.08590311
-0.047502268 -0.03453045 0.0010312796 -0.014179066 -0.04753252 0.01818408 -0.052141666 -0.05554927
0.03380485 -0.029986996 0.054889627 -0.029114548 -0.029723715 -0.0062374175 0.053356864 0.08161285
0.08517682 0.0483085 -0.06942884 -0.017114848 -0.03384378 -0.040449645 -0.08823145 0.0014232174
-0.026975077 -0.017144114 0.060586564 0.03156846 0.044690646 -0.029274262 -0.002811186 -0.0845542
-0.083513536 -0.047713034 0.050121777 0.006597355 0.073561005 0.026687846 0.045239814 0.024428785
-0.08093301 -0.05034225 -0.026914544 -0.06331036 0.044187255 0.08195526 0.06455215 0.029609121
00000000: d2d6 663d 1459 75bd 8886 b8bc 649d b4bd
00000010: ac4e c03c 62e4 7c3d 0070 463c e6e7 3d3d
00000020: 18ed 15bc 1c01 34bd fcc2 97bc 029e 2f3d
00000030: ba94 713d 06ed 493d 07d9 b03d f8ed afbd
00000040: bd91 42bd cd6f 0dbd 002c 873a 504f 68bc
00000050: 76b1 42bd c8f6 943c 8092 55bd a287 63bd
00000060: f476 0a3d 4aa7 f5bc f2d3 603d a281 eebc
00000070: 267f f3bc 4063 ccbb ba8c 5a3d a324 a73d
00000080: 2f71 ae3d 22df 453d b530 8ebd 7034 8cbc
00000090: c79f 0abd 87ae 25bd b1b2 b4bd 408b ba3a
000000a0: d6fa dcbc d071 8cbc 9e29 783d ee4d 013d
000000b0: 8a0d 373d 94d0 efbc e03b 38bb c12a adbd
000000c0: 2509 abbd be6e 43bd 7e4c 4d3d a02e d83b
000000d0: 27a7 963d 78a0 da3c 624d 393d e01e c83c
000000e0: 35c0 a5bd ad33 4ebd e47b dcbc dda8 81bd
000000f0: b2fd 343d 29d8 a73d eb33 843d d48e f23c

generator.transformer_layer.norm1.weight f4 [64]
1.0 1.0 1.0 1.0 1.0 1.0 1.0 1.0
1.0 1.0 1.0 1.0 1.0 1.0 1.0 1.0
1.0 1.0 1.0 1.0 1.0 1.0 1.0 1.0
1.0 1.0 1.0 1.0 1.0 1.0 1.0 1.0
1.0 1.0 1.0 1.0 1.0 1.0 1.0 1.0
1.0 1.0 1.0 1.0 1.0 1.0 1.0 1.0
1.0 1.0 1.0 1.0 1.0 1.0 1.0 1.0
1.0 1.0 1.0 1.0 1.0 1.0 1.0 1.0
00000000: 0000 803f 0000 803f 0000 803f 0000 803f
00000010: 0000 803f 0000 803f 0000 803f 0000 803f
00000020: 0000 803f 0000 803f 0000 803f 0000 803f
00000030: 0000 803f 0000 803f 0000 803f 0000 803f
00000040: 0000 803f 0000 803f 0000 803f 0000 803f
00000050: 0000 803f 0000 803f 0000 803f 0000 803f
00000060: 0000 803f 0000 803f 0000 803f 0000 803f
00000070: 0000 803f 0000 803f 0000 803f 0000 803f
00000080: 0000 803f 0000 803f 0000 803f 0000 803f
00000090: 0000 803f 0000 803f 0000 803f 0000 803f
000000a0: 0000 803f 0000 803f 0000 803f 0000 803f
000000b0: 0000 803f 0000 803f 0000 803f 0000 803f
000000c0: 0000 803f 0000 803f 0000 803f 0000 803f
000000d0: 0000 803f 0000 803f 0000 803f 0000 803f
000000e0: 0000 803f 0000 803f 0000 803f 0000 803f
000000f0: 0000 803f 0000 803f 0000 803f 0000 803f

generator.transformer_layer.norm1.bias f4 [64]
0.0 0.0 0.0 0.0 0.0 0.0 0.0 0.0
0.0 0.0 0.0 0.0 0.0 0.0 0.0 0.0
0.0 0.0 0.0 0.0 0.0 0.0 0.0 0.0
0.0 0.0 0.0 0.0 0.0 0.0 0.0 0.0
0.0 0.0 0.0 0.0 0.0 0.0 0.0 0.0
0.0 0.0 0.0 0.0 0.0 0.0 0.0 0.0
0.0 0.0 0.0 0.0 0.0 0.0 0.0 0.0
0.0 0.0 0.0 0.0 0.0 0.0 0.0 0.0
00000000: 0000 0000 0000 0000 0000 0000 0000 0000
00000010: 0000 0000 0000 0000 0000 0000 0000 0000
00000020: 0000 0000 0000 0000 0000 0000 0000 0000
00000030: 0000 0000 0000 0000 0000 0000 0000 0000
00000040: 0000 0000 0000 0000 0000 0000 0000 0000
00000050: 0000 0000 0000 0000 0000 0000 0000 0000
00000060: 0000 0000 0000 0000 0000 0000 0000 0000
00000070: 0000 0000 0000 0000 0000 0000 0000 0000
00000080: 0000 0000 0000 0000 0000 0000 0000 0000
00000090: 0000 0000 0000 0000 0000 0000 0000 0000
000000a0: 0000 0000 0000 0000 0000 0000 0000 0000
000000b0: 0000 0000 0000 0000 0000 0000 0000 0000
000000c0: 0000 0000 0000 0000 0000 0000 0000 0000
000000d0: 0000 0000 0000 0000 0000 0000 0000 0000
000000e0: 0000 0000 0000 0000 0000 0000 0000 0000
000000f0: 0000 0000 0000 0000 0000 0000 0000 0000

generator.transformer_layer.norm2.weight f4 [64]
1.0 1.0 1.0 1.0 1.0 1.0 1.0 1.0
1.0 1.0 1.0 1.0 1.0 1.0 1.0 1.0
1.0 1.0 1.0 1.0 1.0 1.0 1.0 1.0
1.0 1.0 1.0 1.0 1.0 1.0 1.0 1.0
1.0 1.0 1.0 1.0 1.0 1.0 1.0 1.0
1.0 1.0 1.0 1.0 1.0 1.0 1.0 1.0
1.0 1.0 1.0 1.0 1.0 1.0 1.0 1.0
1.0 1.0 1.0 1.0 1.0 1.0 1.0 1.0
00000000: 0000 803f 0000 803f 0000 803f 0000 803f
00000010: 0000 803f 0000 803f 0000 803f 0000 803f
00000020: 0000 803f 0000 803f 0000 803f 0000 803f
00000030: 0000 803f 0000 803f 0000 803f 0000 803f
00000040: 0000 803f 0000 803f 0000 803f 0000 803f
00000050: 0000 803f 0000 803f 0000 803f 0000 803f
00000060: 0000 803f 0000 803f 0000 803f 0000 803f
00000070: 0000 803f 0000 803f 0000 803f 0000 803f
00000080: 0000 803f 0000 803f 0000 803f 0000 803f
00000090: 0000 803f 0000 803f 0000 803f 0000 803f
000000a0: 0000 803f 0000 803f 0000 803f 0000 803f
000000b0: 0000 803f 0000 803f 0000 803f 0000 803f
000000c0: 0000 803f 0000 803f 0000 803f 0000 803f
000000d0: 0000 803f 0000 803f 0000 803f 0000 803f
000000e0: 0000 803f 0000 803f 0000 803f 0000 803f
000000f0: 0000 803f 0000 803f 0000 803f 0000 803f

generator.transformer_layer.norm2.bias f4 [64]
0.0 0.0 0.0 0.0 0.0 0.0 0.0 0.0
0.0 0.0 0.0 0.0 0.0 0.0 0.0 0.0
0.0 0.0 0.0 0.0 0.0 0.0 0.0 0.0
0.0 0.0 0.0 0.0 0.0 0.0 0.0 0.0
0.0 0.0 0.0 0.0 0.0 0.0 0.0 0.0
0.0 0.0 0.0 0.0 0.0 0.0 0.0 0.0
0.0 0.0 0.0 0.0 0.0 0.0 0.0 0.0
0.0 0.0 0.0 0.0 0.0 0.0 0.0 0.0
00000000: 0000 0000 0000 0000 0000 0000 0000 0000
00000010: 0000 0000 0000 0000 0000 0000 0000 0000
00000020: 0000 0000 0000 0000 0000 0000 0000 0000
00000030: 0000 0000 0000 0000 0000 0000 0000 0000
00000040: 0000 0000 0000 0000 0000 0000 0000 0000
00000050: 0000 0000 0000 0000 0000 0000 0000 0000
00000060: 0000 0000 0000 0000 0000 0000 0000 0000
00000070: 0000 0000 0000 0000 0000 0000 0000 0000
00000080: 0000 0000 0000 0000 0000 0000 0000 0000
00000090: 0000 0000 0000 0000 0000 0000 0000 0000
000000a0: 0000 0000 0000 0000 0000 0000 0000 0000
000000b0: 0000 0000 0000 0000 0000 0000 0000 0000
000000c0: 0000 0000 0000 0000 0000 0000 0000 0000
000000d0: 0000 0000 0000 0000 0000 0000 0000 0000
000000e0: 0000 0000 0000 0000 0000 0000 0000 0000
000000f0: 0000 0000 0000 0000 0000 0000 0000 0000
